ppo_model_final.pt (torch, 132483 bytes, 33 tensors)

net.0.weight f4 [64, 8]
00000000: a367 983e 9ea9 b6bd 545c 56be 4bf4 963e
00000010: 5022 413e 938a 7bbe a605 883e efb6 953e
00000020: ee3d 823e aa84 9b3e 9044 93bd 0e78 2bbe
00000030: b104 693d 6ae9 a2be 1047 843e 16fe 0fbe
00000040: d554 a1be 79d6 7a3e c363 0d3e faa2 87be
00000050: 550b f73d 6b74 a53e ba26 8bbe b5c5 9cbe
00000060: fdfc 043e cf2e 34bd a708 2cbd 1b36 463c
00000070: d1c0 17be ac87 bc3e ad3b b23e 67bf 8f3e
00000080: 66b4 653e aff6 80be dd74 cc3c b131 27bc
00000090: 133e 743e 566b 93bc 1f5a 2dbe 2e5e 763c
000000a0: 4bdf 493e 9c27 8abe 0353 823e 64c7 40be
000000b0: 723c 4e3e a3f0 f5bd e955 5dbd edc8 0c3e
000000c0: 09f4 52be f3bd f63d 8ab2 23bd bcaa 4d3e
000000d0: 5bbd 283e a288 d03d 66f5 9abe 970c 70be
000000e0: 8747 01be 436e b33e c02e 473e 7429 673e
000000f0: 7c10 8bbe 97cb 5cbc a91e 7cbe 4b16 20be
00000100: 7cac b53d 8942 b43e 7cf6 acbe f0a0 a0be
00000110: ddd1 2bbe c995 31be 5ed3 503e 4853 b5bd
00000120: b493 a63d 89c6 823e dc70 92bd 5aa6 12be
00000130: e051 86bd 520c 7abe 3c14 9fbe 1cb4 a13d
00000140: 758a 65be d2e3 babe fb02 0bbe 9481 93be
00000150: 9b30 2ebe bce7 8c3e 1831 37be cb7f 273e
00000160: 7004 75be e63f bbbe 043c bf3c 9257 913e
00000170: 1ef5 573e 2e9f f5bd 89c1 b9be 40ed b9be
00000180: 4434 72bd 1701 a4be 7034 87ba 18d6 83be
00000190: 5101 df3d b911 95be 0be5 8a3e 270c 953e
000001a0: b3a9 093d 3652 6d3e e678 76bc 416f 883e
000001b0: bcd4 083b 2887 853d 6759 b93e 5b80 933e
000001c0: 48ea c1bc 7d45 0ebe f6c4 0c3e 5b36 7b3d
000001d0: 06e5 2f3e 48ec 183e bac3 62be 062b abbe
000001e0: 0e09 27be 5c0b 283e 2362 113e a811 523d
000001f0: bb5a e03d 75b6 0d3c 9071 a8be b359 963e
00000200: 3502 913e 573a 923e 4ca1 1cbe d42a 3fbe
00000210: b803 d6bd 3fa9 993e 88ba 55be d8b2 663d
00000220: a930 c6bd 18ec b03d 5eb9 883e 7f1a 9e3e
00000230: d171 80bc 91ff 273e ea46 893e 4322 e63c
00000240: 1994 4bbe 15bc 80be fc76 523e 2076 183e
00000250: eb46 1c3d 6fa6 bebd 02a9 acbe f1d3 24be
00000260: 7897 0fbd a054 3c3c da3c 5a3e 4855 a9be
00000270: 7b96 11be 3050 a03c 3a93 633e d3d7 02be
00000280: 2218 8bbe e915 d7bd c3d5 3b3d ccc9 a2bd
00000290: 7144 393e ab9a a7be cca7 85bd 1d5c 9c3e
000002a0: 8ce2 c13d 82fc 1c3e 4f55 8c3e 787e 40be
000002b0: d984 9ebe 5c13 a0bd 48e1 2abe 3701 91be
000002c0: af60 90be ccc5 0ebb e1d1 e7bd b6ef 0e3e
000002d0: 25f3 763e 5b68 a5be 2648 36be 2731 0cbe
000002e0: add7 a63e e076 1f3c 9627 85be d267 01be
000002f0: d3a1 7bbe b003 15bd 3fd6 a1be a82b 49be
00000300: b57d 843d cc6d b1be 1b6f ffbd f6f7 8abe
00000310: a087 13be 4375 a53e a74d 51bd dbc7 153e
00000320: f9f9 963e 7577 9c3d 31d5 c4bc 56c8 d13d
00000330: b204 943e 8b82 2f3e ae5d a13d 5d4b 6a3e
00000340: 5285 abbe c580 8bbe 1a76 553e 9d1c 99be
00000350: ed69 19be f25b 5e3e 0467 42be ad77 05be
00000360: 5bf3 88bc 0d16 72bd 9e03 a23e 4bd7 9cbc
00000370: 749e 443d 5409 46bd 17f3 dd3e 4273 ad3d
00000380: bd0e 5abe 8a31 973e 9cb0 53be 99ee 9d3d
00000390: cc36 e4bd 0ee6 9d3e 77b4 76bc bafa 09bc
000003a0: 47c6 b4be c009 5d3c c4d5 d73d 7206 edbd
000003b0: c7cc 9ebe 126b 57be 52f7 b4be 4879 a23d
000003c0: c9f6 40be d3ef db3d a06b 3dbd 4025 92be
000003d0: dab7 3fbd 8586 afbe bbbe 4f3d aefb 53bc
000003e0: 641c 213d 67ba 0ebe 77b5 9d3e 69ae 34be
000003f0: 12da 853e 740a 763e 4c40 6e3e 27fc b1bd
0.2976657 -0.08919071 -0.20933658 0.29483256 0.18860745 -0.2456458 0.2656681 0.2924113
0.25437874 0.30374652 -0.07190812 -0.16745016 0.05688924 -0.31818706 0.25835466 -0.1406177
-0.31510034 0.24495877 0.13807587 -0.2649153 0.12062708 0.32315382 -0.27177984 -0.30619588
0.12987132 -0.043989953 -0.04200044 0.012097861 -0.14819647 0.3682226 0.34811154 0.28075716
0.22432098 -0.25188205 0.024958069 -0.010204718 0.23851804 -0.017995518 -0.1692891 0.015037103
0.19714086 -0.26983345 0.25453958 -0.18826061 0.20140246 -0.120087884 -0.05403701 0.13748522
-0.20600905 0.12047949 -0.03996519 0.20084661 0.16478483 0.10182311 -0.3026535 -0.23442303
-0.12624942 0.3504506 0.19451427 0.22574407 -0.27161014 -0.013476274 -0.24621071 -0.15633504
0.088707894 0.35207012 -0.33781803 -0.31372786 -0.16779275 -0.17342295 0.2039313 -0.08853775
0.08133641 0.25542095 -0.071504325 -0.1432127 -0.06558585 -0.24418762 -0.31070125 0.07895681
-0.22416098 -0.36501938 -0.13575356 -0.28809798 -0.17010729 0.2752055 -0.17889822 0.16357343
-0.23927474 -0.36572188 0.023344047 0.28387123 0.21089599 -0.11993252 -0.36280468 -0.3631382
-0.059131876 -0.3203208 -0.001031531 -0.25749278 0.10888923 -0.29115084 0.2712787 0.29110834
0.033609103 0.23175892 -0.015043473 0.2664738 0.0020878753 0.0651992 0.3620102 0.28808865
-0.023671284 -0.13893695 0.1374701 0.061331134 0.1717721 0.14933884 -0.22144976 -0.33431262
-0.16312048 0.16410583 0.14197592 0.05128637 0.109548055 0.008649458 -0.3289914 0.2936531
0.28321996 0.28560135 -0.15295905 -0.18668681 -0.10449928 0.30011937 -0.20871937 0.056322902
-0.0967725 0.08638781 0.26703924 0.3087959 -0.015679272 0.16406085 0.26811916 0.02809251
-0.19880714 -0.25143495 0.20553201 0.14888811 0.03815357 -0.093090884 -0.33722693 -0.16096474
-0.03505656 0.011494786 0.21312276 -0.33072877 -0.1421756 0.019569486 0.22224131 -0.12777643
-0.2716685 -0.10502226 0.045858156 -0.07948646 0.18092515 -0.3273519 -0.06526145 0.30539027
0.094670385 0.15330699 0.27408835 -0.18798244 -0.3096073 -0.078161925 -0.166875 -0.2832124
-0.28198764 -0.0021785377 -0.11319328 0.1395863 0.2411619 -0.3230618 -0.1780096 -0.13690625
0.32586423 0.009732932 -0.26006764 -0.1263726 -0.2457345 -0.03638047 -0.3160877 -0.1964556
0.06469289 -0.3465408 -0.124723636 -0.27142304 -0.14407206 0.32316026 -0.051099446 0.1462702
0.2948759 0.07639972 -0.024027439 0.10243289 0.28909832 0.17139642 0.07879196 0.22880311
-0.33500153 -0.2724668 0.20845833 -0.29904643 -0.14981814 0.21714762 -0.1898461 -0.13033934
-0.016717603 -0.05910306 0.31643385 -0.019145628 0.048002675 -0.04834874 0.43349525 0.08469249
-0.21294685 0.29529983 -0.2067284 0.077115245 -0.11143264 0.3083958 -0.015057675 -0.008421594
-0.35307524 0.013491094 0.105388194 -0.11573495 -0.31015608 -0.21036938 -0.3534494 0.07933289
-0.18844141 0.10739102 -0.046245217 -0.28544044 -0.046806194 -0.34282318 0.050719004 -0.012938423
0.039333716 -0.13938294 0.3080251 -0.17644657 0.26142937 0.24027425 0.23266715 -0.08690672

net.0.bias f4 [64]
00000000: efb2 4ebe 3fdd f5bd 019c ad3d f2fb 793e
00000010: 3d33 81be 022b bbbe 4e4d 74be 93be febd
00000020: 3a59 72be f03b 1b3d deff a83e 3836 ef3d
00000030: 43a1 70be 1a5d 33be c8e2 0c3e e7f4 28be
00000040: 7872 9cbd 50d3 86be 63f9 7c3e b5a4 853e
00000050: 9f15 b9be c642 92be 3f6d 3abe 0074 99bb
00000060: 51da 6e3e c5dc b2bc 7adb 653e 5b36 3a3d
00000070: bd09 ec3e 44ae 53be 2181 a33e 6170 95be
00000080: f6f9 9cbc eb22 ef3c 642f d13d c135 683e
00000090: f08d 16be 277d ec3d 0670 04bd 525c 903d
000000a0: 628c 2e3e 98ae eabc db14 c43d 78a0 60be
000000b0: b40e 903e 4107 1fbc 92f2 92be 28b8 693d
000000c0: 9ac0 863e 42bd 86be 5294 a33e 6041 d83d
000000d0: d6ab a13e 179b 823e 7cf5 493e 2872 4cbd
000000e0: c1fb 98be 002b bd3d e2e6 ab3e 9811 453d
000000f0: 9079 3cbe 5c77 903e 984a 2f3d 6b26 69be
-0.20185445 -0.1200509 0.08477021 0.24412516 -0.25234404 -0.3655625 -0.23857614 -0.12438693
-0.2366685 0.037898958 0.3300771 0.11680263 -0.23499016 -0.17515984 0.13758385 -0.16499673
-0.07639021 -0.26333094 0.24704508 0.26102224 -0.36149308 -0.2856657 -0.18205737 -0.0046830177
0.23325469 -0.021833787 0.22447005 0.045461994 0.4610118 -0.20671946 0.31934455 -0.291873
-0.01916216 0.029191455 0.10214117 0.22676755 -0.14702582 0.115473084 -0.032333396 0.07048859
0.1704574 -0.028647706 0.0957429 -0.21936214 0.28136218 -0.009706319 -0.2870069 0.05706039
0.26318818 -0.26316267 0.31949097 0.10559344 0.31576413 0.2550895 0.19722551 -0.049913555
-0.29879573 0.09236717 0.33574587 0.04811248 -0.18405747 0.28216064 0.042795748 -0.22768562

net.2.weight f4 [64, 64]
00000000: 3ab4 553d 44ce 93bc d6ef cdbd d5a9 9fbd
00000010: c812 edba 03ec 1fbe 4ca3 cdbd d6a4 9f3c
00000020: 40d5 ccbc a6f3 da3d d339 5f3d 776f 103c
00000030: 5fc8 6e3d a87d 7c3d 730d 0fbd 60a9 3a3d
00000040: acbe 9fbd 352e e33c 9b62 14bb 143a e33d
00000050: 04f9 debc bc8a 89bd c599 fcbd b0b1 493c
00000060: bf71 d8bd 7e73 353d 8a56 95bd bde7 d33d
00000070: 8e9b 8c3d 2837 893d 06c7 c6bc 9481 26bd
00000080: 0376 8cbd 71a0 17be 4c20 85bd fc64 b7bc
00000090: bce9 123d 63fc 213d b99d 8e3d ca66 c7bc
000000a0: a1fe 3bbd 5fe5 28bd 2c62 b63d 5c56 0f3d
000000b0: ff4e 473d ac81 0f3d 7271 1c3d 404d 5f3d
000000c0: b5b9 033d fa21 b7bc fcd4 05be 26b1 54bd
000000d0: 674d ee3c 4918 9bbd 617f 7e3d c096 03bd
000000e0: dea7 dc3d dd78 883b a7dd 623d babc b1bd
000000f0: d805 f23c ff7c b8bd 5039 3e3d 7e02 2bbe
00000100: 5087 a83c c170 043c fc47 b4bd 6869 f03d
00000110: 947a 14be 5562 ca3d 8f52 a9bb bfdf 53bc
00000120: 9c29 e83d a09a f13d ed64 f03c 7db6 6fbd
00000130: 2c3b 263d 1166 b03d c39a 3fbe 8c00 db3d
00000140: 3851 dcbc 9139 f6bd aa97 04be 7cf4 eb3d
00000150: 9646 8cbc 7c27 f23d bbd8 19be 80c2 b2ba
00000160: f0cf b6bd 2ae2 973d 883e ebbc cfe8 1c3e
00000170: 78f9 9b3d 1088 473d 9814 cd3d ab00 36be
00000180: cd6e 0a3d 383a aebc 44aa c3bd b3f5 87bd
00000190: b2fe f2bc 0b88 103d afd0 d1bd bf7d 853d
000001a0: b34a 5e3d 7809 843d 6a38 f93d fb01 863d
000001b0: 2f2e ad3c 8e8a e9bc fcac aebd 9a4f cf3d
000001c0: fb7f 693d f51f 0fbc 67c4 0abe 2cd6 1bbe
000001d0: fc40 14bc 50ec 28bd 85d7 1ebd 6ee6 b73d
000001e0: a0cf a0bb d2f4 ac3d d9a8 043e d90f d5bd
000001f0: 8ba9 b73d 9bd7 67bd 24f4 32bd c82b ebbb
00000200: 290b 9abd 1455 c0bd f8bf 8a3c 6f9f d23d
00000210: bc02 27bd 2ce1 ebbd 2c21 903d f84a f0bd
00000220: dcd2 20bd 3cbd 1fbd aefe b43d e07a cdbd
00000230: b211 e93d d06f 243d 0313 4dbd 6a73 333d
00000240: eace f03d 54f4 093c ab51 f9bd e440 23bd
00000250: d603 f6bd 60a0 53bd 5293 b2bd 62d4 f7bd
00000260: 0e51 973d 3b98 27bd 804d 46bc 8004 c7bc
00000270: effc 4f3c 804e 343c d670 eabd fffe b03d
00000280: 004a e83c 98ba afbd c4ad 933c 8668 ab3d
00000290: 30b0 923d 3cab 2ebd 1e53 9a3d 6331 01be
000002a0: a85f d63d 5779 b53d 7a7e 943c 7d2c 573d
000002b0: ae3f 953c dfff 71bd a33c 70bd 427e 8bbd
000002c0: f4e8 e63d 2c0f 02bd 3876 52bd 8268 ba3d
000002d0: 5fee c33d 346a e2bd db83 3d3d f460 18bd
000002e0: bc8e 6f3d bdd2 81bd 13cc d8bc efe8 7cbc
000002f0: 09d1 633d 6cdc 28bd f056 243c ece8 1a3d
00000300: d0ed c0bc f7e7 8c3c 9830 e43d b32d 97bd
00000310: a231 bf3d d3b7 a03d 1ed1 a93d 94b9 553e
00000320: d2fd d83d 3460 963d 0c35 ae3c 3e27 833c
00000330: 3da1 853d 2f14 c4bc b6f6 fe3d e482 bbbc
00000340: b2a2 d73d 6ef3 c9bc 4acc 723d f026 c43c
00000350: 22c7 9ebc 6c0a e2bd c121 173e 68cb a73d
00000360: ded5 b5bd f50a 0d3e 70cb 81bc ed23 16bd
00000370: 77d1 bbbd 4470 46bd 51c8 cdbd 9248 d53d
00000380: 2a5d 033e 0ce0 1fbd 46d9 833d 0b1d fbbd
00000390: 4b44 f93d 1565 663e bcd0 773d 3f71 dcbd
000003a0: 95b2 e1b9 0e89 c1bd 1add 24bd fe54 91bd
000003b0: c94d 253e 2e0b 463e ce19 5c3d 3c35 eebd
000003c0: b821 f03c e919 fd3d b7e3 17be 96d3 473e
000003d0: 9b99 7cbd 0e40 383e 8def 12bc fca6 b53d
000003e0: ba59 a03d 7e3c 0c3e b975 b43c 9a87 fa3b
000003f0: 5c79 923d 5403 343d 2c25 08bd a8e1 873d
0.05217383 -0.018042691 -0.10055511 -0.07796065 -0.0018087262 -0.15617375 -0.10040912 0.01948778
-0.02500403 0.106910035 0.054498505 0.008815638 0.058296558 0.061643273 -0.034924936 0.045571685
-0.0780004 0.027731994 -0.0022641781 0.11095062 -0.02721835 -0.067159146 -0.12334017 0.01231043
-0.1056857 0.044299595 -0.07291897 0.10346935 0.06865607 0.06699973 -0.024264824 -0.04065092
-0.068584464 -0.14807297 -0.06500301 -0.02238702 0.035867438 0.039547335 0.06963677 -0.024341006
-0.04589713 -0.04123437 0.089054435 0.034994468 0.04865932 0.035035774 0.038194127 0.05451703
0.032159526 -0.022355068 -0.13069528 -0.051926754 0.029089643 -0.075729914 0.062133197 -0.03212619
0.107742056 0.0041647987 0.055387165 -0.08678575 0.029543802 -0.09008216 0.046441376 -0.1670017
0.020572335 0.008083523 -0.088027924 0.11738855 -0.14499885 0.098820366 -0.0051673125 -0.012931763
0.11336061 0.117970705 0.029345 -0.058523644 0.040583774 0.086132176 -0.1871138 0.10693464
-0.026894197 -0.12022699 -0.1294848 0.11521241 -0.017123502 0.11823937 -0.15024082 -0.0013638288
-0.0892638 0.07416184 -0.02871634 0.15323184 0.07615942 0.048713744 0.100136936 -0.17773692
0.033797074 -0.021267995 -0.0955396 -0.0663866 -0.029662464 0.03528599 -0.10244881 0.06518125
0.054270457 0.064471185 0.12168963 0.065433465 0.021140186 -0.02850845 -0.08529088 0.10122605
0.057006817 -0.0087356465 -0.13551484 -0.15218419 -0.009048697 -0.04124099 -0.038779754 0.08979498
-0.0049075633 0.08445133 0.12955035 -0.10403413 0.08967885 -0.0566021 -0.043689862 -0.00717685
-0.0752166 -0.09391227 0.016937241 0.10284316 -0.040774092 -0.115175575 0.07037577 -0.11733049
-0.03926359 -0.038998827 0.08837639 -0.10033202 0.11380328 0.040145695 -0.05006696 0.04381124
0.11758216 0.008420069 -0.1217378 -0.039856806 -0.120124504 -0.051666617 -0.08719505 -0.12101056
0.07388507 -0.040916663 -0.012103438 -0.024294138 0.012694581 0.011005044 -0.11447303 0.08642387
0.028355598 -0.08580512 0.018027194 0.08369546 0.07162511 -0.04264377 0.075353846 -0.12616496
0.10467464 0.08861034 0.018126715 0.05253266 0.018218841 -0.05908191 -0.058651578 -0.06811191
0.11274901 -0.03175275 -0.051382273 0.091019645 0.0956695 -0.11055413 0.046268325 -0.037201837
0.05848573 -0.06339023 -0.026464498 -0.015436395 0.055619273 -0.041225836 0.010030493 0.037819788
-0.023550898 0.017200453 0.11142081 -0.07381763 0.093356386 0.07847562 0.08291839 0.20871574
0.105952874 0.07342568 0.02126553 0.016009923 0.065248944 -0.023935406 0.124494 -0.022889562
0.105290785 -0.02465221 0.059276856 0.023944348 -0.019382063 -0.11037144 0.1475897 0.081930935
-0.088786826 0.13773711 -0.015844077 -0.036655355 -0.091708116 -0.04844691 -0.10047973 0.10414232
0.12828508 -0.039032027 0.06437926 -0.12261399 0.12171229 0.22499497 0.0605018 -0.107637875
-0.00043048398 -0.09449969 -0.04024992 -0.07096289 0.16142954 0.19340202 0.053735547 -0.116312474
0.029312953 0.123584576 -0.1483296 0.19514307 -0.061669927 0.17993185 -0.008968246 0.0886974
0.07829614 0.13694951 0.02202879 0.0076455595 0.07152054 0.043948486 -0.033238575 0.066348374

net.2.bias f4 [64]
00000000: db46 073e c4ab 463d ff27 273c 9e4c c03c
00000010: dd83 06bd bc21 2c3d ad51 4a3b e22c e93d
00000020: 9ddc 193c a88d 91bd fb78 04be 6832 01be
00000030: 3836 203e ee3f 65bd 74fb f43d 2205 80bd
00000040: 169e 0ebc 864e 23ba fbb7 aabc 5c94 1ebd
00000050: eab6 8fbd 574a 2abd 91e2 1d3e 33c7 c63d
00000060: 233a 603c 19f8 dbbd fc98 803c 25d0 2fbd
00000070: 63e6 17bd e9c1 01be b422 613d fd11 0e3e
00000080: a4e6 69bd c554 ac3d ba81 ffbd e9ca 0f3d
00000090: 4c48 db3d b1fc f0bd 8750 3d3d 5702 a73c
000000a0: 9d37 403e c462 7bbd 2a72 0c3e 97bc 62bd
000000b0: 6ea8 a73d 0387 ba3d 2823 fa3c 7c89 683d
000000c0: 43fb 4b3d ef86 01be 7f0c be3d 2fb3 983d
000000d0: 981c 0ebd d904 3b3e c747 7e3d a819 b0bd
000000e0: c908 c6bd ffb6 aa3c 70d7 a53d a2d8 003b
000000f0: 987f 7bbd 176a 3e3d fef8 103c 20ed ddbb
0.13210623 0.048503652 0.010202407 0.023474034 -0.0328406 0.04202436 0.0030871436 0.11385514
0.009390977 -0.07107097 -0.12936775 -0.12616885 0.15645683 -0.05596917 0.119620234 -0.06250979
-0.008704683 -0.00062296574 -0.020839682 -0.038715705 -0.0701731 -0.041574802 0.1541846 0.09705963
0.013685736 -0.1074068 0.015697949 -0.04292311 -0.03708495 -0.12671627 0.054964736 0.1387405
-0.05710472 0.08414606 -0.12475915 0.03510562 0.10707149 -0.11766947 0.046219375 0.020386858
0.18771215 -0.061373487 0.13715425 -0.055355635 0.08186422 0.09107783 0.030534342 0.05677174
0.04980017 -0.1264913 0.09279727 0.074560516 -0.034695238 0.18263568 0.06208017 -0.085986435
-0.096696444 0.020839212 0.08097732 0.0019660373 -0.06140098 0.046487894 0.008848427 -0.0067726523

net.4.weight f4 [4, 64]
00000000: 12cb e23b 9781 053d 6691 37bc 84a3 93bd
00000010: 4774 a83c 8d20 8fbd ab3e 02bd d44c a33d
00000020: 7eb6 0abd d458 fbbc 7b21 79bd fbd7 21bc
00000030: 8083 013d 5784 2fbd 41d6 b1bb b271 0bbc
00000040: 4a31 3d3b 0795 bd3c 12b3 343b f0b0 d3ba
00000050: f9ee 8abd 33e8 463b 66bb d93c 3a0b 95bb
00000060: 92c6 0e3b 06bc 5abd 70db dfbc 814a 13bc
00000070: 6440 0cbd f89c 92bd 829c 373b dea2 6a3d
00000080: 46d0 62b7 1717 4cbc ec42 9f3b 479e 06bd
00000090: 07bc 053d fb1f 9abb 5f16 71bd 6c7b 083c
000000a0: 68ab 303d 02f3 013b 2ef4 ef3c e9ae 283c
000000b0: cdc3 88bb 8125 4e3c 486c abb9 cdf2 adba
000000c0: 9d96 003d b320 9cbd 1f9b 373a 179f 983b
000000d0: 6c59 69ba 4d30 f83c 1440 73bc 8cbc 91b9
000000e0: cb30 3bba f6ed 7cbd af03 42bb 8d8e 97bd
000000f0: 647f 1eba e336 3ebd 8584 89bb 3616 96ba
00000100: 86e0 c23c 70ef 243d 0e6a 0bbb 117e 5cbc
00000110: 0ac1 413d db0d 09bd 0d95 d4bb d573 953d
00000120: 4c2d cabb 2b09 ed3b 5795 bfbc 1b02 63ba
00000130: d1cf 8b3d 0191 a63b faa2 713b 5354 c43b
00000140: 0d57 d9b9 c148 c93c 5e9a 673d a61a 1b3b
00000150: 63d7 94bc eee6 613b 4e6e 393d 0c62 d9ba
00000160: 8395 003b c4fb 93bc 41e5 313c f87c 053c
00000170: b02c 38bc 5f13 70bc c009 1d38 cbe1 473d
00000180: 1e38 f839 4350 073b 2e65 cc3b b88c 87b9
00000190: 3b5a 1f3d 4b87 253c ece4 73bc 04d2 953b
000001a0: 8641 2f3d c46e 33bb 64be 593d 6845 e9bb
000001b0: b9f8 dc3a 27b9 313c c0d4 f038 f6f3 9fba
000001c0: 3453 443d 5475 a4bc b419 3d3b c612 a93c
000001d0: d6f2 b0ba ece8 343d 97e1 863b 5d18 4a3b
000001e0: 83bf 243b 1936 3abc 10da 14bb 10cc 163c
000001f0: 80c7 16bb 5721 043b 29c8 9b3a 4cac a2ba
00000200: 5f29 3cbc a035 1fbd b69d 9dbc 5672 1d3d
00000210: dba7 18bd 941c 4a3d 6bdb 023d 269a b7bd
00000220: 840c 1a3d db25 cd3c 092f 2c3d ef20 eb3b
00000230: 82a6 88bd 2d93 ed3c d4b3 633b d1d4 343b
00000240: 5c65 953b 6320 a5bc a882 90bd 6485 21bb
00000250: 4bd5 3f3d 6359 153a 692c 2abd 6e5d 0ebc
00000260: 028c 473c 6ef8 183d cbd1 d53c 6ce7 7d3c
00000270: f64f 173d 2d63 183d bda0 33bb 27df 4bbd
00000280: 2935 c43b 18ab e3bb c5f0 8f3b 361b 663c
00000290: 2b1d 29bd 8b19 5a3c 5ac0 073d eab3 093a
000002a0: ace3 31bd c859 4b3a e009 1ebd 588d 6b3b
000002b0: 149b 583b cded 1a3c 3829 fa3a e086 0f3b
000002c0: 43ae 4ebd f11f 423d a589 09bc 4e94 cdbb
000002d0: 542d c63a 59fc 28bd 05c7 5f3c d9a2 0c3b
000002e0: 2341 a83a 147f 233d e073 e53a 644a 8b3c
000002f0: 8009 1c38 1176 8f3c 23fe 443b 60a4 6839
00000300: b4dc 82bc 5984 11bd 236b 0c3c 41ac 873d
00000310: c76e 08bd 9999 623d e0b5 0f3d 442b cabd
00000320: fe25 223d 047a ec3c d7b4 363c 7280 933c
00000330: b4b8 20bd 4b72 203d 7636 bfbb 1822 00bb
00000340: 5f70 13bc 2e47 0ebd 7bb6 82bd e987 a0ba
00000350: 4342 4b3d d72c 2abc 7175 0abd 061c a73b
00000360: d5a6 63bc c0a5 163d 86e5 e43c ef12 1c3c
00000370: 11e5 203d b8e4 843d b520 cdba a2ea 84bd
00000380: c5d3 e8bb 24de 223a be2b 58bb f2b6 d13c
00000390: d0cc 21bd 22f4 5239 f520 1b3d 3a34 acbb
000003a0: ec2a 3ebd 3a35 3bbb a6fb 92bd 505e 4f3a
000003b0: f214 253b cfb3 7dbc f183 f9ba 58f2 ccb9
000003c0: 1a77 edbc 3424 903d 72dd 8dbb 31e9 68bb
000003d0: 1c0f ed3a d81a 0bbd d0b1 ae3b 8a66 8d3b
000003e0: 6fac e1bb f9ac 703d 28bb 41ba a358 7b3d
000003f0: 3c27 4f3a 3605 063d 61c0 56bb 0084 68b6
0.0069211805 0.03259429 -0.011204099 -0.072089225 0.020563258 -0.069886304 -0.031798046 0.07973638
-0.033865444 -0.030682005 -0.060822945 -0.009878154 0.03161955 -0.04285082 -0.0054271524 -0.008510994
0.002886849 0.02314235 0.0027572555 -0.0016150754 -0.06783862 0.0030350804 0.026578616 -0.0045484575
0.0021785838 -0.05340197 -0.027326316 -0.008989931 -0.034241095 -0.07158846 0.002801687 0.05728423
-1.3519142e-05 -0.012456677 0.0048602726 -0.03286579 0.03265002 -0.0047035194 -0.058859225 0.008330207
0.043132216 0.0019828682 0.029291239 0.010295608 -0.004173732 0.012582184 -0.00032696337 -0.0013271213
0.031393636 -0.076234244 0.0007004011 0.004657637 -0.00089015695 0.03029647 -0.01484682 -0.00027797034
-0.00071407546 -0.061750375 -0.0029604246 -0.07400236 -0.00060462044 -0.046439063 -0.0041967058 -0.0011450711
0.023788702 0.040267408 -0.002127293 -0.013457791 0.047303237 -0.03346048 -0.006487495 0.07297484
-0.0061699506 0.007233759 -0.02338664 -0.00086596765 0.06826747 0.005083204 0.0036870823 0.0059914975
-0.00041454323 0.024570825 0.0565437 0.0023667007 -0.01816911 0.003446992 0.04527121 -0.0016585006
0.0019620366 -0.018064387 0.010857881 0.008147471 -0.011241123 -0.014653056 3.7440797e-05 0.048799317
0.00047344057 0.0020647205 0.0062376475 -0.0002585405 0.03890441 0.010103057 -0.014886122 0.004572155
0.042787097 -0.0027379254 0.053160086 -0.0071188696 0.0016858793 0.010847366 0.000114837196 -0.0012203443
0.04793091 -0.020075478 0.0028854432 0.020638835 -0.0013500105 0.044167444 0.004116248 0.0030837276
0.0025138564 -0.011365437 -0.0022712983 0.009203926 -0.0023007095 0.0020161474 0.0011885214 -0.0012410968
-0.011484473 -0.0388695 -0.019240241 0.038439117 -0.037269454 0.04934366 0.031947535 -0.08964948
0.037609592 0.025042465 0.042037044 0.007175557 -0.06672384 0.029000843 0.0034744637 0.0027592669
0.004559202 -0.020157045 -0.07056171 -0.0024646157 0.04683427 0.00056972186 -0.04154626 -0.008689268
0.012179377 0.037346296 0.026101014 0.01549707 0.03694149 0.037203956 -0.002740904 -0.04977336
0.0059877825 -0.006947886 0.0043927156 0.0140445735 -0.041287582 0.013311754 0.033142425 0.00052529445
-0.043430015 0.0007757214 -0.038583636 0.0035942402 0.0033051418 0.00945611 0.001908577 0.002190046
-0.050459158 0.047393743 -0.008394633 -0.006273783 0.001511971 -0.041256282 0.01365829 0.002145937
0.0012836795 0.039916113 0.0017505847 0.017003246 3.7202146e-05 0.017512353 0.0030058704 0.00022186479
-0.01597438 -0.035526607 0.008570465 0.06624652 -0.03330877 0.055322263 0.03508556 -0.098715335
0.039587013 0.028866775 0.011151514 0.018005583 -0.039238647 0.0391715 -0.0058353497 -0.0019551571
-0.008998959 -0.03473585 -0.06382462 -0.0012247536 0.04962374 -0.010386667 -0.033803407 0.005099776
-0.013894756 0.036779165 0.027941477 0.0095259985 0.039280955 0.06488937 -0.0015650006 -0.06490065
-0.007105323 0.0006212911 -0.0032985057 0.02559993 -0.039501965 0.00020118107 0.037873227 -0.0052552493
-0.046427652 -0.002856566 -0.071769044 0.0007910477 0.0025189486 -0.015484764 -0.0019036514 -0.00039090472
-0.028987456 0.07038155 -0.004329377 -0.0035539384 0.0018086168 -0.033961147 0.0053312555 0.004315202
-0.0068870108 0.05875871 -0.0007390254 0.061363827 0.000790227 0.032719813 -0.0032768475 -3.4647528e-06

net.4.bias f4 [4]
00000000: 39c1 573d 5b19 8e3d a926 9dbd 4d0a 47bd
0.052674506 0.0693843 -0.076733895 -0.048593808

net.0.weight f4 [64, 8]
00000000: 4cd3 f4be 4c8c 69bd 8074 efbd 3a6c f63d
00000010: ce35 5abd ecdc 173d f1b7 0ebe 0cf3 f33e
00000020: a4cf a43e 8e5b 513f d9e4 343f 67ae f9bc
00000030: 06c0 863d 6df5 013f e5f0 c03b 9450 eabe
00000040: 36e1 0abe f0e1 683e 58ea 1c3e e3a0 6abe
00000050: 3fbe 6fbe 0629 b0bd 91c8 4bbe b8eb 263d
00000060: 9089 063f 721c b53e e07a 613f 43ed f5bb
00000070: c8c0 c33e 9778 1c3f 6eea 7cbe 0f93 b1be
00000080: bc73 933e d0d8 3d3e c297 4fbe b610 78be
00000090: 9782 8ebe b8cf 0dbd cc73 783e e423 2fbe
000000a0: 1203 b13e 3790 bb3e 0190 38be 1edc 103e
000000b0: 8bbe 0f3e e8da 36bd 1a97 bc3e d776 453d
000000c0: 94b0 d23d b4c9 72bd 8eda 3ebe f2eb 55be
000000d0: d24a 79be 5e16 503e b89e 633e 6038 7f3c
000000e0: 6c7b e43d a0bb dfbd f587 5fbe 4356 703d
000000f0: 01f3 28be 108c 46be fdbd 7e3e 7f49 653e
00000100: 16f1 84be aded c4be 6636 253f ae30 b43e
00000110: d8b4 ec3d 21dd af3e 615d aebe fa07 eabd
00000120: f76d 43be 2fef 16be a24a fc3e f4e4 283e
00000130: 35ba 743e 86dc 123f d131 4ebd c0c7 603d
00000140: 6f22 9a3d ff61 88be d3ef 473f 8ae7 953e
00000150: 821e 853e ae47 ea3d ae80 b3be ed31 adbe
00000160: 1dd7 a0bd 7965 2cbe 5ccb c93d 2ff8 3f3e
00000170: 512f 9b3e 7a0e a8bd 7155 f7bd 0490 2cbe
00000180: 6fb5 d93e c4e2 b73d bb73 8fbe f81a 79bc
00000190: 00f6 853e 0f1d d9bd ce4f 673e f404 043d
000001a0: c030 223d 663d e4be 9400 99bd 270a 68be
000001b0: 74ea f13e a87c a9bc 89bc 34bf 5bb3 2dbf
000001c0: c4ba 203f 82a1 b93e 3094 24be e2d2 4abd
000001d0: b665 ffbc 6917 883c 5bbb 2e3e ce9d aa3e
000001e0: 9469 3d3f e7ae eb3e 086f 5a3e dc93 90be
000001f0: 6014 143d bb44 42bf 43fa 8c3c 07b5 5fbc
00000200: e323 b33e dee2 a03e f56b 333e 3fc2 8f3e
00000210: 676c dc3d c7f5 f73e a7e4 373e 5fc4 23be
00000220: 9b6b 2f3d 66ec 673b f464 16be ca09 d9bd
00000230: c966 d33b 930f 19be ea70 7c3e bc35 cf3e
00000240: 0a7b 0ebf 31fa 4ebe 6216 59bd 16a1 b83e
00000250: f962 23bd e916 a43d d346 35be 6638 683e
00000260: 3895 6a3e 6b2f 683e 438a cfbe 893e 2e3d
00000270: 357f 263e e6f8 76be b8dc 883e c6cf 603e
00000280: bdc2 803f 5b5b 1a3f 5190 543e 930a bbbd
00000290: 2528 ddbd 8aad 9d3e c88f 84be 409c 2ebe
000002a0: 6b2d 7c3e d833 053f 06c7 563d 41be 063e
000002b0: 44a6 3e3e 856e 1abd e889 603c a8b0 193e
000002c0: acfb 043e 3e9d d6bd f5e1 38be 900f 8abd
000002d0: 9853 50be 784c 14bd 8225 4d3e 6874 233d
000002e0: 011c a73e 3e84 f23e bc68 2e3f 3b20 fabc
000002f0: 5c79 683e 6f1d 1e3f f1c2 4ebe 6b4c debe
00000300: 5678 583e 8a87 4a3e 6d44 6bbe 7042 04bd
00000310: 7268 22be 30a8 8ebe 9d03 5a3e 07bf 8239
00000320: d5b0 6dbe f9b4 673e 44e2 083f 4c69 5a3e
00000330: 8a9a 573e 3874 9d3e ad91 8bbe 3537 fc3d
00000340: 64a6 5c3f f6bf 4d3f 9308 473f a1e9 b0bc
00000350: 9b46 843d d57e b43e b1f3 3fbe 26de bebe
00000360: 24ff 0f3e 6889 c3bd 8018 743e bff1 6ebe
00000370: 58d3 7ebd 00e8 2ebe 001c 14bc fdfa 0fbe
00000380: 101b 943d ba2f 493e 004f ad3a e0d1 2dbc
00000390: f30e 85be ec5c 503e f960 39be 86e5 eebd
000003a0: ac20 473f ea73 c23e 0cc1 053f c9d7 b5bb
000003b0: 20a6 803e ace5 a43e 5250 a3be 90a4 e7be
000003c0: 119c 1c3f 8db0 0f3f e0b7 df3e 1ac4 e3bc
000003d0: 54df 543e 6e84 573e 411c 243d b845 d6be
000003e0: 3473 8c3e 5725 88bc 3421 4abd 89ce 26bd
000003f0: 63f0 c33e 39a7 3fbe cfaf c73d b787 69be
-0.47817457 -0.057018563 -0.116921425 0.12032361 -0.05327397 0.037075922 -0.13937356 0.47646368
0.32189667 0.81780326 0.70661694 -0.03047867 0.06579594 0.50765115 0.005888092 -0.457646
-0.13562474 0.22742438 0.1532377 -0.22912936 -0.23412417 -0.086015746 -0.19900729 0.040752143
0.52553654 0.35373265 0.8807812 -0.0075050904 0.38233018 0.61121505 -0.24698803 -0.3468251
0.28799236 0.18539739 -0.20272735 -0.24225125 -0.27834007 -0.034621924 0.24262923 -0.17103535
0.34572655 0.36633465 -0.18023683 0.14146468 0.1403753 -0.04464236 0.3683403 0.048209038
0.10287586 -0.05927439 -0.1863806 -0.20890787 -0.24344948 0.20321032 0.22228515 0.015577406
0.11156353 -0.109244585 -0.21829207 0.058676016 -0.16498949 -0.19389367 0.24877162 0.22391318
-0.25965184 -0.38462582 0.6453613 0.3519339 0.11557931 0.34348395 -0.34055617 -0.11427303
-0.19084917 -0.14739679 0.4927569 0.16493589 0.23899157 0.5736774 -0.050340477 0.054877996
0.07526099 -0.26637265 0.7810032 0.29278213 0.25999838 0.11439453 -0.35059112 -0.33827153
-0.078535296 -0.16835584 0.09853241 0.18747018 0.30309537 -0.08205886 -0.120768435 -0.16851813
0.42521235 0.08978799 -0.28017983 -0.015204184 0.26164246 -0.106012456 0.22589037 0.032231286
0.039597273 -0.44578093 -0.074708134 -0.22660123 0.47249186 -0.020689324 -0.7060018 -0.678518
0.6278498 0.36256033 -0.16072154 -0.04951752 -0.03117643 0.016612725 0.17063658 0.3332352
0.73989224 0.46031877 0.21331418 -0.28237808 0.036152244 -0.75886124 0.017209178 -0.013654
0.34988317 0.31423086 0.17521651 0.28077886 0.107628636 0.484297 0.17958318 -0.15992878
0.04282723 0.0035388707 -0.14686948 -0.1059757 0.006451462 -0.14947347 0.24652448 0.40470684
-0.5565649 -0.20212628 -0.05299986 0.360604 -0.03988931 0.08012182 -0.17702799 0.22677764
0.22908485 0.22674339 -0.40535173 0.042540107 0.16259463 -0.24118385 0.26730895 0.2195426
1.005943 0.6029565 0.20758177 -0.09132876 -0.107986726 0.30796462 -0.25890946 -0.17051792
0.246267 0.5203223 0.052435897 0.13158514 0.18618113 -0.037703056 0.013704754 0.15008795
0.1298663 -0.1047921 -0.18054946 -0.067412496 -0.20344388 -0.03620574 0.2003384 0.039905936
0.32638553 0.47366518 0.6812856 -0.030532947 0.22702545 0.6176366 -0.20191552 -0.43417677
0.21139655 0.19778267 -0.22975321 -0.032289922 -0.15860155 -0.27862692 0.21290441 0.0002493786
-0.23211987 0.2262763 0.53470254 0.2132923 0.21055046 0.3075273 -0.2725958 0.123152174
0.8619139 0.80371034 0.7774746 -0.021595778 0.064587794 0.35253015 -0.18745305 -0.3727886
0.14062172 -0.095476925 0.23837471 -0.23334406 -0.06221327 -0.17080688 -0.009039879 -0.14060588
0.07231724 0.19647112 0.0013222396 -0.01060912 -0.25987968 0.20347947 -0.18103398 -0.11664872
0.7778423 0.3797906 0.5224769 -0.0055494052 0.25126743 0.32206476 -0.31897217 -0.4524274
0.6117564 0.5612877 0.43694973 -0.02780347 0.20788318 0.21046612 0.040066008 -0.41850066
0.27431643 -0.016619368 -0.04934807 -0.04072431 0.38269338 -0.18716134 0.0975033 -0.22805677

net.0.bias f4 [64]
00000000: 9659 b5be 1138 893e fd57 903e a8b2 62be
00000010: b6d2 0c3e abab c53e fd1e 4fbe a900 8a3e
00000020: 9086 b63c 83db 29be 4b03 ebbe 376e 183f
00000030: eeae 0c3f 5d65 12bf 1228 443e 8db3 c43d
00000040: 11a0 b63e 56c7 59be 98d9 01be dfd3 df3c
00000050: 199d 893e 3692 733e 50d1 72be e1be 6f3e
00000060: 5126 98be b4ed ccbe 750c 0e3e acf3 d13d
00000070: c413 e6bd 6446 873e ea3a 28bc a03b 1a3f
00000080: 4bd6 443e 5839 a9be debf d23e 8b95 583e
00000090: 7cca 833e 47be fc3e 5199 be3d c624 dc3d
000000a0: 23dd c83e 355d 4dbd 0e73 6fbe 1cde 95ba
000000b0: 457a 4f3e f7e6 db3e ec99 32be 159a 263f
000000c0: a523 bebe 9201 693e 6ace 213f a0ab 9cbc
000000d0: 6683 073f 30ae f8be b89d a73e 8ad9 5f3e
000000e0: 6bad a8be e6fc 703e 3663 e83e b1e3 9a3e
000000f0: afc9 75be c52e ed3d c07e ee3e c8ed 05bd
-0.3541991 0.26800588 0.2819213 -0.22138464 0.13752255 0.38607535 -0.20226665 0.2695363
0.022280961 -0.16587643 -0.4590095 0.59543175 0.5495442 -0.5718592 0.1915591 0.09604559
0.35668996 -0.21267447 -0.12680662 0.027322708 0.26877668 0.23786244 -0.23712659 0.23412658
-0.29716733 -0.40025103 0.1387194 0.10251555 -0.11234239 0.2642089 -0.010267952 0.6024723
0.19222371 -0.33051562 0.41162008 0.21150796 0.2574042 0.4936392 0.093065865 0.107492015
0.39231214 -0.050137717 -0.23383734 -0.0011433992 0.20261486 0.4294965 -0.17441529 0.6507886
-0.3713657 0.22754505 0.6320559 -0.019124806 0.52934873 -0.48570395 0.32737517 0.21860328
-0.32944807 0.23533973 0.45388192 0.3025184 -0.24002717 0.11581186 0.46581078 -0.03269747

net.2.weight f4 [64, 64]
00000000: 4e56 453e cc09 c1be 10b7 2cbc 4eb5 3bbf
00000010: dc2c 5abe 7883 5a3c 361c 9c3d c4a1 b83e
00000020: 0149 cbbe cd0e 56be 211a eebe 6784 0fbf
00000030: a78a d53d 342e 79bd 1a34 033e fb99 093f
00000040: e95b 40be f15c b73e 4688 b0bd 88d0 b23d
00000050: dd53 873e ec82 cc3d cb5a 4dbe 8b06 15bf
00000060: ff14 203d a9a7 c6be 5c93 07bf c88c 10bd
00000070: 3054 6a3c 33b3 e8be 50c8 e2be 6c24 ffbe
00000080: 224d ac3e bc04 87bd dee2 7a3e 618e 553e
00000090: 6ca0 d63e 86fe d43e 1c96 183f 939f 12bf
000000a0: 0c78 0f3f 6a54 433e f926 4d3e 3de2 94be
000000b0: 2458 dc3e 8caa 853e d90e 243e 97c8 7e3e
000000c0: d9cd adbe c231 a0be ca18 bc3d ca9d b03e
000000d0: da3e bb3e 9019 adbe 4f26 a4bd 77e2 38be
000000e0: 4fda 36be 2481 663e 58c1 993e 896e 32be
000000f0: aa9f 03be 88fa 813c 2ff3 7e3e c080 47bc
00000100: 3cda bd3d 1959 d1be 39af e7bd 568c 21bf
00000110: 52ad babd 00ad 8f3e 2ee4 da3d 75c1 96bd
00000120: 708e f53b b206 c6bd 923c 403e e6a0 043e
00000130: 1fc8 fc3c 5018 85bc d40b d93e 35cb 10bf
00000140: ec27 7d3e 12b9 343e 9337 533e 0b26 213e
00000150: aa77 f9be 4247 96bd 1ffe 20be 5fcd 89be
00000160: 4083 ed3b 3578 6e3d 3887 1fbf d60b 37be
00000170: c6e5 a73d a5ce 0cbf 76f2 1cbf f215 1b3e
00000180: 0391 afbe d1c9 143e 15e3 723d 2c05 71be
00000190: 8efb 013d b2cd c03e a38a b6bd e804 a63c
000001a0: a0eb 77bf a31e ebbe a4af 33bd 84e1 f83b
000001b0: f4c1 263e 82c5 543e 1806 973c af77 263e
000001c0: 0cb6 ffbc 70e4 f1bd f39d 98bd a5eb 34bd
000001d0: 22c1 5f3d 0b13 7a3c 9a9f 263e f881 b0bc
000001e0: b5e3 173e 1935 f3be 634a 913e e497 04be
000001f0: 507e 8abe 20e4 dcbd bb5f 2fbc 24e3 5cbe
00000200: 5979 36bd d8f5 2d3f fce6 45be 34c1 b23e
00000210: 9b87 20be 89d4 573e 7665 f53d 9f3c a3bd
00000220: 3121 50bb 9530 0d3e a152 903e 6d70 563e
00000230: 0c1b 973e c577 c93e db19 10bd 2d77 8d3e
00000240: 97c6 9d3b 1e6f 95bc 5207 13be de9a bd3d
00000250: 2b38 d53e 4938 ccbc 7141 1c3e 0b7c 023f
00000260: 20cb 4bbe 3c35 c63d 9ddf 203f 0afa 9d3d
00000270: 8ad0 10be 23cf ab3e 5711 f93e a7d8 0a3f
00000280: e7e5 59ba fdbd 273e b030 883e dab5 823e
00000290: d2ab a63d e26e 2fbe 46f8 da3d 89e4 ed3d
000002a0: 5532 133c 1ac0 283e 2c0b 02bd c05c be3e
000002b0: 5804 63bd f258 a13e 6b16 103e c7a4 853e
000002c0: 4a31 053e 8693 e2bd a70d aebc 8479 0fbe
000002d0: fbf4 a13e 1f1f d53d 61f6 5fbe 2466 16bd
000002e0: fb06 113e e8fc 943d b876 9dbd 9e4f 353f
000002f0: ac80 d03e 31c6 3bbe ae3b dcbd 8fe6 163e
00000300: be7e 96be 717f 273e f3a2 5d3e 2e89 b73e
00000310: a08f 13bd 0c92 663e 5bba 243e b836 68be
00000320: 2e01 953d 38e6 86bd 7218 883e 3d1b 503e
00000330: 05ac 28bd 0ddd 8ebe c447 953e f6a1 883e
00000340: 9536 7e3d 7482 68be 4725 433d 1665 9d3b
00000350: 7723 d83e 6617 2f3e 885a ddbd 4947 373e
00000360: 4030 0ebc dc26 fc3d f504 3f3e 150c 073e
00000370: 750e 253e 579e 9e3e 9612 633e 9655 713d
00000380: 9d6e a9bb e1e0 313e a552 65bd f80e 78be
00000390: bfa0 473e 228e 043e ee56 05be 164e 7e3d
000003a0: 395c 5b3e cca2 c63e 3850 32bd 9e98 8c3e
000003b0: 9c78 eb3d d615 af3e 1763 473e 3a4b a33e
000003c0: 23ed 70bd b811 113e a879 243e f9de a33c
000003d0: 9964 a53d e011 00be e8d0 453e 0c08 633d
000003e0: bafa d4bd 9af2 313e 6988 6bbd 0cb5 ed3e
000003f0: 35c4 203e 15d8 14be 6ed1 293e f560 263e
0.19271204 -0.37702787 -0.010541692 -0.73323524 -0.21306175 0.013337009 0.07622568 0.36060917
-0.39704135 -0.20904084 -0.4650431 -0.56061405 0.104268365 -0.06083508 0.12812844 0.5375058
-0.18785061 0.35813096 -0.08619742 0.087311804 0.2643117 0.09985909 -0.20054166 -0.5821311
0.039082523 -0.3879979 -0.5295923 -0.03529051 0.014302298 -0.45449218 -0.4429345 -0.49832475
0.33652598 -0.065927 0.24500605 0.20855094 0.41919267 0.41600436 0.5960405 -0.5727474
0.5604255 0.1907517 0.20034398 -0.29078856 0.43035996 0.2610668 0.16021289 0.24881206
-0.33946112 -0.31287962 0.09184416 0.34495384 0.3657139 -0.33808565 -0.08015119 -0.1805514
-0.17856716 0.225102 0.30030322 -0.17424978 -0.12853876 0.015866533 0.24897455 -0.0121766925
0.092701405 -0.4088829 -0.11312718 -0.6310476 -0.091150895 0.28061676 0.10688053 -0.07361118
0.0074937865 -0.09669246 0.18773106 0.12952003 0.030857144 -0.016246945 0.42391837 -0.5656007
0.2472226 0.17648724 0.20626669 0.15737168 -0.4872411 -0.0733781 -0.1572194 -0.26914498
0.0072483122 0.058220107 -0.623157 -0.17875609 0.08198123 -0.55002815 -0.61307466 0.1514509
-0.34290323 0.14530112 0.059298594 -0.23537129 0.031734042 0.37656933 -0.089131616 0.020266011
-0.9684391 -0.4592181 -0.043868676 0.007595243 0.16284925 0.20778468 0.018435523 0.16256593
-0.031214736 -0.11811149 -0.074520014 -0.04417004 0.054627545 0.015263329 0.1627182 -0.021546349
0.14832957 -0.47501448 0.28377065 -0.12948567 -0.27049494 -0.10785699 -0.010703976 -0.21571022
-0.04454932 0.6795325 -0.19326395 0.34913027 -0.1567673 0.2107717 0.11982243 -0.07970547
-0.0031758065 0.13788064 0.2818804 0.20941325 0.29512823 0.3934919 -0.035180908 0.27629986
0.0048149335 -0.018241461 -0.14358261 0.09258054 0.41644415 -0.024929183 0.15259339 0.50970525
-0.19901705 0.096781224 0.62841207 0.07713707 -0.14142051 0.3355647 0.48646042 0.54236835
-0.0008312151 0.16381069 0.26599646 0.25529367 0.08138241 -0.17132142 0.10691886 0.11615855
0.008984168 0.16479531 -0.031748936 0.37180138 -0.055424064 0.31513172 0.14071052 0.26102278
0.13007084 -0.11063294 -0.021246744 -0.14011198 0.31632218 0.104063265 -0.2187133 -0.036718503
0.14162819 0.072748005 -0.076886594 0.7082461 0.4072317 -0.18337323 -0.107535705 0.14736389
-0.29393572 0.16357209 0.21644191 0.35846847 -0.036025643 0.2251665 0.16086714 -0.22677124
0.07275616 -0.065868795 0.2658115 0.2032289 -0.041179676 -0.27903023 0.29156315 0.26686066
0.062063772 -0.22706014 0.047642972 0.00480331 0.42214558 0.1709877 -0.10808283 0.17898287
-0.008678496 0.12312099 0.18654235 0.13188203 0.16118796 0.3098018 0.22175059 0.05891951
-0.005170657 0.1737094 -0.05598702 -0.2422446 0.19494914 0.12944844 -0.13021442 0.062086187
0.21421899 0.3879608 -0.043533534 0.27460188 0.11497614 0.34196347 0.19471394 0.3189333
-0.0588199 0.14166915 0.16062033 0.020003783 0.08075828 -0.12506819 0.19317973 0.055427596
-0.10399385 0.17377701 -0.057503138 0.4642719 0.15699847 -0.14535554 0.16583797 0.16247924

net.2.bias f4 [64]
00000000: fa0c 643e f6c6 873e 6cee 54bc 703c 1c3d
00000010: 8f96 033d 8e4d aa3e 2ad5 0d3e 12dc 0f3e
00000020: 2f32 05bd bda8 293e 82bd cd3d bef3 9fbd
00000030: 857a 23bd f0b0 ff3c efce b23e e5f1 e3bd
00000040: 077d bebd e30e adbc eea0 bfbc fcc4 1d3e
00000050: d260 3b3e f383 333c e681 663d 6432 973d
00000060: 40d1 3b3d f897 babc 2946 11bd e691 243d
00000070: 8f9c 253e 6336 b4bd 4258 c23d b04d 813e
00000080: df2c 813d c386 643e 13a2 acbd 49a4 50be
00000090: 396d 13bc 71dc e1bd 3914 c13e f01e 973e
000000a0: 56f6 b6be 27ff 863e 5eaa 303e d0ad 9c3e
000000b0: 3994 073d 7da4 61be f38a 803d 267e 803e
000000c0: 44db aabd 09b7 a43e 0985 f23e ec95 373e
000000d0: 1c81 cabd 0f44 86bd fbf7 a93d 298c 123e
000000e0: 7c1d ad3d 40f5 893e b0fa ec3c a25e c43e
000000f0: 3c9a 9b3d afe0 d53d f55f 2b3e f3cd 94bd
0.22270575 0.26518983 -0.012996297 0.038143575 0.032126006 0.33262295 0.13850847 0.14048794
-0.032518562 0.16568275 0.10045911 -0.07810162 -0.039911766 0.0312123 0.34923503 -0.11130122
-0.09301191 -0.021125263 -0.023392167 0.15407175 0.18298653 0.010956752 0.056276225 0.07382658
0.045853853 -0.022777542 -0.0354673 0.040178202 0.16173004 -0.08799436 0.0948949 0.25254583
0.063073866 0.22317033 -0.08429351 -0.2037517 -0.008998209 -0.11028374 0.3771074 0.2951579
-0.35734814 0.2636654 0.1725249 0.30601358 0.03310034 -0.22035404 0.062765025 0.25096244
-0.08342603 0.32170895 0.47367123 0.17928284 -0.09887907 -0.0655595 0.08299252 0.1431128
0.08452889 0.26944923 0.02892813 0.3835345 0.07597777 0.104432456 0.16735823 -0.07265844

net.4.weight f4 [1, 64]
00000000: 2355 eb3e 2fbc abbe 1ce2 e03e db91 c33e
00000010: 5fbf 373f bcf0 04bf 647a cdbe e40d d63e
00000020: 9744 e3bc 8925 a3be a6f9 113e 5897 933e
00000030: ba26 c6bd 3702 02bc 1358 b8be edee ed3e
00000040: 1adb d13e b0a3 133f 04b3 173f 16ed ccbe
00000050: d8f5 b1be e037 82be 0cba c83e be03 453e
00000060: 563b 88be e1e6 943e cfb0 39be 1772 6b3d
00000070: 2de5 b7be 90ab 503e 3344 9f3e 5d01 c6be
00000080: 91c7 05bd d8b7 abbe 1f4f 123f d2ac 81be
00000090: b72f 033e 260c 1bbe e69a d1be b694 ddbe
000000a0: 7fe6 5dbe d8fb 62be cbb1 d9be 05b1 acbe
000000b0: 9e84 d03e 02bc 8fbd 7a0c 753e f748 04bf
000000c0: ac73 753e 676e c7be f5ee b5be c79f 1b3f
000000d0: f1f7 48be f6ec 0f3f 5722 73be 741d e03e
000000e0: 5a80 933e 9bfb edbe f1ad 30be 250e 99be
000000f0: c993 1c3f eb0a 003c 6084 a53e a5c1 9dbd
0.45963392 -0.3354201 0.43922508 0.38197216 0.71776384 -0.5192983 -0.4013244 0.41807473
-0.027742667 -0.31864575 0.1425539 0.28826404 -0.09675355 -0.007935098 -0.36004695 0.46471348
0.40987474 0.5767164 0.5925753 -0.40024632 -0.34757876 -0.25433254 0.39204443 0.19239709
-0.2660777 0.29082397 -0.18133853 0.05748185 -0.35917035 0.20377946 0.3110672 -0.38672915
-0.032661024 -0.335387 0.5715198 -0.25327164 0.1281117 -0.15141353 -0.4093849 -0.4327752
-0.21669959 -0.22166383 -0.42518458 -0.33728805 0.4072618 -0.070182815 0.2393054 -0.51673836
0.23969907 -0.38951418 -0.35533872 0.60790676 -0.19625832 0.5622095 -0.23743568 0.4377247
0.28808862 -0.46481022 -0.17253853 -0.29893604 0.61163 0.007815103 0.32327557 -0.077029504

exp_avg f4 [64, 8]
00000000: 3bd9 dc39 3ecb d239 152a 99b8 25fb 0aba
00000010: 3cfb 3b3a 1b7c a5b7 b9a0 5c3a 6b90 c03a
00000020: af2a 2ab6 5188 31b6 b837 17b6 aef9 44b7
00000030: 5995 52b8 9bdd 34b6 6e28 18b4 5489 8ab4
00000040: 3faa b3b6 dd1d bbb6 e241 9fb6 f36f d1b7
00000050: 1f33 c1b8 7bdf beb6 aae6 9db4 162a 0cb5
00000060: b888 753a ee6f 703a 3579 c0b9 b29b 6ebc
00000070: c060 d53a d1fc b0b8 9ccb b03a fbb5 123b
00000080: 1617 4d36 7bee 2f36 7fd4 ca36 7231 de37
00000090: f7d6 3739 bc13 5f36 83eb 6bb6 9b6a b2b6
000000a0: 3ef2 9036 b33c 9a36 6dd9 6736 c340 cb37
000000b0: d02a 8c38 d197 9a36 6f33 4335 031f ae35
000000c0: c66a 9739 3786 8939 d9fe 7338 5a3e dc3c
000000d0: 0bdb b43a 9c59 0f3a aff8 1d3b 0433 d13b
000000e0: 36c3 9b39 75fd 8d39 7c59 db37 77cc d93c
000000f0: 0cc2 8b3a 9c2e 093a a35a 2b3b b5df d53b
00000100: 0000 0000 0000 0000 0000 0000 0000 0000
00000110: 0000 0000 0000 0000 0000 0000 0000 0000
00000120: 0000 0000 0000 0000 0000 0000 0000 0000
00000130: 0000 0000 0000 0000 0000 0000 0000 0000
00000140: 0400 0000 0400 0000 0000 0000 0400 0000
00000150: 0400 0000 0400 0000 0400 0000 0400 0000
00000160: 3f65 5939 e9e6 4439 4ac5 2b38 66ec 9d3c
00000170: 88f1 7d3a 5c39 d839 62e7 e93a ceb4 9b3b
00000180: fb8f b3b8 ff6c dfb8 391b a5b5 5c12 0cb9
00000190: 6750 cfb9 a372 9f37 1d76 55b9 ed26 6bb9
000001a0: 484d 033a 0580 ff39 d1c0 46b9 f226 b8bb
000001b0: 1a97 3a3a 3a9b e9b7 0791 653a 3898 ce3a
000001c0: 7e4c 7238 2105 7338 3b1e f537 0acf 9b3b
000001d0: 9853 db39 860c c538 d77e 9139 85a9 1d3a
000001e0: fba7 8139 f8d5 7b39 5017 a9b8 b2be 0abb
000001f0: 44f9 b739 1adc 55b8 d626 e739 2d38 0d3a
00000200: 0000 0000 0000 0000 0000 0000 0000 0000
00000210: 0000 0000 0000 0000 0000 0000 0000 0000
00000220: bce8 7939 e344 6739 37aa 8c37 f35b 893b
00000230: ecb9 e039 d787 f8b6 0d36 323a bada 8a3a
00000240: 6756 a339 1a54 9439 37f6 4339 c74a 833c
00000250: af3b 883a eee3 a739 60f3 cf3a 4932 863b
00000260: 0000 0000 0000 0000 0000 0000 0000 0000
00000270: 0000 0000 0000 0000 0000 0000 0000 0000
00000280: 2344 ce38 f8eb b338 7cb4 1cb7 de3f f83a
00000290: 0317 8239 3931 1039 bf99 0a3a 423d d03a
000002a0: 0000 0000 0000 0000 0000 0000 0000 0000
000002b0: 0000 0000 0000 0000 0000 0000 0000 0000
000002c0: b965 ab39 1845 9a39 7eab 4038 247f d43c
000002d0: 3a1c bf3a 81f8 0d3a cc7f 273b 8119 d63b
000002e0: 0000 0000 0000 0000 0000 0000 0000 0000
000002f0: 0000 0000 0000 0000 0000 0000 0000 0000
00000300: 0400 0000 0400 0000 0400 0000 0400 0000
00000310: 0400 0000 0400 0000 0400 0000 0400 0000
00000320: 4d21 323a db12 2c3a 000c 65b9 d952 a6bb
00000330: 79e3 913a 500b 86b7 a07e af3a a609 193b
00000340: 0000 0000 0000 0000 0000 0000 0000 0000
00000350: 0000 0000 0000 0000 0000 0000 0000 0000
00000360: 83d3 0f3a 9a1a 0e3a daf9 9cb9 d93f 80bc
00000370: bf60 e639 436e 31b9 7598 fb39 75b7 d739
00000380: fe58 023a e93f fa39 664e fcb8 2552 96bb
00000390: bd85 463a 7c0f 56b8 e905 513a 06d2 b03a
000003a0: 0000 0000 0000 0000 0000 0000 0000 0000
000003b0: 0000 0000 0000 0000 0000 0000 0000 0000
000003c0: 0400 0000 0400 0000 0000 0000 0400 0000
000003d0: 0400 0000 0000 0000 0400 0000 0400 0000
000003e0: 4376 8137 9371 8537 4e3a 7737 a3f9 bc38
000003f0: 6fd1 a239 3c4b 8137 2d6e 2a34 efa3 e235
0.0004212352 0.00040205749 -7.303447e-05 -0.00053017057 0.0007170921 -1.9727324e-05 0.00084162835 0.0014691477
-2.535682e-06 -2.6454402e-06 -2.2533186e-06 -1.17406435e-05 -5.0206992e-05 -2.6951082e-06 -1.4170811e-07 -2.5804422e-07
-5.354435e-06 -5.576511e-06 -4.746239e-06 -2.4966872e-05 -9.212479e-05 -5.688458e-06 -2.941136e-07 -5.221531e-07
0.0009366381 0.0009171952 -0.000367114 -0.014563488 0.0016279444 -8.439425e-05 0.0013488415 0.00223863
3.0560818e-06 2.6215846e-06 6.044807e-06 2.6487487e-05 0.0001753232 3.3241076e-06 -3.5154815e-06 -5.317224e-06
4.319735e-06 4.596624e-06 3.454824e-06 2.4229643e-05 6.683695e-05 4.6072314e-06 7.2718007e-07 1.2973036e-06
0.00028880517 0.00026230674 5.817306e-05 0.0268852 0.001379819 0.000546837 0.0024104526 0.0063842554
0.00029709347 0.00027082456 2.6148504e-05 0.026586754 0.0010662689 0.00052330806 0.0026146553 0.006526912
0.0 0.0 0.0 0.0 0.0 0.0 0.0 0.0
0.0 0.0 0.0 0.0 0.0 0.0 0.0 0.0
6e-45 6e-45 0.0 6e-45 6e-45 6e-45 6e-45 6e-45
0.0002073245 0.00018778037 4.0953317e-05 0.019277763 0.0009687175 0.00041241467 0.0017845447 0.004751778
-8.5622036e-05 -0.00010653771 -1.2301381e-06 -0.0001335828 -0.0003954202 1.9007659e-05 -0.00020357264 -0.00022425847
0.0005008769 0.00048732772 -0.00018954581 -0.005619877 0.0007117853 -2.7848047e-05 0.00087572675 0.0015761917
5.7768535e-05 5.794049e-05 2.9220353e-05 0.0047549056 0.00041833217 9.396025e-05 0.00027751058 0.0006014335
0.00024729953 0.00024016935 -8.06289e-05 -0.0021170792 0.00035090197 -5.0988143e-05 0.00044088688 0.0005387094
0.0 0.0 0.0 0.0 0.0 0.0 0.0 0.0
0.00023833191 0.00022055539 1.6768563e-05 0.0041918694 0.00042863132 -7.40679e-06 0.00067982153 0.001059375
0.00031154157 0.0002829142 0.00018688371 0.016026868 0.0010393764 0.00032022543 0.0015865378 0.00409535
0.0 0.0 0.0 0.0 0.0 0.0 0.0 0.0
9.835537e-05 8.579338e-05 -9.340347e-06 0.0018939932 0.00024812677 0.00013751247 0.0005287192 0.0015887397
0.0 0.0 0.0 0.0 0.0 0.0 0.0 0.0
0.0003269145 0.00029424648 4.593608e-05 0.025939532 0.0014580556 0.0005415753 0.002555835 0.006533802
0.0 0.0 0.0 0.0 0.0 0.0 0.0 0.0
6e-45 6e-45 6e-45 6e-45 6e-45 6e-45 6e-45 6e-45
0.00067951233 0.0006564089 -0.00021843612 -0.005075794 0.0011130414 -1.5979313e-05 0.0013389178 0.0023351698
0.0 0.0 0.0 0.0 0.0 0.0 0.0 0.0
0.0005486535 0.0005420834 -0.00029940793 -0.015655445 0.000439411 -0.00016921111 0.0004798804 0.00041144682
0.00049723673 0.00047731333 -0.00012030899 -0.004587429 0.0007573029 -5.1035997e-05 0.0007973598 0.0013490326
0.0 0.0 0.0 0.0 0.0 0.0 0.0 0.0
6e-45 6e-45 0.0 6e-45 6e-45 0.0 6e-45 6e-45
1.5433068e-05 1.5907723e-05 1.4735922e-05 9.011037e-05 0.00031055088 1.5413032e-05 1.5872565e-07 1.6886023e-06
