ppo_model_final.pt (torch, 132483 bytes, 33 tensors)

net.0.weight f4 [64, 8]
00000000: ea80 6e3e 92a3 a13e 636b be3e 72d6 583d
00000010: 2546 80be c081 9a3e 6dd4 b23e 2fa5 f6bd
00000020: 7626 32be ac8c 333e d3c6 9d3e f8a3 5c3e
00000030: 3d07 7cbe 4cb9 a8be 4c14 8e3e 84c2 59be
00000040: 7ca5 39be cffe 593e 8bdc 52be a520 13be
00000050: 3cc5 92be a45d 3e3d fb67 50be 4fd1 0e3e
00000060: f8c5 cabe b3a7 6bbe 44cf 1b3e 8d90 6fbd
00000070: e0fc 17bd d654 4c3e 3004 da3d c2bc 823e
00000080: bf14 54be 67ba b13e 60b0 b33e ff0b f33d
00000090: c299 a2be a16e 60be c325 b73e f0ac 1a3d
000000a0: dbf6 0abe 6ae6 953e 0340 c0be 0539 303e
000000b0: 8338 2bbe 3661 453d 42c9 a63e 1397 063e
000000c0: e173 813e dfe1 a9be a348 a8bd 2571 9e3d
000000d0: 7c9e 14be dfbc 39be e889 c83d 9082 95be
000000e0: f7fe 70bb 73f0 8ebd b09a 163d e2be 953e
000000f0: eda4 62be f5ea 66be b0aa 433e 74c0 19be
00000100: 5ece 423d ba04 a13d b459 54be 262c 293e
00000110: a96c 84be a4c1 1dbe 0b8a 023e f8df cdbd
00000120: 5b2b 873e c0a1 f13d 3f4f 553d bf2a c4bd
00000130: 26bc 8d3e 4227 8abe d849 a4be 65fa 853d
00000140: 952b 8fbe ae3b ce3d 3190 243e 0829 b5bd
00000150: 809a 19be 91ad b2be 4764 133e 30c8 123e
00000160: deeb 0d3e b7ba 51be 9f0d 84be 4baa 58be
00000170: a34a 1fbe 0206 96be e029 82bc 4860 39bd
00000180: ca7d 9bbe e013 ef3d 2ce3 e63d 80d2 65bc
00000190: 3549 35be 5f07 a6be 53d0 5ebe c0fd 6b3c
000001a0: 30bd 063d 918a 8d3e 4d38 bd3e 5078 993d
000001b0: 5ac4 703c 1903 5ebe 8de4 2bbe bf60 8bbe
000001c0: dfed 43be 364c 49be 32bd 0fbe 8b53 713e
000001d0: 88da 95be 8c40 1b3d d3e4 b83d 0a89 cabd
000001e0: 2d12 53be 1e74 92be 209d adbe 2e29 f3bc
000001f0: bf15 293e 283c 72be 81e6 b23e 275e 773e
00000200: 63d3 acbe a6e9 a53e d2a5 373e c0c5 4ebe
00000210: 2b45 1cbe d0de 623e 3e24 20be d68c 073e
00000220: 3e88 84be 8c0e babe 65c3 563e 789f 443e
00000230: 25e9 85bd 37e3 b3bd 5ec8 0f3e f74f 81be
00000240: 9aba ae3e 4e53 8b3e e95c 883e 1807 c3be
00000250: b816 c5bd 395f eebc b604 7f3e 5a5b 553e
00000260: 8421 c4be 6e29 5f3e 43bc a1bd 43b4 11be
00000270: 8984 963d d415 49be 6688 b7be 4aa7 993d
00000280: 21dc 253e 7b4e 793e a69d a73e 4033 163e
00000290: e829 8b3e bb38 babd 352b 59be 7452 09be
000002a0: 4898 7bbe 23c8 3fbe fcb6 b13d a373 10be
000002b0: 8eb1 8e3e cac3 1cbe 78a8 8b3e b678 8dbd
000002c0: 0e7c a2be 1e68 a7bd 2b5b 2abe bcde 383e
000002d0: 8ce0 9c3d ed11 d5ba 0bca 15be 9645 823e
000002e0: 99e7 a43e fdb4 7d3e 0bac 523c bc8f 0fbd
000002f0: 3b37 3a3c d91b 833e b4e9 6dbb 006b 8abe
00000300: 13ae b73c 94c1 55bd 8e50 d8bd c057 0c3e
00000310: 25ec 0e3e 9c8d 0c3e 6358 a93d 0442 c63d
00000320: 9e6f 97be d0f7 92be 6032 56be be6c 813d
00000330: 2242 8dbe 6909 e13d 4840 a9be aebb 813e
00000340: 6867 643d c13f 9dbe 20cb 79bd 2633 92be
00000350: 106d 1abd 7d40 44be 32fb 263e 7bb2 96be
00000360: b33e 46be 934d 5dbd 9316 843e f60c 7e3e
00000370: 46f7 0dbd cad9 57be b9a8 233e f3f7 4c3e
00000380: 39e7 76be bce7 c33c 8ab0 623e 907f b6bd
00000390: 17eb 3fbe bc7a 56bd 554c 44bd 7914 873d
000003a0: fcd6 dc3d f621 b7bd 806a cd3c 82d8 97be
000003b0: 857f 3abe 44e9 92be 81f4 b53e b476 683e
000003c0: dded 8ebe cf1c b63d 8d9b 8f3e 079d b5be
000003d0: 07f5 ce3d d005 8d3e 3e26 843e cebb 143e
000003e0: e024 26be 1f9c d7bd e985 fc3d 2086 2d3c
000003f0: 8d88 243e cd27 fb3b 5b80 d03d 996a dfbc
0.23291364 0.31570107 0.37191305 0.052938886 -0.25053516 0.30177116 0.34927693 -0.12043225
-0.17397484 0.17534131 0.30815753 0.21546924 -0.24612136 -0.3295387 0.2774986 -0.21265608
-0.18129534 0.21288608 -0.20591943 -0.14367922 -0.28666103 0.04647602 -0.20352165 0.13947032
-0.39604163 -0.23013191 0.15215784 -0.058487464 -0.037106395 0.19954237 0.1064533 0.25534636
-0.20711039 0.34712526 0.350955 0.118675224 -0.31757933 -0.21917202 0.35770997 0.037762582
-0.1357073 0.29277354 -0.37548837 0.17209251 -0.16720776 0.04818841 0.32575423 0.13143568
0.2528372 -0.33180138 -0.08216979 0.07736424 -0.14513582 -0.18138455 0.097919285 -0.29201174
-0.0036773065 -0.06979456 0.036768615 0.29247195 -0.22133227 -0.22550566 0.19108081 -0.15014821
0.04756009 0.0786223 -0.20737344 0.16520748 -0.2586415 -0.154059 0.12747972 -0.10052484
0.26400265 0.117984295 0.052077528 -0.09578466 0.27682608 -0.26983076 -0.32087588 0.065418996
-0.27962938 0.10069977 0.1607063 -0.08845717 -0.15000343 -0.34898046 0.14393722 0.14334178
0.13859507 -0.20481382 -0.25791642 -0.21158712 -0.15555815 -0.2930146 -0.015889108 -0.045257837
-0.30369407 0.11673713 0.11273798 -0.014027238 -0.17703708 -0.324275 -0.21759157 0.01440376
0.032895267 0.2764478 0.36957017 0.07493651 0.014695251 -0.21680869 -0.16786404 -0.2722225
-0.1913371 -0.19657978 -0.14037016 0.23567025 -0.2926829 0.037903354 0.0902802 -0.098894194
-0.20612402 -0.28604215 -0.3390894 -0.029682722 0.16512202 -0.2365576 0.34941486 0.2415701
-0.33755025 0.32404822 0.17934349 -0.20192623 -0.1526076 0.22155309 -0.15638825 0.13237318
-0.25885195 -0.36339223 0.20972975 0.19201458 -0.065386094 -0.08783572 0.14041278 -0.2525632
0.3412674 0.27211994 0.26633385 -0.3809135 -0.09623474 -0.02909814 0.24904141 0.20835629
-0.3830682 0.21793148 -0.07897236 -0.1422892 0.07349498 -0.19637233 -0.3584625 0.07502611
0.16197254 0.24346344 0.32737464 0.14667988 0.2718041 -0.09092852 -0.21207888 -0.1341036
-0.2456981 -0.1872869 0.086774796 -0.14106612 0.27869838 -0.15309063 0.2727697 -0.069077894
-0.3173527 -0.08174156 -0.1663634 0.18053716 0.076600164 -0.0016255953 -0.14627855 0.25443715
0.32207945 0.24776073 0.012858401 -0.035049185 0.011365707 0.25607184 -0.0036302628 -0.2703476
0.022421872 -0.052186564 -0.105622396 0.13705349 0.1395727 0.13725895 0.082688116 0.0968056
-0.29577345 -0.2870469 -0.20917654 0.06319569 -0.27589518 0.10988123 -0.33056855 0.253385
0.05576268 -0.30712703 -0.06098473 -0.28554648 -0.037701666 -0.19165225 0.16306761 -0.29433045
-0.19359855 -0.05402906 0.25798473 0.24809632 -0.034659646 -0.21079174 0.15982331 0.2001646
-0.24111642 0.02391421 0.22137657 -0.08911049 -0.18742023 -0.052363142 -0.04792436 0.06595702
0.107831925 -0.089420244 0.025075197 -0.2965737 -0.18212707 -0.28693593 0.35538104 0.22701532
-0.2791585 0.088922136 0.28048363 -0.35471365 0.10105329 0.27543497 0.25810426 0.14524767
-0.16225004 -0.105278246 0.12330229 0.01059106 0.16067715 0.0076646567 0.10180732 -0.02727251

net.0.bias f4 [64]
00000000: adb5 5a3e 4256 30be 80e2 5e3e 4e06 3e3e
00000010: 518d bebd e4f8 45bb a6d8 5d3e ef8c 84be
00000020: 363e 5cbd 06e7 48be 4cd3 96be 0e4e 3f3e
00000030: 6049 a8be cd24 e5be 9bc2 e03d 45b7 603e
00000040: 472f a33e 6a72 a53d 16c4 adbe aba3 f63d
00000050: 572a 69be b565 7dbd ff89 4c3e 23aa a03e
00000060: dc41 f03d 6c3b 57be 3332 10be 8cb3 8e3d
00000070: 3859 483e e084 523d 05ab 01bd 46bd 0dbc
00000080: ae16 7d3e bbb4 e83d 220a 81be 74fb 99be
00000090: ac6b 843e eb53 743e 86bc 79be 843d 63be
000000a0: b896 b5bd 9a14 85be bf76 66be e056 6b3c
000000b0: 92bd 31be 60d3 493d cc6b 3d3e fe95 30be
000000c0: f9a5 abbe 6d6b 9bbe 1e0d 3abe 58be fabd
000000d0: 8984 743e c42b 76be 09ac a03e d9a5 f1bd
000000e0: 9b2d 0cbe 0960 aebe 4537 6e3e 7781 d53c
000000f0: 6f1a 1c3e 405c 8b3e d58e 643e a8e6 83be
0.21358366 -0.17220405 0.2176609 0.18557093 -0.09304298 -0.0030208165 0.21664676 -0.25888774
-0.053770266 -0.19619378 -0.29458082 0.18682119 -0.3286848 -0.4475464 0.10974618 0.21944912
0.31872007 0.080784634 -0.33938664 0.12042936 -0.22770058 -0.061864574 0.19974516 0.31379804
0.11731312 -0.21018761 -0.1408165 0.069678396 0.19565284 0.05139625 -0.031657238 -0.008651083
0.24715683 0.113625966 -0.25203043 -0.30074656 0.25863397 0.23860137 -0.24388322 -0.22191435
-0.08866638 -0.2599228 -0.22506236 0.014363974 -0.17357472 0.04927385 0.18498152 -0.17244717
-0.33525065 -0.30355397 -0.18169066 -0.122433364 0.23878683 -0.24040133 0.31381252 -0.11799211
-0.13689272 -0.34057644 0.23263271 0.02606271 0.15244459 0.2721882 0.22320111 -0.25761914

net.2.weight f4 [64, 64]
00000000: bc34 b5bd b6f6 77bd 44ee 523d ece3 e0bb
00000010: 1402 883d f866 c1bd c494 72bc 3db6 99bc
00000020: 37a8 9f3d 47e0 06bc 2a89 ad3d 2403 6ebd
00000030: 4093 5fbd c5d5 0ebe 936f c8bc 2f28 afbd
00000040: b43c bfbd d477 d1bc f057 543c 11d7 043c
00000050: 5e3d 52bc 0d24 5cbd e2d2 8b3c 9930 99bc
00000060: 7838 223d 19f3 b43b f48d e33d 5a71 9abd
00000070: c874 dbbd f204 933d ddf8 44bd 65bf d33d
00000080: df60 46bd 36e2 a9bc 9228 a03d bfb1 96bd
00000090: a6f4 c33d ca1f 60bd c7e3 773d e6aa 12bd
000000a0: 9700 f8bd 60ad bbbc 4899 bcbc 1403 46bd
000000b0: f960 db3d d086 283d 6f13 e6bd a8ec 81bd
000000c0: 4cf7 bebd 509c ab3c 0572 9c3d 9650 963d
000000d0: 0b96 44bd be57 ee3d 6c31 d5bd 936f 1f3d
000000e0: f15c e4bd 5264 883d b3c4 efbc 4958 613c
000000f0: f18e eebd b455 793c e122 fc3b 685b c33d
00000100: 721f 673c 6972 7bbd 353b 95bd 8ed1 a83d
00000110: 9e55 00be d340 a53d b170 e1bd 9d83 25be
00000120: 392e 6fbd 349c 4d3d 5195 21bd 024f da3d
00000130: 247b 7dbd 1d10 b23d 7101 13be 794a fcb9
00000140: 5107 bfbd 61bc e43c 1937 58bd daa3 723c
00000150: 277b a43c ef77 ac3d e999 823d ad37 d73d
00000160: 8c80 bdbd f177 22bb 7831 acbd 3fb4 c8bd
00000170: 281e de3d 4afb ad3c e978 7e3d 11df d93d
00000180: 988d 26bd 492a 933c c041 79bb 830b f53d
00000190: 0901 b03d 1473 b63d 86e4 c53d 1d24 183d
000001a0: 35fb 053d 8770 0abd 203d 3f3c 2005 73bd
000001b0: 0e31 d0bd 60d1 b0bb 5a79 a53c b7c5 1c3e
000001c0: 3d44 333e a645 f6bd 94d7 003e 30f9 253d
000001d0: 2695 e73d 703a 9abc 50b7 c53c c57d a73d
000001e0: 0ebc db3d 9f25 bcbd fe4f cf3d 9b2c 40bd
000001f0: 7587 593d 8fa2 243e 6006 173d 00db 08bd
00000200: ea01 4fbb ac1a 733b 20fd ae3b f7a0 6dbd
00000210: d5ad 533d ad9a 3abc 9751 7c3d 1fdd 16bd
00000220: 4995 65bd 2bdb 633c a9b5 813d 421c f53d
00000230: 22f0 c53d 5c2b 903d b79a e3bd 07e5 a33d
00000240: ce08 d13d b07f 2d3d 1e70 a2bd c557 cfbc
00000250: 2f7b 0abe 2e31 89bd 6c59 88bb 5ea2 943d
00000260: 1234 d6bd 123f cebc 7a07 cdbd 7b6b 8b3d
00000270: 7801 b3bc 54dc b7bd 9b53 bb3a fa1b d53d
00000280: 21ad adbc 3c31 cfbc bc2b 15bd 6d6d 033e
00000290: db3a 7fbd 4b00 d43b 0b05 8a3c 69c7 ab3d
000002a0: c7c0 b4bd 886b b53c 52b6 c63d 2afa 88bd
000002b0: dba8 c4bd 3eaa cebd c862 fa3c c406 0bbd
000002c0: aed6 b33d 9add d0bd d08d 0e3e 2e85 11be
000002d0: 9c02 81ba d86c 0dbd 328d bbbd decf 08be
000002e0: 92f9 193d 557b 0a3d c10f 953d acaa c2bb
000002f0: 982d a73d e4c5 173e b68e d8bd ae8d cfbd
00000300: 09e1 303d e53f e6bd 8edb d1bd ac1f afbd
00000310: e2ab 06be 0ec8 ddbd fdce e4bd 7039 453d
00000320: 7ce1 5e3d 5fa4 babd c7ec acbc 40c1 043c
00000330: 3071 48bd e567 f9bc aa72 a2bd 7421 08be
00000340: 02c1 d1bd ff54 3f3d b810 3abd 3de6 86bd
00000350: f55e 6c3d dc7c d1bd 1a94 d3bc 910c 84bc
00000360: 8ec2 48bd 51a6 cd3c 6ee2 9d3d 207e 8cbd
00000370: 00be 27ba f887 b5bc 5a58 5e3d 411d 933d
00000380: db27 df3d 2178 03bd f6d1 b43d d6fc 4dbd
00000390: 5dac fb3c cb03 533d 0965 093d 074d 813d
000003a0: 8dfd 50bc 7448 f5bd b462 403d 188b babd
000003b0: 8400 053e f09f c53c 36cd 8fbc 1166 da3d
000003c0: 78f8 cfbc f196 14bd 6729 a13d f687 adbc
000003d0: 82f8 0bbe a04d 933b a2e2 f83d b3e2 de3c
000003e0: 1f92 89bd 6752 8b3d 1251 bc3d e1c4 b6bd
000003f0: fb88 e2bd cf54 8abd 64e8 923d 8ed7 aa3d
-0.08847949 -0.060538016 0.05149676 -0.006863108 0.06641021 -0.09443468 -0.014805976 -0.018763656
0.07795756 -0.008232183 0.084734276 -0.058108464 -0.054583788 -0.13948734 -0.024467265 -0.08552586
-0.0933775 -0.025569834 0.012960419 0.008107916 -0.012832014 -0.05374532 0.01706833 -0.018699931
0.039604634 0.0055221436 0.1111106 -0.07541151 -0.10715634 0.071786776 -0.048088897 0.1033924
-0.048432227 -0.020737749 0.07820238 -0.07358121 0.09568147 -0.054717816 0.06051996 -0.035807513
-0.121094875 -0.02290982 -0.023022309 -0.04834278 0.107118554 0.041144192 -0.112341754 -0.06343967
-0.09324512 0.020948559 0.07638935 0.07339589 -0.047994655 0.11637829 -0.10409817 0.038924765
-0.1115054 0.066597596 -0.029268598 0.013753959 -0.11648358 0.015218187 0.0076945876 0.09538919
0.014106618 -0.061388407 -0.072866835 0.082430944 -0.1253266 0.08069005 -0.11007822 -0.16163488
-0.05839369 0.050197795 -0.03944904 0.10659601 -0.061885014 0.086944796 -0.14356019 -0.00048120672
-0.09327567 0.027921857 -0.05278692 0.014809573 0.020078255 0.08421313 0.06377012 0.10508666
-0.09253034 -0.002479073 -0.08407873 -0.09800004 0.108455956 0.021237988 0.062127028 0.1063825
-0.040662378 0.0179645 -0.0038033575 0.11965086 0.085939474 0.08908668 0.09662728 0.037143815
0.032710273 -0.03379872 0.011672288 -0.05933106 -0.101656064 -0.005396053 0.020199466 0.15309797
0.175065 -0.12025003 0.12582237 0.040520847 0.11307745 -0.018826693 0.024135262 0.081782855
0.10729228 -0.09186863 0.10122679 -0.04691754 0.053107698 0.16077636 0.036871314 -0.03341198
-0.0031586834 0.0037094755 0.0053402334 -0.058014836 0.05167945 -0.011389417 0.061601248 -0.03683197
-0.056050573 0.013907234 0.06333477 0.119682804 0.09664942 0.0703952 -0.11113494 0.08002668
0.102067575 0.0423581 -0.07931541 -0.025310406 -0.13523553 -0.066988334 -0.0041610505 0.072575316
-0.104591504 -0.025176559 -0.10011192 0.0680761 -0.021851286 -0.08977571 0.0014291884 0.10405727
-0.021200718 -0.025292031 -0.03641866 0.12834711 -0.06231199 0.0064697615 0.016848108 0.08387644
-0.08825832 0.022146001 0.097027436 -0.0668834 -0.09602519 -0.10091065 0.03056468 -0.033942
0.08781181 -0.10198517 0.13921285 -0.1421096 -0.0009842697 -0.03452763 -0.0915779 -0.13360545
0.037591524 0.033809025 0.072783954 -0.005940756 0.08162993 0.14821583 -0.10574095 -0.10134445
0.04318336 -0.11242656 -0.10246955 -0.08550963 -0.13151506 -0.10829173 -0.111722924 0.04815048
0.054414257 -0.091133825 -0.021108998 0.008102715 -0.04893607 -0.030445049 -0.07932027 -0.13294011
-0.102418914 0.046711918 -0.0454261 -0.06586883 0.057707746 -0.10228893 -0.025827456 -0.016119273
-0.049013667 0.02510372 0.07709204 -0.06859994 -0.00063988566 -0.022159562 0.054283477 0.07183314
0.10896274 -0.032096986 0.08829109 -0.05028995 0.030721838 0.05151729 0.03354362 0.0631352
-0.012755764 -0.1197671 0.04696913 -0.09108561 0.12988478 0.024124116 -0.017553907 0.10663999
-0.025387034 -0.03627676 0.07869225 -0.021182995 -0.13669017 0.0044953376 0.12152602 0.027207708
-0.067173235 0.068028264 0.091951504 -0.089242704 -0.11061283 -0.06754457 0.07173231 0.08341895

net.2.bias f4 [64]
00000000: 430f fbbd c974 12bd 2bc4 89bc ab4c a23d
00000010: 88f8 82bc c890 3bbd ca89 b3bd 48d1 e4bc
00000020: 6948 3a3d 63ff f63d bf52 33bd 5ddf 23bd
00000030: 003b fbbc b99d 373d 87a7 ac3d ffd2 3bbc
00000040: 5d22 34bd 6a6b 883d ea2c debd 8ae8 9fbd
00000050: 4ffa e63d a3ab cd3d 4773 8dbd 935a f23c
00000060: 1df7 e33b 1649 18bd cfab a73d bc13 143d
00000070: c958 adbc fb56 6e3c 9d93 833d e20f d4bc
00000080: 627a c53d 3ee7 97bd 85ae eabb 629a d63d
00000090: b4af 85bd 47d7 91bd e772 7dbd 2284 03bc
000000a0: 76e9 073d 69f1 803c ccd7 9a3d d3a2 993d
000000b0: f213 703c 4c26 95bd c186 d4bd 652a 8c3d
000000c0: 85dd f03d 565b dbbd dc13 793d ad3d c0bd
000000d0: 5885 af3c a395 65bc 5c21 4c3d 8d3c eebd
000000e0: 725d c03c 5a64 31bc 6074 c5bd da6d 733d
000000f0: 6091 f9bc 9285 87bd 64ca 673d 904e 55bd
-0.1225877 -0.035755906 -0.016817173 0.079247795 -0.01598765 -0.04579237 -0.087665156 -0.027931824
0.045479212 0.1206043 -0.043780085 -0.040007938 -0.030667782 0.04482815 0.08430391 -0.01146388
-0.043978084 0.066611126 -0.108484104 -0.07808025 0.11278211 0.10042503 -0.06906753 0.029584205
0.0069569484 -0.037179075 0.08187067 0.036151633 -0.0211605 0.014547105 0.064246394 -0.02588648
0.09642483 -0.07417153 -0.0071619176 0.10478665 -0.06527653 -0.07121139 -0.061877158 -0.008027108
0.03318163 0.015740113 0.07560691 0.075017594 0.014653193 -0.07282695 -0.10377265 0.068440236
0.117610015 -0.1071078 0.060809955 -0.09386764 0.021425888 -0.014012727 0.0498365 -0.11632643
0.023482058 -0.010827148 -0.096413374 0.059430934 -0.030464828 -0.066172734 0.0565895 -0.052076876

net.4.weight f4 [4, 64]
00000000: 6643 93bb 4192 8a3c f4ef 0a3d 487d c9bc
00000010: 7bac 86bb d116 04bc 1f45 ae3b 68a5 4cba
00000020: e6ca 1dbc 1403 28bc 012a 82bb ffa6 96bb
00000030: 20da 823a 16e5 813c 5427 173d 346d 703a
00000040: 5708 d13c 8fd1 d1b8 de39 3f3b 53a1 cfbb
00000050: 25fa 923c 6470 7abb a958 81bb 5546 e83a
00000060: ac74 b5ba 0a00 163d 0c42 f23b 5856 99b9
00000070: a523 ee3a a7bb 273c 040d 0d3c 629f 09bc
00000080: e4da 353a b495 b1bc 70e8 8dbd bbc2 063c
00000090: beb1 53bc b732 713b 9a43 053d b362 03ba
000000a0: 3fc9 903c 1c17 8ebc 486c 973a 1e0f 79bb
000000b0: 31ef fd3b 8051 3438 4e70 a7b8 dd31 1ebc
000000c0: 179d ce3b 7d57 c4bb f2be 0b3b b012 0a3b
000000d0: 80b5 bd3c 89a8 963b 035c 0cbc 3f7c 873b
000000e0: f091 4e3c d9da ddbb 3913 993a c18c fd3c
000000f0: 5c82 9739 0b0a 2fbc 7ddd d7ba e3af 20bb
00000100: e923 2c3c 14cb f4bc 2aaf 833c d430 413b
00000110: 92f9 adbb 1894 0fbb 87f7 5cbb 3876 8d3a
00000120: f802 8f3c 8e82 063d 1bf5 ab3a 559e c13c
00000130: c49e 183b 33f0 423c 8261 23ba 2f02 a23b
00000140: 186a 473c 8765 3e3b 543e 3b3b e34a 1e3d
00000150: 9575 ad3b d0c4 63bb 1cb2 baba a332 2abb
00000160: a6aa c33c 9a33 8fbc 4b59 563b 2496 b8ba
00000170: d76d 0cba 7427 1dbb 0fe9 8abc 1f4b 7e3c
00000180: 0821 b139 d8b3 573c 3dfa 813d 8836 36bd
00000190: 4e25 17bd b9c2 db3c 8e4e 013d e3fa 803b
000001a0: b5f3 bdbb 996c 063d 13df bdbb 6c0e 003d
000001b0: eada 81ba 40d3 edb8 a021 b33c 7735 213c
000001c0: a315 3bbb d831 95bb 0409 223b 4ba6 cb3a
000001d0: c53b 3d3c ee85 adb8 b7d3 853c ecc1 9b3c
000001e0: 57ce f0bb 9741 8cba e01d 603c 2638 263c
000001f0: 726f f33b d4bf 83b9 6417 15bb f3b5 f5ba
00000200: 0949 963b bb03 bb3d 3fba 99bd b32d 1f3c
00000210: 543d 6cbc 2a25 4b3c 0859 2f3a e065 363b
00000220: 88c4 533c 0f91 46bc 6c7c fc3b f75a 453c
00000230: 1cb4 99ba f231 21bd e2f8 5ebd 3da8 e13a
00000240: 11b4 863b b9a9 38bc 2623 d8ba 5964 aebc
00000250: 1997 88bd 5d0e 6a3c 53ce f3ba 0976 cebb
00000260: 2d25 543c 4a7a 28bc 0584 eebc 205c 7eba
00000270: 6980 cdba 68d9 a7bc 524f 15bb 8486 643c
00000280: 021e d0ba 2b34 0e3d ad7f e63d e260 723c
00000290: 1d48 1e3d 2315 e5bc e799 29bc c55f 263b
000002a0: 1d23 813b ba9e 2ebd 2781 96bb e429 26bd
000002b0: 3c95 07bb cb41 f1ba 87c9 6bbd e71b c9bc
000002c0: 936d cd3b b01d c83b 80ea 4bb9 2a52 25bc
000002d0: feb2 c8bc 364b d03b ada0 7c3c 3933 d7ba
000002e0: 7f4e 953a ab94 5dbb 7293 443c 6794 70bd
000002f0: b621 d6bc 554c 8c3b 984d e93a a057 4639
00000300: eac6 713c e986 d8bc b674 5fbd 3b47 5f3d
00000310: d8d2 d2b7 a38f 7fba 502f 8939 b479 263b
00000320: fefc 04bc fc0c 153d 42aa 98ba 38f0 6dba
00000330: 1d00 98ba 3e25 b43c 61ed fd3c d10f 813b
00000340: d40c a23c 2310 9fba cc52 b33a c130 963b
00000350: 2f49 203d 5493 013b bd46 ee3b 3b49 053c
00000360: acce 223c fce0 e53c 7dd5 963c 516f 98ba
00000370: fd74 9d3b 2457 fe39 6607 163c c0f4 a13a
00000380: fe0f 103b 5c72 ff3b f2cd f43c 2400 a33c
00000390: 4e6b 343c 9061 29bd 6626 003d 7fb8 ed3a
000003a0: 1e16 653c b230 463d 6449 103b e6d3 c33c
000003b0: f3c9 6b3a 309e b0b9 c638 143d a02e 3ebb
000003c0: f6af 6ebc 93ec 3fbc 57a7 22bb a7b3 c53b
000003d0: f944 643c c3f2 71ba eb40 e4bb 6428 c23c
000003e0: 51b1 8abb d364 5c3c 1a31 08ba dbab 153d
000003f0: 76d6 17bc 9953 0f3b d43f a5ba e44c 82ba
-0.0044941185 0.016915442 0.033920243 -0.024595872 -0.0041099167 -0.0080620805 0.0053182985 -0.000780663
-0.009630894 -0.01025464 -0.0039722924 -0.004597544 0.0009983219 0.015856307 0.03690274 0.0009171546
0.025516672 -0.0001000493 0.0029178779 -0.00633637 0.017941544 -0.0038213963 -0.0039473367 0.0017721156
-0.0013843975 0.03662113 0.0073931273 -0.00029246765 0.0018168582 0.010237611 0.00860906 -0.008399816
0.00069372193 -0.02167783 -0.069290996 0.008225138 -0.012920795 0.003680391 0.032535173 -0.0005011961
0.017674087 -0.017345004 0.0011552656 -0.0038003395 0.007749461 4.2991247e-05 -7.984099e-05 -0.009655443
0.0063053477 -0.0059918747 0.002132353 0.0021068268 0.023157835 0.0045977277 -0.008566859 0.0041346843
0.012608036 -0.0067704734 0.0011678702 0.030950906 0.0002889809 -0.010683547 -0.0016469207 -0.00245189
0.0105066085 -0.029881991 0.016074736 0.0029478567 -0.005309292 -0.002190834 -0.0033716874 0.0010792678
0.01745747 0.03283935 0.0013119312 0.023635069 0.002328799 0.011898088 -0.00062324863 0.004944108
0.012171291 0.0029052214 0.0028571086 0.038645636 0.005293558 -0.003475476 -0.0014243755 -0.0025970123
0.023885082 -0.01748066 0.0032707031 -0.0014082831 -0.00053569436 -0.0023979815 -0.016956834 0.01552084
0.0003378468 0.013165437 0.06346557 -0.0444856 -0.03690081 0.02682625 0.031569056 0.003936158
-0.0057968744 0.03281841 -0.005794415 0.031263754 -0.000990716 -0.00011340389 0.02186662 0.009839407
-0.0028546832 -0.004553061 0.0024724612 0.001553723 0.011549895 -8.274229e-05 0.016336305 0.019013368
-0.0073488164 -0.00107007 0.013678998 0.010145223 0.007429057 -0.0002512919 -0.0022749538 -0.0018746242
0.004586343 0.09131571 -0.07506227 0.009715485 -0.014418919 0.012398997 0.0006688987 0.0027831718
0.012925275 -0.012119546 0.007705262 0.0120456135 -0.001172665 -0.039354272 -0.054436572 0.0017216277
0.004110821 -0.011270934 -0.0016489967 -0.021288084 -0.066694446 0.014285651 -0.0018600918 -0.006300692
0.0129483165 -0.010283062 -0.029115686 -0.0009703059 -0.0015678528 -0.02048941 -0.0022782874 0.013948087
-0.0015878084 0.03471772 0.11254821 0.0147936065 0.03864299 -0.02796418 -0.010351635 0.0025386673
0.0039409534 -0.042631842 -0.004593033 -0.040567294 -0.0020688316 -0.0018406449 -0.05756524 -0.024549438
0.006269166 0.0061070547 -0.00019446947 -0.01009039 -0.024499413 0.006356622 0.0154191675 -0.0016418464
0.0011391192 -0.0033810537 0.011998044 -0.058735278 -0.026139122 0.0042815604 0.0017799614 0.00018915394
0.014756897 -0.026431518 -0.054554664 0.05451129 -2.5132133e-05 -0.00097488816 0.00026165927 0.002540213
-0.008116959 0.036389336 -0.001164742 -0.0009076628 -0.0011596713 0.021990415 0.03099698 0.003938653
0.019781508 -0.0012135546 0.0013681292 0.0045834486 0.039132293 0.0019771652 0.0072716163 0.008135135
0.00993697 0.028061382 0.018412346 -0.0011629855 0.004805206 0.0004851158 0.009157037 0.0012356266
0.0021982188 0.007795615 0.029883359 0.019897528 0.011011912 -0.04135281 0.03128662 0.0018136649
0.013982324 0.048386283 0.00220164 0.023904752 0.00089946314 -0.00033687195 0.036186956 -0.002901949
-0.01456832 -0.0117141185 -0.002481898 0.006033379 0.01393246 -0.0009229595 -0.0069657466 0.0237009
-0.0042325635 0.013451773 -0.0005195305 0.036540847 -0.00926744 0.0021869896 -0.0012607523 -0.0009941128

net.4.bias f4 [4]
00000000: d6a8 823e bdd5 69be 5a2a b83b 7d79 08bd
0.25519437 -0.22835441 0.005620283 -0.033318985

net.0.weight f4 [64, 8]
00000000: 43a7 e13d 4eb6 c83e f472 cfbe 43ef 51bd
00000010: 3e35 dfbe 88a9 abbe 852e ae3e ef1b cd3c
00000020: 919b e53e f88e c63e 8a46 f53e bdd4 a4be
00000030: c596 033d 0150 adbf 09d2 5f3e a152 233e
00000040: a553 3ebe 1dd1 c9be 9220 73bf 43d4 393d
00000050: 0373 8f3e 914b a2be 114a a13e ac94 7a3e
00000060: 2c70 b23d ac10 653e 7be1 083e fe97 b1be
00000070: 2835 74be d5cf d1bf b5fe 953e 47e2 913e
00000080: 6389 333f cb61 7f3f 5d88 853f 79a4 723d
00000090: 2dcd 583d cf15 9d3e 0f27 75be 203a e0bd
000000a0: 12ba 5e3e 0a82 903e 7d7c 2d3e e2d4 d9be
000000b0: 92aa 5b3e 42c0 2cbf b5e9 e23e 9af2 4a3e
000000c0: 29bd da3e 8e27 c33e d4cf 713e 7d35 b0be
000000d0: 385b 12be 31bc dabf fff2 753e 613f 1b3e
000000e0: 6c44 cd3f 5796 d93f 5a57 b43f e785 7b3c
000000f0: 0224 883d 6a84 1e3f 171a 8bbd 1b97 0fbf
00000100: 51e8 e83e 37ce 3c3e 9d9d 29bf c61b 47bd
00000110: a1b0 09be 93c8 ae3e 000c 6abd b646 1cbe
00000120: 9070 883e d5ed 87be 5e10 b3bd 323c 5dbe
00000130: 1129 8dbe 1833 313d cb5b 8fbe 434e 11be
00000140: 3ca2 f43f 292a d23f 5d88 bb3f 023a a73c
00000150: 76ef 973d e913 5e3f 599c 7fbe 1c40 ddbe
00000160: 8e6d 6abe de0d babe a558 febe 05e6 e1bb
00000170: 2082 073e b342 8f3e 5383 62be 7552 67bd
00000180: 50b1 a0be f9c1 f2be be44 e6be 07cf 92bd
00000190: ed52 323e ab5e 4b3e 93e8 3bbe e8f0 56be
000001a0: f837 243e e10d d0bd 3908 83be 58fb 20bd
000001b0: 145c 963e b6de 24be fb97 8c3e 9525 9f3d
000001c0: 0d9d 003e 0d79 863e cc8e b7be 6d2a 63bc
000001d0: 5880 973e 32f8 83be 518d 26be d0a0 bb3b
000001e0: 63c6 34be 7183 53be 82e0 10be b3f4 61be
000001f0: 85ee 86bb ef05 d73d 7f72 403e c6ef 143e
00000200: 05b9 b93e 6459 443e aa5d 44bf 8d7e 5bbd
00000210: c876 b53d 1d47 b33d 9170 0d3f 9d62 ff3d
00000220: cbce 42bf f9b5 09bf 3da2 acbe 113b 783d
00000230: 3196 6dbe 1a11 8fbe 782f 3bbc d8b1 a33e
00000240: 6522 263f 7623 1c3f ca9b 34be e1bd f1bd
00000250: 8126 90bd 04fa dbbe 88ad 123e 38c1 46bd
00000260: 454a 60bf 268b 15bf ae0a 80bf 8225 1a3e
00000270: 20ef ba3e 9cf7 1cbf 339b a03e 2bea 9e3e
00000280: d6bf d0be e34b 72be 6002 b3be 27f5 b5bd
00000290: 6c46 ed3d f6b9 79be 9a18 bb3d e906 c63d
000002a0: 11c4 cf3e c2fd f73e 79b1 843e 9515 89be
000002b0: 2224 c2bd 1ca3 08c0 1846 903e 0c6a 963d
000002c0: f96f c63e 300f 3abc c9d7 44bf 3d0b 4bbd
000002d0: 67dc 803e 0cd5 803d b19c d13e 2373 fabb
000002e0: e4b8 8dbd 0cf0 82be a2fe d4bd d0d9 0cbd
000002f0: 1c70 8abe d01c 0c3e d8bc 283d 265c 89bd
00000300: 7c6d a83e 63ca d43d cecb afbe 497c dd3a
00000310: 1627 b73e 0e73 e03e 639b b63d 2cc4 1abe
00000320: f0c0 763d 9011 f13e d93e 4f3e b99b 90be
00000330: 6f22 223e 12cd f0be 1cd4 a23e 105a 553e
00000340: f0f3 853e e097 78be b159 8fbe ec02 82be
00000350: 1e3b bdbd dc15 733e 4a0d 49be 4052 0ebc
00000360: 713b 9abe 01ef abbe 0d27 1ebe a61f 52be
00000370: 8085 233e 4d69 2a3d 307c 61bd cffe c03d
00000380: b954 f43f 7f96 dd3f bc30 8e3f 06db 183d
00000390: 23dd cc3c e448 173f ab26 93bd 1e1c 19bf
000003a0: 7713 53be 704d 183e 60f9 503c 6e7e 22be
000003b0: de67 80bd c0eb 053e 58a5 0cbd ad32 8fbe
000003c0: 2e72 1ebe da25 b2bd 72ec 4cbe f4a1 2dbe
000003d0: 10b2 4ebe 5268 f2bd 6645 483e 6574 aa3d
000003e0: a085 643d 723c 5c3e df2b 113f c8f8 d8bc
000003f0: baf9 4fbe a96a 933e 8aaf 35be 108b c53c
0.11018231 0.39201587 -0.4051739 -0.05125357 -0.43595308 -0.3352778 0.34019867 0.025037734
0.4484525 0.38780951 0.4790538 -0.32193556 0.032126207 -1.354004 0.21857466 0.15949489
-0.18586595 -0.39417353 -0.94971573 0.045368444 0.28017434 -0.31698278 0.3150182 0.24470776
0.08712801 0.22369641 0.13367264 -0.34686273 -0.23848403 -1.639155 0.2929589 0.28492948
0.7013151 0.99758595 1.043224 0.059238885 0.052930046 0.306807 -0.23940681 -0.109485865
0.21750668 0.28224212 0.1694202 -0.4254523 0.21451786 -0.6748086 0.4431893 0.19819108
0.42722443 0.38116115 0.23614436 -0.34415808 -0.1429261 -1.7088681 0.24018477 0.15160896
1.6036506 1.6999005 1.4089158 0.015351749 0.06647493 0.619208 -0.067920856 -0.56089944
0.45489743 0.1843804 -0.66256124 -0.04861047 -0.13446285 0.341374 -0.05714035 -0.15261349
0.26648378 -0.2654864 -0.08743356 -0.21604994 -0.27570394 0.043261617 -0.2799972 -0.1419001
1.911201 1.6419116 1.465099 0.020413402 0.074187204 0.8674913 -0.24961986 -0.43212974
-0.22893354 -0.36338705 -0.49677005 -0.0068938755 0.13233232 0.27980575 -0.22120409 -0.05647512
-0.3138528 -0.47413614 -0.4497432 -0.071683936 0.17414446 0.19860332 -0.18350439 -0.20990336
0.16036975 -0.10158897 -0.2559221 -0.0393022 0.29367125 -0.16100582 0.27459702 0.0777084
0.1255991 0.2626423 -0.35851133 -0.013865096 0.29590106 -0.25775295 -0.16264845 0.0057259575
-0.17653804 -0.2065561 -0.14148143 -0.22066002 -0.004117789 0.104991786 0.18793677 0.14544591
0.3627397 0.19174725 -0.7670542 -0.053587485 0.08860546 0.08753798 0.5524989 0.12469981
-0.7609679 -0.53793293 -0.33717528 0.060603205 -0.23201825 -0.27942735 -0.011424892 0.31971622
0.6489623 0.6099161 -0.17637554 -0.11803795 -0.07038594 -0.42964184 0.1432401 -0.04852411
-0.87613326 -0.5841545 -1.0003259 0.1505337 0.36510563 -0.6131532 0.31368408 0.3103803
-0.4077136 -0.23661761 -0.3496275 -0.0888465 0.115856975 -0.24387345 0.09135552 0.09669287
0.40579274 0.4843579 0.2591665 -0.26774278 -0.09479548 -2.1349554 0.28178477 0.073444456
0.38757303 -0.01135616 -0.7689176 -0.049571265 0.25168154 0.062906355 0.4093986 -0.00764312
-0.06920031 -0.25573766 -0.1040013 -0.03438741 -0.27038658 0.13682866 0.04119572 -0.06707029
0.3289603 0.10390165 -0.34335178 0.0016898002 0.35772008 0.4383778 0.089163564 -0.15113896
0.060242593 0.47083712 0.20238818 -0.28243807 0.15833448 -0.47031456 0.31802452 0.20835137
0.26162672 -0.24276686 -0.27998117 -0.25392854 -0.09239791 0.23738807 -0.19633976 -0.008686602
-0.30123475 -0.33580783 -0.15444584 -0.20519885 0.15968895 0.04160433 -0.055050075 0.09423601
1.9088355 1.7311553 1.1108623 0.037318252 0.02500779 0.590956 -0.0718511 -0.5980853
-0.20612894 0.1487329 0.012754768 -0.15868542 -0.06269811 0.13078213 -0.03433737 -0.2796835
-0.15473244 -0.08698626 -0.20012072 -0.16956311 -0.20185113 -0.11836304 0.19557723 0.08322982
0.055791497 0.21507433 0.56707567 -0.026485816 -0.20310107 0.28792313 -0.17742744 0.024114162

net.0.bias f4 [64]
00000000: b2e0 66bd 4d6f 223e 99c5 e93d 820d ee3e
00000010: 5322 8abe 4d69 183f a68a b23e f523 7c3e
00000020: 0493 cc3e 50b6 983d 8f6d 383c 9da4 68be
00000030: 7651 a03d c8f1 bc3e 886b b83e 9f68 b2be
00000040: ebd9 da3e ae93 15bf 8fe5 303d 13f7 b8be
00000050: 080f 95be 0212 a23e 8e67 3f3e 1853 7bbe
00000060: 2d9a fc3e 88f2 e03d beb9 253e 7865 8dbe
00000070: 6c50 0d3e a423 42be 8fbd c2bc 6e7d 803d
00000080: 86b8 383e fbf7 17be 6e9d 743e d145 d03e
00000090: a66d 6bbd 1d95 833e 7a1a ffbd ea03 713e
000000a0: 2013 adbc d93a e03e 2f12 aebe bafa abbb
000000b0: 07f2 87bd 179e 213f 3b16 09bd ba82 533e
000000c0: 5875 ca3e e0ec f53c 04a2 683e bafa 89be
000000d0: 4c1e 853e 3bfb 06be ea4a 25be fedf 573e
000000e0: e085 103e e31a fbbd 7632 febe d6eb c0be
000000f0: 3446 1f3f 6be4 193d f1a1 83bd 2ba8 00bf
-0.05636663 0.1586277 0.11414642 0.4649468 -0.26979312 0.59535676 0.34871405 0.24623092
0.39955914 0.07456648 0.01125659 -0.22719045 0.078280374 0.36903214 0.3601954 -0.34845445
0.42744383 -0.58428466 0.043187674 -0.36126003 -0.2911303 0.31654364 0.18691847 -0.24543417
0.49336377 0.10983759 0.16184136 -0.27616477 0.1380021 -0.18958908 -0.02377203 0.06273924
0.1803914 -0.14840691 0.2388818 0.40678266 -0.057477616 0.25699702 -0.12456222 0.2353665
-0.021127284 0.43794897 -0.33998248 -0.005248395 -0.0663796 0.6313185 -0.033468466 0.20655337
0.3954265 0.030020177 0.22718054 -0.26949102 0.25999677 -0.13181774 -0.16141859 0.2108154
0.1411357 -0.122609876 -0.49647874 -0.3767993 0.62216496 0.037571352 -0.06427372 -0.50256604

net.2.weight f4 [64, 64]
00000000: b81b a03e 9b04 9d3e b03d 02be fa44 053f
00000010: b000 d4bd 3367 003f 244b 1b3e 0526 6ebe
00000020: 86a9 80be cf6a 313e 3877 84be 0f8d dcbe
00000030: 0f10 e5bd 7caa 833d c06e 633d 7a4c 6c3e
00000040: f00f 463e 33ae 9cbd e51f 7d3e c30e 06be
00000050: 26c5 e4bd a3fd ff3e fba0 e6bc 46fe ba3d
00000060: 3d12 a6be cb64 5f3e 344c 9dbd 1d4a 42be
00000070: 9ada 85be c8e7 07bd 7aa8 0e3e 5ac4 75be
00000080: d411 fabd 78a6 49be d05d 043f ce7e cbbe
00000090: 32fd 7dbc bb68 633e e3cf 9bbe 81b1 eebd
000000a0: 3866 e53c 0abe 263f 08ad be3c 69a8 233d
000000b0: fab2 4ebe 01eb 13be cedc 9bbe 44e6 29be
000000c0: 0703 3b3f 5a8d 8b3d fd4f e9bd dd48 64be
000000d0: 38fe b4bd 30d1 98be a088 dbbc 969f c93d
000000e0: d328 0dbe 439e 25be 0066 06be eb25 4fbe
000000f0: 5758 5b3d 58f1 8bbe 7a1f 103c 7dc6 fdbe
00000100: 32fe 923d cc1c 02be e0e9 c5bd a0df b3be
00000110: 89ac 0abd ebb2 62be 3482 48be 37c9 cabe
00000120: 2455 a93d e10e 093e 0fce 2ebe 9f76 853b
00000130: 9db1 48be f0bd 17bd 25c4 543e 6b89 80be
00000140: db48 d6bc f370 713e a961 993d 1cdd 533e
00000150: d5b4 bf3b 8ca9 13bf 7848 ff3d d897 4bbd
00000160: eaf9 1a3d b3d1 c53d 30f0 4abe 589c fc3d
00000170: 866c fcbe 50bf ee3c d20b 853d 0e43 53bb
00000180: a846 5cbe 620a 063e c121 23be 21b1 cfbd
00000190: 2661 5cbe 7da2 eebc 7102 0e3e 6abd b63e
000001a0: 5382 51be 53d8 97be 26b8 25be c4d2 ae3e
000001b0: 485f e23d 3c5e 073e 162a 263e e6b0 1ebe
000001c0: 58ac f5be 09fe 4ebe f8df 07bf c317 9d3d
000001d0: 0ee0 2abe 3e57 b53d 6bb6 a53e d1b1 283e
000001e0: 1e5b 8e3d a7c6 36be aa21 203e c266 4f3e
000001f0: 4067 25be c2f2 073e bc2e 3d3d 8e12 933e
00000200: 1a83 73bd 7fde 99bd 0513 74bc fb50 13bf
00000210: c0fd 1bbe d039 08bf d078 6fbe 3060 28be
00000220: 7f56 513d 0a13 89bd 21dc ef3c 4880 e53d
00000230: f0a6 30be 42c7 103d cb19 873c 3d05 aabd
00000240: dca4 ef3d 6a35 7abd 4513 80bd a220 a93d
00000250: ab28 57be 70c8 07bf 9048 2fbe 6e03 edbd
00000260: 3e06 223e 31ae 40be 35a2 4cbe 6003 87bd
00000270: b08b debe 9da8 3b3e 0187 253d 0228 3a3e
00000280: 9a8c 0fbe 4f5c 3ebe f67f e0bd 8830 6ebe
00000290: a00a e8bc cfd5 d3bd 9447 29be a2e1 953e
000002a0: d455 0abe 50d1 cabe 2afd cd3d 1c29 d8be
000002b0: 4f48 85be 3084 273e 4e5d 02be dc81 54be
000002c0: b124 04bf 2b63 5d3e b643 33bb 7d83 ba3c
000002d0: 4b59 17be 8b76 27be 9e4f 383e 9aa6 9d3d
000002e0: aa21 4a3e 7783 bc3b 04ce 21be d6d1 dcbd
000002f0: ecf7 82bd ab8d 32bd 1bba 923d 4948 603d
00000300: e163 debd 1ff6 243e 0aff d6bd 054a afbe
00000310: 47ab 92be a30b 2a3e f277 17bd 1920 b7be
00000320: f1cb 51be 062e ab3d 5d7e 86be b269 37be
00000330: dd6d 5ebe 39be 62be 57e2 06be 1c7c 6c3b
00000340: 8532 47be 67dd 083d 2a28 01be fa2b 863e
00000350: 745d 8fbd 668f 6ebe 845c 9c3e e0ed 90bb
00000360: d774 113e 8f74 b7bd 9099 c8bc 16ee 833c
00000370: 1828 c9be e0ac 67bc 562a e23d f6d3 1ebe
00000380: 92aa 8fbd 7395 a43e 71f5 54be 37c5 643d
00000390: 9c53 abbd 8b12 4abc d67f 6d3e 161d 033f
000003a0: 642e 703d 238c 84be 867f 18be f35c 833e
000003b0: 8c71 a83e a032 03be 1206 083e e1f0 f4bd
000003c0: 0c57 9dbe 7840 8abc d69f a4be 5a99 8b3d
000003d0: 38ae 3bbe 9950 81be ab1d dc3e 4884 9f3c
000003e0: 8fdd c43d 73a0 3bbe 464f 33be 2f62 923e
000003f0: bfb7 863e 44e9 35be decb 93bd 5169 443e
0.31271148 0.30667576 -0.12718844 0.52058375 -0.10351694 0.5015747 0.15165383 -0.23256691
-0.25129336 0.173259 -0.25872207 -0.4307637 -0.111847036 0.06429002 0.05552554 0.23076048
0.19342017 -0.07650413 0.24719198 -0.13091569 -0.111704156 0.49998197 -0.028152933 0.0913053
-0.3243579 0.21815793 -0.0768055 -0.18973584 -0.26143342 -0.03318003 0.13931456 -0.24000683
-0.12210432 -0.19692409 0.51705647 -0.39745182 -0.015502261 0.2220792 -0.30432042 -0.1165495
0.028002843 0.65133727 0.023275867 0.03995553 -0.20185462 -0.14445116 -0.30441898 -0.16591746
0.73051494 0.0681407 -0.1139221 -0.2229342 -0.08837551 -0.29847097 -0.026798546 0.09844892
-0.13785104 -0.16173653 -0.13124847 -0.20229308 0.053551044 -0.27332568 0.008796567 -0.49565497
0.0717739 -0.12706298 -0.09663749 -0.3513155 -0.03385595 -0.22138564 -0.19580919 -0.3960664
0.082681924 0.13384582 -0.17070793 0.0040729786 -0.19599004 -0.037046373 0.20777948 -0.25104842
-0.026157787 0.23578243 0.0748933 0.20689815 0.0058504143 -0.57680583 0.12464994 -0.049705356
0.037835993 0.096591376 -0.19818187 0.12334508 -0.49301547 0.02914396 0.06496395 -0.0032236013
-0.21511328 0.13089898 -0.15930845 -0.101412065 -0.21521434 -0.029130215 0.13868119 0.35691386
-0.20459871 -0.2965723 -0.16183528 0.34145176 0.1105333 0.13219541 0.16226992 -0.15497169
-0.4798305 -0.20214094 -0.53076124 0.07670548 -0.16687033 0.08854531 0.32365736 0.16474082
0.06950973 -0.17849217 0.15637842 0.20254043 -0.16152668 0.13276199 0.046187147 0.28725094
-0.0594512 -0.07513141 -0.014897113 -0.5754544 -0.15233517 -0.53213215 -0.2338593 -0.16442943
0.05110788 -0.066930845 0.02927977 0.11206108 -0.17251182 0.035346277 0.016491791 -0.083017804
0.11701366 -0.061086096 -0.06253675 0.08258177 -0.21011607 -0.5304022 -0.17117524 -0.1157292
0.15822694 -0.18816449 -0.19983752 -0.065924406 -0.43465948 0.1832604 0.040411953 0.18179324
-0.14018479 -0.185899 -0.109619066 -0.232607 -0.028325379 -0.10343515 -0.16531211 0.29273707
-0.13509303 -0.39612818 0.10058053 -0.42218864 -0.2603173 0.1635902 -0.12730905 -0.20752662
-0.51618487 0.21619861 -0.0027353591 0.022767777 -0.14780156 -0.16353814 0.17999122 0.07697792
0.19739404 0.0057529765 -0.15801245 -0.107822105 -0.063949436 -0.043592136 0.07164403 0.054756436
-0.10858894 0.16109513 -0.104978636 -0.3423616 -0.286463 0.16606002 -0.036979623 -0.35766676
-0.20487954 0.08358388 -0.26268283 -0.17911413 -0.21721597 -0.22142877 -0.1317228 0.0036084717
-0.19452865 0.03341427 -0.12612978 0.26205426 -0.07000247 -0.2329689 0.30539334 -0.004422888
0.14204727 -0.08957779 -0.024487287 0.01610474 -0.39288402 -0.014140338 0.11043231 -0.15510544
-0.070149556 0.3214527 -0.20796753 0.05585214 -0.083655566 -0.012333523 0.23193297 0.51216257
0.05863799 -0.25888166 -0.14892396 0.25656852 0.3289913 -0.1281228 0.13283566 -0.119600065
-0.30730474 -0.016876444 -0.32153195 0.06816359 -0.18328178 -0.25256804 0.42991385 0.019472256
0.096125714 -0.18322925 -0.17510709 0.28590533 0.26312062 -0.17764765 -0.07216619 0.191808

net.2.bias f4 [64]
00000000: 6447 b03d 593b 7f3e f50c c43e b1a6 6a3e
00000010: 03f8 a23e 959c 073e e07e bb3d dbd8 5dbe
00000020: 5082 5e3e 1039 943e 29a3 543d dc4c 803e
00000030: 4c3e 583e 37c2 563e de79 063f f17a b6be
00000040: a2b6 d33e e97e 4b3d 9da1 923e 2602 783e
00000050: 457a 0e3f 8ead d33d 3d87 883b df8d df3e
00000060: dc10 8f3e 029d 653e 8e62 4a3e 2224 ad3e
00000070: 80b6 12be 1906 2b3e 04a5 903e 799c d33e
00000080: ce53 20be 8fe6 803e 151f e03d 9e42 fdbd
00000090: 758b ac3e 4326 c0bc 8ac6 113f 48fc ae3d
000000a0: c0e7 a83e 9f2c 073e 8e5b 013f e73b 7e3d
000000b0: b4c8 0b3e 347e 67bc 3771 1ebe 9c06 cabb
000000c0: efa0 833d 8802 0c3e b06a 243f 68fc 993d
000000d0: 6c05 4c3d 997c 4d3e 6a71 a0bd 5de8 31bc
000000e0: 6422 a1bd f0a4 5cbd 6dc4 d13d 1ace 2a3e
000000f0: 05c7 d7bd 973c 433e 5ce1 923d 9734 863e
0.08607367 0.24924983 0.38291135 0.2291515 0.31829843 0.13243325 0.09155059 -0.21664755
0.21729398 0.28949785 0.051913414 0.2505864 0.21117514 0.20972525 0.52529705 -0.35640672
0.41350275 0.049681578 0.28638926 0.2421957 0.5565532 0.10335837 0.0041665123 0.43662927
0.2794255 0.22423175 0.19764158 0.3381663 -0.1432743 0.16701545 0.28250897 0.41330317
-0.15656969 0.25175902 0.109434284 -0.12366222 0.33700147 -0.023455745 0.5694357 0.085442126
0.3298931 0.13200615 0.50530326 0.062068846 0.13650781 -0.01412921 -0.15472876 -0.0061653387
0.0642718 0.1367284 0.6422529 0.07518846 0.04980986 0.20067061 -0.07834132 -0.010858622
-0.078678876 -0.053868234 0.10242543 0.16680184 -0.10536007 0.19066082 0.0717189 0.26211998

net.4.weight f4 [1, 64]
00000000: dcaa eb3e f2d4 19be 6df7 b2bb f860 82be
00000010: 72a8 fe3e 8dee 053f fff0 ff3e 3f33 e8bc
00000020: 08d7 04be f6dd 8cbd de47 f43d 35a8 10bd
00000030: ab9e 473e 7e56 ef3e 7807 cbbd 01ac 6ebe
00000040: cc59 aabc 3165 8b3d 5c55 c03e 49ee 4f3e
00000050: c6ff 3cbe 84b6 4b3e 63c9 743e b6bd 03be
00000060: f6e0 56be 4f52 4b3d a94f 133f 0945 88be
00000070: ce48 0f3e a668 c6bd 566f 8ebe 86c7 46be
00000080: 8afd 3a3e 9e2d 173f 3cc0 533e 562a 88bd
00000090: 3e66 003f 10d3 e8bc 2c76 9cbe 9706 7abc
000000a0: 0d5f fabd 7a29 a03d 8468 1cbe 4934 ae3d
000000b0: 761a 413e 8c50 fbbd 4776 e33c 34ba b63c
000000c0: 3ea1 1a3e be96 ed3e 82ac 58be a1e7 5b3d
000000d0: 5e0e 123f 7711 87bd c8e6 76bd cee3 853d
000000e0: c027 16be 692a da3c 777a 593e 2ba5 be3e
000000f0: bc41 683d b629 fd3e fc4e b23e 5329 ee3e
0.46028793 -0.15022638 -0.0054616244 -0.25464606 0.4973789 0.52317125 0.49988553 -0.028344749
-0.12972653 -0.06878273 0.1192777 -0.035316665 0.19494121 0.46745676 -0.09913534 -0.23307802
-0.020794772 0.0680641 0.37565124 0.20305742 -0.18456945 0.19893843 0.23904948 -0.12865338
-0.20984253 0.049639042 0.57543427 -0.2661517 0.13992617 -0.09687929 -0.27819318 -0.1941205
0.1826078 0.5905398 0.206788 -0.066487 0.5015601 -0.028420955 -0.30558908 -0.01526036
-0.12225161 0.07820411 -0.15274245 0.08506066 0.1885775 -0.122712225 0.02776636 0.022305585
0.15100572 0.4640407 -0.21159557 0.053687695 0.5705317 -0.06595128 -0.060278684 0.06537591
-0.14663601 0.02663155 0.21238123 0.37235388 0.056703314 0.49445885 0.34825885 0.46515903

exp_avg f4 [64, 8]
00000000: 7e8b 5d38 74ae d137 d89a 12b7 1fdd 053a
00000010: 8812 1537 8240 d838 2e11 8138 2213 0638
00000020: 2ff1 c638 7c9d 5f38 76bc 52b7 aaf5 893a
00000030: e227 d838 491a 1d39 4608 4639 fd8f ce39
00000040: 0400 0080 0400 0080 0000 0000 0400 0080
00000050: 0400 0080 0400 0080 0400 0080 0400 0080
00000060: 2031 a6b7 915d 93b7 f576 0c30 50c6 1aba
00000070: f50d c5b8 0fa7 29b7 5309 e3b8 627e 9cb9
00000080: f539 47b6 bb12 2c37 b49c ad36 705d e339
00000090: 1c5a fc38 5b5b 5db8 f3af e738 cfe7 e639
000000a0: 601e 9eb8 089d 2cb8 467b 2f37 d5aa 3bba
000000b0: 23ee 91b8 0ec6 01b9 b2fd 11b9 dec6 87b9
000000c0: d66f ad38 c09b 3d38 982c 2eb7 7b5e 7f3a
000000d0: bdc1 9538 d854 0439 9a39 2939 2361 a739
000000e0: bc09 ecb7 c9a5 06b7 1d01 d536 0274 53b9
000000f0: 59b4 4438 3e28 a3b8 a2d8 f436 c15f 5039
00000100: 272b d337 5f12 3737 0ea7 a5b6 9a3a 8c38
00000110: 3aee 13b7 3ca1 5938 da34 2737 5108 2ab7
00000120: 0400 0080 0400 0080 0400 0080 0400 0080
00000130: 0400 0080 0400 0080 0400 0080 0400 0080
00000140: 0400 0000 0400 0000 0400 0000 0400 0000
00000150: 0400 0000 0400 0000 0400 0000 0400 0000
00000160: 0000 0000 0000 0000 0000 0000 0000 0000
00000170: 0000 0000 0000 0000 0000 0000 0000 0000
00000180: 0000 0000 0000 0000 0000 0000 0000 0000
00000190: 0000 0000 0000 0000 0000 0000 0000 0000
000001a0: efbb 2c37 809c ac36 d909 c1b5 e71c 3f39
000001b0: 44f7 8f36 b2d5 9737 1c9a 8837 ac69 f337
000001c0: a54f 6e36 80e5 4334 44a4 02b6 0c5e a2b9
000001d0: 5b43 a9b7 3c35 2a37 7eb4 fbb7 914e f0b7
000001e0: 18d6 f937 2bd6 c837 7f00 8bb2 0be7 d83a
000001f0: 43fe 0039 961d 9f37 3bd3 2e39 21be f039
00000200: 0400 0000 0400 0000 0000 0000 0400 0000
00000210: 0400 0000 0400 0080 0400 0000 0400 0000
00000220: 96bc 9438 209e 3138 b8ee 08b7 d2d6 813a
00000230: 93d9 da38 b5f5 d738 85d0 3339 7b5e c839
00000240: 0400 0000 0400 0000 0000 0000 0400 0000
00000250: 0400 0000 0400 0000 0400 0000 0400 0000
00000260: 0400 0080 0400 0080 0400 0080 0400 0080
00000270: 0400 0080 0400 0080 0400 0080 0400 0080
00000280: f917 a2b8 af64 48b8 ea82 f436 7b80 abba
00000290: 4bba 13b9 0b94 d8b8 7206 6eb9 a5cd 09ba
000002a0: 0400 0080 0400 0080 0400 0080 0400 0080
000002b0: 0400 0080 0400 0080 0400 0080 0400 0080
000002c0: 11cc 91b8 ff1a 1ab8 3f0d 2a37 95ef 1fba
000002d0: a575 58b8 b96f f9b8 840a f4b8 beaf 4ab9
000002e0: bc50 812f 0950 152e 9f85 0a00 5470 8d32
000002f0: ff9d 6d31 ff62 8431 ffb9 a931 fe96 fe31
00000300: 6528 3538 7d2a 9537 aa14 15b7 ea51 1538
00000310: e84f cfb7 2900 c238 f94c 0137 a6c7 59b8
00000320: 3ca3 7a38 61e8 cc37 76c5 3fb7 79db ce39
00000330: 2fa9 dfb7 5083 0939 a187 0938 282a 81b8
00000340: 0000 0000 0000 0000 0000 0000 0000 0000
00000350: 0000 0000 0000 0000 0000 0000 0000 0000
00000360: 2e0f ed36 d08e 7e37 c641 7836 6721 183a
00000370: fda6 0239 0326 0cb8 8216 0539 cf4e eb39
00000380: 0400 0080 0400 0080 0000 0000 0400 0080
00000390: 0400 0080 0400 0080 0400 0080 0400 0080
000003a0: b2bb e2b5 b5bd dfb5 0000 0000 6231 ebb7
000003b0: a7aa 0bb7 0400 0080 c0c9 14b7 8725 10b8
000003c0: 0400 0000 0400 0000 0400 0000 0400 0000
000003d0: 0400 0000 0400 0000 0400 0000 0400 0000
000003e0: 9c9c c437 1287 7c37 6681 d7b5 0d99 363a
000003f0: 0996 4e38 4ac5 0838 565e ad38 ac50 1439
5.282042e-05 2.4995978e-05 -8.7383305e-06 0.0005106497 8.885407e-06 0.00010311698 6.154399e-05 3.196591e-05
9.4863e-05 5.3314012e-05 -1.2560855e-05 0.0010525484 0.000103071114 0.00014982479 0.00018885834 0.00039398661
-6e-45 -6e-45 0.0 -6e-45 -6e-45 -6e-45 -6e-45 -6e-45
-1.9811618e-05 -1.7567336e-05 5.110075e-10 -0.00059041847 -9.396292e-05 -1.0112081e-05 -0.0001082594 -0.000298488
-2.9687046e-06 1.025636e-05 5.1740444e-06 0.0004336643 0.000120330806 -5.2775587e-05 0.000110477115 0.0004404173
-7.539685e-05 -4.1154242e-05 1.0459515e-05 -0.000715894 -6.958495e-05 -0.0001237618 -0.00013922786 -0.00025897374
8.270114e-05 4.5206165e-05 -1.0381591e-05 0.0009741557 7.14096e-05 0.00012620108 0.00016138554 0.00031925095
-2.8137925e-05 -8.025622e-06 6.3480243e-06 -0.00020165744 4.6898003e-05 -7.7799414e-05 7.296986e-06 0.00019872097
2.5173254e-05 1.0911927e-05 -4.936831e-06 6.6866356e-05 -8.817349e-06 5.1886993e-05 9.966281e-06 -1.0134726e-05
-6e-45 -6e-45 -6e-45 -6e-45 -6e-45 -6e-45 -6e-45 -6e-45
6e-45 6e-45 6e-45 6e-45 6e-45 6e-45 6e-45 6e-45
0.0 0.0 0.0 0.0 0.0 0.0 0.0 0.0
0.0 0.0 0.0 0.0 0.0 0.0 0.0 0.0
1.0295756e-05 5.1442184e-06 -1.4382487e-06 0.00018225946 4.2905176e-06 1.8100112e-05 1.6284226e-05 2.9017065e-05
3.5511123e-06 1.8244282e-07 -1.9467125e-06 -0.00030969118 -2.0177735e-05 1.0145184e-05 -3.000558e-05 -2.8646815e-05
2.9782808e-05 2.3941588e-05 -1.6181955e-08 0.0016548348 0.00012301751 1.8968054e-05 0.00016672623 0.00045918024
6e-45 6e-45 0.0 6e-45 6e-45 -6e-45 6e-45 6e-45
7.092317e-05 4.2347354e-05 -8.161813e-06 0.000990594 0.000104355764 0.000102977654 0.0001714845 0.00038217366
6e-45 6e-45 0.0 6e-45 6e-45 6e-45 6e-45 6e-45
-6e-45 -6e-45 -6e-45 -6e-45 -6e-45 -6e-45 -6e-45 -6e-45
-7.729227e-05 -4.7777485e-05 7.287007e-06 -0.0013084555 -0.00014088412 -0.00010327258 -0.0002269985 -0.00052567787
-6e-45 -6e-45 -6e-45 -6e-45 -6e-45 -6e-45 -6e-45 -6e-45
-6.952149e-05 -3.6741603e-05 1.0135874e-05 -0.0006101069 -5.1607978e-05 -0.00011894055 -0.00011636785 -0.0001932969
2.3522329e-10 3.3949763e-11 9.66289e-40 1.6465641e-08 3.457785e-09 3.85296e-09 4.9396927e-09 7.4095388e-09
4.3191383e-05 1.778197e-05 -8.885903e-06 3.5600657e-05 -2.4713532e-05 9.250671e-05 7.706921e-06 -5.192277e-05
5.975667e-05 2.4426905e-05 -1.1430462e-05 0.00039454902 -2.6662454e-05 0.00013114256 3.278966e-05 -6.1590516e-05
0.0 0.0 0.0 0.0 0.0 0.0 0.0 0.0
7.0649176e-06 1.5172831e-05 3.6993165e-06 0.0005803317 0.00012459974 -3.3414002e-05 0.00012692253 0.0004488141
-6e-45 -6e-45 0.0 -6e-45 -6e-45 -6e-45 -6e-45 -6e-45
-1.6892939e-06 -1.6670007e-06 0.0 -2.8037179e-05 -8.324779e-06 -6e-45 -8.868461e-06 -3.4367225e-05
6e-45 6e-45 6e-45 6e-45 6e-45 6e-45 6e-45 6e-45
2.3437948e-05 1.5051819e-05 -1.6056408e-06 0.00069655554 4.925396e-05 3.2608667e-05 8.266854e-05 0.00014144432
