ppo_model_final.pt (torch, 132483 bytes, 33 tensors)

net.0.weight f4 [64, 8]
000000 4f c7 8c be 33 bc 93 bd 4c 57 0d 3c f1 88 7d 3e
       -0.2749581 -0.072136305 0.00862677 0.2475927
000010 96 59 13 3e 89 21 44 be d7 8d 9d 3e d2 c7 85 3e
       0.14389643 -0.19153418 0.30772278 0.26129013
000020 58 02 74 be fb 84 91 3e 4f 2d 84 3d ca d5 31 be
       -0.23829019 0.2842177 0.064539544 -0.1736671
000030 58 aa 45 3e 75 00 26 be 98 54 88 3e b2 67 c0 3d
       0.19303262 -0.16211112 0.2662704 0.09394778
000040 30 32 7f be e3 d4 d3 bd 76 08 7f 3d dd 6c 35 3e
       -0.24921489 -0.10343339 0.06226393 0.1771731
000050 1d 2a 8f 3e 25 49 cc 3d 31 48 64 3e d3 75 1e 3e
       0.27961817 0.09974889 0.22293164 0.15474634
000060 b1 6c 9f be a4 05 61 3e 6d 6e 5b 3d 93 6b 8c 3d
       -0.31137612 0.21974808 0.053572107 0.06856456
000070 8d f4 17 3e 2a c5 0b be 87 31 97 be c9 b1 18 3d
       0.14839382 -0.13649431 -0.29529974 0.037278924
000080 0e c0 65 3e 4c 39 a7 3d 9b 5b 93 be 00 d2 8c bc
       0.22436544 0.081652254 -0.28780827 -0.01718998
000090 e0 d5 21 3d d4 1f a8 be 72 d7 1e be dc 0c 1e be
       0.039510608 -0.32836783 -0.15511873 -0.15434593
0000a0 a4 4f 01 bd a3 4e 1a 3e 8c 6c fb 3d 4c 95 04 3e
       -0.03157009 0.1506906 0.12276563 0.12947577
0000b0 16 c5 5d bd 25 c2 12 be 00 9a a8 bd 02 27 3f bd
       -0.054143034 -0.14331873 -0.08232498 -0.04666806
0000c0 9b 38 b3 be 8f 49 aa 3e 86 bd 37 3e 4e 35 93 be
       -0.35004124 0.33259246 0.17943391 -0.28751606
0000d0 34 3a 61 be ab 2a ac 3e e2 7f 82 be 21 f8 8d be
       -0.21994859 0.33626303 -0.25488192 -0.2772837
0000e0 9d 54 a8 be 3e 89 70 3e d8 6c aa 3e d2 a4 a8 3e
       -0.32877055 0.23489854 0.33286166 0.32938248
0000f0 ac 2e f1 3d d4 dd 53 be 29 5b c1 3c 61 91 92 be
       0.1177648 -0.2069009 0.023603039 -0.2862654
000100 bc f5 75 3e 74 e9 a7 be 3c 7d 25 be 14 ac 76 3e
       0.24019521 -0.32795298 -0.16161054 0.2408908
000110 f4 86 51 3d 5e 9f 94 be 9f 05 f1 bd c3 1a 3c 3e
       0.051154092 -0.29027838 -0.1176865 0.18369584
000120 b5 1b 0c 3e 13 d1 90 be 29 d9 8a bd 79 65 2d be
       0.13682444 -0.2828451 -0.06779701 -0.1693324
000130 b6 5a 92 3e dc 48 69 3d e7 4c 89 be ed 32 b5 3e
       0.28584832 0.05695425 -0.26816484 0.35390416
000140 ba 39 8f be 8d c9 50 bd 2f b4 95 be c2 51 71 3e
       -0.2797373 -0.050973464 -0.29239032 0.23566344
000150 1e e9 a1 be 19 e5 73 be 71 bd b2 3e 6a 48 7d bb
       -0.31623167 -0.23817863 0.34910157 -0.0038647898
000160 c0 f0 f5 3d af 93 1e be 93 76 9d 3e c9 81 33 be
       0.1200881 -0.15486024 0.30754527 -0.17529978
000170 73 e4 0d be 18 28 99 3d 1d 05 1c be 6a 5a 86 be
       -0.13856678 0.074783504 -0.15236326 -0.26240855
000180 77 e7 9f be f0 ba 9b be 18 6f 39 be 04 11 2a be
       -0.3123128 -0.3041606 -0.18108785 -0.16608053
000190 18 a5 e1 3d f2 b7 84 be b9 a7 96 3e 50 14 02 bd
       0.11017817 -0.2592159 0.29424837 -0.031757653
0001a0 48 94 8d be 99 30 04 3c 2d 09 13 be c2 80 26 3e
       -0.27652192 0.008068227 -0.14358969 0.16260055
0001b0 bf 29 22 bd b5 8b 9e be 5f 2d fb bc 1b 0d 35 3d
       -0.039590593 -0.30965963 -0.030661283 0.04420195
0001c0 89 29 cc 3d fc 66 75 bd de d7 2f 3d 97 65 9c 3d
       0.0996886 -0.059912667 0.042930476 0.07636564
0001d0 6b 66 7e be bb 50 87 be fc 3f 80 3d 14 60 79 be
       -0.24843757 -0.2642878 0.06262204 -0.24353057
0001e0 f0 6a ef 3d ca db 68 3e 3c 59 d5 3d a4 31 87 be
       0.116903186 0.22740093 0.10417411 -0.2640506
0001f0 bc 73 63 be a5 95 9b be 6a 2b 60 be 02 f0 8a be
       -0.22212118 -0.30387607 -0.21891561 -0.27136236
000200 32 d9 a5 3e c0 a1 a0 3e 18 19 57 be c1 41 98 3e
       0.3239227 0.31373405 -0.21005666 0.29737666
000210 3c 96 f2 bd 73 1c dd bd d9 32 30 bd 13 76 8f 3d
       -0.11845061 -0.10796442 -0.043017242 0.07004943
000220 fc fd 15 be 3d 56 a9 be d2 b2 ec bd 6e 0a 59 3e
       -0.14647669 -0.33073607 -0.11557545 0.21195385
000230 66 13 a3 be 22 7d ff bd 61 9f 91 bd ab ad 0a be
       -0.31850737 -0.12475039 -0.07110477 -0.13542812
000240 5a d0 a7 3e ef f1 77 3e e0 23 1f be 08 5e 19 be
       0.32776147 0.24213384 -0.15541029 -0.14977276
000250 75 f4 a9 bd 50 11 88 3e fd e3 43 be 63 e7 ab 3e
       -0.082985796 0.26575708 -0.1912994 0.33574972
000260 dc e0 42 be 54 df 80 bd 98 2d 5c 3d 07 ae 15 be
       -0.1903109 -0.062925965 0.05375442 -0.14617167
000270 00 66 b1 bb 91 52 95 3e b1 94 76 be 00 44 7a 3b
       -0.0054137707 0.29164556 -0.24080159 0.0038187504
000280 da 63 73 3e 81 8a 9e 3e 9a e3 7d 3e f1 99 94 3e
       0.23768559 0.30965045 0.24793854 0.29023698
000290 42 5c af 3e d7 cb 5a 3d ec ae 6c 3e dc 1c 36 3e
       0.34250075 0.053417053 0.23113602 0.17784446
0002a0 24 8a 09 3e 0c f2 4d be 32 88 36 3e e8 76 41 be
       0.13431603 -0.20111865 0.17825392 -0.18893015
0002b0 9f 79 b4 be 76 fe 18 3e 86 f3 0a be bc db b8 bd
       -0.3524904 0.14940819 -0.1356946 -0.09026286
0002c0 31 95 98 3c 7a 32 76 be b3 40 a4 3c 64 86 6b be
       0.018625828 -0.24042693 0.020050382 -0.23000485
0002d0 82 1d 82 3e 04 e0 9d 3e 90 72 11 3e 54 7e 02 3e
       0.25413138 0.30834973 0.14203858 0.12743503
0002e0 79 c0 86 3e 53 2d 9d be c8 a3 ba 3d c8 d8 03 be
       0.2631872 -0.30698642 0.0911327 -0.12875664
0002f0 b9 03 33 be 80 82 b5 bd 8a e2 6d 3e 9f 9f 97 be
       -0.17481889 -0.088627815 0.23230949 -0.2961397
000300 db b5 55 3e ea bc 3f be dd e5 d6 3d 47 17 09 3d
       0.20870154 -0.18724409 0.10493062 0.033469465
000310 84 2f 66 be 45 c4 96 be af f6 01 3e 13 99 99 3e
       -0.22479063 -0.29446617 0.12691759 0.299996
000320 49 8f 96 3d 71 3f b1 3e 3c 85 a4 be f1 93 96 3e
       0.07351548 0.34618714 -0.321329 0.29409745
000330 90 26 16 be 11 ff 82 3e 7b 2b 3b be 31 e3 91 bd
       -0.14663148 0.25585225 -0.18278305 -0.071234114
000340 a9 0b 9e be fe 60 2f 3e dd 52 8e be 88 86 f7 bd
       -0.3086827 0.17126843 -0.27797595 -0.12086207
000350 7d 99 90 3e aa 48 3c be bf 40 5f be 7f 97 9c be
       0.28242102 -0.18387094 -0.21802042 -0.30584332
000360 70 b5 8b 3d ac 14 76 be 7a 72 0f 3e 98 32 17 be
       0.06821716 -0.24031323 0.14008513 -0.14765394
000370 f7 df 0b be 4c 1d e7 3d 4a c0 92 be fc 0a bc 3d
       -0.13659655 0.11284885 -0.2866233 0.091817826
000380 80 e1 c5 bd 00 79 bd 3d 32 cc a8 be 7a ce 02 be
       -0.09662151 0.092515945 -0.3296829 -0.12774077
000390 9c 7e b4 be da f5 0b 3e 50 a0 aa bc b3 df aa 3e
       -0.35252845 0.13668004 -0.020828396 0.33373794
0003a0 ac d7 78 be 79 f9 93 3e 9d c0 47 3e 1f a0 8d 3e
       -0.24301022 0.2890127 0.1950707 0.27661225
0003b0 bf 19 34 3b 79 59 bf bd 49 b5 9f 3d 56 08 52 3e
       0.0027481166 -0.093432374 0.07798249 0.20510992
0003c0 b7 2d 1b 3e 19 13 2c 3e fa 1b 15 be e2 31 f3 3d
       0.15154158 0.1680416 -0.14561453 0.11874749
0003d0 db 98 aa be 16 d7 a1 be ee ea 07 bd 38 77 56 3e
       -0.33319744 -0.3160941 -0.03318303 0.20943916
0003e0 37 9a 11 bd bc 3e 46 be d6 71 af be 00 03 61 3e
       -0.03554746 -0.19359869 -0.34266537 0.219738
0003f0 db d9 5f 3e 74 5d 85 3e 27 6a 8e be 07 0c 98 3e
       0.21860449 0.26047862 -0.27815363 0.29696676

net.0.bias f4 [64]
000000 f4 15 e8 bd ad a0 8d be 84 dc 5e 3e 77 ed 91 be
       -0.11332312 -0.27661648 0.21763808 -0.28501484
000010 f4 3d a1 be c2 ab 9d 3e 4d 9c 3e be 33 82 ed bd
       -0.3149258 0.30795103 -0.18614312 -0.11597099
000020 1c 88 a8 3e 33 10 b4 3a 1c 3f 30 3e d0 be 64 bd
       0.32916343 0.0013737738 0.17211574 -0.055846035
000030 2a b6 62 be f0 86 7a be 5e d7 96 3d 41 30 4d be
       -0.22139803 -0.24465537 0.07365297 -0.20037939
000040 c4 0e 17 3d de 92 03 be ee a3 88 3e 20 6c b5 3d
       0.036879316 -0.12848994 0.26687568 0.08858514
000050 f0 8d 9f be d2 61 1c be 9a be 73 3d c0 23 f2 3c
       -0.31162977 -0.1527169 0.059507944 0.029558063
000060 26 a2 3a be 72 1b 0e be f8 c7 76 be 54 05 ac bd
       -0.18225917 -0.13877657 -0.2409972 -0.08399454
000070 3c d3 d9 bd 7b fc 7a 3e 9d 46 b4 be 65 1c 9e be
       -0.10635993 0.24510376 -0.35210124 -0.30881038
000080 c6 8c 8f be 4c 03 9a bd 58 f8 14 be f6 32 98 bd
       -0.2803709 -0.0752016 -0.1454786 -0.07431595
000090 b1 6e 7b be 3a 13 b1 be 19 1b 81 3e f8 7d ad be
       -0.24553944 -0.3458498 0.25215986 -0.3388517
0000a0 62 69 8b be ac d9 cb bd 14 c3 5f 3e c7 95 86 be
       -0.27228838 -0.09953627 0.2185176 -0.26286146
0000b0 a2 26 77 3e 47 f1 44 be 1b 49 f1 bd b8 0b 5b bd
       0.24135831 -0.19232665 -0.11781522 -0.053477973
0000c0 b1 f6 61 be 49 6b aa be 4a e9 fd 3d 8d 3f 8e be
       -0.22066762 -0.33284977 0.12398012 -0.2778286
0000d0 13 eb 8a 3e 45 b4 24 3e f5 e1 15 be b3 60 96 bd
       0.27132472 0.16084392 -0.14636977 -0.07342663
0000e0 fd 46 01 3d 56 07 1c 3e 12 6f 7f be de 18 99 bc
       0.03156184 0.15237173 -0.24944714 -0.018688615
0000f0 87 7c a6 be 81 df 59 3e 80 80 ca 3d e9 7e 91 bd
       -0.32516882 0.21276666 0.09887791 -0.07104284

net.2.weight f4 [64, 64]
000000 f8 44 ad bd 80 12 00 3d 00 10 a2 b9 c4 2d 18 bd
       -0.0846042 0.031267643 -0.0003091097 -0.03715302
000010 f2 95 d2 bd 28 b9 f1 bc e8 1f 9c bd 90 f6 49 bd
       -0.10282506 -0.029507235 -0.07623273 -0.049307406
000020 6a 7f 8d bd a8 38 0f bd e8 a1 ec bd a2 79 93 3d
       -0.06909068 -0.03496614 -0.11554319 0.07200934
000030 18 2d e8 3d ba ac f5 bd d2 79 bb 3d 88 23 70 bd
       0.11336726 -0.119958356 0.09154095 -0.058627635
000040 a0 55 f6 bd e0 c2 6c 3d 60 37 9e 3c f0 16 7c bc
       -0.120280504 0.057803035 0.019313514 -0.015386328
000050 20 0c af bc d4 f5 f0 3d ce 20 e6 3d 34 b3 f3 3d
       -0.021368086 0.11765638 0.11236726 0.11899415
000060 88 90 f3 3d 86 d8 9c bd ac 94 aa bd 12 e3 c9 3d
       0.118928015 -0.07658486 -0.08329138 0.09857763
000070 64 f1 f4 3d 16 49 ba bd 74 13 0f 3d 06 1f 9a bd
       0.11960104 -0.09095971 0.03493066 -0.075254485
000080 20 a7 6d bc 10 88 c5 3c d0 ec 9b bd 7a 73 b8 bd
       -0.014505178 0.024112731 -0.07613528 -0.090064004
000090 b6 07 80 3d 0c b0 8f 3d f0 ca dd bd b8 bd df 3c
       0.06251471 0.07016 -0.10829723 0.027312145
0000a0 d4 5b 13 bd f8 55 81 3d 90 70 bc bd 10 0d c7 3c
       -0.035976246 0.06315225 -0.09201157 0.02429822
0000b0 8c 21 ac 3d 98 dd 74 3d d8 d6 e8 3c 8a 22 8b bd
       0.08404836 0.05978164 0.028422758 -0.06793697
0000c0 54 ca 90 bd de a6 e8 bd c0 c4 0a 3b 00 d8 57 bb
       -0.07069841 -0.113599524 0.00211744 -0.0032935143
0000d0 c8 f0 f3 3c 18 8d ba 3d 02 5b d6 3d 50 75 d4 bd
       0.0297779 0.09108943 0.10466577 -0.10373938
0000e0 98 a2 61 3d cc 18 1d 3d c2 ea fb 3d c0 8f d8 3b
       0.055086702 0.038353726 0.12300636 0.006608933
0000f0 94 a4 84 3d 70 32 23 3c 00 02 07 bb a0 39 63 3d
       0.06476703 0.009960756 -0.0020600557 0.055474877
000100 6e 8e 35 3d 73 14 d4 bd 4f e1 2b bc 60 61 ad bd
       0.044325285 -0.10355463 -0.0104907295 -0.084658384
000110 ec 27 df 3d e6 aa 69 3d 08 d3 b3 bc 2c 08 b0 bd
       0.10896286 0.057047747 -0.021951213 -0.08595309
000120 47 03 86 bc a5 a2 de 3d 9a 8f cd 3d 94 4b bb 3d
       -0.016358985 0.10870866 0.100371554 0.09145275
000130 b8 6c eb 3d 0b b3 8c bd 37 c9 8c bc 1a 14 9d bd
       0.11495346 -0.06870087 -0.01718579 -0.0766985
000140 51 2b af 3d fe e7 88 bd dd 8b db bd 74 c9 81 3d
       0.08553184 -0.06684874 -0.10720036 0.06337252
000150 f0 02 ce bd be 88 8f bd be 0e 00 3d 0e 0a a4 3d
       -0.10059154 -0.070085034 0.03126406 0.0800973
000160 88 81 a3 bd 43 5f 92 3d e8 b5 10 bd f6 a9 de bd
       -0.079836905 0.07147076 -0.03532973 -0.10872261
000170 00 7d e8 3b ea 04 c5 bd ed 0d c8 bd 86 07 e8 bd
       0.0070949793 -0.09620078 -0.09768281 -0.1132956
000180 24 0a 68 bc 39 19 83 bd e4 95 fa bd 76 4b 37 3b
       -0.014162574 -0.06401295 -0.122356206 0.0027968562
000190 c8 23 b0 3c fe 27 a7 bd 78 1b b1 bd 6a c3 e6 3d
       0.021501437 -0.08161925 -0.086478174 0.11267741
0001a0 ca 40 d6 bd dc 6d f8 bd 99 43 93 bd 0f 41 94 3d
       -0.10461576 -0.12130329 -0.071906276 0.072389714
0001b0 80 15 80 ba 11 5f fb bd 3f ac d7 3d 76 a4 cd 3d
       -0.0009772032 -0.12273992 0.105309 0.10041134
0001c0 70 e8 af bc 23 4c db 3c d3 49 cc 3c 13 fa b5 bd
       -0.02147314 0.026769703 0.024937546 -0.088855885
0001d0 2d 6d ed 3d e7 16 f7 bd 00 1e f5 b9 f3 dd bc 3d
       0.11593089 -0.12064915 -0.00046752393 0.09222021
0001e0 e0 3f ea 3d e0 af bc bd 30 6b dd bd ba 18 a4 bc
       0.114379644 -0.09213233 -0.1081146 -0.020031322
0001f0 76 2e a8 bb c5 fa aa 3d 32 eb e6 bd dd 9a 44 3d
       -0.0051324917 0.08348612 -0.11275329 0.04799925
000200 42 c9 57 bd ea 10 d3 bb 2d 57 ea 3d d8 4f e1 3c
       -0.05268217 -0.0064412253 0.11442409 0.027503893
000210 00 f3 fa 3c b0 a0 07 bd 6c b0 af 3d 64 da e7 3d
       0.03063345 -0.033112228 0.08578572 0.113209516
000220 65 94 c2 bd f4 1f 9a bc 29 f8 be 3d 2c 46 8c bd
       -0.0950096 -0.018814065 0.093246765 -0.06849322
000230 bc 34 51 3d a1 95 36 3d 37 af 90 3c 8a df a2 bd
       0.051075682 0.04457629 0.017661674 -0.07952793
000240 b0 ab e1 3d d0 cd c8 3d 0e 8e df bb dc 82 df bd
       0.11019075 0.098048806 -0.006822354 -0.10913631
000250 9b 9c 8e 3d fc 7f 9f bd 4f 7a da bd 9a 33 e8 bd
       0.06963464 -0.07788083 -0.1066786 -0.11337967
000260 19 a2 d5 3d 11 ae 78 bd 88 58 69 bd 18 42 ed 3c
       0.10431308 -0.060712878 -0.056969196 0.02896218
000270 d0 a0 cb 3c 22 ec 38 bc 2d 5d c2 3d 95 4c 31 bd
       0.024856955 -0.011286767 0.09490428 -0.043285925
000280 97 9e c5 bc be eb cc bc 8c b0 3b bd 5c 12 f5 3d
       -0.024123473 -0.025014754 -0.045822665 0.119663924
000290 50 7f 16 bc b8 24 3f 3d a4 c6 24 bd fa d2 8c 3d
       -0.009185627 0.046665877 -0.0402285 0.06876178
0002a0 d1 66 f0 bd 70 17 6a 3d b7 5b f8 bd bd ef 5c bd
       -0.11738361 0.057151258 -0.12126868 -0.05393957
0002b0 1c 2c 57 bd 85 a2 ba 3b e0 80 92 bc a4 86 f9 bd
       -0.0525323 0.0056956434 -0.017883718 -0.12183884
0002c0 d4 3c 33 3d 67 33 c6 3d 8c d3 67 bd 00 15 f8 3d
       0.043759182 0.09677773 -0.05659823 0.121133804
0002d0 de 94 c1 bd 37 ff f5 bd e6 36 b1 bd dc 7b 82 3d
       -0.09452222 -0.12011569 -0.08653049 0.063712806
0002e0 d7 92 51 3d bc b3 84 3d 3d 47 1d bd 00 44 8e 3d
       0.051165428 0.06479594 -0.038398016 0.06946564
0002f0 71 71 be bd 19 b8 da bd 38 4b c5 3c b9 a5 66 3d
       -0.09298981 -0.10679645 0.024083719 0.05631039
000300 38 6f 4c 3d 18 72 e8 bc fe fc b7 bd dc b4 d3 3d
       0.049910754 -0.028374717 -0.08983801 0.103372306
000310 80 a0 b4 ba 00 cf 79 3b f8 1e 80 bd e0 12 45 bc
       -0.0013780743 0.0038117766 -0.06255907 -0.012028426
000320 7e 00 dd bd 58 89 d1 3c 00 08 82 3d 06 79 c2 bd
       -0.107911095 0.025578186 0.06349182 -0.0949574
000330 60 98 b0 bb 84 a9 66 3d c8 f3 b3 bd fe 80 d8 bd
       -0.0053892583 0.056314006 -0.08786732 -0.10571478
000340 4c cf e5 bd 9a df 89 3d d4 df 3f bd 60 b2 e2 bc
       -0.11221179 0.06732102 -0.04684432 -0.027672946
000350 d0 59 f4 bd 96 2a 9d bd d8 31 73 3d e0 e5 08 bc
       -0.11931193 -0.07674138 0.059373707 -0.008355588
000360 e0 09 0d 3c a8 36 fb 3c 68 65 44 3d 54 e5 02 3d
       0.008608311 0.03066571 0.04794827 0.031956986
000370 70 75 7b 3d 06 43 b9 3d 80 1e d1 3c 14 01 b6 bd
       0.061391294 0.09045987 0.025527239 -0.088869244
000380 8a 5e fa bd b6 4a c0 bd 58 89 96 bc 34 99 83 bd
       -0.12225063 -0.0938925 -0.018376037 -0.064257056
000390 a0 cc a6 bd d0 41 8d 3c a8 0d dc 3d 28 6d 82 3c
       -0.08144498 0.017243296 0.10744792 0.01592119
0003a0 80 1f 87 3c f0 3d ed 3c ee 02 c1 bd 4a dc d4 bd
       0.016494513 0.028960198 -0.09424387 -0.10393579
0003b0 50 9b 93 bc 28 db b6 bd f8 ea bc 3c e2 a0 fd 3d
       -0.018018395 -0.089285195 0.02306126 0.123842016
0003c0 8c 95 81 3d ec 57 4d 3d 50 c7 de bc de bf 81 bd
       0.06327352 0.050132677 -0.027194649 -0.06335424
0003d0 00 86 82 3d a0 18 a2 bb 80 b4 df bd 70 87 b5 bd
       0.06373215 -0.004946783 -0.109230995 -0.08863723
0003e0 6a a5 a2 bd ee 7b 9f bd 84 0e 86 bd d2 d7 ae 3d
       -0.079417065 -0.077873096 -0.065457374 0.08537258
0003f0 c8 21 e0 3d d4 ff 7c bd 68 12 cd bd f8 4d 14 3d
       0.10943943 -0.061767414 -0.10013276 0.03620717

net.2.bias f4 [64]
000000 28 5b 36 bd fb da 80 bb a6 14 01 be 78 05 60 3d
       -0.044520527 -0.0039323545 -0.12605533 0.054692715
000010 cc 58 c1 3d 4a 02 30 3d c6 20 b4 3d 60 9f ff bc
       0.09440765 0.042970933 0.087953135 -0.031203926
000020 e4 7f af 3d b0 92 23 bc 5f 15 cf 3d 5b 13 13 3d
       0.08569315 -0.0099837035 0.10111498 0.03590713
000030 46 ee f8 3b 81 fa 3e 3c 55 9d 81 3d 0c 0c f0 3d
       0.007596764 0.0116564045 0.06328837 0.11721048
000040 6e a9 be bd d1 49 83 3c 3a 22 95 bd 2d 1d 92 3d
       -0.0930966 0.01602641 -0.07281919 0.07134471
000050 df e1 55 3d 90 e4 cc 3c e6 a6 ab 38 1e 84 bd 3d
       0.05221736 0.02501133 8.185003e-05 0.09253715
000060 2a 4d fa bd 30 40 a5 bc 23 a2 d1 3d 22 1a fb bd
       -0.12221749 -0.020172209 0.10236003 -0.12260844
000070 8a bf b0 3d 64 47 1e bd 9a 5c bd bd dc 03 0e 3d
       0.08630283 -0.038642302 -0.09246178 0.03467165
000080 99 a5 cc 3c ab 1c ae bd 1d de 95 3d f2 1c b8 bc
       0.024981307 -0.08501562 0.07317755 -0.02247474
000090 ce d9 53 3d 66 98 4d 3d c0 8e 9a bc 24 d3 5b bd
       0.051721387 0.050194167 -0.018866897 -0.053668156
0000a0 9f 80 a9 bd 08 e6 3a 3d 69 c3 9f bd 00 0a 15 ba
       -0.08276486 0.04562953 -0.078009434 -0.0005685389
0000b0 03 95 ab bc de bf 92 bd eb 5f 99 bd 5b a6 a1 bd
       -0.020945078 -0.07165502 -0.07488998 -0.07893058
0000c0 0b bc 01 bc 19 16 82 3d 90 65 76 3d eb 38 d6 bd
       -0.007918368 0.06351871 0.06015545 -0.10460075
0000d0 81 33 54 bd 58 69 cc 3d 58 4a 9b bc e9 96 9f 3d
       -0.05180693 0.0998103 -0.018956348 0.07792456
0000e0 88 cc 14 3d 82 67 be 3c e7 fe da bd 10 6a 54 bd
       0.03632787 0.023242716 -0.1069315 -0.05185896
0000f0 47 18 df 3c 8b 20 d2 3d f2 5d dd bd cd 17 2e bd
       0.027233256 0.10260113 -0.10808934 -0.042503167

net.4.weight f4 [4, 64]
000000 5e e1 1e 3b 77 a1 6f 3b 47 c3 13 bb 48 5e 12 bb
       0.0024243216 0.0036564746 -0.0022546814 -0.0022334028
000010 80 4c 22 b9 bd e3 13 3b 61 66 c5 3b 91 72 d7 ba
       -0.00015478022 0.0022566163 0.0060241674 -0.0016437342
000020 77 72 12 ba d8 88 93 3a d7 cd c2 3b f8 ee 85 ba
       -0.00055865146 0.0011255993 0.005944948 -0.0010218313
000030 15 ab 2c bb 0d 15 98 ba 72 4a 9a ba 4b fa 0e bb
       -0.002634709 -0.0011602953 -0.0011771454 -0.0021816667
000040 96 1c 93 ba 5e 7a e4 38 ef 28 29 bb 96 e3 84 ba
       -0.0011223729 0.0001089468 -0.0025811752 -0.0010138627
000050 63 c1 fc 3a 60 bb 27 3b 92 a0 4f 3b 6d 56 48 bb
       0.0019283708 0.0025593862 0.00316814 -0.0030569092
000060 4a 29 e7 3b 9c 54 6c 3a 37 36 3b 3b 8e f2 26 3b
       0.0070544826 0.00090152933 0.002856625 0.0025474164
000070 ca 1c 32 3b e8 62 c8 b9 34 39 1c 3b 35 cf f7 3b
       0.0027177804 -0.00038220664 0.0023837807 0.007562543
000080 c7 a3 ad 3b 30 70 f2 ba 28 09 be ba ac 58 39 3a
       0.005299065 -0.0018496569 -0.0014498578 0.0007070403
000090 55 68 75 bb 55 71 a3 3a ce a1 14 bb ad 45 ad ba
       -0.003744622 0.0012469689 -0.002267945 -0.0013219618
0000a0 84 ce f0 3b a8 6f 86 3a 1b 59 8c bb 84 77 1b ba
       0.0073488373 0.0010256665 -0.004283083 -0.000593059
0000b0 2b 22 88 ba ae 62 43 3b dd dd 94 bb 22 52 10 3b
       -0.0010386159 0.0029813456 -0.0045430497 0.0022021611
0000c0 ce b3 1f 3a 18 b5 41 3b 2f ce d5 ba 27 38 0f 3b
       0.00060921616 0.0029557403 -0.0016312058 0.0021853538
0000d0 9e 75 a9 ba 3a 25 be 3b 8e 4b 5a 3b 4a 11 c3 3b
       -0.0012928729 0.0058027776 0.0033309194 0.0059529888
0000e0 c3 72 21 3b 96 a2 62 b9 58 0f b3 ba 60 5c f5 3a
       0.0024635054 -0.00021613608 -0.0013661189 0.0018719546
0000f0 c8 34 10 3b 2e c8 36 bb 70 28 ca 39 00 27 ed 3b
       0.0022004116 -0.0027890312 0.0003855857 0.007237315
000100 4e c1 a9 ba 2b 1f b7 3b af fc cb 3b e5 cd a5 ba
       -0.0012951286 0.0055884323 0.0062251906 -0.0012649862
000110 00 41 ad 37 a0 f1 40 3b 70 7f 2f ba ae 8e 99 3b
       2.0653475e-05 0.0029440895 -0.000669471 0.004686198
000120 0a e5 e8 3a ad cf 29 bb 48 14 1c 3b 2f 99 a8 3b
       0.0017768454 -0.0025911138 0.00238158 0.005145214
000130 97 af d0 3a 50 24 8c 3b e3 23 02 3b 90 b3 f1 3a
       0.001592147 0.0042767897 0.0019857816 0.0018440355
000140 85 8a f5 ba 5f e0 14 3b 19 94 e9 ba 2c af cc 3a
       -0.0018733299 0.0022716743 -0.0017820626 0.001561617
000150 d8 1b 0e 3b 0d 49 19 bb 2e 52 8e bb 26 8f be 3b
       0.0021684077 -0.002338949 -0.0043432927 0.0058154045
000160 82 f4 74 39 ec 00 01 3b d5 e7 ad 3a 74 e0 f0 3a
       0.0002336074 0.0019684387 0.0013267944 0.0018377439
000170 36 02 81 ba b5 ac 2a bb 18 23 99 b9 fc ad 96 3a
       -0.0009842578 -0.0026042883 -0.0002920858 0.0011495943
000180 7c 0d 1b bb c4 58 4d 3b a0 11 3c 39 4c 56 aa 3b
       -0.002365916 0.0031333426 0.00017935643 0.0051982757
000190 39 81 03 3b fa 6b 01 3b cc c1 41 3b 8f c2 e9 ba
       0.0020066036 0.0019748197 0.0029564975 -0.0017834472
0001a0 9b 86 d5 ba 31 93 3d bb b8 90 8a 3a cb 19 a7 ba
       -0.0016290726 -0.0028926844 0.0010571694 -0.0012748776
0001b0 23 31 e5 3a 32 04 00 3b d8 11 6a 3b 29 d1 95 3a
       0.0017485957 0.001953375 0.0035716202 0.0011430132
0001c0 9b a7 82 bb b6 76 44 bb 4c 11 66 ba 8a fd b6 3b
       -0.0039872653 -0.0029977984 -0.0008776381 0.0055844234
0001d0 75 68 12 3b 8d af bf 39 54 31 88 bb 66 77 ab 3a
       0.0022340093 0.00036561154 -0.004156271 0.0013081848
0001e0 4c 94 18 bb 9f de d2 3b 59 04 19 3b 10 89 9d 3a
       -0.0023281751 0.00643523 0.0023348539 0.0012018997
0001f0 ef 5c d9 ba eb c5 71 3b 64 1a fe ba 01 22 cd 3a
       -0.0016583483 0.003689165 -0.0019386527 0.0015650393
000200 4c a9 91 3a 2a 07 70 39 d3 91 8d bb 90 6c 30 ba
       0.0011113076 0.00022890852 -0.004320362 -0.0006730044
000210 16 4b 2c bb 14 7e 3b bb 0a 9c c3 39 bc 8d 69 bb
       -0.0026289872 -0.0028609084 0.00037309557 -0.0035637459
000220 ce f0 84 ba 54 fd 1b bb cf eb 8e bb 34 10 9a bb
       -0.0010142566 -0.0023802118 -0.0043616067 -0.0047016386
000230 46 a1 94 3b 7f 52 0f bb d9 0a 21 3b ee 05 17 bb
       0.004535827 -0.002186924 0.0024573116 -0.0023044306
000240 a0 30 84 39 c5 0e 80 bb f0 26 a4 3a 28 33 b3 bb
       0.0002521323 -0.0039080107 0.0012523811 -0.005468745
000250 c1 43 5e bb 50 63 78 3a 8f 69 69 ba bd d0 1b bb
       -0.0033914896 0.0009475248 -0.0008903974 -0.002377554
000260 fb 95 a5 ba 98 01 3a 3b cf b1 f0 bb d0 a4 7e 3a
       -0.0012633199 0.0028382298 -0.007345415 0.000971389
000270 48 6d eb 3a 47 20 21 bb 00 b4 10 b8 d5 da cb bb
       0.0017961645 -0.002458589 -3.4499913e-05 -0.006221155
000280 f2 cd ca bb 1a a6 ed bb 4d 61 3a 3b 7a ec b3 ba
       -0.0061891014 -0.007252467 0.0028439343 -0.0013727092
000290 eb e6 bf ba 3b 06 03 bc 34 82 aa ba e6 e7 11 3b
       -0.0014640962 -0.007997091 -0.0013008774 0.0022263466
0002a0 18 15 ed bb b4 de 1c 3a aa 56 86 3a c8 73 1b 3b
       -0.0072351806 0.0005984113 0.0010249217 0.0023720134
0002b0 6d 4e 94 ba d8 e8 37 bb a6 22 60 bb dd 35 89 bb
       -0.0011314877 -0.002806237 -0.003420034 -0.004187329
0002c0 57 4a bb 3a d8 2c f6 ba 24 9d 23 3b 41 3d a4 bb
       0.0014289123 -0.0018781675 0.002496549 -0.005012185
0002d0 46 eb 62 bb d9 45 8a bb f4 b8 ac bb 19 49 be bb
       -0.0034625097 -0.0042197523 -0.0052710716 -0.0058070538
0002e0 7f a7 51 ba 85 92 91 bb 64 f4 46 ba 0c 90 95 3a
       -0.0007997676 -0.0044425153 -0.00075895176 0.0011410727
0002f0 1e 0a 83 bb a5 ea b4 ba 70 6a c8 3a 50 fb 82 bb
       -0.003999009 -0.001380284 0.001529051 -0.003997244
000300 2c a5 ac 3a c5 37 ff b9 1e e5 8b 3a c4 01 df 3a
       0.0013171784 -0.00048678942 0.0010673141 0.0017014076
000310 1d 56 2f bb f3 6f ab ba 44 dd b5 bb 70 78 3f bb
       -0.0026754208 -0.0013079628 -0.0055500586 -0.0029216073
000320 a2 94 b1 b8 c0 5c dc 3a 28 77 40 38 58 6d 83 ba
       -8.467703e-05 0.001681231 4.588734e-05 -0.0010027094
000330 1e 95 a3 3b e0 42 42 ba 77 a2 4b ba c4 cf 3d 3a
       0.0049921414 -0.0007410478 -0.00077680446 0.00072407373
000340 ec 5c 00 3b dc 17 4b bb 88 78 fb 3a a2 35 5d bb
       0.0019586636 -0.0030989563 0.0019185701 -0.0033753891
000350 77 a3 94 bb 75 c2 d0 ba 83 e2 f3 bb c1 8f 21 3b
       -0.004536088 -0.0015927093 -0.007442774 0.0024652334
000360 bd 1c eb bb f0 60 28 3b 9e b4 64 bb 57 e8 40 bb
       -0.0071750567 0.0025692545 -0.0034897695 -0.002943536
000370 e0 ac 5b ba 3c 24 42 3a a2 54 2b 3b fd 6b 4b bb
       -0.00083799474 0.0007405912 0.0026142974 -0.0031039708
000380 8d 71 c8 bb 26 37 98 bb 29 ed 41 bb 50 73 be ba
       -0.006117052 -0.004645246 -0.0029590821 -0.0014530215
000390 cf 1d 1a 3a f8 65 7f b8 40 2a 92 38 41 9a c2 ba
       0.00058790756 -6.0891703e-05 6.969692e-05 -0.0014846997
0003a0 ec 05 95 bb 20 34 31 b9 c2 de 29 3b ab a0 16 bb
       -0.004547825 -0.00016899453 0.0025920128 -0.002298395
0003b0 1b 7c 62 3b b8 56 3b 3a f0 4c b4 3b 0e 35 4e ba
       0.0034558836 0.0007146406 0.0055023357 -0.0007866182
0003c0 74 e7 04 39 2c 18 d0 bb 80 1b 50 b9 ee ff f8 ba
       0.00012674724 -0.0063505378 -0.0001984667 -0.0018997171
0003d0 30 31 9a ba 41 f2 87 bb 31 91 0a bc 4f 47 92 3b
       -0.0011763927 -0.004148752 -0.008457468 0.004464067
0003e0 6a cc d5 bb f0 96 c9 b9 ed 06 68 3b 90 00 50 3a
       -0.006524612 -0.00038450165 0.0035404519 0.0007934654
0003f0 f8 8c 8a bb 1d 8d 85 3a b4 2d 9a ba 68 d7 8c ba
       -0.0042282306 0.001018915 -0.0011762888 -0.0010745348

net.4.bias f4 [4]
000000 77 2d 95 3b cf 07 2c ba 39 86 66 bb 95 01 a2 bb
       0.004552539 -0.0006562443 -0.0035175218 -0.0049440362

net.0.weight f4 [64, 8]
000000 04 df 72 3e 80 7a 25 bd 60 65 7a 3c 50 7d ee bd
       0.23717886 -0.04040003 0.015282959 -0.11644995
000010 46 35 34 be a0 ca a9 3d 80 9c 23 3d 95 31 40 be
       -0.17598447 0.08290601 0.039944172 -0.18768914
000020 e6 20 55 be 74 51 dd bd 18 8c 45 3d 1c fe fd bd
       -0.20813331 -0.108065516 0.048229307 -0.12401983
000030 08 f3 43 3e 88 b7 54 be 12 d6 62 be ce 0d 73 be
       0.19135678 -0.20773137 -0.22151974 -0.23735735
000040 40 7c 20 3d c6 15 f5 bd 3e 43 08 3e e5 69 8c be
       0.039180994 -0.119670436 0.13306901 -0.2742454
000050 60 81 20 3d e0 0f 0f bd 6c b6 5e 3e 81 45 1e be
       0.03918588 -0.03492725 0.21749276 -0.15456201
000060 5c ee 20 be 8e 56 0c 3e c8 26 42 3e f3 a3 1a be
       -0.15715927 0.13704893 0.18960106 -0.15101604
000070 6c 62 90 be 60 d9 68 3c 9c ca 31 bd d8 81 3f be
       -0.2820009 0.0142119825 -0.043406114 -0.18701875
000080 1f a8 65 3d 03 95 7b be fc dd d2 3d 97 b7 4b 3e
       0.056068536 -0.24568562 0.102962464 0.19894253
000090 f6 69 02 3e 42 81 8e be de 18 52 be 64 51 c9 bd
       0.12735733 -0.2783299 -0.20517299 -0.09829977
0000a0 5d a3 71 3d 9d be 3c be 1e b2 33 3e fb 96 cb 3d
       0.058993686 -0.18432088 0.17548415 0.099409066
0000b0 ab 36 94 3d 1f 1b 57 3d 68 15 80 3e c3 fc 4d 3d
       0.072369896 0.0525161 0.25016332 0.05028988
0000c0 d2 77 25 3c 37 d4 92 3e c5 96 58 3e f3 41 05 3e
       0.010099368 0.28677532 0.21151264 0.13013439
0000d0 73 56 83 3c 81 77 fa bd 7c 82 65 be c0 20 84 3e
       0.016032433 -0.12229825 -0.22413057 0.25806236
0000e0 b6 18 39 3e 90 67 64 be 8c cf e9 3d e4 bd 3a be
       0.18075833 -0.22305131 0.114165395 -0.182365
0000f0 89 ed 8d be 20 b4 7d 3e b4 fb 76 be 78 f5 cc bd
       -0.27720287 0.24775743 -0.24119455 -0.10007757
000100 c9 6f c0 bd e8 dc 20 3e 7a 32 5c 3e 46 c8 8f be
       -0.09396321 0.15709269 0.2150363 -0.28082484
000110 9f cd 7f 3b 00 fb 74 3e 02 14 4c 3e 52 10 46 3e
       0.0039032472 0.23923874 0.19929507 0.19342163
000120 e9 10 df 3d c5 1e 4a 3e c2 b3 75 3e 23 05 1a bc
       0.10891897 0.197383 0.23994353 -0.009400639
000130 0d 44 9b bd 70 57 1a be 0c 06 60 bd 38 6f 1f be
       -0.07581339 -0.15072417 -0.054693267 -0.1556977
000140 8f 3c 09 be fd 9a 84 bd c0 41 50 3e 24 a2 3d be
       -0.13402008 -0.06474874 0.20337582 -0.18518883
000150 f2 1b 10 3d a1 a1 81 3d ec ec f4 3c 05 f0 7c 3e
       0.0351829 0.063296564 0.02989813 0.24700935
000160 ee 29 e5 bd c0 49 74 bc 80 cd e7 bb a8 2a 12 be
       -0.11189638 -0.0149101615 -0.007074058 -0.14274085
000170 a2 98 26 3e e0 1d e9 3c c8 fb d5 3d 56 20 44 be
       0.16269162 0.028456628 0.10448414 -0.1915296
000180 50 2a 81 3d 30 ee 90 3d c2 b1 31 bb e5 6e 69 be
       0.063068986 0.07076681 -0.0027114009 -0.22796209
000190 f8 e3 93 be af 85 32 bc 69 89 02 3e e4 e7 24 3e
       -0.28884864 -0.01089613 0.1274773 0.16104084
0001a0 d9 86 71 be e0 f4 7b bc c0 5f fc 3b 14 64 4a be
       -0.23586597 -0.015378207 0.007701844 -0.1976474
0001b0 3c 76 eb 3d 5f 58 71 be 60 b1 db bc a0 99 13 bd
       0.11497161 -0.23568867 -0.026817977 -0.03603518
0001c0 a8 13 50 3e d0 aa a6 bc 13 f8 32 3d 3e 13 0d 3d
       0.20319998 -0.020345122 0.043693613 0.03444218
0001d0 a9 d2 8f 3e d1 f7 44 bd ba 9a 1f 3e a0 4c e7 3d
       0.28090408 -0.0480879 0.15586367 0.11293912
0001e0 58 d3 0d be 11 af e1 3d 38 93 86 3e d8 bb 15 bc
       -0.13850152 0.110197194 0.26284194 -0.009139024
0001f0 a3 0e 9e 3d 1d 59 87 be 54 cd 28 3e 01 8f 5e 3e
       0.077176355 -0.26435176 0.16484576 0.21734239
000200 0a 81 53 be 44 76 82 3e ad d6 88 3e e3 af 82 be
       -0.20654693 0.25480855 0.26726285 -0.25524816
000210 04 d8 79 3e 33 9b 21 bb 2b de 33 be d6 9f 74 be
       0.2439881 -0.0024659156 -0.17565219 -0.23889098
000220 43 b7 f7 3d e9 e1 a2 bd 3c 1b 55 3c 2f 86 90 3e
       0.12095501 -0.07953245 0.013006981 0.28227374
000230 9a 0c d3 bc d0 3c fd 3d e2 44 f7 bd 84 e2 80 be
       -0.025762845 0.12365115 -0.12073685 -0.25172818
000240 a0 aa 0b bc 8e 2b 0b 3e 2a 17 8f be c0 ed 25 be
       -0.008524567 0.13590834 -0.2794736 -0.16203976
000250 4c 40 5d be 80 c3 4a 3c 50 8a c8 bd a4 78 ef bd
       -0.21606559 0.012375712 -0.09792006 -0.11692932
000260 8f 58 45 be df 69 ae 3d 3c 1a 8e be ca 2b 98 3e
       -0.19272064 0.08516287 -0.2775439 0.29720908
000270 90 7a 62 3d 3a ca 52 bd ad 11 1c 3c 85 bb bc 3d
       0.055292666 -0.05146239 0.009525699 0.09215454
000280 83 64 e5 3d 11 6e 2a be 2e c1 9d 3d e4 66 47 3e
       0.11200812 -0.1664355 0.07702862 0.19472843
000290 db 62 1d be 99 ba 1a ba 07 26 16 be 93 3c 39 be
       -0.15369742 -0.0005902439 -0.14662944 -0.18089513
0002a0 38 c9 66 3e 98 cd 58 be 94 66 ec 3d 13 87 3f be
       0.22537696 -0.21172178 0.11543003 -0.1870387
0002b0 8e 0e 52 be 40 20 7d bc 6d 63 37 be 1e 3b f4 bd
       -0.20513365 -0.0154495835 -0.17909022 -0.11925338
0002c0 0e 79 41 be 7e 87 d8 bd 50 f3 09 3d 81 c1 17 be
       -0.18893835 -0.10572718 0.033679307 -0.1481991
0002d0 90 71 be bc 66 95 67 be 00 ec ad b9 00 7b 1a bb
       -0.02324751 -0.22615585 -0.00033172965 -0.002357185
0002e0 ff a2 55 be e7 d8 4d be ef 65 97 be 54 f1 75 bc
       -0.2086296 -0.20102273 -0.29569957 -0.01501115
0002f0 70 d8 48 3e b8 c7 7a bd 95 10 4a 3d d5 ae 69 be
       0.19613814 -0.061225623 0.04933222 -0.228206
000300 01 41 46 3d 68 33 78 3e 5a 4f 5c be 8d 18 65 3e
       0.048401836 0.2423836 -0.21514645 0.22372647
000310 ca 61 33 bd e8 32 19 bd c7 08 7b 3d 83 32 87 3d
       -0.04379443 -0.037402064 0.061287668 0.06601431
000320 6a aa ae 3d 68 dd 8b 3e c8 6f 0c 3e 61 2b a0 3c
       0.08528598 0.27317357 0.13714516 0.019551935
000330 b7 69 f9 3d 59 b8 92 3d 4c 93 72 3e b1 65 8a 3e
       0.12178367 0.07164068 0.23689002 0.2703071
000340 a5 5d 9f 3c 9d ba 5d 3e 23 11 a1 bd 36 83 c9 3d
       0.019453833 0.21653219 -0.07864597 0.098394796
000350 52 75 88 3e a7 f1 34 3e da a8 88 be d5 95 69 3c
       0.26652008 0.17670308 -0.26691324 0.014256914
000360 a4 7e 58 be 43 7a 95 bc 24 e9 8c bd 83 26 a4 3d
       -0.2114206 -0.018246775 -0.068804055 0.08015158
000370 dd 05 65 be 93 87 73 bb c5 f0 2e bd 45 7c ef bd
       -0.22365518 -0.0037159666 -0.042710084 -0.116936244
000380 b5 e8 41 3e cb 28 a6 3d 7d 1e 8c be 6b 52 4c 3d
       0.18936427 0.081132494 -0.2736701 0.049883287
000390 0d e4 18 bc f2 d3 37 be 74 09 24 3e 0a 42 4f be
       -0.009331715 -0.17951944 0.16019231 -0.20240036
0003a0 39 ac be 3b e0 2e ae bd dc bd 96 3d e1 53 71 be
       0.0058188704 -0.085050344 0.073604316 -0.23567154
0003b0 bb 20 00 be 03 8a 7a be 61 c1 fc 3d 7a d1 17 3e
       -0.12512486 -0.2446671 0.123415716 0.14826003
0003c0 ec 8d e9 3d 24 d2 86 3d e0 0c 0b be d7 ba f9 3d
       0.114040226 0.0658305 -0.1357913 0.1219384
0003d0 b6 fc 5f 3e 81 9b 82 bd 05 2d 39 bd 18 75 b1 bd
       0.21873745 -0.06377316 -0.04520895 -0.08664912
0003e0 44 32 4a 3d cb 06 29 3b d8 af d4 3d fd 7f ed 3d
       0.049364343 0.0025791402 0.10385102 0.115966775
0003f0 6d 10 28 be 36 7c a7 bd fe 12 d1 3d 5e 74 2f 3d
       -0.16412516 -0.08177988 0.102087006 0.042835586

net.0.bias f4 [64]
000000 a3 b5 b1 3e 68 5c 01 3e 6e 98 b4 be 82 ee 21 3e
       0.3470889 0.12632906 -0.35272545 0.1581364
000010 37 b8 e8 3d c3 bc 6f 3e 91 8b 90 be 1b ff b0 3e
       0.11363261 0.2341185 -0.2823148 0.3456963
000020 bc 6b ca bd 46 47 3e be e0 fc a0 3e 5e 4d 8b be
       -0.0988383 -0.18581876 0.31442928 -0.27207464
000030 34 ca 7a 3e 08 f8 4e be d9 58 ab be d0 65 48 be
       0.24491197 -0.20211804 -0.33466223 -0.19570088
000040 5d d8 23 bd 96 57 28 be b2 db 1f 3e cb ee 6d bd
       -0.040001262 -0.16439661 0.15611151 -0.05808906
000050 3d 50 36 3e 37 2b a5 3e 30 53 84 3d ea b0 a3 3e
       0.17804046 0.32259533 0.06461179 0.31970912
000060 b8 6e 50 be f2 fe 0b 3d 9d cf ab bd 6b dc 37 3e
       -0.20354736 0.03417868 -0.083892085 0.17955177
000070 b7 60 89 bd 41 11 ea 3d b2 55 28 39 f9 a5 60 be
       -0.067079 0.11429072 0.00016053653 -0.21938314
000080 7a 76 84 be 22 06 68 3e 58 c1 b5 ba f4 43 8a 3e
       -0.2587164 0.2265859 -0.0013866825 0.2700497
000090 07 6e ae 3e 47 ef 48 3e a0 40 a1 bc 2f d8 65 3e
       0.3406832 0.19622527 -0.019684136 0.22445749
0000a0 47 c6 3d be a0 eb 39 bd f7 1f a2 3d 5d 31 93 3e
       -0.18532668 -0.045390725 0.07916253 0.287486
0000b0 48 b8 0a 3d ec 30 24 3c d9 76 aa be 6c 16 a2 be
       0.03386715 0.0100214295 -0.332938 -0.31657732
0000c0 d9 4b 4f 3e 89 7e b7 3c 4c ed 24 3e c0 0f 9a bc
       0.20243777 0.022399204 0.16106147 -0.018806338
0000d0 b3 f2 4f be a8 70 b4 3d 10 3c 71 3d 5d 6c af 3d
       -0.20307426 0.0881055 0.05889517 0.085655905
0000e0 f8 b8 b4 be f4 77 a4 3e 2b 2a 8c 3e 7f ab 72 bc
       -0.3529737 0.32122767 0.27375922 -0.014811396
0000f0 08 29 65 bd 60 bc d2 bb 5d 3c a9 3d 2d d7 06 be
       -0.055947334 -0.0064311475 0.082634665 -0.1316802

net.2.weight f4 [64, 64]
000000 34 82 48 3d 89 c6 10 3e 54 49 48 bd cd 30 36 3e
       0.048952296 0.14138235 -0.048898056 0.17792054
000010 19 1f 0f 3e 2f e1 68 be 62 a9 f7 bd b8 0a 59 be
       0.13976707 -0.2274215 -0.12092854 -0.21195495
000020 46 a0 dd 3d 95 3f 4f be f9 fc 33 be 8a 18 2a be
       0.10821585 -0.20239098 -0.1757697 -0.16610923
000030 52 d4 b7 3d c0 c3 da bc d2 ea c3 bd 9c 1e 48 be
       0.08976044 -0.026704669 -0.09566273 -0.19542927
000040 fb fd a7 3d 8e 90 b0 3d 1a 28 06 be 11 1e ae 3d
       0.0820274 0.086213216 -0.13101235 0.085018285
000050 a1 51 25 3e 77 41 3d be f0 88 2c 3c 35 89 d3 bb
       0.1614442 -0.18482004 0.010530695 -0.0064555653
000060 04 43 1a 3e d9 c0 ed bc fb 93 12 be 4a 93 00 3e
       0.15064627 -0.029022621 -0.14314263 0.12556186
000070 8a 32 66 3c 17 5d 14 3e ac 3e c7 3d 60 0d 0a be
       0.014050135 0.14488636 0.097287506 -0.13481665
000080 35 dc 2b 3e 32 d4 c4 3c 67 42 2a bd 09 08 49 be
       0.16783221 0.024026964 -0.041567232 -0.19631971
000090 8c 4a 3b be 35 04 92 bd b4 da 27 3d 9f da 32 3e
       -0.18290156 -0.07129709 0.040980056 0.1746621
0000a0 1e 0a 1d 3e e1 5e 03 be 72 69 a6 3c b3 82 6c bb
       0.1533589 -0.12829162 0.020313952 -0.0036088645
0000b0 d0 66 de bd 4c 66 c5 3d 72 a6 d3 bd ae cb cc 3d
       -0.10859454 0.09638652 -0.10334481 0.09999786
0000c0 92 3c 45 bd 4e 0f 93 3c d6 6d 40 3e f4 9c 1e bd
       -0.048153467 0.017951634 0.18791899 -0.0387239
0000d0 b9 b9 00 be 2c 7c 35 be da 7a 9b 3d 61 f5 5e be
       -0.12570848 -0.17723149 0.075917915 -0.21773292
0000e0 e5 5c c2 bd 4a f5 cc 3d c9 28 2f be ec 65 08 be
       -0.094903745 0.10007723 -0.17105402 -0.1332013
0000f0 96 40 8a 3d 58 77 21 bd 92 3d a6 bc a1 ac 06 be
       0.067506 -0.039420456 -0.02029303 -0.1315179
000100 10 56 4a be 73 e4 de bd aa ed 81 bd 20 30 95 bb
       -0.19759393 -0.10883417 -0.06344159 -0.004552856
000110 4b b2 cf bd 9a 94 0e be 70 74 ba bd ad ac cf bd
       -0.101414286 -0.13923874 -0.0910424 -0.10140357
000120 c3 e7 53 be 7c 56 b3 bd 44 8b 19 bd 82 43 b3 bd
       -0.20693879 -0.0875673 -0.03748633 -0.087531105
000130 b0 9a 93 bd 2c cf 5e 3d 34 df 7d bd ac 76 15 bd
       -0.07207239 0.054396793 -0.06198044 -0.036490127
000140 5c 1d 6f bd 84 b3 5a bd b2 72 c4 3d d6 e5 a8 3d
       -0.05837761 -0.053393856 0.09592189 0.08246963
000150 19 a6 2d be cb 5c e8 bd 6c 53 3c 3d 80 30 b3 bc
       -0.16957892 -0.11345824 0.045977995 -0.021873713
000160 43 c1 53 3e 96 f9 37 be 15 a7 02 3e bb 63 00 3e
       0.20679192 -0.17966303 0.12759049 0.12538044
000170 04 d9 32 3d ec 7e 16 3d 76 f5 ca 3d 80 2c 49 bd
       0.043663993 0.036742136 0.09910099 -0.049114704
000180 21 64 4b 3e 7f 2c 43 be 87 1f 34 3e c0 88 2f bc
       0.19862415 -0.19059943 0.17590152 -0.010713756
000190 45 9d e0 bd 34 44 36 bd 04 0b 57 be 66 7e 91 bd
       -0.10967497 -0.044498637 -0.21000296 -0.07104187
0001a0 80 a3 d8 3a 92 c8 02 be de e8 bb bd d9 70 57 3e
       0.0016528219 -0.12771824 -0.09175275 0.21039142
0001b0 04 06 39 bd 2b 7a 44 3e 71 ac 53 3e a8 7f 09 be
       -0.045171753 0.19187228 0.2067125 -0.13427603
0001c0 34 40 0f be af 54 24 3e 00 c5 26 be 2c a7 17 3d
       -0.13989335 0.16047929 -0.16286087 0.037024662
0001d0 69 13 29 3e cc 30 1e be 24 d2 d3 bd 2d 85 21 3e
       0.1651131 -0.15448302 -0.103428155 0.15773459
0001e0 67 7e 20 3e b2 36 96 3d eb 29 47 be 3a 66 da 3d
       0.15673219 0.07334651 -0.19449584 0.106640294
0001f0 28 cc 14 bd 62 20 4a be 93 ed 02 3e 07 4b 33 be
       -0.03632751 -0.19738916 0.1278594 -0.1750909
000200 94 f6 4d bd 30 49 55 be ee 19 e5 3d f0 19 e8 3c
       -0.050283983 -0.208287 0.11186586 0.02833268
000210 68 62 74 3d 0c b0 33 be 67 27 12 3e f9 fe 52 3e
       0.05966416 -0.17547625 0.14272843 0.20605077
000220 a7 cf 23 3e 80 f3 9f 3d 22 86 bd 3d 4d ea 32 3e
       0.15997182 0.07810116 0.092540994 0.17472191
000230 fe e0 a6 3d 26 7f 58 be c2 1a 0d 3e 6d 75 4a be
       0.081483826 -0.21142253 0.13779739 -0.19771357
000240 94 1c 4b 3d d0 95 31 3e 39 25 05 3e a6 21 79 3c
       0.0495878 0.17342305 0.1300248 0.015205776
000250 1d 58 9a 3d c8 1f 74 bd 7f 5e 34 3e 75 35 27 be
       0.075363375 -0.05960062 0.17614172 -0.16328986
000260 50 54 39 3e f4 0e 00 3e 56 0c 07 3d a2 40 59 be
       0.18098569 0.12505704 0.03297075 -0.21216062
000270 60 fe 01 3d 74 8a a2 bd 8e 7f e7 bd 44 6d 5f bc
       0.03173673 -0.07936564 -0.11303626 -0.013636891
000280 6f 66 3b bb 62 40 d3 3a ed 5b 4d 3d 7f 5c c6 bd
       -0.002859499 0.001611721 0.050136495 -0.09685611
000290 5b b1 32 be d8 ec dc bc 95 73 22 be bd 02 0a 3d
       -0.17450468 -0.026968405 -0.15864404 0.033694018
0002a0 d9 83 4f 3e 72 e7 b3 3d d8 4c 71 3c eb 61 db bd
       0.2026514 0.08784379 0.014727794 -0.10712036
0002b0 40 6a ef bd c4 75 d5 3d fa c0 1e be ee b2 b3 3d
       -0.116901875 0.10422853 -0.15503302 0.087743625
0002c0 d6 22 d8 bd ee 06 ed 3d 5d 79 4d be 7c 8e 31 be
       -0.105535194 0.11573587 -0.20065828 -0.1733951
0002d0 98 29 0a be 06 15 ed 3d 20 ee d1 bb 7c e6 00 3d
       -0.1349243 0.115762755 -0.0064065605 0.031469807
0002e0 34 ab 39 bd 8c d3 76 3d 87 93 08 3e fd c6 49 be
       -0.045329288 0.06026034 0.13337527 -0.19704814
0002f0 88 64 69 bd 24 f1 26 3d 41 0d 09 3e 44 53 e6 bd
       -0.05698064 0.040757313 0.13383962 -0.112463504
000300 29 a1 5a 3e de 1e 4d be 26 13 c8 bd e4 89 64 3d
       0.2135054 -0.20031306 -0.09769277 0.055795565
000310 61 4e 84 bd c9 60 a0 3c 1a 2f b5 3c 0a f5 fd 3d
       -0.06460262 0.0195774 0.022117186 0.12400253
000320 f4 75 5c 3d f5 c5 1c 3e 86 07 bc 3d 07 97 22 be
       0.053823426 0.1530989 0.091811225 -0.15877925
000330 b8 da af bd a0 3f 5b be 49 a2 88 bd f6 65 de 3d
       -0.08586639 -0.2141099 -0.066715784 0.10859291
000340 06 ed 06 be f9 8d 4a 3e 66 83 e0 bd e1 ab bf bd
       -0.13176355 0.19780721 -0.10962562 -0.09358955
000350 3d 9d 41 be 2a 4e a9 3d b9 9b 47 3e 62 b8 eb 3d
       -0.18907638 0.08266862 0.19492997 0.115097776
000360 45 e3 1b be 6a df 47 be bc 24 c8 3b 40 fe db bd
       -0.15223415 -0.1951882 0.0061078947 -0.10741854
000370 97 65 3a 3d 4c 58 fa 3d bb c3 43 be e5 2c ed bd
       0.04550704 0.122238725 -0.19117634 -0.115808286
000380 9d 42 4f bd b9 cc 13 3e 71 6b 2f be 1c 5b ec 3d
       -0.050600637 0.14433564 -0.1713083 0.11540815
000390 5a 19 c3 bd 77 6e 2d 3e 61 8d 16 be 13 09 88 3d
       -0.0952632 0.1693667 -0.1470237 0.06642356
0003a0 51 86 bf 3d 9d bd e3 bd 13 7c 53 3c bd 6d fd 3d
       0.09351791 -0.1112015 0.012908 0.123744465
0003b0 8a 76 fe 3d 02 8a bb 3d 8b 57 c7 3d 76 8b 04 be
       0.12424953 0.09157182 0.09733494 -0.12943825
0003c0 92 af 2e 3e b4 2b 0e 3b cf ad 2b 3e 8e c0 d2 bd
       0.17059162 0.002169353 0.16765521 -0.10290633
0003d0 0e d8 41 3e 9c c4 62 3d 00 28 09 bc 2c b5 8f 3d
       0.18930075 0.055363283 -0.008371353 0.07016978
0003e0 04 11 77 3d 91 44 a1 3c c0 e2 d0 3c 45 fb ec 3d
       0.06031896 0.019686015 0.025498748 0.11571363
0003f0 bc 0e 0e 3d ae cf 1d 3e 18 55 37 bc 26 3e 49 3e
       0.03468202 0.15411255 -0.0111897215 0.19652614

net.2.bias f4 [64]
000000 b0 c6 8e 3d bc 22 8c bd 6c 18 9a bd 3d fc db 3d
       0.069714904 -0.068425626 -0.07524189 0.1074147
000010 91 2c ea 3c 05 0b 6f bd e6 be ce 3c 50 27 1a 3d
       0.028585704 -0.05836012 0.025237512 0.037635148
000020 15 8d d6 bd e4 78 18 3c 79 2b ab bd 00 f6 f7 bd
       -0.10476128 0.009306166 -0.08357901 -0.12107468
000030 6f 5b 96 3b dc 38 33 3d b0 bc e7 3d c0 28 46 3c
       0.0045885365 0.043755397 0.11315286 0.0120946765
000040 2c 6e 4f bd cc c2 01 3b 12 ce f6 3d e6 c8 d4 3c
       -0.050642177 0.0019799946 0.120510235 0.025974702
000050 e6 bd 23 bd 76 64 af bd f4 1e d4 bc bb 75 8a 3d
       -0.039976023 -0.08564083 -0.025893666 0.067607366
000060 07 81 dc bd 6d 13 ad 3d 92 ac e7 bd e8 db ab bb
       -0.107667975 0.08450971 -0.11312212 -0.0052447207
000070 38 43 de 3d 75 c1 b1 3d 7e 26 c1 bc b6 e0 a7 3d
       0.10852665 0.08679477 -0.023577925 0.08197157
000080 0e 91 c1 bd 45 da 95 3d 22 dd db 3d 4d 10 07 3e
       -0.09451495 0.07317022 0.10735537 0.13189812
000090 c7 0f 80 bc 21 fa 01 3d ab f9 e1 3d 0f 8f f9 bd
       -0.015632523 0.031732682 0.110339485 -0.121854894
0000a0 2a 69 a6 bc 46 c1 c1 bd 6b e2 a3 3d 20 67 3b 3d
       -0.020313818 -0.09460692 0.0800217 0.045752645
0000b0 9a b5 25 bd 66 7e d2 bd 6b 8f 80 bd d6 8b 90 bd
       -0.040456392 -0.10278015 -0.06277355 -0.070579216
0000c0 24 58 91 3c ff 80 b0 3d 1c a3 bc bd 6e dd e8 bd
       0.017742224 0.08618354 -0.09210798 -0.11370359
0000d0 39 c6 9f 3d c1 98 f5 bb 6b 1f 20 bd c0 d3 87 3c
       0.0780148 -0.0074950163 -0.039092463 0.016580462
0000e0 9d 07 3a bd 7a 23 ba bd 68 9d d7 bc 6a 9d a4 bd
       -0.045417417 -0.09088798 -0.026320174 -0.08037837
0000f0 f4 8e 24 bd 37 6e e5 3c 54 6f 0d 3d 00 d3 54 3c
       -0.040175393 0.028006656 0.03453 0.012989759

net.4.weight f4 [1, 64]
000000 c8 c7 92 3e 98 00 57 bd 6f 74 8b be cd 33 61 bd
       0.28668046 -0.0524908 -0.2723727 -0.05498104
000010 a4 4d 04 bb b1 fb 2b 3c ab 27 16 3e ec 15 f7 bd
       -0.002018788 0.01049702 0.1466357 -0.12064728
000020 61 e5 4c be a7 e3 d2 3b 73 c4 9d be cc 60 c6 bd
       -0.20009376 0.0064358297 -0.3081394 -0.09686431
000030 2f 25 6e be 0e 80 41 3e 1e fb 6c be 40 f1 dc bb
       -0.23256372 0.18896505 -0.23142669 -0.0067426264
000040 17 80 90 be 20 39 5c 3e 28 4d 22 bd b6 3a 18 3e
       -0.28222725 0.21506166 -0.039624363 0.14866146
000050 29 09 79 3e b6 c8 96 3e 75 9c 2b 3e f0 c3 71 3d
       0.243199 0.29450005 0.16758902 0.05902475
000060 66 40 8e 3e a6 00 5e bd 2c 0f 95 3e 66 96 44 3e
       0.27783507 -0.054199837 0.29113138 0.19197997
000070 af a9 98 bc b3 fb 8e 3a 92 3e 09 3e cc 9a 11 3d
       -0.018635599 0.0010908752 0.13402775 0.035548016
000080 3f 1a 72 3e 66 a7 8c be 94 3b 72 3e d8 e6 95 be
       0.23642825 -0.27471465 0.2365554 -0.29277682
000090 0f 69 82 3e 13 2a 04 3e b3 77 00 3e 9c 34 7c bd
       0.25470778 0.12906675 0.12545662 -0.06157361
0000a0 47 3d d5 3d fd c3 41 be 94 3c 3b be 8a e5 12 be
       0.10412078 -0.1892242 -0.18284827 -0.14345375
0000b0 ec fb 30 be ce fe c3 bd 45 a9 f7 bd f6 c1 fa 3d
       -0.172836 -0.095700845 -0.120928325 0.12244026
0000c0 7b de 43 3c e3 06 53 3e 55 f5 fa bd e8 50 0b bd
       0.011954899 0.20608096 -0.122538246 -0.034012705
0000d0 73 fa 8c 3e eb 4c 2f 3c 4a 59 07 be 33 98 de 3d
       0.27534828 0.010699491 -0.13217655 0.108688734
0000e0 6a 4d a7 3d 48 cb 96 bd d3 1a 20 3e aa da 6d 3e
       0.081690624 -0.073629916 0.15635233 0.23227945
0000f0 64 c6 7c 3e f3 0e e1 bd e6 af 4e 3e ff 7e 66 be
       0.24685055 -0.109891795 0.20184287 -0.22509383
