ppo_model.pt (torch, 42467 bytes, 11 tensors)

body.0.weight f4 [64, 5]
00000000: 0774 aa3e 9e12 fb3c 4599 90bf dcb9 663c
00000010: 423b e13e 16cf f63e c835 923e 1018 4f40
00000020: bcf8 903e 100b c73e f09c a43e 6220 8e3e
00000030: 245e 33be 8865 3fbe 1863 e6bd b455 b53e
00000040: 1ca2 c63e d8d7 d6be 8222 9abe f877 babd
00000050: 7576 9c3e 5efc 073f 21f3 21c0 b5a5 ffbd
00000060: afe2 f03e e3ac 19be 9bd7 38bf f3de 3740
00000070: ae04 233e ac38 6cbe ac07 21be 6c0e 423e
00000080: 44ff 5abd 66b9 bbbe 4b6b c53e b2e9 abbd
00000090: 894f 98bd 50d2 3440 a761 2e3e 80c3 dfbe
000000a0: 129d fa3d ff6f c33e 89d0 5d40 193f 313e
000000b0: aa05 ffbe 1c05 473e e01d a2bd 0083 003b
000000c0: b3b1 cbbe 78dd fdbd e794 a1be b079 2c3e
000000d0: 4000 7ebd b03d a9bd 52a5 04be 72d9 d13e
000000e0: eb70 ca3e 7a1c 6c40 fb81 263e 0df0 343c
000000f0: 350e dfbe 214b 93be dd2c 223f 3cc6 25ba
00000100: e281 bfbd d58d e2be 6338 9b3e c12d 3440
00000110: 4753 7e3c 8219 4ebd 20e9 a7be 2383 cabe
00000120: 4d90 4a40 4f3d 52bb b3cc 7abe 48e8 65be
00000130: 0334 9a3e c1ec 253c d614 afbe 1a01 6f3e
00000140: c1e1 d6bd ce6c c2be 0041 bebe 6c3f bcbe
00000150: de7f 433d c720 eb3e fb53 1a3e d71a 3cbf
00000160: 3f5a 63bd ad34 af3e df0a 92be 3114 07bf
00000170: 0b53 6440 e50b 453e 7cb1 10bf 83b3 1cbe
00000180: ee88 603e 9c67 9d3f 022b dc3d fe6c 1b3e
00000190: 41aa 953e ca51 f6bc 6288 4d40 e8ed c83e
000001a0: eb73 5ebe 8afe e63e 4986 2ebe b2a9 1abe
000001b0: 36bc c9be 0e27 1e3e dda5 5fbe deee b53e
000001c0: e0aa ae3d 04ef bebd 642c 68be 8060 29bf
000001d0: ca6f a1bd 3876 4e40 4c66 8f3e e5c1 0ebf
000001e0: 0ee5 1fbe a082 cb3e ce22 c03e 5832 47be
000001f0: 51f9 d7be 5b6e c83e b5f9 b1bc ed0c 19be
00000200: 524a 27be a345 d73e ab00 51bf cf96 efbe
00000210: 8794 ef3f b094 303e 8637 1ebe 2c13 13bd
00000220: b0ae 5f3c 5649 5a40 eede 48bc 2301 8b3e
00000230: 609e b43d aebf ab3e 1477 883e ccad 40be
00000240: 59db e4be 0b6f a0bd e023 553b 7117 5d40
00000250: c6a0 6f3e 9542 823e 5c9b 64be acda 9f3e
00000260: 5f8d e53d 62ef b1be f8a1 f23e 5b38 c7be
00000270: 02b3 cf3e c9e0 c6be 2f07 99be bdb4 4cbe
00000280: dcbb d7be e773 33bd 3c76 c03f 721b 1d3e
00000290: 8fca f0bd 9c64 d53e 9a10 13be 4d00 c3be
000002a0: c228 82be 1be1 a53e e512 5dbd 0e57 d93d
000002b0: 1fb2 3cc0 a20d 1b3e 03f2 97be 6e31 503e
000002c0: 8e4b f23b 3af6 aebe fc54 97ba 5351 9bbe
000002d0: 5ce4 993e 63da 0b3e 19ee dc3e d4a5 62be
000002e0: 0f5a d13e 0ca4 9e3e 4cdd 1fbe 2ebd 5d40
000002f0: a07e a13e 0230 38bf 5ee0 39bb a006 91be
00000300: d036 5840 73ca 823c 6d9a aabe 5a33 d6be
00000310: 8f27 ce3e f3fe 8a3e 9bb2 f0ba f20b cdbe
00000320: af2e 08bd ef0c 13bf b8b8 813f 547d b83d
00000330: e447 debd 1396 0d3f 5905 a83e 10c7 90bf
00000340: 0436 1bbe 8c8a 0a3f 0e5b 3cbf 1529 93be
00000350: d1e7 4440 803f 783e b241 1ebe b4a7 28be
00000360: ccc9 d93e 807a fe3b 5a1d c9be 868a 1abe
00000370: a352 a7be af5d d1be df24 483f 7229 79ba
00000380: 7eda 0ebd 46dd e8be 7cd1 98bd 8eda d8bf
00000390: 055b dabb e722 653e 530e 8abe 24ba b93e
000003a0: 8ba6 4d40 fc42 3c3e 4471 843e 523c 5dbc
000003b0: 2db5 833e 8e40 8cbf c41c 2ebe a03c 043f
000003c0: b5bc 1cbf 80fe 47be c531 3940 a426 9c3e
000003d0: 3b17 a0be 9b4e ff3d 50b6 fa3d a5b3 4440
000003e0: f5ce 263e 227f e1be 744f de3e a09a 67bc
000003f0: 2a74 7dbe 8bd3 5cbe 8032 15bd 1488 153e
0.33291647 0.030648526 -1.1296774 0.014082398 0.43990523 0.4820487 0.28556657 3.2358437
0.2831477 0.38875628 0.32150984 0.2775908 -0.1751638 -0.18691075 -0.112493694 0.3541695
0.38795555 -0.4196155 -0.30104452 -0.091049135 0.30559126 0.53119457 -2.5304644 -0.12482778
0.47047946 -0.15007357 -0.7220399 2.8729827 0.15919754 -0.23068494 -0.15725583 0.18950814
-0.053466097 -0.36664885 0.3855842 -0.08394183 -0.07437045 2.8253365 0.17029439 -0.43703842
0.1223699 0.38171384 3.465853 0.17309226 -0.4980901 0.19435543 -0.079158545 0.0019609332
-0.3978401 -0.123957574 -0.31558916 0.16843295 -0.062011957 -0.08263719 -0.1295369 0.4098621
0.39539275 3.689238 0.16260521 0.011043561 -0.43565527 -0.28768256 0.63349706 -0.000632379
-0.09350945 -0.44248834 0.30316457 2.8152926 0.015522785 -0.050317295 -0.32795048 -0.39553174
3.1650574 -0.003208 -0.24492149 -0.2245189 0.30117807 0.010127247 -0.34195584 0.23340264
-0.10492278 -0.37973636 -0.37158966 -0.36767137 0.047729366 0.45923445 0.15071099 -0.73478454
-0.055505987 0.34219876 -0.2852392 -0.52765185 3.5675685 0.19242819 -0.5652082 -0.15302853
0.21927235 1.2297244 0.107503906 0.15178296 0.29231456 -0.030068297 3.2114491 0.39244008
-0.21723907 0.45116073 -0.17043413 -0.15103796 -0.39401406 0.15444586 -0.21840616 0.35533804
0.085286856 -0.09322932 -0.22673184 -0.6616287 -0.0788265 3.2259655 0.28007734 -0.5576461
-0.15614721 0.39748096 0.37526554 -0.19452798 -0.421824 0.39146695 -0.021725515 -0.14946337
-0.16336945 0.42045316 -0.81641644 -0.46794745 1.8717202 0.1724422 -0.15450868 -0.035906956
0.013652489 3.410726 -0.012260182 0.27149305 0.0881927 0.33544677 0.2665335 -0.18816298
-0.446986 -0.0783368 0.0032522604 3.4545557 0.23401174 0.25441423 -0.2232489 0.3122152
0.11208605 -0.34752947 0.47389197 -0.38910183 0.4056626 -0.38843372 -0.29888293 -0.19990821
-0.42135513 -0.043811705 1.5036082 0.15342501 -0.11757385 0.4167832 -0.14361802 -0.38086167
-0.2542172 0.32398304 -0.053973097 0.106123075 -2.9483716 0.1514192 -0.29676828 0.20331356
0.0073942607 -0.3417223 -0.0011545713 -0.30335483 0.30057037 0.13657527 0.43150404 -0.22133571
0.40889022 0.30984533 -0.15611762 3.4646716 0.3154192 -0.71948254 -0.0028362493 -0.28325367
3.3783455 0.015965676 -0.33320943 -0.41836053 0.40264556 0.27147636 -0.0018363775 -0.40048176
-0.033247646 -0.5744161 1.0134497 0.090082794 -0.10853556 0.5530712 0.3281658 -1.1310749
-0.15157324 0.54117656 -0.7357644 -0.2874228 3.076649 0.24242973 -0.15454748 -0.16470224
0.4253677 0.007766068 -0.39280206 -0.15091905 -0.32680234 -0.40891787 0.7818126 -0.0009504772
-0.03487634 -0.45481318 -0.07461831 -1.6941698 -0.0066636824 0.22376595 -0.26964054 0.36274827
3.21329 0.18384928 0.25867665 -0.013503151 0.25724164 -1.09572 -0.1700316 0.51655006
-0.61225444 -0.19530678 2.8936627 0.3049823 -0.31267723 0.12466165 0.122418046 3.0734646
0.16289885 -0.44042307 0.43419993 -0.014135987 -0.24751344 -0.21565072 -0.036425114 0.14602691

body.0.bias f4 [64]
00000000: 00c3 6d3e 8a73 033f e8dd 39be ba3d 44be
00000010: dd90 a63e d621 14bd b84b ec3e 7969 c0be
00000020: 7f38 c33e 28ea 393d bd18 4fbe 2cb2 993d
00000030: 6215 a9bd 2245 84be 5f4b 0b3e a426 d13e
00000040: 5da1 66bc 3943 db3c e2a3 293c b080 f0be
00000050: ae67 5cbe 86ff b4be 50c6 593d 9463 a3be
00000060: 2058 93bd f901 8fbe 577f babe 90a5 013e
00000070: 747d 943e 7f25 1c3f 9590 653e b406 a2bd
00000080: f3ce c1be 15f5 82bd 4b12 88bd 17f0 91bd
00000090: 20d4 38be 15de 67be d0ee cdbd 671f e2be
000000a0: 5700 13be 2aa3 183f bdc7 ecbe 060c bf3e
000000b0: 817c 24bf 38fc 953e c92c 3b3e 27cb 283f
000000c0: 2fa7 a8be a762 8bbe d045 12be 56eb babe
000000d0: 7dc6 79bd 3460 1cbf fb12 d13c 97b7 a7bd
000000e0: 0734 c2be 87cd 7c3e 19d0 f83e e629 a2be
000000f0: d931 9cbd bdd0 d43d d722 13be 235b ff3d
0.23218918 0.51348174 -0.18151057 -0.19164172 0.32532397 -0.03616508 0.4615152 -0.3758047
0.3812904 0.045389324 -0.2022428 0.07504687 -0.082560316 -0.25833994 0.1360297 0.40849793
-0.014076558 0.026765453 0.010354014 -0.4697318 -0.21523926 -0.353512 0.05316764 -0.3191191
-0.07194543 -0.27931193 -0.36425278 0.12660813 0.29001963 0.60994714 0.22418435 -0.07911435
-0.37853202 -0.06394402 -0.06644114 -0.07125872 -0.1804967 -0.22643311 -0.100553155 -0.44164583
-0.14355598 0.5962397 -0.46246138 0.3731386 -0.6425248 0.2929399 0.18278803 0.65934986
-0.3294005 -0.27223703 -0.14284444 -0.36507672 -0.06098031 -0.61084294 0.025521746 -0.08189314
-0.3793032 0.24687777 0.48596266 -0.3167259 -0.07626695 0.10391376 -0.14368759 0.12468555

body.2.weight f4 [64, 64]
00000000: d3d0 49bd 6e04 a53d c2ca acbd b0b4 72bc
00000010: 6743 3cbd 3877 26be 797e a4bd 5bc6 4abd
00000020: 6d59 b13d f84e febd 329a ecbd 533e a7bd
00000030: 0709 313d a043 99bc b30b 29be 834a 093d
00000040: 9fce 713d e674 12bd 5b72 043d 7bc8 0cbe
00000050: 1b48 5b3d 7abd dfbd 48e7 abbc e47c 83bd
00000060: f4fc abbd dacf 9c3d 631f 723d 8fd6 67bd
00000070: 282d 2abd 0db8 28be 5d7e 0b3d 887e 613d
00000080: fa97 ac3b 4289 c7bc 4f92 4cbd 738f 26bd
00000090: 0f82 913b 3db5 02be 5eda bdbd 2a54 06bd
000000a0: 5687 fdbd 16f9 c7bc 0f0b 043b c0ed c53c
000000b0: a4d7 29bd 8126 c6bd e615 72bd 0d38 a63d
000000c0: fec0 04bb 419c 8ebd 6cc0 24bd 04e4 653d
000000d0: be2d aebd bd73 16be 3727 d23d 7d1d 023d
000000e0: 036a a53d 6e39 fbbd c764 a63d 765a 803c
000000f0: 711e 1d3b 2606 cebd 1804 293d ca1e a2bd
00000100: 5713 e63d 9db7 2abd fc9d 783d 5aff bd3d
00000110: d63d c2bd 535e 81bc 94c9 61bd 39ec d7bd
00000120: c9d2 d2bd 4018 9f3d 7083 8fbd a142 5bbd
00000130: 6a16 863d d316 0fbe fc70 98bd 7e08 283e
00000140: dc97 9b3d 050a 9e3c 8fc1 41bd e5a1 16bd
00000150: bfe3 87bc 3bc2 c93c 50ef 0cbc a47e 01be
00000160: 7662 d33d 65c6 183d c62b 7abd 4a31 a73c
00000170: 70b3 173c 8c47 13be b2f6 ff3b b802 793d
00000180: 0a75 febc 1fc5 89bd e850 c7bd ee5e 86bd
00000190: 12b5 383d 6adc 0bbe 6245 20be 44db d2bd
000001a0: 0adf 143c 8ab4 c1bd e4b1 cbbd 0066 9d3d
000001b0: 3f44 d13d 1fa0 b43c b1e8 873d baf1 04be
000001c0: 526a d03d 8b0b a5ba e826 cebd 2853 213d
000001d0: e8ef e0bd 2acf 62bd 1dac f83d f6be 18be
000001e0: c841 9f3d f673 91bd ce57 f0bd 712c 2ebd
000001f0: c099 e43d c729 4d3d 4f33 473c 000a 273d
00000200: 6466 08bc 8b27 a1bd 884b b73c 7a68 ed3d
00000210: 3cd6 f6bc 9d0d 9f3d 0110 a53d ca33 8f3d
00000220: ab22 c1bd f06f a33d 0086 053b c7c9 35be
00000230: 2939 ca3d 8225 08be 6773 01be 7cea d639
00000240: 542b c33d e414 45bd da0e d6bd 12b4 003d
00000250: d3ef 2d3d fd48 75bc 6e2c f8bd fdd1 3cbe
00000260: 501e 733c 7ef9 4d3d 872d f7bd 44fa 9c3d
00000270: 00f8 e7bc 1ac7 ddbd d73e e73d 744f dbbd
00000280: be23 8d3b e4a3 23bd 3b41 25bd 42b3 f03d
00000290: 7be9 a8bd 1804 79bc 5c81 70bc fcc3 573d
000002a0: df74 873d d054 b5bd 39ed 283c b0cb e5bd
000002b0: 807b ba3d ed5f 26bd b9b8 edbd efce dd3b
000002c0: bb02 cabd db09 cebd 360e e73d 9025 713c
000002d0: cd7b 10be 4c8a d0bd 0c3a 263d c6de c2bd
000002e0: acb0 44bd d8b3 9b3a 00f3 1fbe 5afb e03d
000002f0: 599f 6a3d 7a4e 54bc 3dfe e5bd e8b1 f63d
00000300: f602 ebbd 5622 cabd 4e0c de3d 98b5 0b3d
00000310: 30f4 3ebc bc20 abbc 1097 cebc 6c4f b93d
00000320: 0e86 b5bd f282 a13d 08c4 3d3d 061f 893d
00000330: d4e9 503d 6a65 d83c be71 a2bc 200a 7dbc
00000340: 4089 3abc f8ea 583d 4857 9f3d 6cea 723b
00000350: 560c 99bd 3824 03bd 6039 c43d aafb e83a
00000360: 4e1f 8abd f05a 6ebd 7765 f7bc 5b68 bfbd
00000370: f01a a8bc fb33 4dbd 584c e03c bef7 aabd
00000380: da44 fbbc c42a b33d 7aff d7bd 6087 46bd
00000390: 10bb b23d d1d5 a2bc 5c66 fcbb a060 debd
000003a0: 1718 91bd 47ca a1bd 5256 a0bd c852 03bd
000003b0: 84d1 bcbd 2aa3 c5bd 55c2 eabd e98e debd
000003c0: c682 59bd 9e0f b03d ac9e 16bd 5adf a5bd
000003d0: f660 f1bd 486a c43d a064 9f3c 769c 113d
000003e0: 1074 b7bc 9300 963d 1052 9e3d 3238 58bd
000003f0: 6c1a 9d3b d1d0 c1bd 5ca1 5ab9 e067 e23b
-0.049271416 0.080574855 -0.084371105 -0.014813587 -0.045962717 -0.16256416 -0.08031935 -0.049505573
0.08659635 -0.12417406 -0.11552848 -0.08166184 0.0432215 -0.018709004 -0.16508369 0.033518326
0.05903494 -0.035756014 0.03233562 -0.13748352 0.053535562 -0.10924812 -0.020984307 -0.06420305
-0.08397856 0.07656832 0.059111964 -0.056601103 -0.04154697 -0.1647646 0.034056056 0.05505231
0.0052671405 -0.024357442 -0.04994422 -0.040664148 0.004440553 -0.1276445 -0.09270166 -0.03279511
-0.12379329 -0.024410766 0.0020148193 0.02416122 -0.041465417 -0.09675313 -0.059102915 0.081161596
-0.0020256634 -0.06963397 -0.04022257 0.056125656 -0.085048184 -0.14692588 0.10261386 0.031766403
0.08076861 -0.12266813 0.081246905 0.015668135 0.0023974443 -0.100597665 0.04126367 -0.07916029
0.112341575 -0.041679014 0.06069754 0.0927722 -0.094844505 -0.015792048 -0.05512388 -0.10543103
-0.1029411 0.07768297 -0.070074916 -0.05353034 0.06547244 -0.1397355 -0.07443425 0.1640949
0.07597324 0.019291887 -0.047303732 -0.03677549 -0.01658809 0.02462875 -0.008601978 -0.12645966
0.10321514 0.03729858 -0.0610769 0.020409245 0.00925909 -0.14382762 0.007811391 0.06079361
-0.031061668 -0.06727051 -0.097322285 -0.06561075 0.045094557 -0.136583 -0.15651467 -0.10295728
0.00908638 -0.09458263 -0.09946039 0.076854706 0.10218095 0.022049008 0.06636179 -0.12982836
0.10176529 -0.0012591941 -0.100660145 0.039385945 -0.109832585 -0.05537335 0.12142203 -0.14916596
0.07776219 -0.07102196 -0.117354974 -0.04252285 0.11162138 0.05008867 0.012158229 0.04078102
-0.008325193 -0.0786887 0.022374883 0.11592193 -0.030131452 0.077662684 0.08059693 0.069923
-0.094304405 0.07980335 0.002037406 -0.17752753 0.09874184 -0.13295558 -0.12641679 0.00040991965
0.095297486 -0.048115626 -0.104520515 0.03142173 0.042465042 -0.014971015 -0.12117849 -0.18439479
0.01483877 0.050286762 -0.120692305 0.07664922 -0.028316498 -0.10828991 0.112912826 -0.10708514
0.0043072393 -0.03995122 -0.04034541 0.11752941 -0.08247658 -0.01519873 -0.014679279 0.05267714
0.06614088 -0.08854067 0.010310465 -0.11220491 0.09105587 -0.040618826 -0.11607499 0.006769053
-0.09863802 -0.100604735 0.112820074 0.014718428 -0.14109726 -0.10182628 0.0405827 -0.09515147
-0.04802005 0.0011879159 -0.15620041 0.109854415 0.057280872 -0.012958163 -0.11230133 0.12045652
-0.11475174 -0.0986983 0.10842191 0.03410873 -0.0116548985 -0.020889632 -0.025218517 0.09048352
-0.088634595 0.07886304 0.046329528 0.066953704 0.051004246 0.026415545 -0.019829627 -0.0154443085
-0.011385262 0.05295846 0.077803195 0.0037065996 -0.07473056 -0.032016963 0.09581256 0.0017775197
-0.06744252 -0.058192194 -0.03019975 -0.09346076 -0.020520657 -0.0500984 0.027380154 -0.08348034
-0.03067248 0.08748391 -0.10546775 -0.048468947 0.087270856 -0.019877346 -0.007702632 -0.108582735
-0.07084673 -0.078999095 -0.07828964 -0.03206137 -0.092196494 -0.09650262 -0.11462847 -0.10867102
-0.05310323 0.08596729 -0.036772415 -0.080992416 -0.11786072 0.09590584 0.019457161 0.035549603
-0.02239421 0.07324328 0.07730496 -0.052787967 0.0047944095 -0.09463657 -0.00020850211 0.0069093555

body.2.bias f4 [64]
00000000: 124f 863d 46e6 fabd 19c2 7abd bb3e dcbc
00000010: 6485 88bc 40b1 173d 2000 9b3e eeda df3c
00000020: 5cf4 66bc 2e9f e13b aeaa 96bd ea73 49bc
00000030: 7c56 ce3c 45d3 44be de50 d2bd 2645 333e
00000040: b10d 9f3d 5132 55bd faf2 15be a474 e6ba
00000050: d5c3 14be e6fc 723d 1fef 313e d1d8 01bc
00000060: 412b 8fbd 1fc4 bcbd 7069 bb3d 6dd8 edbd
00000070: b07f d1bd 020b 243d ed97 d7bc 5ec0 33be
00000080: 219e aabd db66 d8bc d8b7 c6bd 9a33 afbd
00000090: 4664 e43d b3d3 cf3d b4aa a33a 077c bbbd
000000a0: 8021 cabd 1659 473d 6c5b b9ba 8a37 813d
000000b0: 2ae4 a43d a410 77bd 2202 6dbd b967 72bd
000000c0: 4de8 4f3d aa87 f7bd 53a2 96bd d1c4 57bd
000000d0: 10d9 f4bd 7b4f 2d3e 562c 80bd 0cee acbc
000000e0: b9a7 b3bc b239 45bc 7959 c83d 1e45 9fbd
000000f0: 3866 19bd a271 fbbd d136 1f3c 91fa b23d
0.0655805 -0.122509524 -0.061220262 -0.026885381 -0.016665168 0.037034273 0.30273533 0.027326073
-0.014096346 0.006885431 -0.07356773 -0.0122957025 0.025187723 -0.19221218 -0.102693304 0.17506847
0.07766283 -0.05204994 -0.1464347 -0.0017582369 -0.14527829 0.059323214 0.17376374 -0.007925228
-0.06990672 -0.09217095 0.0915097 -0.116135456 -0.102294326 0.04004956 -0.026317561 -0.17553851
-0.08330942 -0.026416233 -0.09703034 -0.08554764 0.11151938 0.101478 0.0012486787 -0.09154516
-0.09869671 0.048668943 -0.0014141626 0.06309421 0.08051331 -0.060318604 -0.057863362 -0.05918095
0.05075865 -0.12086423 -0.0735518 -0.052677933 -0.11955464 0.1692485 -0.062584564 -0.021109603
-0.021930562 -0.012037681 0.097826906 -0.07776855 -0.037451 -0.12277533 0.009717659 0.08739198

body.4.weight f4 [4, 64]
00000000: fedb 1c3b 9266 32bd 143e 8c3c d55e 9ebb
00000010: c3d3 ac3c bbb9 873c 5ec4 7d3e b49e b13e
00000020: 55da 8abd 84bb 203a 8384 aabc 62a0 7b3e
00000030: 9ec6 483e 2ed8 4a3e 1828 04ba 7289 933e
00000040: 70b7 9e3d 9ea3 a2bc 72b0 ffbb 1f5c 853d
00000050: 5ceb 183e d218 573e 12b0 e23e 4bbc 8b3c
00000060: e123 8a3d 5694 42bd adfd 1ebb f8ce 393b
00000070: c9ca c33b 6d14 583d ba9e efbc 435b acbd
00000080: 2ae1 473d 727e 233e cc1a 1c3c 0cc0 da3c
00000090: 437f 4dbe 60a0 1d3d 70dc e9bb 023d a7bb
000000a0: 2ab7 40bb f617 fabd 8c83 f1bc a1e3 2cbe
000000b0: ec13 e23e f092 23bd 7af9 cc3d 2031 b4bb
000000c0: 1a99 dbbc a0f3 bcba 0e46 813e 25af 2dbd
000000d0: 251f a6bd 93f0 3c3e 15a1 b9bb 6533 cc3b
000000e0: 06ff 2abc e80a 6dbe 1af3 de3d 8309 343e
000000f0: 6e5d fbbc a1bd 68be 7034 283c 9a5c 1a3d
00000100: d73c 013d e708 c4bd 260c 1cbd 8bf2 773c
00000110: 1c21 ad3c c3d9 343d f683 a1bd 669c 103e
00000120: f673 66bd d7dd 623b 10d3 e9bd b57a 9bbd
00000130: d50a 4dbe a8af 84bd cfae 56bb db07 d13d
00000140: bcff d33d f8d8 e63c deb7 74bc f0a9 d3bc
00000150: 6405 7bbe b8c5 32be 04c2 d73d 9efc fb3b
00000160: 54a0 d7bc 0ddf bf3d b2ce 343a e112 633b
00000170: 7aaf 8a3c 319a 9b3c af28 4dbd 94b3 24be
00000180: 9632 763d c299 263d ee81 8ebb bdc4 ff3c
00000190: 3747 2b3f 5cf0 1fbe a6fc 39bc f3b3 443c
000001a0: dbdf b83b 05ce 01be 0359 c2bc 5488 073f
000001b0: 1131 a43d 565b a9bc b2e4 2ebd 4b1a 053b
000001c0: b3a9 17bc c03c 2abc 3a40 a2be 06d4 3dbb
000001d0: a416 d9bd 68a9 23be bc6d 163b 131f e93c
000001e0: 68ee 94bb 08ad 5f3e 82ef 12be ea30 6cbe
000001f0: 1e1d e73b d326 263f d561 46bc 7ba3 cc3c
00000200: 8396 bb3c 621e 23bd 2e15 a0bc f812 863c
00000210: d9a5 03bd 268e 2d3c d989 d8bc 11c1 5bbc
00000220: 3d0a 673b 4429 9d3b 10e4 bbbd 6c23 a9bd
00000230: dccd 69be 91be 6cbd 1994 9f3b a124 f63d
00000240: 2449 843e 20ac cdbc 8714 c7bc 217a 153e
00000250: 44af a9bd 38ec a4bc 8714 95bc 3667 b9bc
00000260: 211d 5e3c 270d c73d 42f6 3439 78c4 51bb
00000270: 454a b2bc 538f 753b e27e 2cbd 9b93 5ebd
00000280: 8670 4ebd 56b9 0d3e 28a2 2bbb b69a c0bc
00000290: d837 173f 335c 0cbe 3e34 d03b 629d 84bb
000002a0: ec08 bb3c d1d4 2a3d 6d9c 53bb 7017 f63e
000002b0: 115a ea3b d183 993c 4f22 74bd 08da be3c
000002c0: 5ad7 abbb 9c49 61ba 5da3 bfbe f019 23b9
000002d0: 1c01 6fba b61c d4bd 3a1f 433c 57a7 6dbc
000002e0: d64d 2e3c b4da f33e df2d c6bd 27e0 74bd
000002f0: 1ecc 383b d1e8 563f 307b 80bc 0e4e 03bd
00000300: 15ac b5bc 7ede 5b3b 4caf 553c d955 b8bb
00000310: 6849 7b3c b65d 563d fdef 563e 48ff 41be
00000320: 16e4 21bd f059 963b f9e5 b9bd 97e8 3d3d
00000330: 2467 57be c5bf 4ebe 8299 01bc aa8a 8c3c
00000340: 0100 253e a6db acbc ddde b4bc 17c8 48bd
00000350: eaef b1bd 0fe4 043e f955 41be d796 4d3c
00000360: 125a 24be ba04 8c3e a302 1c3c b046 48bb
00000370: 7f06 d93b a80a 52bc 3e04 0abd 4da1 0a3e
00000380: a247 d23c 0303 c8bc 59ea 8ebb 2b7f c73c
00000390: 5546 c83e 74dd 963d 3734 26bb e5c3 bc3b
000003a0: d532 14bc 39aa 39bd 1eab 75bb 0292 903e
000003b0: bb2f c0bd a581 f0bc 9cbc 483b 3bd3 09bc
000003c0: 160c c1bb 1d68 d4bb 82e4 d0bb 090d fbbc
000003d0: 8571 1bbd d3e1 acbd 869f c23b 2f4e d539
000003e0: ad4a 0d3c 50c4 043f 2997 433e 0bce c23b
000003f0: 0e65 d93a d929 1b3f e770 8a3c 8058 573c
0.0023934836 -0.04355485 0.017119445 -0.004833082 0.02109707 0.016568055 0.2478194 0.34691393
-0.06779925 0.00061314576 -0.02081514 0.245729 0.19607016 0.19809029 -0.0005041375 0.288158
0.07749832 -0.01985341 -0.0078030163 0.06511711 0.14933532 0.21005562 0.44274956 0.017057559
0.067451246 -0.047504745 -0.002426009 0.0028352123 0.0059751016 0.052753855 -0.029250491 -0.08415844
0.048798718 0.15966204 0.009527873 0.026702903 -0.20068078 0.038483024 -0.007136874 -0.0051037082
-0.002940605 -0.122116014 -0.029481672 -0.16883709 0.44155824 -0.039935052 0.100085214 -0.00549902
-0.026806403 -0.0014415868 0.2524876 -0.04240336 -0.08111409 0.18451147 -0.0056649544 0.0062317126
-0.010436779 -0.23148692 0.10886212 0.17581753 -0.0306842 -0.22728588 0.010266408 0.037685968
0.031552162 -0.095720105 -0.038097523 0.01513351 0.021133952 0.044152986 -0.07886498 0.14122161
-0.056262933 0.003461709 -0.1141721 -0.07591764 -0.20023663 -0.06478816 -0.0032758003 0.102065764
0.10351512 0.02817963 -0.0149364155 -0.025837868 -0.24513775 -0.17458236 0.105350524 0.0076900264
-0.026321568 0.093687154 0.0006897255 0.0034648704 0.016929377 0.018994423 -0.050087627 -0.16084129
0.060106836 0.04067398 -0.004348985 0.031221742 0.6690554 -0.15619034 -0.01135174 0.012005794
0.00564192 -0.12676246 -0.023724085 0.52942395 0.08017171 -0.020673435 -0.04269857 0.0020309861
-0.009256768 -0.0103904605 -0.31689626 -0.0028965487 -0.106000215 -0.15982592 0.002295359 0.0284572
-0.004545022 0.2184335 -0.14349177 -0.23065534 0.0070530316 0.6490299 -0.012108286 0.024980297
0.022898918 -0.039823897 -0.01954135 0.016366467 -0.032140587 0.010592973 -0.026432918 -0.01341273
0.0035253905 0.004796179 -0.09174359 -0.08258709 -0.22832435 -0.057798926 0.0048699495 0.12018705
0.25837052 -0.02510649 -0.02430178 0.1459737 -0.082853824 -0.02013217 -0.018198265 -0.022632223
0.01355675 0.097193055 0.00017257876 -0.0032007974 -0.02176393 0.003746946 -0.042113192 -0.054339986
-0.05040028 0.13840231 -0.0026189182 -0.023511272 0.59069586 -0.13707046 0.006353884 -0.004047082
0.022831403 0.041706864 -0.0032289282 0.48064756 0.00715185 0.018739613 -0.05960303 0.023297325
-0.0052441778 -0.00085940375 -0.37429324 -0.00015554554 -0.0009117292 -0.10357039 0.0119093 -0.014505229
0.010638675 0.47627795 -0.09676718 -0.05978408 0.0028197835 0.83949 -0.01568374 -0.03205686
-0.022176782 0.0033549364 0.013042282 -0.005625468 0.015337326 0.052335463 0.20989986 -0.18945038
-0.03952416 0.004588358 -0.09077067 0.046364393 -0.21035439 -0.20190342 -0.007910134 0.017155964
0.16113283 -0.02110083 -0.022078926 -0.049018946 -0.08688338 0.12977622 -0.18880452 0.01254817
-0.16049984 0.27347356 0.009522113 -0.003055971 0.006623089 -0.012819923 -0.033695452 0.13538094
0.025668923 -0.024415499 -0.0043614325 0.02435263 0.3911616 0.073664576 -0.0025360712 0.005760657
-0.009045322 -0.045328353 -0.0037486027 0.28236395 -0.09384104 -0.029358694 0.0030629998 -0.008412178
-0.0058913333 -0.006482138 -0.0063748965 -0.030645864 -0.037950058 -0.0844151 0.005939427 0.00040684777
0.008623761 0.5186205 0.19100632 0.0059449724 0.0016585903 0.6061073 0.01689954 0.013143659

body.4.bias f4 [4]
00000000: ba54 8c3e a5dd 113c 06b2 f7bd 96a8 25be
0.2740839 0.008902942 -0.12094502 -0.16177592

body.0.weight f4 [64, 5]
00000000: 70fb 0b3f b206 59be cc9c 1540 0b42 ddbd
00000010: 5fd3 193d 205a 59be 9c8c b3be 6d2c 7740
00000020: fdf6 79bd 858e cd3e 9c2f d0be f4c1 b23e
00000030: 7208 c43e 5073 b4bd 64b0 86bd 2957 c03d
00000040: 89f9 f43e e3d5 5e40 9f2f 0dbe 0b92 a83e
00000050: 10a2 823e cc56 1dbe ecb1 ad3e 399a 7ebe
00000060: 4afa 97be b4d5 8d3d 2922 9f3e 6ae9 04c0
00000070: 1ca4 93b9 b891 893d 5292 5e3e 5b60 11bd
00000080: 46c9 bc3f c872 14be 20f4 053d b197 ac3e
00000090: 5a64 babe 9655 3e40 df56 11be f234 6fbe
000000a0: 5877 113f 775f 22be c81a cd3f 93f5 2fbe
000000b0: 517b 28be 2a0f aa3e 6217 96be d086 86be
000000c0: e834 2bbe 768d c0be ef58 a53f 17e5 b33f
000000d0: bcbc c4bf d7ec 52bd 4e93 a23d 4df4 04bc
000000e0: f63b 8a3e 7687 5f3e 66e9 cfbe 81e5 4e3c
000000f0: 4c59 36bd 955d a63e 65cc 8440 45b8 f3bd
00000100: 1843 80be cdef c63e 8862 293c 7383 6bc0
00000110: 71f9 033e 9749 f5be f105 483e d6a0 393f
00000120: 2261 933e 225b 31bd 00b3 8dbe 739c d6be
00000130: 7821 b43d 7ce0 1dbe fcd1 2abe 2209 a5be
00000140: 6434 063e 8e8b ca3e 103d c0bd 02c9 91be
00000150: e37f d8be 8168 cb3e b078 0f3f f869 b33f
00000160: 601f 35be c3d8 c33e 7f9c 2ebe bfa1 c43e
00000170: afd3 4540 4517 1fbe 5097 7abe d5f6 54be
00000180: 4a76 db3e 44de b03e 9d75 6abe 636e cbbe
00000190: ea71 fe3f 9bd4 7f3f b966 12c0 cfe4 4abd
000001a0: 753f 293f c5bc a8be 12c1 ba3e bbea 6240
000001b0: 6036 1abe cb61 d23e 9470 193e 48a5 6cbd
000001c0: b4fb bcbd a42c 0dbe ce5a 52be d059 0e3d
000001d0: ddac acbe 70f1 36bd b617 54be 4afa 02be
000001e0: 9fb8 a5be 3857 0dbe 4273 7540 652b 93bd
000001f0: cf70 993e 7c76 c83f e6aa d13f 0dc1 33c0
00000200: c1de 1ebd 63af 3f3f 5317 30be 585c 85be
00000210: d3c4 1b40 16cd 9cbe 38b0 c73c 8b8c fd3e
00000220: b692 fb3e 5ccc 2d40 b8b0 20be 2df5 52be
00000230: 8ae3 b63d a31f e83e 0313 82be a3b1 b43d
00000240: be35 503d c15a b03f cc71 553f d5b5 39c0
00000250: 000e 3bbd 81dc 523f 634d f03f f93b 4f3f
00000260: 26c9 ebbf facf 18be bf74 0d3f f811 d8be
00000270: cec6 89bd 1efa 553f 7340 cc3e fba5 9fbd
00000280: f09f 8abd c496 a43e 80f9 dc3e 5059 8abe
00000290: 6438 cebe 506d 4d3e 196d 863e fee6 cdbe
000002a0: 92f3 a2be cf64 023d baf3 cbbe 284a 173d
000002b0: 3e66 d5be 0030 97be bd75 b4be 4395 56be
000002c0: 05fa acbe a02f 8740 01c8 5fbd bdbe 993e
000002d0: c6dc dbbe 1a5e 40be b7c1 c4be fe0e d0be
000002e0: 8ab7 9bbe 8422 c7bd 90ec 573e a0e7 7e3e
000002f0: 88e5 87bd c626 7fbe cf8e c53e aaf5 c23d
00000300: 9d1c 7d3f 121a e1bd 6b2d 92bd a2b6 aebe
00000310: 54a1 e9bd 6120 a53f 349a 673f 8668 bdbd
00000320: b7e0 123f 1e75 c23c c7d8 7f3f 2ba8 b2bd
00000330: b2a0 84be b7ee 083e 175e 503e 6fd1 233e
00000340: 7c6a 9abe 54e3 8bbd b4c1 c1be 8d3e 22bf
00000350: b734 4340 9818 113f f6e5 78be c45e ffbd
00000360: f429 433e c822 3fbe 004b a6be 8c90 cbbd
00000370: 447e 363f 94ea 0d3f 330e 68bf 38f4 60be
00000380: 7320 a8bc d6da 0c3f dfc6 023e bad6 9c3e
00000390: a68f 57bd 3a77 66be bc94 2e3f 816e 4cbd
000003a0: 7d70 833f 3777 febd 1991 363e ef74 7abe
000003b0: 9db5 003f 07c1 8c3e eb3e 38be 6984 043f
000003c0: c923 00be 776e a53e 8ee6 8240 f317 45bd
000003d0: bc93 1a3f 89ca b53f 0a8c c43f 928a 29c0
000003e0: a3eb 21be a405 0e3f 040a c73e 5a25 04be
000003f0: f44b b03f d754 0ebe 78fd e6bd c63a 823f
0.5468054 -0.2119396 2.3376951 -0.10803612 0.037555095 -0.21225786 -0.35068214 3.8620865
-0.061026562 0.40147796 -0.40661323 0.349136 0.38287693 -0.088110566 -0.065766126 0.093916245
0.4784663 3.4818046 -0.13787697 0.32923922 0.2551427 -0.15365142 0.33924806 -0.24863519
-0.29683143 0.06925526 0.3108075 -2.0767465 -0.00028160296 0.06717247 0.21735504 -0.035492282
1.4748924 -0.1449691 0.03270352 0.3370948 -0.36404687 2.9739738 -0.14193295 -0.23360041
0.5682273 -0.1585673 1.6023798 -0.17183523 -0.16453291 0.33214694 -0.29314715 -0.2627473
-0.16719401 -0.37607926 1.2917765 1.4054288 -1.5370097 -0.0514954 0.079382524 -0.0081148865
0.26998872 0.21829018 -0.40607756 0.01262796 -0.044518754 0.32493272 4.1499505 -0.11900381
-0.25051188 0.38854828 0.010338433 -3.679898 0.12888123 -0.47907707 0.19533516 0.7251104
0.28785044 -0.0432998 -0.2767563 -0.41916236 0.08795446 -0.15417665 -0.16681665 -0.3223353
0.13105923 0.39559597 -0.09386647 -0.2847367 -0.4228507 0.39728168 0.5604353 1.4016714
-0.1768775 0.38251314 -0.17051886 0.38404652 3.0910451 -0.1553622 -0.24471784 -0.20797284
0.42863685 0.34544575 -0.22896428 -0.39732656 1.9878514 0.99933785 -2.2875197 -0.049534615
0.6611245 -0.3295652 0.36475426 3.5455768 -0.15059805 0.41090235 0.14984351 -0.057774812
-0.09227696 -0.1378656 -0.20542452 0.03475362 -0.33725634 -0.044663846 -0.2071217 -0.1279079
-0.32367417 -0.13802803 3.8351598 -0.07186011 0.2996888 1.5661159 1.6380279 -2.808658
-0.038786653 0.74876994 -0.17196397 -0.26047015 2.4338882 -0.30625218 0.02437602 0.49521288
0.4913537 2.715598 -0.15692413 -0.2060134 0.089301184 0.45336637 -0.2540513 0.08822944
0.050832503 1.3777696 0.83376765 -2.9017231 -0.04566765 0.8236771 1.8773617 0.80950886
-1.8420761 -0.14923087 0.55256265 -0.4220121 -0.06727372 0.83584774 0.3989292 -0.0779533
-0.06768787 0.32146275 0.43159103 -0.27021265 -0.40277398 0.2006123 0.2625511 -0.40215296
-0.31826454 0.03183442 -0.39834386 0.036935955 -0.41679567 -0.2952881 -0.35246077 -0.20955376
-0.337845 4.2245636 -0.054634098 0.30028334 -0.42941874 -0.18785897 -0.38429043 -0.40636438
-0.30413467 -0.0972338 0.21086335 0.24893045 -0.066355765 -0.24917135 0.38585517 0.09519513
0.98871785 -0.10991301 -0.07137569 -0.34123713 -0.11407724 1.2900506 0.9046967 -0.09248452
0.5737414 0.023737486 0.9994015 -0.08723482 -0.2590385 0.13372312 0.20348392 0.15997861
-0.30159366 -0.06830469 -0.37843096 -0.63376695 3.0500925 0.5667815 -0.24306473 -0.12469247
0.19058973 -0.18665612 -0.32479095 -0.099396795 0.71286416 0.5543606 -0.90646666 -0.21968162
-0.020523285 0.5502142 0.12771176 0.30632573 -0.05262723 -0.22506419 0.681957 -0.049910072
1.0268704 -0.12425082 0.17828788 -0.24458669 0.5027712 0.27491018 -0.17992751 0.5176454
-0.12513651 0.3231084 4.090644 -0.048118543 0.60381675 1.4202434 1.5355237 -2.6490827
-0.15812545 0.55477357 0.3887483 -0.12904873 1.3773179 -0.13899551 -0.11278814 1.0174186

body.0.bias f4 [64]
00000000: a202 433f ee46 373f ba4e c0be 02c8 933f
00000010: e023 a0be 3274 32bf 8efc 8b3f 485f 883f
00000020: ce37 813f 8a63 3cbe 93f7 c03e 2f89 05be
00000030: 1620 853f 1db7 08bf bb82 f53e caac c13e
00000040: c0ea 20bd f229 053f 4127 8c3f 3c3a b1bd
00000050: 1e4c cc3e a6ee 883f 904b 4e3e e0a9 dd3d
00000060: 23fe 993f 480e 023d 42ee 8e3f f1c6 833f
00000070: f0b4 1bbe 0b39 db3a 6be9 3e3f 2c95 b7bd
00000080: 9780 92be 20b0 e0be f003 613d 7030 933f
00000090: f463 1f3e 207a 373d a2e3 413f 667f 603f
000000a0: 26c4 543f 7c07 a13e 6ef1 783f 9809 8ebd
000000b0: 608f f93d 3218 2d3f 58ee 5d3f 60ab ac3e
000000c0: a80a a03f 0708 273f 860f 5e3f 4648 653f
000000d0: 1475 133f 5cb6 9d3e 89bf 9bbe 6fe0 cc3e
000000e0: 136d 7a3f 40db c83e 417f bf3e 3e09 25be
000000f0: 1d4f a0bd 2014 c0be c0f6 28be ec45 1cbd
0.7617589 0.71592605 -0.37560064 1.1545413 -0.3127737 -0.6970855 1.0936449 1.0654078
1.0095155 -0.18397346 0.37688884 -0.13040613 1.0400417 -0.5340441 0.47951302 0.3782714
-0.039286375 0.5201713 1.0949479 -0.086536855 0.39901823 1.069783 0.20146012 0.10823417
1.2030681 0.0317519 1.116646 1.0295087 -0.15205741 0.0016725374 0.7457492 -0.08963999
-0.2861373 -0.43884373 0.054935396 1.1499157 0.15565473 0.0447942 0.75737965 0.87694395
0.831118 0.31451023 0.9724339 -0.069354236 0.1218555 0.67615044 0.8669181 0.337245
1.2503252 0.65246624 0.86742437 0.89563406 0.5760052 0.30803192 -0.30419567 0.4001498
0.97822684 0.39229774 0.37401775 -0.16116807 -0.0782759 -0.37515354 -0.16500378 -0.03815262

body.2.weight f4 [64, 64]
00000000: 140f 9fbc 7cb3 bbbd 4059 633b 4313 003c
00000010: 26d1 a6bd 80c9 85be 61f3 5d3e d3df b6bd
00000020: 0c76 e63d 30be bcbc 0987 a5bd 2839 c43c
00000030: 6592 a23c dd0b 0bbe ab9d 33be f861 88bc
00000040: 7adf 853d cbab 483d 6679 be3d 905f c4bc
00000050: 569b 7a3d 4fba 043e a80d a3bd 3044 cdbd
00000060: 5b9e 633d f766 eabd 4906 093e b2f2 ebbd
00000070: bb18 f4bd abf8 f9bd d8ae adbd 421a 7ebd
00000080: 0419 13bd 68f0 f3bd 0c9c 7c3d fa30 6abe
00000090: 3c3d db3d 907b 473c ab7c 263e e58e 47be
000000a0: 080d 273d e03a e73c 3cfe 0abe 62e2 e5bd
000000b0: b52e 1cbc 4d06 593b 30ba ac3c 850b 1cbd
000000c0: 23af 59be bfac 283c 310b 2c3e 0588 23be
000000d0: 594d 86bc 6058 f13d adfc 5bbc ee5f e5bd
000000e0: bfdb 123c ac84 913d 0316 28bd 01c7 c43d
000000f0: f826 413d 70cc c23d 4063 40bd f27f a2bc
00000100: e44a 5d3e 5cfd 83bd 40b6 78bc 8c18 bfbd
00000110: fce3 c03d 2cc9 bb3d 4bf7 31be f567 5c3d
00000120: eaf2 0ebe 9088 e53c 0b01 e43e a732 313c
00000130: 9462 c5bd 869f 3d3e 7f84 113f c03d 4a3b
00000140: 2ecd bfbd 3c7f c33e 64fc 53be a424 783d
00000150: c907 4b3e e7c2 35be 4672 843d 883c e03c
00000160: 0b1b 02be 1fb2 5d3e 3a1b 113d 1bbe 46be
00000170: bea8 7abe c04d 473e 84cc 143e 131f 5bbe
00000180: 78a4 613d 6cac 94bd c83d c23d dff8 76bd
00000190: 6065 60bd 9218 e4bd fd8e 72be 02ca f8bc
000001a0: 0b9e 1a3e d6f0 ddbd 72d0 1c3e cac3 d03d
000001b0: 7f03 013e 334e 813e 6526 223d 00b7 b9be
000001c0: 86e5 18be 4ba8 c93d dddd 76be c3a8 e3bc
000001d0: c0c2 03be 7d99 a4bd 66f6 c23d da71 9ebe
000001e0: 0ffe 24be 82db a83b 15bc 843e 75d3 ddbd
000001f0: 46f0 663e a80f c83c 7cee a0bd 2883 523e
00000200: e772 7cbd 25c8 31bd a8c5 f3bc 7a09 d43d
00000210: 80e0 e23b f5b7 72be aee8 ae3d 508d bebd
00000220: 247f 26bc c8d8 d1bd 475b 08bd 863a d53d
00000230: 6097 9bbd 18be 81bd 4217 db3c dcf9 c73d
00000240: 7416 cb3d 85d2 283e 878e 2bbd 8e3d a23d
00000250: 4226 8bbb b336 c63d 0864 2fbd 66e3 f8bd
00000260: 47ed ffbc 678b 18bd a94b e83d 51f9 9a3d
00000270: 20af 153c 1699 573d 5651 c9bd dfc3 f8bd
00000280: f601 973d e580 cdbd 9443 013d 6464 38be
00000290: 402a a73d 6883 b2bc 3b7a 743e f70b f9bc
000002a0: 55f9 fabd 3009 b1bc 71c8 513d e88a d6bc
000002b0: bf75 18be e958 1ebe 6ae5 123e c022 31be
000002c0: 1f8c dfbe 3424 6e3d db25 3d3e 1a86 1bbd
000002d0: 3761 8f3a 0d94 a73d 65a7 1bbd 1241 efbd
000002e0: bb8a 6bbd 18ad 7dbd ece4 0e3e ff67 003e
000002f0: d499 87bd 5018 453d b8d0 d3bd a41d eabd
00000300: fdb6 86be 6ee1 e53c a067 d73d 86c6 823d
00000310: 68ef 64bd 1606 7bbe fc60 c93d 14bb 19bd
00000320: 99b2 cbbd 96e5 fd3d 9a77 063e 82ca 82bc
00000330: 170f 02be 5873 843d e454 053b ea7e f8bd
00000340: 940c cbbd 3fa7 073d dd29 86bd f06d a63d
00000350: cef0 bd3d 6ebe c03d 7c8e f2bd f686 b2bd
00000360: 00a5 07bd f006 ac3d 52a0 d23d cefe 92bd
00000370: ffea 7b3d af2f df3d c802 003e 0ed3 96bc
00000380: b828 82bd 0c7f e4bd 000e c63a 878c 05be
00000390: 065a 913d 90ac 1c3c 0e93 823d f6c0 2d3d
000003a0: 1963 42be 04b1 aa3d 5525 6a3d 7843 dbbc
000003b0: 4880 2ebd d6a4 c1bc 59fb 73bd b7e5 14be
000003c0: 58f8 b8be 3182 933d 998b 483e a5bc 32be
000003d0: d105 eabd 6523 3c3d 6fc2 bb3d 0588 61be
000003e0: fa10 1ebd bc1b 5ebd 7150 013e 7d36 0abe
000003f0: 18c0 90bc 3233 fe3d 0831 dbbd 00e1 2ebe
-0.01941637 -0.09165093 0.0034690648 0.007817092 -0.08145361 -0.26130295 0.21674873 -0.0892941
0.112529844 -0.023039907 -0.080823965 0.023953035 0.019845197 -0.13578744 -0.17540614 -0.016648278
0.065367654 0.04899196 0.09300499 -0.023971349 0.061183296 0.12961696 -0.07961589 -0.10022771
0.05557094 -0.1144542 0.13381304 -0.115209 -0.119187795 -0.12205633 -0.084806144 -0.06203676
-0.03591253 -0.11911088 0.061672255 -0.22870246 0.10705039 0.012175456 0.16258495 -0.19488104
0.040783912 0.028226316 -0.13573545 -0.1122482 -0.00953262 0.0033115328 0.021084875 -0.038096923
-0.21258216 0.010295092 0.16801144 -0.15969856 -0.016394304 0.11784434 -0.013426942 -0.11199938
0.008963524 0.07105383 -0.041036617 0.096082695 0.047156304 0.095116496 -0.046969652 -0.0198364
0.216106 -0.06444809 -0.015180171 -0.09330854 0.094184846 0.0916923 -0.17379491 0.05381008
-0.13959852 0.02801922 0.44532046 0.010815299 -0.09637943 0.18517885 0.568428 0.003085956
-0.09365307 0.3818301 -0.20701748 0.06058182 0.19827189 -0.1775013 0.064671084 0.027372614
-0.12705629 0.21649979 0.035426356 -0.19408457 -0.24478433 0.19463253 0.14531142 -0.21398573
0.05508849 -0.07259449 0.0948444 -0.060295936 -0.05478418 -0.11137499 -0.23687358 -0.030369762
0.15099351 -0.108369514 0.1531389 0.10193594 0.1259899 0.25254974 0.039587397 -0.3627243
-0.14931306 0.098465525 -0.24108072 -0.027790433 -0.1286726 -0.08037088 0.09519653 -0.30946237
-0.1611254 0.0051531205 0.25924745 -0.10831348 0.22552595 0.024421528 -0.07857987 0.20557845
-0.061633017 -0.043403763 -0.029757336 0.1035337 0.006923735 -0.23702987 0.08540474 -0.09304297
-0.010162149 -0.10246426 -0.033290174 0.10411553 -0.07597232 -0.06335086 0.026744489 0.09764454
0.09916392 0.16486557 -0.04188397 0.07921897 -0.004246504 0.09678402 -0.042820007 -0.12152748
-0.031241072 -0.03724232 0.11342556 0.075670846 0.009135991 0.05263623 -0.09829967 -0.121467344
0.07373421 -0.1003435 0.03155859 -0.18007046 0.081623554 -0.021791175 0.23874752 -0.030401213
-0.122545876 -0.021610826 0.051216546 -0.026189283 -0.14888667 -0.15463604 0.14345327 -0.17298412
-0.4366159 0.058139995 0.18471472 -0.037969686 0.0010939006 0.08182535 -0.038001437 -0.11682333
-0.05750535 -0.061932653 0.13954514 0.12539671 -0.06621137 0.04811889 -0.10342544 -0.11431435
-0.26311484 0.028061595 0.10517812 0.063855216 -0.055892378 -0.2451404 0.098329514 -0.037531927
-0.09946174 0.12397306 0.13131562 -0.015965704 -0.12701069 0.064673126 0.0020344788 -0.12133582
-0.099145085 0.033118483 -0.065509535 0.08126438 0.092744455 0.094113216 -0.11843583 -0.08717148
-0.03311634 0.08399761 0.10284485 -0.071775064 0.061503407 0.10897767 0.12501061 -0.018411186
-0.06355423 -0.11157045 0.0015110373 -0.13041888 0.07097249 0.0095626265 0.06375705 0.04242035
-0.18983115 0.08334544 0.05716451 -0.02676557 -0.042602807 -0.02363817 -0.059565876 -0.14540754
-0.3612697 0.072025664 0.19584502 -0.17454775 -0.11426891 0.045932192 0.09167945 -0.22024544
-0.03859041 -0.05422567 0.12628342 -0.13497348 -0.017669722 0.124121085 -0.10702711 -0.17078018

body.2.bias f4 [64]
00000000: 8174 f23d 5ea4 15bd 61b2 c23d 9bcf 953e
00000010: 7be0 e3bd 4019 3f3f 189c 603f be9e 433f
00000020: 7c12 19bd 5610 ab3e 9228 96bd b83c 1439
00000030: 5034 383f ceaf ea3d 6410 f33e 376a 723f
00000040: 5daa d43c 44d5 503e e54b ea3d b5e9 693d
00000050: 7a24 483f e530 863c b3a9 a83d 98a8 293e
00000060: aefe b6bd d75a 6e3e a83a 8bbd 11dc e8bd
00000070: bca4 9fbd b880 2b3f 612d e23e 18ce 63bd
00000080: 27bd bdbd 2d83 d83d b543 ed3e 0ffe 9a3d
00000090: ca4e e1bd 19e6 343c 44f5 443f ca9f 613f
000000a0: cd66 b43d 298b df3e d08b 96bd ef65 423e
000000b0: 8b07 303f f960 473f bfc1 f5ba a052 bdbd
000000c0: c075 91bc 92a8 6a3d 4b15 9e3d a53d 1e3c
000000d0: de2b 4d3f e3e1 093e 7434 7bbd 2d36 b7bb
000000e0: e0fc a6bd 80ff f3bb 89ce e63d 631a 82bd
000000f0: b830 eb3d 71f5 5b3d e5da 4c3e 75bf eebc
0.118386276 -0.036533706 0.09506679 0.29259953 -0.111268006 0.74647903 0.8773818 0.76414096
-0.037371144 0.334109 -0.07331957 0.00014137 0.7195482 0.11459313 0.47473443 0.9469332
0.025960142 0.20393854 0.11440257 0.057107646 0.7818066 0.016380737 0.082354926 0.1656822
-0.08935295 0.2327684 -0.06798297 -0.11370099 -0.077950925 0.66993284 0.44175246 -0.05561647
-0.092645936 0.10571895 0.4634072 0.07567989 -0.11001356 0.011041188 0.76936746 0.88134444
0.0880867 0.43660858 -0.07350886 0.18984197 0.6876151 0.77882344 -0.0018749757 -0.09244275
-0.017756343 0.057289667 0.07718905 0.009658252 0.8014506 0.13465075 -0.06132932 -0.005591175
-0.08153701 -0.0074462295 0.11269862 -0.06352689 0.11483902 0.053700868 0.20005377 -0.029144028

body.4.weight f4 [1, 64]
00000000: caa6 09be 9fac a7bd c2f1 69bd c0a3 2abe
00000010: 6a84 65bd 6944 c73e 710d c33e a960 e63e
00000020: e8b3 4ebd e031 ba3e 00fb 1a3c 0a6c 643d
00000030: 6a8e a83e dcc5 f33d 851b 8b3e 778a 103f
00000040: 8711 c1be 581b 10be 378e 263d 7130 dfbe
00000050: 54ed b03e bf65 1fbf 8f89 8b3d d093 fa3e
00000060: 05d0 253e 8802 bdbe 4d07 f83a 29e1 56bd
00000070: e461 b4be 6a9b b83e a439 f03e a551 f0be
00000080: a1cb 1abd ae10 33bd c57b ff3e 5792 13bf
00000090: 18aa cb3c 7674 07bd db87 cf3e 33bc 083f
000000a0: 573a e03b dd58 8d3e 742a 06bf 0055 fcbe
000000b0: aae7 b43e 341e c23e a042 b6bd 193e 8ebd
000000c0: 0650 bb3d 46cb c8bb 7b39 87bb 7418 3abe
000000d0: 3e36 d43e 8c99 b2bd d86c 063d 7a4e c9bc
000000e0: 3804 4ebe e30e 0fbd 286c bb3e b1a7 e9bc
000000f0: 9833 19be aa3d f8be 1e62 44bd 4759 ffbe
-0.13442531 -0.08187222 -0.057115324 -0.16664028 -0.056034483 0.3891938 0.38096192 0.4499562
-0.05046454 0.36366177 0.009459257 0.055767097 0.32921153 0.11902973 0.27169433 0.5646128
-0.37708685 -0.14072931 0.04066297 -0.43591645 0.34556067 -0.6226463 0.068133466 0.48940897
0.16192634 -0.36915994 0.0018923074 -0.052460823 -0.35230935 0.36056072 0.46918976 -0.4693729
-0.037791852 -0.04371708 0.49899116 -0.5764517 0.02486138 -0.03307005 0.40533337 0.5341217
0.006842892 0.2760686 -0.5240853 -0.492836 0.35332996 0.37913668 -0.088994265 -0.06945438
0.09146123 -0.0061277477 -0.0041267253 -0.1817339 0.41447634 -0.08720693 0.032818645 -0.024573553
-0.20118797 -0.034926306 0.36605954 -0.028522344 -0.14961088 -0.48484546 -0.047945134 -0.498728
