ppo_model.pt (torch, 42467 bytes, 11 tensors)

body.0.weight f4 [64, 5]
000000 33 fe 03 3f 46 1e 08 3e 24 84 8d be e3 65 cc 3c
       0.5155975 0.13292798 -0.27639878 0.024950927
000010 a3 b2 f6 3e 21 4e c1 3e e5 a2 20 3e 80 c1 15 40
       0.48183164 0.3775492 0.1568714 2.3399353
000020 1a bf 95 3d 14 c0 66 3e f0 9c a4 3e 62 20 8e 3e
       0.0731184 0.2253421 0.32150984 0.2775908
000030 24 5e 33 be 88 65 3f be 18 63 e6 bd b4 55 b5 3e
       -0.1751638 -0.18691075 -0.112493694 0.3541695
000040 1c a2 c6 3e d8 d7 d6 be 82 22 9a be f8 77 ba bd
       0.38795555 -0.4196155 -0.30104452 -0.091049135
000050 99 29 a1 3e 36 3e 0c 3f 5a 46 fb bf d5 8c a5 bd
       0.3147705 0.54782426 -1.9630845 -0.08083502
000060 50 10 fb 3e 79 65 8c 3d 0e f7 0f bf 39 73 0b 40
       0.49035883 0.06855292 -0.5623635 2.1789076
000070 ef 3d 82 3e 2f 05 03 be 7d 1e 3c be 31 89 21 3e
       0.25437877 -0.12794946 -0.18371005 0.1577499
000080 9a c1 2c be 3a f3 c7 be 6d a7 b9 3e 45 e8 8a bd
       -0.16870728 -0.39052755 0.36260548 -0.06782583
000090 f4 e4 6d bd 85 63 39 40 0f 89 6b 3e 0e 6f be be
       -0.058079675 2.8966992 0.23001502 -0.37194103
0000a0 88 67 b7 bd 7d 39 48 3e 1a 5c 24 40 2e b6 08 3e
       -0.08955294 0.1955318 2.5681214 0.13350746
0000b0 fe 2a 16 bf 1c 05 47 3e e0 1d a2 bd 00 83 00 3b
       -0.5865935 0.19435543 -0.079158545 0.0019609332
0000c0 b3 b1 cb be 78 dd fd bd e7 94 a1 be b0 79 2c 3e
       -0.3978401 -0.123957574 -0.31558916 0.16843295
0000d0 40 00 7e bd b0 3d a9 bd 52 a5 04 be 93 cb 19 3e
       -0.062011957 -0.08263719 -0.1295369 0.15019064
0000e0 26 83 21 3e e0 df 32 40 ea 93 ba 3d 32 50 2b be
       0.15772685 2.7949142 0.091102436 -0.16729811
0000f0 35 0e df be 21 4b 93 be dd 2c 22 3f 3c c6 25 ba
       -0.43565527 -0.28768256 0.63349706 -0.000632379
000100 e2 81 bf bd ee e1 1d bf 7a ad f9 3d e4 73 09 40
       -0.09350945 -0.61672866 0.12191291 2.1476984
000110 bf 35 5c 3d 73 f4 32 be 36 26 ec be d9 e1 09 bf
       0.053762194 -0.17476062 -0.46122903 -0.5386024
000120 3d a4 16 40 2d f1 f0 3c 5f 97 b3 be 56 d9 98 be
       2.3537743 0.029411877 -0.35076424 -0.29853314
000130 fc ad 65 3e ee 01 40 bd 8d 7e d4 be b9 45 21 3e
       0.22429651 -0.04687684 -0.415028 0.15749253
000140 c7 e5 ce bd e5 6d c0 be 86 40 be be 54 3d ba be
       -0.1010242 -0.37583843 -0.37158602 -0.36374915
000150 31 95 54 3d 50 7e ad 3e 37 7b 73 3d 4c cf b6 be
       0.051900093 0.3388543 0.05944368 -0.3570503
000160 d1 1b 60 bd 02 95 b1 3e 58 89 ea bd 32 5d c5 be
       -0.054714028 0.34683996 -0.114519775 -0.38547665
000170 dd 2d 26 40 9c ab 83 3e af e8 ea be 36 ab 7d be
       2.5965493 0.25716865 -0.45880648 -0.24772343
000180 f9 3e 15 3e f7 79 c8 3f cc a1 e4 3d be 00 0f 3e
       0.14574803 1.5662221 0.11163673 0.13965127
000190 ca 68 a0 3e 03 0a ed bc 8a 65 16 40 d6 0c a8 3e
       0.31329948 -0.028935438 2.3499475 0.32822293
0001a0 71 8c 6e be 96 da d8 3e 49 32 4d be 19 eb 28 be
       -0.23295762 0.42354268 -0.20038714 -0.16495933
0001b0 79 6b db be 99 fd ef 3d dd a5 5f be de ee b5 3e
       -0.42855433 0.11718292 -0.21840616 0.35533804
0001c0 e0 aa ae 3d 04 ef be bd 64 2c 68 be 6a 6d fd be
       0.085286856 -0.09322932 -0.22673184 -0.4949754
0001d0 19 25 10 3d be ee 15 40 16 62 af 3e 38 39 ff be
       0.03519163 2.3426967 0.3425452 -0.49848342
0001e0 0e e5 1f be a0 82 cb 3e ce 22 c0 3e 58 32 47 be
       -0.15614721 0.39748096 0.37526554 -0.19452798
0001f0 51 f9 d7 be 65 ed c5 3e 10 0a fd bc f1 7c 94 be
       -0.421824 0.3865768 -0.030888587 -0.29001573
000200 f3 15 38 be d0 01 e2 3e b9 fe 4c bf 1a 64 e4 be
       -0.17977123 0.44142008 -0.80076176 -0.4460762
000210 4f 82 77 3f fc a9 2f 3e d5 2c 18 be 69 33 04 3e
       0.9668321 0.17154688 -0.14860852 0.12910236
000220 e3 4d 26 3e 84 c5 26 40 6a a7 67 3d 3f 76 b5 3e
       0.16240649 2.6058054 0.056556143 0.35441777
000230 60 9e b4 3d ae bf ab 3e 14 77 88 3e cc ad 40 be
       0.0881927 0.33544677 0.2665335 -0.18816298
000240 59 db e4 be 3d f4 04 be 58 96 ae bd 30 1b 28 40
       -0.446986 -0.12983795 -0.085247695 2.6266594
000250 20 e7 74 3c 8b 30 7a 3d c7 cb 95 be 3d cb 72 3e
       0.014947683 0.06108145 -0.29257032 0.23710342
000260 1d 02 00 bc 4e d7 cf be 00 d2 d1 3e 5b 38 c7 be
       -0.007813004 -0.40593952 0.4098053 -0.38910183
000270 02 b3 cf 3e c9 e0 c6 be 2f 07 99 be bd b4 4c be
       0.4056626 -0.38843372 -0.29888293 -0.19990821
000280 a2 51 df be 26 7c 90 bd b1 fc d9 3f 4e a1 20 3e
       -0.43616968 -0.070549294 1.703024 0.15686533
000290 66 d9 cd bd c5 80 cf 3e f0 b7 1f be f5 e5 ce be
       -0.10051231 0.4052793 -0.1559751 -0.40409818
0002a0 15 27 84 be fd 76 9c 3e 92 a5 11 be b5 ee 3f 3d
       -0.25811067 0.3055953 -0.14223316 0.04685851
0002b0 3d 1e 00 c0 11 36 28 3e 77 31 88 be 6e 31 50 3e
       -2.0018456 0.16426875 -0.2660024 0.20331356
0002c0 8e 4b f2 3b 3a f6 ae be fc 54 97 ba 53 51 9b be
       0.0073942607 -0.3417223 -0.0011545713 -0.30335483
0002d0 91 4b 8b 3e 6d 94 d1 3d 89 3f 94 3e 12 dd 61 be
       0.2720609 0.10233388 0.28954723 -0.22056988
0002e0 fe cb c8 3e f5 e7 d2 3e 01 7e be bd fd 01 22 40
       0.39218134 0.41192594 -0.09301377 2.5313714
0002f0 45 c2 c4 3e 83 76 1d bf 25 be 60 be 37 cb 06 bf
       0.38429466 -0.6150896 -0.21947534 -0.5265383
000300 c3 a2 23 40 90 f9 2c 3d 04 d7 02 bf 5a 33 d6 be
       2.5568092 0.04223019 -0.5110934 -0.41836053
000310 8f 27 ce 3e f3 fe 8a 3e 9b b2 f0 ba f2 0b cd be
       0.40264556 0.27147636 -0.0018363775 -0.40048176
000320 71 96 66 bb 69 4b 11 bf e3 a6 b6 3f 0e 9c b9 3d
       -0.0035184885 -0.5675569 1.426968 0.09062968
000330 b5 03 ab bd be 69 bb 3e 04 2a 56 3e a5 5e 2d bf
       -0.083503164 0.36604112 0.20914465 -0.6772254
000340 63 32 47 be 90 3e eb 3e 45 c4 34 bf 1e e9 a1 be
       -0.19452815 0.4594617 -0.70611984 -0.31623167
000350 fc 8e 08 40 67 dc 46 3e 06 77 31 be b4 a7 28 be
       2.133727 0.19420014 -0.1733056 -0.16470224
000360 cc c9 d9 3e 80 7a fe 3b 5a 1d c9 be 86 8a 1a be
       0.4253677 0.007766068 -0.39280206 -0.15091905
000370 a3 52 a7 be af 5d d1 be df 24 48 3f 72 29 79 ba
       -0.32680234 -0.40891787 0.7818126 -0.0009504772
000380 7e da 0e bd d9 1c dd be 34 db 70 bd c8 94 c6 bf
       -0.03487634 -0.43186072 -0.0588028 -1.5514154
000390 ad a2 1c 3b 90 7d 45 3e 36 10 d3 be 7a 01 42 3e
       0.0023900673 0.1928618 -0.41223305 0.18945876
0003a0 ec 23 17 40 60 62 82 bc e3 7d 85 3d f1 73 ee bd
       2.3615675 -0.01591605 0.065181516 -0.11643208
0003b0 01 29 41 3e c0 00 28 bf c1 36 56 be fb ed ef 3e
       0.18863298 -0.65626144 -0.20919324 0.46861252
0003c0 c7 f1 11 bf b0 7d 53 be 67 fb fe 3f fc 11 90 3e
       -0.5700955 -0.20653415 1.9920472 0.2813872
0003d0 d8 ea ac be 3c 9f 83 3e 82 27 48 3e 27 ec 0b 40
       -0.33772922 0.25707424 0.19546321 2.1862886
0003e0 bd 27 5d 3e 0b 7e cd be 74 4f de 3e a0 9a 67 bc
       0.2159719 -0.40135226 0.43419993 -0.014135987
0003f0 2a 74 7d be 8b d3 5c be 80 32 15 bd 14 88 15 3e
       -0.24751344 -0.21565072 -0.036425114 0.14602691

body.0.bias f4 [64]
000000 bd fb 8c 3e 56 87 b6 3e e8 dd 39 be ba 3d 44 be
       0.2753581 0.35650128 -0.18151057 -0.19164172
000010 a9 a8 cc 3e 6e ce f0 3d 66 cf df 3e 8d fa b3 be
       0.39972427 0.11758123 0.4371292 -0.35152093
000020 9f be 66 3e 28 ea 39 3d bd 18 4f be d5 66 98 bd
       0.22533654 0.045389324 -0.2022428 -0.07441489
000030 62 15 a9 bd ac 0c c9 be 4f 30 4e 3d fb ba ab 3e
       -0.082560316 -0.3926748 0.05033904 0.33541092
000040 e5 83 26 bc fc 01 bc bb e5 f6 19 3e 38 d3 fb be
       -0.010163282 -0.0057375412 0.15035589 -0.49184585
000050 14 dd 52 be 68 16 c5 be 50 c6 59 3d 56 82 77 be
       -0.20592147 -0.38493657 0.05316764 -0.24170813
000060 20 58 93 bd 49 66 92 be 9d ff ab be ee b1 54 3e
       -0.07194543 -0.28593662 -0.33593455 0.20771
000070 74 7d 94 3e cd 30 ed 3e ee f7 1e 3e b4 06 a2 bd
       0.29001963 0.46326295 0.15524265 -0.07911435
000080 20 c1 cf be 25 6b 99 bd 13 b0 f0 bd 17 f0 91 bd
       -0.4057703 -0.07491139 -0.117523335 -0.07125872
000090 d7 8d 5b be 05 92 c5 bd 23 36 7e be 67 1f e2 be
       -0.21440826 -0.09646992 -0.24825339 -0.44164583
0000a0 03 62 17 be c4 88 04 3f 19 61 03 bf 06 0c bf 3e
       -0.14783482 0.5177119 -0.51320034 0.3731386
0000b0 81 7c 24 bf 8c df 98 3e 07 50 bd bb 51 f2 24 3f
       -0.6425248 0.29858053 -0.0057773623 0.64432245
0000c0 6b fa 9c be ba ca 3c be d0 45 12 be 56 eb ba be
       -0.30659804 -0.18436709 -0.14284444 -0.36507672
0000d0 e8 51 83 bd 5f 49 22 bf fd ea 8f 3d ac 6a d5 bb
       -0.06412107 -0.63393205 0.07027242 -0.0065129604
0000e0 0b 34 c2 be 0a d6 5d 3e 99 11 8b 3e cf 71 93 be
       -0.3793033 0.2166368 0.27161863 -0.28797767
0000f0 44 0f dc bd 57 ee 28 3e df d3 b1 bd 23 5b ff 3d
       -0.10745099 0.1649717 -0.08682989 0.12468555

body.2.weight f4 [64, 64]
000000 b1 4a ff bc d9 b0 ba 3d c2 ca ac bd b0 b4 72 bc
       -0.031163545 0.09115762 -0.084371105 -0.014813587
000010 31 f8 36 bd d9 34 14 be 62 bf e9 bd 94 3d 63 bd
       -0.044670288 -0.14473285 -0.114134565 -0.055478647
000020 23 cf ae 3d f8 4e fe bd 32 9a ec bd 4c ed 80 bd
       0.08535602 -0.12417406 -0.11552848 -0.06295261
000030 07 09 31 3d 80 98 d7 3c 90 8d 04 be af 3b 88 3d
       0.0432215 0.026317835 -0.12944627 0.06652009
000040 ef cd 71 3d a4 13 fc bc 3c 62 39 3d 81 39 d0 bd
       0.059034284 -0.030771084 0.0452597 -0.10167218
000050 c5 9d 96 3d 79 a8 ee bd 48 e7 ab bc 21 58 00 bd
       0.07354311 -0.11653227 -0.020984307 -0.031334046
000060 f4 fc ab bd 18 20 1d 3d b5 65 c7 3d 2b d2 33 bd
       -0.08397856 0.038360685 0.09736196 -0.043901604
000070 28 2d 2a bd 5f ed 1d be 87 9d e1 3b 88 7e 61 3d
       -0.04154697 -0.15422581 0.006885234 0.05505231
000080 03 51 1f 3d d6 12 de 3a 08 71 80 bd 73 8f 26 bd
       0.03889562 0.0016942869 -0.06271559 -0.040664148
000090 fb 55 bb bc e2 c4 f4 bd 54 ed 95 bc 2a 54 06 bd
       -0.022868147 -0.11951615 -0.018301643 -0.03279511
0000a0 0f d1 c3 bd f4 f7 83 bc d5 7d 87 3c c0 ed c5 3c
       -0.09561359 -0.016109444 0.016539494 0.02416122
0000b0 a4 d7 29 bd 13 83 02 be 6d c5 32 bd 09 fb a0 3d
       -0.041465417 -0.12745313 -0.04364531 0.07860381
0000c0 85 9b 34 3c 63 e6 48 bd 6c c0 24 bd 04 e4 65 3d
       0.011023407 -0.04904784 -0.04022257 0.056125656
0000d0 f4 2a 31 bd ec 1e 03 be b2 a4 bf 3d a4 a4 d1 3c
       -0.043253854 -0.12804765 0.09357585 0.025591202
0000e0 03 6a a5 3d 76 03 1a be 16 1e c4 3d 47 8d 72 3c
       0.08076861 -0.15040383 0.09576051 0.014804191
0000f0 ef 44 87 3c 43 df e7 bc 67 58 cf 3d ca 1e a2 bd
       0.016512362 -0.028304702 0.10124283 -0.07916029
000100 67 7d ef 3d 5a 4d 19 bd fc 9d 78 3d 5a ff bd 3d
       0.116938405 -0.037427284 0.06069754 0.0927722
000110 25 5f b8 bd 96 cc 38 bc 40 dc 66 bd 24 6e e5 bd
       -0.090025224 -0.011279246 -0.05636239 -0.11202648
000120 c9 d2 d2 bd 40 18 9f 3d 70 83 8f bd 13 80 78 bd
       -0.1029411 0.07768297 -0.070074916 -0.060669016
000130 6a 16 86 3d 60 de 0e be fc 70 98 bd 99 58 2c 3e
       0.06547244 -0.13952017 -0.07443425 0.16830672
000140 1f 98 9b 3d 94 3e c5 3c 41 3e 39 bd 7c 14 06 bd
       0.07597374 0.024077691 -0.045225386 -0.03273438
000150 fe d7 a4 bc dc 96 e5 3b 50 ef 0c bc 19 b8 0b be
       -0.020122524 0.007006509 -0.008601978 -0.13644446
000160 76 62 d3 3d 44 01 2f 3d 60 aa a2 bd 78 e2 cb 3c
       0.10321514 0.042725816 -0.07942653 0.024888262
000170 70 b3 17 3c d5 95 0f be 7f 02 f1 3b b8 02 79 3d
       0.00925909 -0.14022 0.007355034 0.06079361
000180 6b 34 5d bd 63 06 81 bd 74 c3 d6 bd ee 5e 86 bd
       -0.054005068 -0.06300046 -0.104864985 -0.06561075
000190 f6 d0 5e 3d 39 ba 0c be 62 45 20 be 44 db d2 bd
       0.0543985 -0.13742913 -0.15651467 -0.10295728
0001a0 84 0d 03 bd 27 f9 b6 bd ba 99 e9 bd 00 66 9d 3d
       -0.03199531 -0.08934241 -0.11406274 0.076854706
0001b0 3f 44 d1 3d 7b f1 d0 3c 60 87 80 3d 05 5c ff bd
       0.10218095 0.025505772 0.06275821 -0.12468723
0001c0 f0 ab b3 3d c4 72 13 bc e8 26 ce bd 28 53 21 3d
       0.08773029 -0.00899953 -0.100660145 0.039385945
0001d0 c3 d7 ed bd 1d 09 87 bd 2b f7 00 3e 93 39 13 be
       -0.11613419 -0.06593535 0.12594287 -0.14377432
0001e0 cf 41 9f 3d b7 d2 9e bd 5a 86 e7 bd 53 5a 18 bd
       0.07776224 -0.077550344 -0.113049224 -0.037195515
0001f0 26 9e ed 3d de 06 5c 3d ba 1c 09 3c 00 0a 27 3d
       0.1160243 0.053717487 0.008368665 0.04078102
000200 ba e8 a0 3b 45 ac 86 bd 88 4b b7 3c 7a 68 ed 3d
       0.0049105557 -0.065758266 0.022374883 0.11592193
000210 a6 14 8b bc 0b 13 a2 3d 18 ce a5 3d d7 13 8f 3d
       -0.01697762 0.079137884 0.0809595 0.06986206
000220 ab 22 c1 bd f0 6f a3 3d 00 86 05 3b 45 41 3e be
       -0.094304405 0.07980335 0.002037406 -0.18579586
000230 29 39 ca 3d 82 25 08 be 67 73 01 be 00 b0 66 35
       0.09874184 -0.13295558 -0.12641679 8.593779e-07
000240 2b 84 c8 3d dd c5 10 bd d8 ab c0 bd ce 6a 32 3d
       0.09790834 -0.035344947 -0.094077766 0.043558888
000250 ad c4 2b 3d df f1 0a bd 6e 2c f8 bd f6 86 36 be
       0.04193561 -0.033922072 -0.12117849 -0.17824921
000260 50 1e 73 3c a5 c9 60 3d 84 40 04 be 55 bd b7 3d
       0.01483877 0.054879803 -0.12915236 0.08971659
000270 00 f8 e7 bc 32 f9 c3 bd 71 4e e0 3d 74 4f db bd
       -0.028316498 -0.095690146 0.109524615 -0.10708514
000280 93 dc 55 bc 21 aa 23 bd 80 3c 20 bd 42 b3 f0 3d
       -0.013053077 -0.03995717 -0.039120197 0.11752941
000290 68 73 af bd a2 17 77 bc 5c 81 70 bc fc c3 57 3d
       -0.08566934 -0.015081318 -0.014679279 0.05267714
0002a0 87 13 20 3d 6f 9f 9a bd 1e da 9f 3b b0 cb e5 bd
       0.039081123 -0.07549941 0.0048782965 -0.11220491
0002b0 80 7b ba 3d 5f 2e e7 bc b5 57 d6 bd 2d 5f a2 3c
       0.09105587 -0.028220354 -0.104659475 0.019820774
0002c0 45 a8 ca bd 8a ee ce bd 36 0e e7 3d 90 25 71 3c
       -0.09895376 -0.101040915 0.112820074 0.014718428
0002d0 88 89 20 be 4d 99 bb bd 6d 0e 5c 3d 68 4b b1 bd
       -0.15677464 -0.09160099 0.053724695 -0.08656961
0002e0 9c b0 44 bd 7f 07 e5 3b 62 fd 12 be 00 fb e9 3d
       -0.04801999 0.006989419 -0.1435447 0.114248276
0002f0 69 f5 8f 3d 8a 64 91 ba 3d fe e5 bd e8 b1 f6 3d
       0.0702923 -0.0011092585 -0.11230133 0.12045652
000300 f6 02 eb bd 56 22 ca bd 4e 0c de 3d 98 b5 0b 3d
       -0.11475174 -0.0986983 0.10842191 0.03410873
000310 30 f4 3e bc bc 20 ab bc 10 97 ce bc 6c 4f b9 3d
       -0.0116548985 -0.020889632 -0.025218517 0.09048352
000320 0e 86 b5 bd f2 82 a1 3d 08 c4 3d 3d 06 1f 89 3d
       -0.088634595 0.07886304 0.046329528 0.066953704
000330 d4 e9 50 3d 6a 65 d8 3c be 71 a2 bc 20 0a 7d bc
       0.051004246 0.026415545 -0.019829627 -0.0154443085
000340 40 89 3a bc f8 ea 58 3d 48 57 9f 3d 6c ea 72 3b
       -0.011385262 0.05295846 0.077803195 0.0037065996
000350 56 0c 99 bd 38 24 03 bd 60 39 c4 3d aa fb e8 3a
       -0.07473056 -0.032016963 0.09581256 0.0017775197
000360 4e 1f 8a bd f0 5a 6e bd 77 65 f7 bc 5b 68 bf bd
       -0.06744252 -0.058192194 -0.03019975 -0.09346076
000370 f0 1a a8 bc fb 33 4d bd 58 4c e0 3c be f7 aa bd
       -0.020520657 -0.0500984 0.027380154 -0.08348034
000380 da 44 fb bc c4 2a b3 3d 7a ff d7 bd 60 87 46 bd
       -0.03067248 0.08748391 -0.10546775 -0.048468947
000390 10 bb b2 3d d1 d5 a2 bc 5c 66 fc bb a0 60 de bd
       0.087270856 -0.019877346 -0.007702632 -0.108582735
0003a0 17 18 91 bd 47 ca a1 bd 52 56 a0 bd c8 52 03 bd
       -0.07084673 -0.078999095 -0.07828964 -0.03206137
0003b0 84 d1 bc bd 2a a3 c5 bd 55 c2 ea bd e9 8e de bd
       -0.092196494 -0.09650262 -0.11462847 -0.10867102
0003c0 c6 82 59 bd 9e 0f b0 3d ac 9e 16 bd 5a df a5 bd
       -0.05310323 0.08596729 -0.036772415 -0.080992416
0003d0 f6 60 f1 bd 48 6a c4 3d a0 64 9f 3c 76 9c 11 3d
       -0.11786072 0.09590584 0.019457161 0.035549603
0003e0 10 74 b7 bc 93 00 96 3d 10 52 9e 3d 32 38 58 bd
       -0.02239421 0.07324328 0.07730496 -0.052787967
0003f0 6c 1a 9d 3b d1 d0 c1 bd 5c a1 5a b9 e0 67 e2 3b
       0.0047944095 -0.09463657 -0.00020850211 0.0069093555

body.2.bias f4 [64]
000000 7e ff a6 3d f3 c4 f7 bd 36 8c 4b bd bb 3e dc bc
       0.081542 -0.12098112 -0.049694262 -0.026885381
000010 64 85 88 bc 40 b1 17 3d 0e 6d 7e 3e 8c 38 49 bc
       -0.016665168 0.037034273 0.24846289 -0.012281548
000020 57 f5 66 bc 2e 9f e1 3b 8f a1 77 bd 47 e8 a0 3d
       -0.0140965795 0.006885431 -0.06045681 0.078568034
000030 ce 73 a8 3c 36 74 55 be 62 61 bb bd 33 8b 0e 3e
       0.020563032 -0.20845112 -0.09149434 0.13920288
000040 4e 62 b4 3d 51 32 55 bd fa f2 15 be 1c 83 79 3d
       0.08807813 -0.05204994 -0.1464347 0.06091605
000050 a1 a8 05 be 27 b4 2b 3e 73 80 24 3e 76 ab 15 bb
       -0.13052608 0.16767941 0.16064624 -0.0022837794
000060 07 6b 22 3d fd df cb bc 09 c3 c0 3d 52 16 e1 bd
       0.03965285 -0.02488708 0.094122 -0.109905854
000070 b0 7f d1 bd 02 0b 24 3d ed 97 d7 bc c5 03 40 be
       -0.102294326 0.04004956 -0.026317561 -0.18751438
000080 21 9e aa bd 36 29 46 bc d8 b7 c6 bd 9a 33 af bd
       -0.08330942 -0.012094786 -0.09703034 -0.08554764
000090 65 4d 39 3c 76 18 dc 3c 78 72 19 3c 96 c0 b9 bd
       0.011309956 0.026867133 0.00936567 -0.09069936
0000a0 97 47 be bd cf b0 67 3d ce ba a7 ba 54 c6 90 bc
       -0.092909984 0.056565102 -0.0012796761 -0.017672695
0000b0 72 3f cd 3d f0 e8 69 bd 3e f7 b2 3c 8a b4 67 bd
       0.10021867 -0.057106912 0.02184641 -0.05656866
0000c0 4d e8 4f 3d 1b 2e f2 bd b7 85 eb bc d1 c4 57 bd
       0.05075865 -0.118252 -0.028750284 -0.052677933
0000d0 a3 a6 ef bd 59 70 36 3e 56 2c 80 bd 0c ee ac bc
       -0.11701705 0.17816295 -0.062584564 -0.021109603
0000e0 b9 a7 b3 bc 53 3c bf 3c a6 0c fd 3d 5f f6 da bd
       -0.021930562 0.023344195 0.12355928 -0.10691523
0000f0 64 c8 00 bd fd c2 bd bd d1 36 1f 3c 91 fa b2 3d
       -0.031441107 -0.09265707 0.009717659 0.08739198

body.4.weight f4 [4, 64]
000000 56 09 83 3b f6 e3 0c bd 9d c4 f0 3c d5 5e 9e bb
       0.0039989157 -0.034397088 0.029390628 -0.004833082
000010 c3 d3 ac 3c bb b9 87 3c e2 f0 16 3e 5d ae 58 3e
       0.02109707 0.016568055 0.14740327 0.21160264
000020 55 da 8a bd 84 bb 20 3a 5f 6d f6 bb 78 55 35 3e
       -0.06779925 0.00061314576 -0.0075203623 0.17708385
000030 c0 c6 c6 3d d7 30 be 3d 60 c2 95 ba 5b 18 25 3e
       0.09705877 0.09286659 -0.0011425726 0.16122572
000040 69 77 0f 3e 9e a3 a2 bc 72 b0 ff bb 44 eb 15 3e
       0.14010395 -0.01985341 -0.0078030163 0.14640528
000050 f7 d8 d2 3d 9f ef 02 3e 30 64 8f 3e e8 c2 b5 3c
       0.10295289 0.1278672 0.28006124 0.022187665
000060 6e 26 e7 3d 24 76 39 bd 56 18 a5 bb 95 c4 14 bb
       0.11286627 -0.045278683 -0.0050383015 -0.002270018
000070 c9 ca c3 3b 6d 14 58 3d ba 9e ef bc c3 f0 47 bd
       0.0059751016 0.052753855 -0.029250491 -0.048813593
000080 2a e1 47 3d 87 f2 17 3e cc 1a 1c 3c 0c c0 da 3c
       0.048798718 0.1483861 0.009527873 0.026702903
000090 1d d8 c5 bd ad 77 11 bd c0 7e 21 bc 26 88 cc bb
       -0.09660361 -0.035514522 -0.00985688 -0.006241816
0000a0 0d 50 f6 3b 9e 9d 90 bd 4e 77 05 bd b4 18 cb bd
       0.007516867 -0.07061313 -0.03258448 -0.09916821
0000b0 ad 2b a3 3e 32 bf ee b7 18 3a 98 3d 43 30 3d bb
       0.3186926 -2.8460843e-05 0.074329555 -0.0028867878
0000c0 1a 99 db bc 62 d6 84 bb 3f a6 8b 3e 25 af 2d bd
       -0.026806403 -0.0040538767 0.27275273 -0.04240336
0000d0 25 1f a6 bd 5b 00 13 3e 15 a1 b9 bb 65 33 cc 3b
       -0.08111409 0.14355604 -0.0056649544 0.0062317126
0000e0 06 ff 2a bc 0f 8d 1a be f4 ab 47 3d e2 e6 58 3d
       -0.010436779 -0.15092872 0.04874797 0.052954562
0000f0 b0 84 1a 3c c0 cd 3a be 70 34 28 3c 9a 5c 1a 3d
       0.009431049 -0.1824255 0.010266408 0.037685968
000100 55 75 fb 3c 5a fc ac bd 4a e2 d9 bc 8b f2 77 3c
       0.030695597 -0.0844657 -0.02659716 0.01513351
000110 1c 21 ad 3c c3 d9 34 3d 13 7f c0 3c c0 0e 04 3e
       0.021133952 0.044152986 0.023498094 0.12896252
000120 f6 73 66 bd d7 dd 62 3b 40 88 04 be fe b7 6c bc
       -0.056262933 0.003461709 -0.129426 -0.014448164
000130 38 60 3e 3d f1 3f 1f bd e2 fe e9 ba c2 83 e1 3d
       0.04647848 -0.03887934 -0.001785245 0.11011459
000140 f7 0f f1 3c f8 d8 e6 3c de b7 74 bc 82 27 e1 bb
       0.029426558 0.02817963 -0.0149364155 -0.006871165
000150 97 c2 b7 3c 2d 86 2c bd 71 55 0a 3e 67 46 1d 3c
       0.022431655 -0.042120147 0.13509156 0.009599305
000160 4a 78 56 3d 4f 01 04 3e 94 66 58 3b de 89 0b 3c
       0.05236081 0.12891124 0.0033020126 0.008516757
000170 7a af 8a 3c 31 9a 9b 3c af 28 4d bd 8b 9f cb bd
       0.016929377 0.018994423 -0.050087627 -0.0994254
000180 96 32 76 3d 0b 71 26 3d ee 81 8e bb bd c4 ff 3c
       0.060106836 0.04063515 -0.004348985 0.031221742
000190 d3 55 c1 3e 12 fe 7a bd 97 09 70 bc 7c ee df 3b
       0.3776079 -0.061277457 -0.014650724 0.0068338495
0001a0 67 a2 c7 3b 57 f1 1c be e9 a6 9e bc 85 d1 7f 3e
       0.006092358 -0.15326439 -0.019366698 0.24982269
0001b0 5a e0 9d 3d 7f 1f 63 3b 5b d8 ec bc 22 26 98 3b
       0.07708807 0.0034656224 -0.02891176 0.0046432177
0001c0 b3 a9 17 bc 1d e3 fe bb d1 e3 97 3c 06 d4 3d bb
       -0.009256768 -0.007778539 0.018541249 -0.0028965487
0001d0 9e 16 d9 bd 85 1e da 3d bc 6d 16 3b 13 1f e9 3c
       -0.10600017 0.106503524 0.002295359 0.0284572
0001e0 68 ee 94 bb a3 f2 4d 3e e8 a1 89 bd 57 06 b5 bd
       -0.004545022 0.2011209 -0.06720334 -0.088391
0001f0 08 b2 0c 3c 31 6d c7 3e d5 61 46 bc 7b a3 cc 3c
       0.008587368 0.38950494 -0.012108286 0.024980297
000200 83 f8 89 3c 5a fd cf bc 90 b9 72 bc f8 12 86 3c
       0.016842132 -0.025389362 -0.014814749 0.016366467
000210 d9 a5 03 bd 26 8e 2d 3c c3 92 62 3d db f9 4a bd
       -0.032140587 0.010592973 0.055315744 -0.049554687
000220 8b e1 66 3b 44 29 9d 3b b9 44 dc bd 42 5d 47 ba
       0.003522965 0.004796179 -0.10755295 -0.0007605144
000230 4e b4 76 bd 63 55 a4 bd e7 1e 2e 3b 1d 54 f7 3d
       -0.060230546 -0.08024099 0.0026568712 0.1207659
000240 af 08 0d 3e 20 ac cd bc 87 14 c7 bc 96 69 29 3e
       0.13772844 -0.02510649 -0.02430178 0.16544184
000250 e9 91 07 3e 42 09 af 3d 0e 91 5e bc 8e dc ae bc
       0.13239254 0.08546688 -0.013584388 -0.021345403
000260 2e b0 f0 3c 83 a5 fa 3d 51 82 36 3b a4 52 f1 3a
       0.029380884 0.122386 0.002784867 0.001841147
000270 45 4a b2 bc 53 8f 75 3b e2 7e 2c bd e2 b9 c2 3d
       -0.02176393 0.003746946 -0.042113192 0.095081106
000280 86 70 4e bd 08 f4 e2 3d 28 a2 2b bb b6 9a c0 bc
       -0.05040028 0.110817015 -0.0026189182 -0.023511272
000290 fc a1 9f 3e a7 db 92 bd fd e6 11 3c 8a f0 01 bc
       0.31178272 -0.071708016 0.00890517 -0.007930884
0002a0 eb 48 49 3c 19 12 77 3c 85 2c ed ba 6d 44 40 3e
       0.012285451 0.015079998 -0.0018094933 0.18776102
0002b0 10 9c 95 bb 56 12 c4 3b 4b 0e c8 bc 59 40 d4 3c
       -0.0045657232 0.005983631 -0.024420878 0.02590959
0002c0 5a d7 ab bb b4 b6 e5 3a 74 a0 fd bd f0 19 23 b9
       -0.0052441778 0.0017525763 -0.1238412 -0.00015554554
0002d0 0a 22 dc 3a 15 1a f5 3d 3a 1f 43 3c 57 a7 6d bc
       0.0016794812 0.119678654 0.0119093 -0.014505229
0002e0 d6 4d 2e 3c 9b 93 e8 3e e4 4e df bc 9a 55 34 bd
       0.010638675 0.45425114 -0.027259298 -0.04402695
0002f0 68 fc fc ba e1 35 0e 3f 30 7b 80 bc 0e 4e 03 bd
       -0.0019301297 0.5555096 -0.01568374 -0.03205686
000300 93 f7 a9 3c 22 97 e4 b9 0a e2 9f 3c d9 55 b8 bb
       0.020747935 -0.00043600152 0.019516964 -0.005625468
000310 68 49 7b 3c b6 5d 56 3d ba 70 6d 3d 56 42 06 be
       0.015337326 0.052335463 0.057968833 -0.13111243
000320 8b e1 21 bd f0 59 96 3b f1 fd d4 bd 9e 54 e4 bd
       -0.039521735 0.004588358 -0.10399998 -0.11148952
000330 45 61 2e 3d 5c a1 2d be e4 f6 2f bb c6 dd a9 3d
       0.042573232 -0.16956085 -0.002685004 0.08294253
000340 03 c4 80 3d a6 db ac bc dd de b4 bc c7 22 8c 3d
       0.06287386 -0.02110083 -0.022078926 0.06842571
000350 63 2e 63 3d 01 29 37 3c 2a c9 bd bd 92 4d f2 3b
       0.05546416 0.01117921 -0.092668846 0.007394501
000360 94 d9 b9 bd e9 e0 41 3e 61 cf 46 3c fa 2d 10 ba
       -0.09074703 0.18933453 0.012134404 -0.0005500015
000370 7f 06 d9 3b a8 0a 52 bc 3e 04 0a bd 00 8d c8 3d
       0.006623089 -0.012819923 -0.033695452 0.097925186
000380 a2 47 d2 3c bc b3 57 bd 59 ea 8e bb 2b 7f c7 3c
       0.025668923 -0.052661642 -0.0043614325 0.02435263
000390 0d 81 64 3e 8a 7b c1 3c c9 ba d1 bb e2 97 fd 39
       0.22314854 0.023618478 -0.0064004404 0.00048369082
0003a0 df e1 d3 b9 90 57 fd bc e0 0e b0 3a eb 28 e4 3d
       -0.00040413343 -0.030925542 0.0013432167 0.11140617
0003b0 82 50 89 bd 60 fa 16 3a 53 46 1a bd eb 9f 34 bc
       -0.06704809 0.00057593547 -0.037664723 -0.011024456
0003c0 16 0c c1 bb 46 9d 7d bb e9 bc d7 3d 09 0d fb bc
       -0.0058913333 -0.0038698479 0.10534079 -0.030645864
0003d0 9a 0e 26 bd c9 e8 c0 3d 86 9f c2 3b 2f 4e d5 39
       -0.04054127 0.094194 0.005939427 0.00040684777
0003e0 ad 4a 0d 3c 2d 5e dd 3e ab b5 cb 3a af 68 6a 3d
       0.008623761 0.43235913 0.0015541812 0.05722874
0003f0 e0 08 db 3a f9 5e f2 3e e7 70 8a 3c 80 58 57 3c
       0.0016711019 0.47338083 0.01689954 0.013143659

body.4.bias f4 [4]
000000 43 6c 8f 3e 81 52 55 3d df 6c 43 bd fe 6d 07 be
       0.28012285 0.052080635 -0.04771125 -0.13225552

body.0.weight f4 [64, 5]
000000 b8 59 f5 3e 92 20 83 be 44 87 3d 40 5a 03 3b be
       0.47920012 -0.25610787 2.961381 -0.18262997
000010 f7 d1 42 3d fd 84 bc bd 82 b7 62 be 19 78 1f 40
       0.04756352 -0.09205053 -0.22140315 2.4917052
000020 4f a4 04 bd 5f 2e ce 3e 9c 2f d0 be f4 c1 b2 3e
       -0.03238326 0.40269753 -0.40661323 0.349136
000030 72 08 c4 3e 50 73 b4 bd 64 b0 86 bd 2e 79 76 3e
       0.38287693 -0.088110566 -0.065766126 0.24069664
000040 3f b3 1e 3f 8a 16 07 40 94 ae af bd 72 b0 aa 3e
       0.6199226 2.1107507 -0.0857822 0.33337742
000050 10 a2 82 3e cc 56 1d be ec b1 ad 3e 39 9a 7e be
       0.2551427 -0.15365142 0.33924806 -0.24863519
000060 4a fa 97 be 26 84 e5 3c 7f e4 91 3e 28 a9 c3 bf
       -0.29683143 0.028017115 0.2849464 -1.5285997
000070 a8 b8 ce 3e a4 71 43 3e 44 65 a6 3e 02 7e 9e 3d
       0.40375257 0.19086319 0.32499135 0.07738878
000080 59 48 b8 3e 37 14 31 be 12 b8 b6 3d 34 b2 df 3e
       0.35992697 -0.17292868 0.089218274 0.43690646
000090 aa d9 81 be ee 4e d7 3f 28 83 e2 bd 5c 10 85 be
       -0.25361377 1.6820962 -0.11060172 -0.25989044
0000a0 c7 f7 33 3f 6c 42 2f 3a 5a ec 10 3f 4c ae 0a be
       0.70299953 0.0006685618 0.56610644 -0.13543051
0000b0 e8 38 d7 bd 2a 0f aa 3e 62 17 96 be d0 86 86 be
       -0.10508901 0.33214694 -0.29314715 -0.2627473
0000c0 e8 34 2b be 76 8d c0 be cc c4 8d 3f ed 5e 9c 3f
       -0.16719401 -0.37607926 1.1075683 1.2216469
0000d0 fe 7b 83 be 25 12 56 3c 1b 56 a3 bc fe 81 24 3c
       -0.25680536 0.013065849 -0.01993852 0.010040758
0000e0 ac 86 93 3e 80 09 75 3e 74 9c c6 be d4 5a fc 3c
       0.28813684 0.23929405 -0.3879124 0.030805029
0000f0 21 60 28 3d 82 f1 d1 3e 64 a3 33 40 d2 31 19 be
       0.0411073 0.41004568 2.8068476 -0.14960411
000100 39 e5 6a be af b1 87 3e 5c 4b 9b bd ee ff 0c c0
       -0.22939004 0.2650275 -0.07582733 -2.2031207
000110 9e 96 d3 3e 63 3e da be 22 04 0f 3c 1b b0 05 3f
       0.4132585 -0.42625722 0.008729013 0.5222184
000120 70 8d d5 3f 16 9b 4f 3c ef e3 ad be 73 9c d6 be
       1.6683788 0.012671253 -0.33962962 -0.41916236
000130 78 21 b4 3d 7c e0 1d be fc d1 2a be 22 09 a5 be
       0.08795446 -0.15417665 -0.16681665 -0.3223353
000140 64 34 06 3e 8e 8b ca 3e 10 3d c0 bd 02 c9 91 be
       0.13105923 0.39559597 -0.09386647 -0.2847367
000150 e3 7f d8 be 8b 8b 0c 3e 40 a2 ac 3e fb 9d 17 40
       -0.4228507 0.13725106 0.33717537 2.3690174
000160 36 19 2d be 16 92 6b 3e 7c 69 a4 bd 24 da 04 3f
       -0.16904148 0.23004946 -0.08027932 0.51895356
000170 23 af 04 40 d5 71 25 be b8 d8 51 be d5 f6 54 be
       2.0731895 -0.16156705 -0.20492828 -0.20797284
000180 4a 76 db 3e 44 de b0 3e 9d 75 6a be 63 6e cb be
       0.42863685 0.34544575 -0.22896428 -0.39732656
000190 a2 7d e0 3f 0c 29 45 3f 92 36 90 bf 9c d9 1d bc
       1.753834 0.7701576 -1.1266654 -0.009634402
0001a0 b8 a9 f8 3e a6 cd 53 be 9f cc fb 3e 5d 8d 0c 40
       0.48566985 -0.20683917 0.4917955 2.1961281
0001b0 fd 79 07 be 82 b3 d6 3e 94 70 19 3e 48 a5 6c bd
       -0.13230129 0.4193383 0.14984351 -0.057774812
0001c0 b4 fb bc bd a4 2c 0d be ce 5a 52 be d0 59 0e 3d
       -0.09227696 -0.1378656 -0.20542452 0.03475362
0001d0 dd ac ac be 70 f1 36 bd b6 17 54 be 4a fa 02 be
       -0.33725634 -0.044663846 -0.2071217 -0.1279079
0001e0 89 43 49 be c9 b7 83 ba b4 6c 1e 40 f8 55 50 bd
       -0.19654669 -0.0010049279 2.4753847 -0.050863236
0001f0 17 f3 99 3e 34 77 b2 3f 94 04 bb 3f e4 de cd bf
       0.30068275 1.3942628 1.4610772 -1.6083646
000200 1c 49 f6 3c bb 0c 1b 3f 78 45 0a 3e 68 78 bc 3d
       0.030064158 0.605663 0.13503063 0.09202653
000210 e6 57 df 3f 96 c9 3c be 27 86 8c 3e c6 fa 11 3f
       1.74487 -0.18436274 0.274461 0.57023275
000220 81 3b 1d 3f 52 81 cb 3f b9 ab 31 be 14 63 3d be
       0.6141892 1.589884 -0.17350663 -0.18494827
000230 8a e3 5e 3e 4a 97 1d 3f e5 12 c5 bf 68 37 02 bd
       0.21766487 0.61558974 -1.5396391 -0.03179112
000240 7a 8d d8 3d 70 b7 98 3f 19 33 28 3f 0d 8b d7 bf
       0.105738595 1.1930981 0.6570297 -1.683931
000250 fe 6d 1b 3d fb 1b 30 3f a4 9a d6 3f 52 8b 22 3f
       0.037946694 0.68792695 1.6765943 0.63493836
000260 ed 2e 53 bf 20 f2 8f bd 2a e4 fd 3e 78 21 9e be
       -0.8249348 -0.070286036 0.49588138 -0.3088491
000270 0f 52 a9 3c a0 8a e1 be 4c ce 5f 3e 2c 89 ec 3b
       0.020669011 -0.44051075 0.2185604 0.0072185006
000280 f0 9f 8a bd c4 96 a4 3e 80 f9 dc 3e 50 59 8a be
       -0.06768787 0.32146275 0.43159103 -0.27021265
000290 64 38 ce be 2c e2 5f 3e 8e a6 8f 3e f0 37 c3 be
       -0.40277398 0.21863621 0.2805676 -0.38128614
0002a0 c2 b8 99 be c5 45 4c 3d ba f3 cb be 28 4a 17 3d
       -0.30023772 0.049871225 -0.39834386 0.036935955
0002b0 3e 66 d5 be 00 30 97 be bd 75 b4 be 32 cc af bd
       -0.41679567 -0.2952881 -0.35246077 -0.08583869
0002c0 a8 7b 55 be be bb 38 40 3a e7 38 bd 6a e9 9b 3e
       -0.20847952 2.8864589 -0.04514239 0.30451518
0002d0 c6 dc db be 1a 5e 40 be b7 c1 c4 be fe 0e d0 be
       -0.42941874 -0.18785897 -0.38429043 -0.40636438
0002e0 8a b7 9b be 84 22 c7 bd 90 ec 57 3e a0 e7 7e 3e
       -0.30413467 -0.0972338 0.21086335 0.24893045
0002f0 88 e5 87 bd c6 26 7f be 14 da ff 3e b9 1b 61 3e
       -0.066355765 -0.24917135 0.49971068 0.21983232
000300 59 04 2d be 0e 08 cf bd 3f 5e 17 bd 02 84 24 3e
       -0.1689619 -0.10108958 -0.036955114 0.16065982
000310 76 0a b9 3e 97 c4 16 40 00 fd d4 3e 7a 1a 62 be
       0.36140794 2.355749 0.41599274 -0.22080413
000320 de bf 20 3f 1f 47 b8 3d 4a 97 6e 3f f2 0c 24 bd
       0.62792766 0.0899794 0.931996 -0.040051408
000330 67 de 7e be 30 0e 05 3e 90 7d 4c 3e e8 f0 1f 3e
       -0.24889527 0.12993693 0.19969773 0.15619242
000340 c0 5a 9c be 64 a4 93 bd 20 c7 86 be 7e 06 0f bf
       -0.30537987 -0.072090894 -0.26323795 -0.5586928
000350 9d 14 1a 40 78 27 1d 3e bb f0 93 be c4 5e ff bd
       2.4075081 0.15347087 -0.288946 -0.12469247
000360 f4 29 43 3e c8 22 3f be 00 4b a6 be 8c 90 cb bd
       0.19058973 -0.18665612 -0.32479095 -0.099396795
000370 19 f3 40 3f 9f 56 18 3f c5 0a 58 bf ec 0a 3a be
       0.7537094 0.59507173 -0.84391433 -0.18168229
000380 3f 05 9d 3c 6e ed c6 3e e7 b5 a8 bc 42 35 d4 3f
       0.01916754 0.3885302 -0.02059455 1.6578753
000390 ab 37 31 3d 1a 56 88 be 3e 94 07 3f 23 c6 01 be
       0.04326598 -0.2662819 0.52960575 -0.1267324
0003a0 83 e1 ef 3f c2 c9 35 be 51 38 46 3e 6b 4a 77 be
       1.8740696 -0.17752746 0.1935742 -0.24149482
0003b0 70 9b f5 3e c3 7e a6 bd 35 fa 99 be 72 3f e3 3e
       0.47970152 -0.08129647 -0.30073705 0.44384342
0003c0 da 30 58 3c 94 fe ee 3e 8a 78 30 40 09 07 45 bd
       0.013195241 0.46678603 2.7573571 -0.048102412
0003d0 51 b5 1b 3f 00 b1 9e 3f ee db b0 3f c0 e5 d7 bf
       0.6082354 1.2397766 1.3817117 -1.6866989
0003e0 3f b6 da bc 6c 3f 00 3f 0e 5b 02 3f ce a0 b4 3b
       -0.02669823 0.50096774 0.5092019 0.0055123335
0003f0 1a d5 a4 3e cd 57 0d be 01 64 8a bd fe f9 9b 3f
       0.32193834 -0.13803025 -0.067573555 1.2185667

body.0.bias f4 [64]
000000 f1 24 39 3f 70 76 11 3f ba 4e c0 be 48 68 81 3f
       0.72321993 0.56821346 -0.37560064 1.0109949
000010 e0 23 a0 be 9e 80 df be d9 0d 6a 3f d3 9e 62 3f
       -0.3127737 -0.43652815 0.9142738 0.88523597
000020 7b 33 55 3f 8a 63 3c be 0d b1 f4 3e ec e1 e5 bd
       0.8328168 -0.18397346 0.4779133 -0.11224732
000030 d5 fc 59 3f 52 2f 02 bf 8d b9 0a 3f ca ac c1 3e
       0.85151416 -0.50853455 0.5418938 0.3782714
000040 c0 ea 20 bd 05 ba 31 3f 70 88 64 3f 3c 3a b1 bd
       -0.039286375 0.6942447 0.8927069 -0.086536855
000050 ea 77 ed 3e 9b 7f 68 3f 90 4b 4e 3e e0 a9 dd 3d
       0.4638055 0.9081971 0.20146012 0.10823417
000060 c9 99 86 3f fe 81 00 3e 6e d4 82 3f ba 24 54 3f
       1.0515682 0.12549588 1.0221078 0.8286854
000070 89 42 96 be 87 c6 d5 3d 5e 01 59 3f ae 2a 63 be
       -0.29347637 0.10438257 0.8476771 -0.2218425
000080 97 80 92 be a4 75 d7 be f0 03 61 3d 2a a6 7e 3f
       -0.2861373 -0.4208194 0.054935396 0.99472296
000090 f4 63 1f 3e 20 7a 37 3d b0 ba 16 3f 9d 62 94 3e
       0.15565473 0.0447942 0.5887861 0.28981486
0000a0 06 23 54 3f 38 17 9f 3e 59 42 31 3f 98 09 8e bd
       0.8286594 0.31072402 0.69241863 -0.069354236
0000b0 dc ae 29 3e 37 d3 42 3f a2 f0 61 3f 61 f1 d2 3d
       0.1657061 0.7610354 0.882578 0.102999456
0000c0 d0 94 8b 3f 76 29 44 3f 3f 77 2f 3f 93 af 63 3f
       1.0904789 0.76625764 0.6854133 0.8893978
0000d0 f2 a6 c6 3e dc dc b8 3e db 22 1a bd 8a 0e 30 3e
       0.38799244 0.36106002 -0.037630897 0.17193046
0000e0 22 6a 49 3f c2 9f ca 3e 45 ce d7 3e f7 64 30 bc
       0.7867757 0.3957501 0.4214956 -0.010766259
0000f0 1d 61 c9 3c 20 14 c0 be c0 f6 28 be a5 2d 90 3d
       0.02458244 -0.37515354 -0.16500378 0.07039956

body.2.weight f4 [64, 64]
000000 14 0f 9f bc 7c b3 bb bd 40 59 63 3b 43 13 00 3c
       -0.01941637 -0.09165093 0.0034690648 0.007817092
000010 26 d1 a6 bd 80 c9 85 be 61 f3 5d 3e d3 df b6 bd
       -0.08145361 -0.26130295 0.21674873 -0.0892941
000020 0c 76 e6 3d 30 be bc bc 09 87 a5 bd 28 39 c4 3c
       0.112529844 -0.023039907 -0.080823965 0.023953035
000030 65 92 a2 3c dd 0b 0b be ab 9d 33 be f8 61 88 bc
       0.019845197 -0.13578744 -0.17540614 -0.016648278
000040 7a df 85 3d cb ab 48 3d 66 79 be 3d 90 5f c4 bc
       0.065367654 0.04899196 0.09300499 -0.023971349
000050 56 9b 7a 3d 4f ba 04 3e a8 0d a3 bd 30 44 cd bd
       0.061183296 0.12961696 -0.07961589 -0.10022771
000060 5b 9e 63 3d f7 66 ea bd 49 06 09 3e b2 f2 eb bd
       0.05557094 -0.1144542 0.13381304 -0.115209
000070 bb 18 f4 bd ab f8 f9 bd d8 ae ad bd 42 1a 7e bd
       -0.119187795 -0.12205633 -0.084806144 -0.06203676
000080 04 19 13 bd 68 f0 f3 bd 0c 9c 7c 3d fa 30 6a be
       -0.03591253 -0.11911088 0.061672255 -0.22870246
000090 3c 3d db 3d 90 7b 47 3c ab 7c 26 3e e5 8e 47 be
       0.10705039 0.012175456 0.16258495 -0.19488104
0000a0 08 0d 27 3d e0 3a e7 3c 3c fe 0a be 62 e2 e5 bd
       0.040783912 0.028226316 -0.13573545 -0.1122482
0000b0 b5 2e 1c bc 4d 06 59 3b 30 ba ac 3c 85 0b 1c bd
       -0.00953262 0.0033115328 0.021084875 -0.038096923
0000c0 23 af 59 be bf ac 28 3c 31 0b 2c 3e 05 88 23 be
       -0.21258216 0.010295092 0.16801144 -0.15969856
0000d0 59 4d 86 bc 60 58 f1 3d ad fc 5b bc ee 5f e5 bd
       -0.016394304 0.11784434 -0.013426942 -0.11199938
0000e0 bf db 12 3c ac 84 91 3d 03 16 28 bd 01 c7 c4 3d
       0.008963524 0.07105383 -0.041036617 0.096082695
0000f0 f8 26 41 3d 70 cc c2 3d 40 63 40 bd f2 7f a2 bc
       0.047156304 0.095116496 -0.046969652 -0.0198364
000100 0c 63 b1 3c 9f 8d b3 bd 40 b6 78 bc 99 17 aa bc
       0.021653675 -0.087672465 -0.015180171 -0.020763205
000110 fc e3 c0 3d eb f6 26 3e 05 f4 70 bb 32 57 e7 3d
       0.094184846 0.16305129 -0.003676654 0.11295928
000120 33 d7 00 3d 90 88 e5 3c 9e 38 f9 3e c8 cc e4 3c
       0.03145523 0.02801922 0.48676008 0.027929679
000130 53 7e 31 be 49 b9 3f 3e 32 2d c2 3e c0 3d 4a 3b
       -0.17333345 0.18723024 0.37925106 0.003085956
000140 2e cd bf bd 99 23 0e 3e 94 6b 60 be a4 24 78 3d
       -0.09365307 0.13880767 -0.21916038 0.06058182
000150 0e 8d 52 3e b1 5c 18 be 46 72 84 3d 88 3c e0 3c
       0.2056162 -0.14879109 0.064671084 0.027372614
000160 eb 88 61 bd e8 28 76 3e 38 68 92 3c 50 e8 37 be
       -0.055062216 0.24039042 0.017871961 -0.17959714
000170 1b 07 cc bc d8 14 6c 3e ea c3 71 3e 05 8d c0 bd
       -0.024905732 0.23054826 0.23609892 -0.09401897
000180 78 a4 61 3d 64 37 61 bd c8 3d c2 3d be 2e 9a bb
       0.05508849 -0.054984465 0.0948444 -0.004705279
000190 60 65 60 bd 92 18 e4 bd f2 d8 d0 bc 60 ab 77 3d
       -0.05478418 -0.11137499 -0.025494073 0.06046617
0001a0 e6 5d b9 3e c0 84 d6 bd 3b 7d 6d 3e ca c3 d0 3d
       0.3620445 -0.10474539 0.23192303 0.10193594
0001b0 63 10 28 3e 58 04 7e 3e fa 3a 89 bc 11 53 8d be
       0.16412501 0.24806345 -0.016751755 -0.27602437
0001c0 ba 06 c0 bd fe 96 43 3e 47 c3 fb bc dd 5a 39 3e
       -0.09376283 0.19100568 -0.030732764 0.18101068
0001d0 42 8f 97 3d 6d f5 ed bc 51 18 1b 3e 09 d2 75 be
       0.07400371 -0.029047692 0.15145995 -0.24005903
0001e0 ce 0c 96 be 50 a2 0e 3c 70 8d 82 3e 9c 50 ea 3d
       -0.29306644 0.0087056905 0.25498533 0.11441156
0001f0 d4 59 9a 3e a8 0f c8 3c 7c ee a0 bd 3e 84 9f 3e
       0.30146658 0.024421528 -0.07857987 0.3115558
000200 e7 72 7c bd 25 c8 31 bd a8 c5 f3 bc 7a 09 d4 3d
       -0.061633017 -0.043403763 -0.029757336 0.1035337
000210 80 e0 e2 3b f5 b7 72 be ae e8 ae 3d 50 8d be bd
       0.006923735 -0.23702987 0.08540474 -0.09304297
000220 24 7f 26 bc c8 d8 d1 bd 47 5b 08 bd 86 3a d5 3d
       -0.010162149 -0.10246426 -0.033290174 0.10411553
000230 60 97 9b bd 18 be 81 bd 42 17 db 3c dc f9 c7 3d
       -0.07597232 -0.06335086 0.026744489 0.09764454
000240 74 16 cb 3d 85 d2 28 3e 87 8e 2b bd 8e 3d a2 3d
       0.09916392 0.16486557 -0.04188397 0.07921897
000250 42 26 8b bb b3 36 c6 3d 08 64 2f bd 66 e3 f8 bd
       -0.004246504 0.09678402 -0.042820007 -0.12152748
000260 47 ed ff bc 67 8b 18 bd a9 4b e8 3d 51 f9 9a 3d
       -0.031241072 -0.03724232 0.11342556 0.075670846
000270 20 af 15 3c 16 99 57 3d 56 51 c9 bd df c3 f8 bd
       0.009135991 0.05263623 -0.09829967 -0.121467344
000280 f6 01 97 3d e5 80 cd bd 94 43 01 3d 64 64 38 be
       0.07373421 -0.1003435 0.03155859 -0.18007046
000290 40 2a a7 3d 68 83 b2 bc 3b 7a 74 3e f7 0b f9 bc
       0.081623554 -0.021791175 0.23874752 -0.030401213
0002a0 55 f9 fa bd 30 09 b1 bc 71 c8 51 3d e8 8a d6 bc
       -0.122545876 -0.021610826 0.051216546 -0.026189283
0002b0 bf 75 18 be e9 58 1e be 6a e5 12 3e c0 22 31 be
       -0.14888667 -0.15463604 0.14345327 -0.17298412
0002c0 1f 8c df be 34 24 6e 3d db 25 3d 3e 1a 86 1b bd
       -0.4366159 0.058139995 0.18471472 -0.037969686
0002d0 37 61 8f 3a 0d 94 a7 3d 65 a7 1b bd 12 41 ef bd
       0.0010939006 0.08182535 -0.038001437 -0.11682333
0002e0 bb 8a 6b bd 18 ad 7d bd ec e4 0e 3e ff 67 00 3e
       -0.05750535 -0.061932653 0.13954514 0.12539671
0002f0 d4 99 87 bd 50 18 45 3d b8 d0 d3 bd a4 1d ea bd
       -0.06621137 0.04811889 -0.10342544 -0.11431435
000300 21 66 7b be e9 a7 80 3a a0 67 d7 3d 85 c6 76 3d
       -0.24550678 0.0009815666 0.10517812 0.060247917
000310 68 ef 64 bd 76 97 8a be 52 d1 af 3d 30 fb 1c bd
       -0.055892378 -0.2706868 0.085848466 -0.03832549
000320 de be 96 bd 96 e5 fd 3d 01 39 93 3d d1 e3 44 bc
       -0.07360624 0.12397306 0.07188607 -0.012017206
000330 79 16 15 be ff 45 ae bc 7c 16 87 bd ea 7e f8 bd
       -0.14559354 -0.021273611 -0.065960854 -0.12133582
000340 94 0c cb bd ad 52 e0 3d 1b 39 20 bd f0 6d a6 3d
       -0.099145085 0.10953269 -0.03911696 0.08126438
000350 59 67 7f 3d d9 51 be 3d 7c 8e f2 bd f6 86 b2 bd
       0.06235442 0.09292955 -0.11843583 -0.08717148
000360 ca f9 96 bd 97 47 22 3d 03 97 4b 3e 5c fa 4f bd
       -0.07371862 0.039619055 0.19881825 -0.05077587
000370 2f 8f 34 3d 59 f9 77 3d 85 0a 05 3e ac 73 50 bd
       0.044081863 0.06054053 0.12992294 -0.050891563
000380 b8 28 82 bd e3 5a dc bd 00 0e c6 3a 75 67 33 be
       -0.06355423 -0.10759523 0.0015110373 -0.17519934
000390 06 5a 91 3d 90 ac 1c 3c 6a 6a 79 3d 7e 9d fc 3b
       0.07097249 0.0095626265 0.0608925 0.007709204
0003a0 c4 81 21 be 04 b1 aa 3d 82 c0 93 3c 78 43 db bc
       -0.15772158 0.08334544 0.01803613 -0.02676557
0003b0 5a 5e 16 bd 49 cb e8 bd 45 b4 64 bd 91 40 2f bb
       -0.036711074 -0.113668986 -0.05583598 -0.0026741365
0003c0 91 ad d2 be 6c e2 aa 3d a4 08 58 3e 4a 03 ef bd
       -0.41148046 0.08343968 0.21097046 -0.11670549
0003d0 e0 5b ea bd 3d 68 4c 3d c9 cb 4b 3d 8f a2 9d bd
       -0.11443305 0.049904097 0.04975489 -0.07697021
0003e0 90 1e 59 bc bc 1b 5e bd 13 6c 07 3e 58 88 aa bd
       -0.013251916 -0.05422567 0.13224821 -0.08326787
0003f0 29 7a 7f bd 32 33 fe 3d 08 31 db bd 3e e4 56 be
       -0.06237236 0.124121085 -0.10702711 -0.20985505

body.2.bias f4 [64]
000000 81 74 f2 3d cd 87 94 3d 61 b2 c2 3d d6 ff 42 3e
       0.118386276 0.072524644 0.09506679 0.19042906
000010 7b e0 e3 bd f4 eb 11 3f 8d a0 34 3f a7 75 16 3f
       -0.111268006 0.5700066 0.7055748 0.58773273
000020 c4 a0 63 bd 7d 78 e1 3d 92 28 96 bd b8 3c 14 39
       -0.05557324 0.110093094 -0.07331957 0.00014137
000030 3b df 09 3f ce af ea 3d 1e 5c 95 3e 78 f1 3e 3f
       0.5385625 0.11459313 0.29171842 0.745872
000040 1e bf 0b 3e 28 8b 03 3e e5 4b ea 3d 49 f3 82 3e
       0.13647124 0.12846053 0.11440257 0.25576237
000050 0c 0f 15 3f f8 7e 03 3e b3 a9 a8 3d ad a2 82 3d
       0.58226085 0.12841403 0.082354926 0.06378684
000060 5b 4f f8 bd 47 11 4c 3e f0 08 a1 bd 78 82 e3 bd
       -0.12124511 0.19928466 -0.07863033 -0.11108869
000070 83 23 10 bc 51 71 05 3f 8f 5c 93 3e 31 21 24 3d
       -0.008797529 0.5212603 0.28781554 0.040070716
000080 51 c3 a0 bd 2d 83 d8 3d c0 5b 9a 3e 36 e2 40 3e
       -0.07849754 0.10571895 0.30148125 0.18836293
000090 aa 52 d7 bd 19 e6 34 3c 62 af 16 3f be d2 3a 3f
       -0.10513814 0.011041188 0.5886136 0.7297782
0000a0 cd 66 b4 3d cc b1 88 3e c8 57 03 3e dc f8 ac 3e
       0.0880867 0.26698148 0.12826455 0.33783615
0000b0 fe 9f 02 3f 7b 24 20 3f bf c1 f5 ba c1 c1 b1 bd
       0.5102538 0.62555665 -0.0018749757 -0.08679534
0000c0 c0 75 91 bc b5 f5 3a 3d 4b 15 9e 3d 13 2b 7b 3d
       -0.017756343 0.04564448 0.07718905 0.061320376
0000d0 17 cc 1d 3f e3 e1 09 3e 74 34 7b bd 2d 36 b7 bb
       0.6163954 0.13465075 -0.06132932 -0.005591175
0000e0 e8 ff ba 3c 80 ff f3 bb 06 9e ab 3c a3 b7 72 bd
       0.022827104 -0.0074462295 0.020949375 -0.05925716
0000f0 3d c0 9e 3d 7e fc 22 3e e5 da 4c 3e 6f f4 2a 3e
       0.0775151 0.1591663 0.20005377 0.16694807

body.4.weight f4 [1, 64]
000000 ca a6 09 be 05 f5 7d be c2 f1 69 bd 88 e8 c1 bd
       -0.13442531 -0.24800499 -0.057115324 -0.0946818
000010 6a 84 65 bd 20 0c b4 3e f3 7c b5 3e 96 da e6 3e
       -0.056034483 0.351655 0.3544689 0.45088643
000020 76 1f ac bd 12 b4 4d 3e 00 fb 1a 3c 0a 6c 64 3d
       -0.08404438 0.20088223 0.009459257 0.055767097
000030 dc 5a ab 3e dc c5 f3 3d 0d 2e 81 3e d2 8c eb 3e
       0.33467758 0.11902973 0.25230446 0.46005875
000040 f9 91 9c be 29 f7 e2 bd 37 8e 26 3d ef fa d1 be
       -0.30580118 -0.11082298 0.04066297 -0.4101176
000050 7d 1c ba 3e af 43 16 bf 8f 89 8b 3d eb 05 ac 3e
       0.3634986 -0.58697027 0.068133466 0.33598265
000060 1a a4 9c 3d 89 50 b0 be c0 f2 31 3c 58 94 61 bd
       0.076484874 -0.34436443 0.010861099 -0.055073112
000070 32 26 54 be e5 3b a0 3e b5 7f af 3e 3b c1 d7 be
       -0.20717695 0.31295696 0.3427712 -0.4213961
000080 4a cf 70 bd ae 10 33 bd d9 01 f1 3e a8 4b 14 bf
       -0.058791436 -0.04371708 0.47071722 -0.5792794
000090 e5 ce d5 3c 76 74 07 bd c0 9a ca 3e 66 b7 f7 3e
       0.026099632 -0.03307005 0.3957119 0.4838211
0000a0 57 3a e0 3b c1 7c 8d 3e 30 16 ed be 6c 5d 00 bf
       0.006842892 0.27634242 -0.4630599 -0.5014255
0000b0 f8 5e 9e 3e b5 8a ab 3e a0 42 b6 bd 2a b6 a2 bd
       0.3093183 0.33504263 -0.088994265 -0.07944901
0000c0 06 50 bb 3d de 58 19 bc 7b 39 87 bb 80 0c 69 b9
       0.09146123 -0.0093595665 -0.0041267253 -0.00022225268
0000d0 54 62 c8 3e 8c 99 b2 bd d8 6c 06 3d 7a 4e c9 bc
       0.39137518 -0.08720693 0.032818645 -0.024573553
0000e0 3f e5 b1 be e3 0e 0f bd 9c 27 a6 3e 83 33 11 bd
       -0.34745213 -0.034926306 0.32452095 -0.035449516
0000f0 67 30 a1 bd 18 92 e7 be 1e 62 44 bd d3 a2 e2 be
       -0.0787056 -0.45228648 -0.047945134 -0.4426485
