ppo_model2.pt (torch, 42485 bytes, 11 tensors)

net.0.weight f4 [64, 5]
0	0x3e294255	0.1652921
1	0x393fb49e	0.00018282465
2	0x3eb3788d	0.3505291
3	0xbddd9c19	-0.10820789
4	0x3edde669	0.43339851
5	0xbdbea7cc	-0.093093485
6	0xbe03535e	-0.12824771
7	0xbe7bab6f	-0.24577115
8	0xbeaa82ce	-0.3330292
9	0xbe6467c4	-0.22305208
10	0xbe9363f2	-0.2878719
11	0x3e9013ff	0.28140256
12	0x3d9c7488	0.07639414
13	0x3e7bc5fa	0.24587241
14	0x3c8aed6d	0.016958917
15	0xbe8a630e	-0.27028698
16	0x3e9b8354	0.30373633
17	0xbe07441a	-0.13209572
18	0xbe77863e	-0.24172303
19	0x3ed17d32	0.4091583
20	0x3d57a74b	0.052649777
21	0x3da2054d	0.07911167
22	0x3e1dc997	0.15408932
23	0xbcee4c41	-0.029089095
24	0x3edd08b2	0.43170696
25	0xbe322c4e	-0.17399713
26	0x3e26732c	0.16254872
27	0xbddd2297	-0.10797613
28	0x3e87bdc6	0.26511973
29	0x3ee6dcbc	0.45090282
30	0x3db9e504	0.090768844
31	0x3ec089f4	0.3760525
32	0x3d920f28	0.07131797
33	0x3e8be2ab	0.2732137
34	0x3e63b758	0.22237909
35	0x3ecd85e0	0.401412
36	0x3e9b6ad3	0.30354938
37	0xbe9827f8	-0.29717994
38	0x3d9fe735	0.07807771
39	0x3b53e906	0.0032334938
40	0x3e6c4ac8	0.23075402
41	0xbe3651f6	-0.17804703
42	0x3e8fe049	0.28100803
43	0xbebb1d9f	-0.36546037
44	0x3e312750	0.17300153
45	0xbe80220f	-0.25025985
46	0xbdc0b300	-0.094091415
47	0xbde5819f	-0.11206364
48	0xbeb37547	-0.35050413
49	0x3e36c865	0.17849882
50	0x3e6b0207	0.22949992
51	0xbe337b3f	-0.17527483
52	0x3dc52fb8	0.09628242
53	0x3e1eac85	0.15495498
54	0xbe96a6c5	-0.2942411
55	0x3ecfb9fa	0.40571576
56	0x3ebde928	0.37091947
57	0x3e98bbf2	0.2983089
58	0xbbfb6472	-0.007671886
59	0xbeb30088	-0.34961343
60	0xbea09a1b	-0.31367573
61	0xbe37f3d1	-0.17964102
62	0x3ea4e016	0.32202214
63	0xbe84c2a4	-0.2592975
64	0x3eccd801	0.40008548
65	0xbe8ecf37	-0.27892467
66	0xbdaf51e8	-0.08560544
67	0xbe612bb9	-0.21989335
68	0xbe958342	-0.29201704
69	0xbe2a868c	-0.16652888
70	0xbe34baf3	-0.1764944
71	0xbde56af3	-0.112020396
72	0xbe3210a1	-0.17389156
73	0xbe071071	-0.13189866
74	0x3df26709	0.11836059
75	0xbe0a2439	-0.1349038
76	0x3e7dc163	0.24780802
77	0xbe90a99e	-0.28254408
78	0xbeaec46d	-0.34134236
79	0x3ed427af	0.41436526
80	0x3ee44a5b	0.4458798
81	0x3eb1b395	0.34707323
82	0x3ed5c073	0.4174839
83	0x3d1e8da0	0.038709283
84	0x3e869ff8	0.2629392
85	0xbecb6874	-0.3972813
86	0xbb2ff27e	-0.0026847417
87	0xbe9dffcb	-0.30859217
88	0xbdbbdd92	-0.091731206
89	0x3d8c568c	0.06852445
90	0xbce583fc	-0.028017037
91	0xbd2d9ec8	-0.042387754
92	0x3e88e870	0.26739836
93	0xbe5f98a5	-0.21835573
94	0x3e676db8	0.22600448
95	0x3d19c522	0.037541516
96	0x3d4dc248	0.05023411
97	0xbe4952cd	-0.19660492
98	0x3c5fd38b	0.013661276
99	0xbe002765	-0.12515028
100	0x3e9ef30a	0.310448
101	0xbe7eea6a	-0.2489411
102	0xbd899c04	-0.06719211
103	0xbec7a4e4	-0.3899299
104	0xbd9d3040	-0.076752186
105	0x3da6c212	0.08142485
106	0xbe8ddcd5	-0.27707544
107	0xbecbe653	-0.3982416
108	0xbd9f466e	-0.07777105
109	0x3c746395	0.01491632
110	0x3e810d53	0.25205478
111	0x3e7dc5c3	0.24782471
112	0xbec7e458	-0.390414
113	0xbe0f124e	-0.13971826
114	0x3e89e03f	0.269289
115	0xbe0f81be	-0.14014336
116	0xbcff7e5c	-0.031188183
117	0xbebba038	-0.36645675
118	0xbdc7b87b	-0.09751984
119	0x3ec978ac	0.39349878
120	0x3da9cc5e	0.08290933
121	0x3ea8816e	0.32911247
122	0x3ea8ea25	0.32991138
123	0x3e09ae80	0.13445473
124	0x3e966fc3	0.29382142
125	0x3e5ba2ab	0.21448772
126	0xbeaed82e	-0.34149307
127	0x3e925abe	0.28584856
128	0x3dcce710	0.10005009
129	0x3ea7f274	0.32802165
130	0x3d5d3f5f	0.054015514
131	0x3ebf1437	0.3732011
132	0xbea217d7	-0.31658813
133	0xbcb8cbc2	-0.022558097
134	0x3e8f44f7	0.27982304
135	0x3e0ebd1c	0.13939327
136	0xbd82c516	-0.063852474
137	0x3e4a5245	0.19757946
138	0x3e51bc29	0.20481934
139	0x3d135724	0.035971776
140	0xbd99f3b6	-0.07517187
141	0x3ef16053	0.47143802
142	0x3ed6475d	0.4185132
143	0x3e6ca0b4	0.23108178
144	0xbc417015	-0.011806508
145	0x3e29339c	0.16523594
146	0x3e957ae9	0.29195336
147	0xbea1b79e	-0.315854
148	0x3ea020b3	0.31274948
149	0x3d889ab0	0.06670129
150	0x3e0c6227	0.13709317
151	0x3e75ca56	0.24002966
152	0xbedd9336	-0.43276376
153	0x3dae1bfe	0.08501433
154	0xbe974be5	-0.2955009
155	0xbe2fd236	-0.17170033
156	0x3dbd6b4a	0.092489794
157	0x3e3f2c11	0.18669154
158	0xbe25a5c3	-0.16176514
159	0x3e6a5ab0	0.22886157
160	0xbec53caa	-0.38522846
161	0x3e929a24	0.28633225
162	0xbd982c59	-0.07430334
163	0x3ed1ff99	0.41015318
164	0xbe964651	-0.29350522
165	0xbec729f7	-0.38899204
166	0x3e8bfcc2	0.27341276
167	0xbe3d72c7	-0.18500815
168	0xbdee439b	-0.116339885
169	0x3df3aac2	0.11897804
170	0x3dd50d00	0.1040287
171	0x3e9bb6be	0.3041286
172	0x3e44e7cb	0.19229047
173	0xbda0d36e	-0.07852827
174	0xbeb7ada4	-0.35874665
175	0x3e09e366	0.13465652
176	0x3cab7dd4	0.020934023
177	0x3eb24376	0.34817094
178	0xbee3a99e	-0.44465345
179	0x3e8f824a	0.2802909
180	0x3ead7251	0.3387628
181	0xbe791683	-0.24324994
182	0xbd12873b	-0.035773497
183	0x3e907f41	0.28222087
184	0x3e1eb8bf	0.15500163
185	0xbea2d474	-0.31802714
186	0x3e6b225e	0.22962329
187	0x3e8c5dbd	0.27415267
188	0xbe1b7a3b	-0.15183346
189	0x3e236da2	0.1595979
190	0x3e287bce	0.16453478
191	0xbe98ec51	-0.29867795
192	0x3e362250	0.17786527
193	0x3eb40fe5	0.35168377
194	0xbe924e46	-0.28575343
195	0x3eb3bffc	0.3510741
196	0x3ecba692	0.3977552
197	0xbe5cb31b	-0.21552698
198	0x3ecde5c7	0.4021437
199	0xbe83669b	-0.2566422
200	0x3ee599c6	0.44843882
201	0x3e4d2728	0.20034468
202	0xbdd61243	-0.10452702
203	0xbd627c1e	-0.05529415
204	0x3e7bfdce	0.24608538
205	0xbd842cf8	-0.064538896
206	0xbdbecb3b	-0.09316107
207	0x3e371535	0.17879184
208	0x3ce46011	0.02787784
209	0x3ee9cea9	0.45665482
210	0xbd602764	-0.054725066
211	0x3eed50e6	0.46350783
212	0xbeb1a48d	-0.34695855
213	0xbe5ee073	-0.21765308
214	0x3e9fbb86	0.31197757
215	0xbed4ae32	-0.4153915
216	0x3ec5fe9c	0.38670814
217	0xbe2420c4	-0.16028124
218	0xbe4f46ed	-0.202419
219	0xbe17d3a8	-0.14826834
220	0x3edbc936	0.4292695
221	0x3e06fcd8	0.1318239
222	0xbde59938	-0.11210865
223	0xbdb46948	-0.08809143
224	0xbee0667e	-0.43828195
225	0x3edaeebd	0.42760268
226	0xbdea5cd0	-0.11443484
227	0xbe5218a1	-0.20517208
228	0x3ed9d861	0.42547897
229	0xbeac824f	-0.33693168
230	0x3e38c507	0.1804391
231	0x3e1136e2	0.14181092
232	0xbec81909	-0.390816
233	0xbeb3d3bd	-0.3512248
234	0x3e626a69	0.22110905
235	0xbeaa942c	-0.3331617
236	0xbe946089	-0.289799
237	0xbda1772a	-0.07884057
238	0x3e9cea71	0.30647615
239	0x3e19246c	0.149553
240	0x3eabe3e4	0.33572304
241	0x3eb86ca4	0.36020386
242	0xbe8ca4ce	-0.27469486
243	0xbe924916	-0.28571385
244	0xbebdff25	-0.37108722
245	0xbdfdd213	-0.12393584
246	0xbebca055	-0.36841074
247	0xbe6a99f4	-0.22910291
248	0x3ec8cc0f	0.39218184
249	0xbdd1b2cc	-0.10239181
250	0x3deedce8	0.11663228
251	0xbd0b7660	-0.034048438
252	0x3ec312ab	0.3810018
253	0x3dc2872e	0.0949844
254	0xbea436d6	-0.32073087
255	0xbe42aedd	-0.19012018

net.0.bias f4 [64]
0	0x3e35d43f	0.17756747
1	0xbeb4dae0	-0.35323238
2	0xbcfc2bec	-0.030782662
3	0xbe511366	-0.20417556
4	0x3f034857	0.51282257
5	0x3ed4c6a7	0.4155781
6	0xbc91ac8f	-0.017782478
7	0xbe99b779	-0.3002279
8	0x3e905b4b	0.2819465
9	0x3e8e278b	0.27764544
10	0x3e0e2ae7	0.13883553
11	0x3e86ed9b	0.26353154
12	0xbe78aeaf	-0.24285387
13	0x3e9a58de	0.30145925
14	0x3eec7733	0.46184692
15	0xbe8d4ab3	-0.27596053
16	0xbe713d77	-0.23558603
17	0xbe286bee	-0.16447422
18	0x3e6b6a81	0.22989847
19	0xbeaa644f	-0.33279654
20	0x3ec2dbec	0.38058412
21	0x3e694ecd	0.22783966
22	0xbe42dbd8	-0.19029176
23	0xbe9d4597	-0.30717155
24	0xbe368322	-0.1782346
25	0x3d04e0a6	0.032440804
26	0x3ec0f85a	0.37689477
27	0x3e55d123	0.2088056
28	0x3e436613	0.19081907
29	0xbee665f2	-0.44999653
30	0x3dbc3d72	0.09191407
31	0x3ec433f9	0.38320902
32	0xbe67e268	-0.22644961
33	0x3d80855f	0.062754385
34	0x3ed4c253	0.41554508
35	0x3d8b1776	0.06791584
36	0xbe025502	-0.1272774
37	0xbeb1dda7	-0.3473942
38	0xbe4e7e14	-0.20165282
39	0x3ea54063	0.32275686
40	0x3e838997	0.2569091
41	0xbe8b6c6a	-0.2723115
42	0x3ef3120e	0.47474712
43	0x3ea7c9ec	0.32771242
44	0xbe6ad74d	-0.22933693
45	0x3e0d72ad	0.13813277
46	0x3d953f0f	0.07287418
47	0x3e36a761	0.17837287
48	0xbdc967e4	-0.09834269
49	0xbe30698d	-0.17227764
50	0x3ebec5ec	0.37260377
51	0x3e32a6a9	0.17446388
52	0xbe199dd0	-0.15001607
53	0xbebf8d83	-0.37412652
54	0x3e772588	0.24135411
55	0xbd9bd695	-0.07609288
56	0x3ed835fa	0.4222868
57	0x3e21504f	0.15753292
58	0xbe93d228	-0.28871274
59	0xbde2323a	-0.11044736
60	0x3ede3da5	0.43406406
61	0x3e4f934c	0.20271033
62	0xbe005980	-0.12534142
63	0xbe9a41eb	-0.30128416

net.2.weight f4 [64, 64]
0	0x3e2b047a	0.16700926
1	0x3d9fa8de	0.07795881
2	0xbc8c310e	-0.017113235
3	0xbd9abe61	-0.07555843
4	0x3dd42293	0.10358157
5	0x3db30e65	0.0874298
6	0xbb93d3c6	-0.0045113293
7	0x3c076975	0.008264889
8	0x3cfaffcf	0.030639557
9	0xbd462da6	-0.048383377
10	0x3d87e383	0.06635191
11	0x3d658a24	0.056039944
12	0xbd9d55c5	-0.07682375
13	0x3dde990e	0.108690366
14	0xbceff163	-0.029289907
15	0xbceebd70	-0.029143065
16	0x3d39ba2e	0.04534357
17	0xbd8d65d2	-0.06904186
18	0x3d2f0746	0.042731546
19	0xbd7347de	-0.05939471
20	0x3c3f71d0	0.01168485
21	0xbd5e5f91	-0.054290358
22	0x3da1efd1	0.079070695
23	0x3cef22fe	0.02919149
24	0xbd8b43bf	-0.06800031
25	0xbdbf2156	-0.0933253
26	0xbd4f4469	-0.05060235
27	0xbda8252a	-0.082102135
28	0xbd1c2854	-0.038124397
29	0xbcce0ab2	-0.025151584
30	0x3db5a3e0	0.08869147
31	0xbc5bb40d	-0.013409627
32	0xbd3c2e32	-0.045942493
33	0x3dcc652d	0.09980235
34	0xbd6e481c	-0.058174238
35	0x3dc21adb	0.094777785
36	0xbdd801fb	-0.10547253
37	0xbd5bbaa2	-0.053644784
38	0xbdd0651c	-0.10175535
39	0x3d24c2a5	0.04022469
40	0x3e0a9b3a	0.13535777
41	0xbd84e46d	-0.06488881
42	0xbd9d919b	-0.07693788
43	0xbc0f8260	-0.008759111
44	0x3dee9396	0.116492435
45	0x3e0654f5	0.13118346
46	0x3ce20de5	0.027594516
47	0x3dcd42ae	0.10022484
48	0x3d8ad6d6	0.06779258
49	0xbd10824b	-0.035280507
50	0x3c1c8aa7	0.009554542
51	0x3ddb8cb9	0.107202
52	0xbdec248c	-0.11530408
53	0xbdc9e5c4	-0.098582774
54	0x3c68a3c0	0.014199197
55	0xbd45cb89	-0.04828981
56	0x3da2e0e0	0.07953048
57	0x3dbecf2b	0.09316858
58	0x3c8ae168	0.016953185
59	0xbd632063	-0.05545081
60	0x3d381389	0.044940505
61	0xbd67308e	-0.05644279
62	0x3dc4ce00	0.09609604
63	0xbd196280	-0.037447453
64	0xbcb59e08	-0.022170082
65	0xbd97858c	-0.07398519
66	0xbd858a1e	-0.065204844
67	0x3cb8c848	0.022556439
68	0xbcfcb270	-0.030846804
69	0xbbc75e00	-0.0060842037
70	0xbb4e0a00	-0.0031439066
71	0xbd912934	-0.07087937
72	0x3dc69418	0.096962154
73	0xbdc05fc8	-0.09393269
74	0x3daef886	0.08543496
75	0xbd9bae48	-0.07601601
76	0x3dc52b3e	0.096273884
77	0x3c7cda10	0.0154328495
78	0x3d2889b4	0.04114695
79	0x3ce84ef8	0.028357968
80	0x3d99036e	0.07471357
81	0x3da454c8	0.08023983
82	0xbd801080	-0.06253147
83	0x38d51800	0.00010161102
84	0xbda8dd98	-0.08245391
85	0xbd1cf644	-0.038320795
86	0x3cb7b780	0.022426367
87	0xbc70b320	-0.014691144
88	0x3bc9d580	0.0061594844
89	0x3d3d69f4	0.046243623
90	0xbbe77b40	-0.007064253
91	0xbdea01d0	-0.11426127
92	0xbd0e88b8	-0.034798354
93	0xba56d300	-0.00081948936
94	0xbdd9ab9a	-0.106284335
95	0x3c742e80	0.014903665
96	0x3c757e20	0.014983684
97	0xbda91694	-0.082562596
98	0x3ce6bc78	0.02816604
99	0x3deee9b0	0.11665666
100	0xbd5041a4	-0.05084385
101	0x3de37918	0.11107081
102	0x3d2bc588	0.041936427
103	0xbd8353ce	-0.06412469
104	0xbdf0c51e	-0.11756347
105	0x3c3bd910	0.011465326
106	0xbde4d476	-0.11173336
107	0xbc0f8c00	-0.008761406
108	0xbd1c7444	-0.038196817
109	0x3c819ed8	0.015822813
110	0xbda68dfa	-0.08132549
111	0xbde460aa	-0.1115125
112	0xbd4a409c	-0.049378023
113	0xbd6ea178	-0.058259457
114	0xbc82efb0	-0.015983433
115	0x3d16019c	0.03662263
116	0x3d94f5ce	0.07273446
117	0xbd1810a4	-0.037125245
118	0xbdcffe08	-0.101558745
119	0x3d0cbca8	0.034359604
120	0x39210c00	0.00015358627
121	0xbda55ff0	-0.08074939
122	0xbd193610	-0.037405074
123	0x3da9753e	0.08274315
124	0xbdf8360e	-0.12119685
125	0xbca43420	-0.020044386
126	0xbd51f190	-0.051255763
127	0xbd26dad4	-0.040736035
128	0xbcb4b9e8	-0.022061303
129	0x3da81b42	0.08208324
130	0x3d8679c8	0.06566197
131	0x3dddbe26	0.108272836
132	0x3e16b38b	0.14716928
133	0x3d8f42d8	0.06995171
134	0x3dcd07b2	0.100112334
135	0x3cd0fdee	0.025511708
136	0xbdac6e01	-0.08419419
137	0xbc8e13ea	-0.01734348
138	0x3d00518b	0.031327765
139	0x3d284dbf	0.04108977
140	0xbd857db7	-0.06518119
141	0x3d3084f0	0.04309553
142	0x3c55afd6	0.013042411
143	0x3d15ddec	0.036588594
144	0x3b6644d2	0.0035136235
145	0xbdef87de	-0.116958365
146	0xbde83f11	-0.11340154
147	0x3db5ed23	0.08883121
148	0xbd9db34a	-0.07700212
149	0xbd8e5e62	-0.06951596
150	0xbbd07086	-0.00636107
151	0xbdcc6e1b	-0.099819385
152	0xbdcf4273	-0.10120096
153	0xbd047cd9	-0.032345627
154	0x3d9c9cb8	0.07647079
155	0xbd29d3a8	-0.041461617
156	0xbcc9d5b6	-0.024638038
157	0x3c482524	0.012215886
158	0xbd94bd61	-0.07262684
159	0xbd986edc	-0.0744302
160	0x3d1add12	0.037808485
161	0xbda144f4	-0.0787448
162	0xbd0709ee	-0.032968454
163	0xbc3cdbb6	-0.011526993
164	0xbdaef50e	-0.08542834
165	0x3db37b9d	0.08763812
166	0x3d502380	0.050815105
167	0x3d125093	0.035721373
168	0xbcaeb138	-0.021324739
169	0x3dbeb3bc	0.09311625
170	0xbd01eadd	-0.031718124
171	0x3c37bc00	0.011214256
172	0x3d82201c	0.063537806
173	0x3db731d7	0.08945053
174	0xbd8ba3c4	-0.06818345
175	0x3dff5c93	0.12468829
176	0x3bd135c0	0.0063845813
177	0xbc5f63de	-0.01363465
178	0xbde8ac14	-0.11360946
179	0x3db8ca82	0.09023
180	0x3cf983d8	0.030458376
181	0xbdeb5e66	-0.114926144
182	0xbdd24486	-0.10266976
183	0xbdef8623	-0.116955064
184	0xbc6d8490	-0.014496937
185	0x3d36c902	0.04462529
186	0xbd2bda24	-0.041956082
187	0x3db618fd	0.08891485
188	0xbdbb1b29	-0.0913604
189	0xbda577c7	-0.08079486
190	0x3c8a01cb	0.016846558
191	0x3df1c930	0.118059516
192	0xbc7deeae	-0.0154988
193	0x3d82758e	0.06370078
194	0xbe00a563	-0.1256309
195	0xbc25bdaa	-0.01011602
196	0x3e24e3e2	0.16102555
197	0x3d5c5ab3	0.053797435
198	0x3d9a6ae3	0.07539918
199	0x3d16b57f	0.036794182
200	0x3dad0331	0.08447874
201	0x3da1ad0c	0.07894334
202	0x3d2b3a2a	0.041803516
203	0xbdbe5aa8	-0.09294635
204	0x3d84bbcd	0.06481133
205	0x3d9141ea	0.0709265
206	0x3db4a13b	0.08819815
207	0xbdefc651	-0.11707748
208	0x3d668618	0.056280226
209	0xbdb26c14	-0.087120205
210	0x3db34db1	0.08755053
211	0xbd1db6c0	-0.038504362
212	0xbda37632	-0.07981528
213	0x3de24f83	0.11050322
214	0x3dcd4238	0.10022396
215	0x3dfc4905	0.12318615
216	0x3d7e26cb	0.062048715
217	0x3d9dae97	0.07699316
218	0x3e1725cf	0.14760517
219	0x3b5d3038	0.0033750664
220	0x3cde4752	0.027133618
221	0x3d00e077	0.031464066
222	0xbd8a350e	-0.06748401
223	0xbd3450cb	-0.044022363
224	0x3d37a6b1	0.044836704
225	0x3cb6cf89	0.022315757
226	0xbdb4b3a7	-0.088233285
227	0xbc51d351	-0.012806729
228	0x3d7ade00	0.061246872
229	0x3d22aa6c	0.03971331
230	0x3ce5efe4	0.02806849
231	0xbd7d37da	-0.061820842
232	0x3c925d0f	0.01786664
233	0xbd596c72	-0.053081937
234	0xbce7d483	-0.028299576
235	0xbb0f4740	-0.0021862537
236	0xbd3f6318	-0.046725363
237	0xbdabd0e8	-0.08389455
238	0xbde89ec6	-0.11358409
239	0xbd0e9369	-0.03480855
240	0x3da03b92	0.07823862
241	0xbd462a2b	-0.04838006
242	0x3ca3fad8	0.020017073
243	0x3a801d9a	0.0009774447
244	0xbb301180	-0.00268659
245	0x3c3031bb	0.010754044
246	0xbdcedad2	-0.101003304
247	0xbdfdfc3e	-0.12401627
248	0x3dd91490	0.10599625
249	0x3dce2e6d	0.10067449
250	0x3debfaec	0.11522469
251	0x3dc2a62a	0.095043495
252	0x3d96a756	0.073561355
253	0xbd917339	-0.07102055
254	0xbdb454e1	-0.08805252
255	0x3d962030	0.07330358

net.2.bias f4 [64]
0	0x3e0e8fba	0.13922015
1	0x3cb20650	0.021731526
2	0x3e0ddb6c	0.13853234
3	0x3ded3b01	0.1158352
4	0xbdd36294	-0.10321537
5	0xbdb69979	-0.08915991
6	0x3d3016b1	0.04299039
7	0x3de6c52e	0.11268078
8	0x3cb50711	0.022098096
9	0x3d71d493	0.059040617
10	0x3d86a950	0.065752625
11	0x3dcfe18c	0.101504415
12	0xbb9e05ad	-0.004822454
13	0x3c982d15	0.018576184
14	0x3dc768b9	0.09736771
15	0x3cb84c37	0.02249728
16	0xbd07d812	-0.033165045
17	0x3caea07f	0.021316765
18	0xbce07c37	-0.02740298
19	0x3de225e6	0.11042385
20	0x3dd214b6	0.102578565
21	0xbd591fef	-0.05300897
22	0x3de0f2de	0.10983823
23	0x3db1613a	0.086611226
24	0x3d9aab3a	0.0755219
25	0x3cccdb80	0.02500701
26	0xbc812020	-0.015762389
27	0x3d9488c8	0.072526515
28	0x3d750597	0.059819784
29	0x3d37aabc	0.04484056
30	0xbde2fcce	-0.11083375
31	0x3d26587c	0.04061173
32	0xbd2e6fd5	-0.04258712
33	0x3bda2be3	0.0066580637
34	0xbd27a1c0	-0.04092574
35	0x3dcdbedb	0.100461684
36	0xbd24f9e4	-0.040277377
37	0xbc936e40	-0.017996907
38	0xbbf37740	-0.007429987
39	0xbd2ab392	-0.041675158
40	0x3d5b1054	0.05348237
41	0x3c98507b	0.018593064
42	0xbca9f853	-0.020748293
43	0xb9e72669	-0.0004408837
44	0x3ca2b690	0.019862443
45	0xbd530788	-0.051520854
46	0x3d3dfe8b	0.04638533
47	0xbdafc804	-0.08583072
48	0x3e0c5fef	0.13708471
49	0x3dcee0dc	0.10101482
50	0x3d28546c	0.041096136
51	0x3de9b52e	0.114115104
52	0x3d8d8dbd	0.069118
53	0x3d53acf1	0.0516786
54	0x3cbdb5ea	0.023158032
55	0xbb4b688a	-0.0031037652
56	0xbdfbedc0	-0.123012066
57	0xbcebd3f8	-0.028787598
58	0xbce81380	-0.02832961
59	0xbd3b4e79	-0.045729134
60	0xbde2716a	-0.11056788
61	0x3d4ebf0c	0.050475165
62	0xbd483182	-0.04887534
63	0x3cbf8b38	0.023381814

net.4.weight f4 [4, 64]
0	0x3b83c743	0.0040215566
1	0xbc03706e	-0.008022411
2	0x3b06ba57	0.0020557845
3	0x3bea0a88	0.0071423687
4	0xbabcadb1	-0.0014395026
5	0xbb8c7460	-0.004286334
6	0x3cc6754e	0.024225857
7	0x3a2d487b	0.00066102267
8	0xbb845f56	-0.0040396852
9	0xbbff663c	-0.0077941697
10	0x3beaae19	0.0071618673
11	0x3c6288ba	0.013826543
12	0xbc02d6a0	-0.007985741
13	0x3b7d72c2	0.0038673137
14	0x3c3aaf35	0.011394312
15	0x3b746397	0.0037290805
16	0x3ba6a0ae	0.0050850725
17	0xbb806432	-0.003918194
18	0x3bbe9e80	0.0058172345
19	0xbb852caf	-0.0040641646
20	0x3c198c04	0.009371761
21	0x3813ab00	3.5206787e-05
22	0x3c0e7e80	0.008697152
23	0x3b8b454e	0.004250205
24	0x3c34ffd8	0.011047326
25	0x3bcabb1c	0.006186856
26	0xbc0ea830	-0.008707091
27	0xbb93cb61	-0.0045103286
28	0x3b714ae3	0.0036818318
29	0xb90236c0	-0.00012418162
30	0x3bf3f0cb	0.0074444762
31	0x3bfeb3f2	0.007772916
32	0xbaa8f5fe	-0.0012890694
33	0x3c06412e	0.008194251
34	0x3b2e893c	0.002663209
35	0xbb952f06	-0.004552725
36	0x3c676f02	0.014125587
37	0xbc13526b	-0.008991818
38	0x3b8ae6ae	0.004238925
39	0x3aef12a1	0.0018239805
40	0x3bd66df0	0.0065438673
41	0xbc1fa6cb	-0.009744356
42	0xba215a5a	-0.0006155126
43	0x3b20a6ff	0.00245136
44	0xbaa291b8	-0.0012403047
45	0x3c13cc12	0.009020822
46	0x3c8c8665	0.017153928
47	0x3c1ba0f9	0.009498828
48	0x3bf53c64	0.0074840058
49	0xbc2c3ed0	-0.010513023
50	0x3aaa8b2d	0.0013011448
51	0xb9279f00	-0.00015985593
52	0x3c8eea60	0.017445743
53	0x3c05b51e	0.0081608575
54	0x3c4c30e2	0.012462826
55	0x3b8575f8	0.004072901
56	0x3c812010	0.015762359
57	0x3bb356b6	0.0054729832
58	0xb98e8b60	-0.00027188193
59	0xbb9345d6	-0.004494409
60	0x3adb35a0	0.0016724356
61	0x3b5cc459	0.0033686368
62	0x3c712eff	0.014720677
63	0x3bbb0708	0.0057076253
64	0xbc5a70ef	-0.0133325895
65	0x3c0f0ffc	0.008731838
66	0x3c03aea2	0.008037241
67	0x3c116fa2	0.008876713
68	0x3c58c422	0.013230355
69	0x3c0e2e65	0.0086780535
70	0x3b61d2b0	0.0034457855
71	0x3b9300c7	0.0044861767
72	0x3b99d5d6	0.0046946807
73	0x3bd203a8	0.0064091273
74	0x3a1ab28c	0.00059012393
75	0x3c006905	0.007837539
76	0x3c89e05b	0.016830614
77	0x3c07dd89	0.008292564
78	0xba02316f	-0.00049664726
79	0x3c3c7f75	0.0115049975
80	0xbbc6e23f	-0.006069451
81	0xba1b9c88	-0.0005936106
82	0x3c3fd4b8	0.011708431
83	0xbc453662	-0.012036892
84	0xbc1a7f66	-0.009429788
85	0x3c21b00e	0.009868635
86	0xba883082	-0.0010390433
87	0x3a4a6870	0.0007721251
88	0x3b261d4b	0.002534705
89	0x3b3823c4	0.002809749
90	0x3a4b0250	0.000774418
91	0xbb48e380	-0.0030653179
92	0x3aca07cd	0.0015413702
93	0x3afaefc0	0.0019144937
94	0xbb8cfacb	-0.004302358
95	0x3c62d32c	0.013844293
96	0xba097b94	-0.000524455
97	0x3c570ef7	0.0131261265
98	0xbae9260f	-0.0017787832
99	0x39c7c094	0.0003809972
100	0x3930e6be	0.00016870626
101	0x3b9e9a24	0.0048401523
102	0xbb9caf19	-0.0047816155
103	0x3b5dae80	0.0033825934
104	0x3c1c06b2	0.009523081
105	0x3be7c445	0.0070729577
106	0x3c556425	0.013024365
107	0x3b5b70c7	0.0033483969
108	0xba9e0f58	-0.0012059016
109	0xbbb618e9	-0.0055571687
110	0x3bfba202	0.007679225
111	0x3c231ba4	0.0099553205
112	0xbc5f6322	-0.013634475
113	0x3b644136	0.0034828908
114	0x3acc2a6a	0.0015576605
115	0x3b2919a0	0.0025802627
116	0x3b1ce7f0	0.0023941956
117	0xbc35b3b2	-0.011090206
118	0x3c2273c4	0.009915296
119	0x3c132ba4	0.008982573
120	0x3c57517a	0.013141984
121	0xbb9b37a9	-0.00473686
122	0x3b98c71a	0.0046624066
123	0x3bbb3a16	0.0057137115
124	0xbb7a85f6	-0.003822682
125	0x3b91321a	0.0044310214
126	0x3c500a28	0.012697734
127	0xbbfc9126	-0.0077077327
128	0xbcbdbf77	-0.023162587
129	0x3c0bff5c	0.008544769
130	0x3baff678	0.0053699575
131	0x3c3d94db	0.011571134
132	0x3c20cea0	0.009814888
133	0x3c54a193	0.012977975
134	0x3c2cfef5	0.010558833
135	0x3bbcb2d6	0.0057586236
136	0x3b85c2b3	0.004082048
137	0x3c1a36f0	0.009412512
138	0x3bab5e8b	0.0052297763
139	0x3c39c091	0.011337415
140	0x3c524751	0.012834386
141	0x3cb8437e	0.02249312
142	0x3b89d592	0.004206368
143	0x3bf05703	0.0073345914
144	0x3c7e66d0	0.015527442
145	0x3bca5188	0.00617427
146	0x3cb74a49	0.02237429
147	0x3bca631b	0.006176365
148	0xba01a540	-0.00049455836
149	0x3cb5a256	0.022172134
150	0x3c61200c	0.013740551
151	0x3c4b4e4b	0.012408803
152	0x3c338372	0.010956632
153	0x3c058684	0.008149747
154	0x3b5fc4c4	0.003414438
155	0x3b8cf2f8	0.004301425
156	0x3b3c5e65	0.0028742787
157	0x3bf77e68	0.0075529106
158	0x3cbcc63d	0.023043746
159	0x3cbafad2	0.022824679
160	0x3cc3d1fa	0.023903836
161	0x3bb9c7ce	0.0056695705
162	0x3b86c0e6	0.0041123508
163	0x3993513c	0.0002809855
164	0x3c316b4f	0.010828807
165	0x3beb6b88	0.0071844496
166	0xbc0ffd6e	-0.00878845
167	0x3c10fd63	0.008849475
168	0xbc023e7e	-0.00794947
169	0x3c91ad53	0.017782843
170	0x3cbc24a0	0.022966683
171	0x3c6cb461	0.014447303
172	0xbc043758	-0.008069836
173	0xba33fb70	-0.0006865775
174	0x3b623e09	0.003452184
175	0x3c038f58	0.008029781
176	0xbb4422cf	-0.0029927974
177	0xbb703eca	-0.003665852
178	0xba869fa2	-0.0010270963
179	0x3bc31514	0.0059534404
180	0x3bca1538	0.0061670803
181	0x3afa574f	0.0019099506
182	0x3c5c13ce	0.013432456
183	0xbbaf3412	-0.0053467834
184	0x3c48d676	0.012258163
185	0x3aa0ec90	0.0012277532
186	0x3a9d2958	0.0011990471
187	0x3bc00dff	0.0058610435
188	0x3ba808b8	0.0051279925
189	0x3c8c4674	0.017123438
190	0x3c58fd17	0.013243935
191	0x3b93cb04	0.0045102853
192	0x3cd4c44f	0.025972513
193	0x397d47c0	0.00024154689
194	0x3cfa7d84	0.030577429
195	0x3ce515cd	0.027964497
196	0xba248521	-0.0006275941
197	0xbb9e5f73	-0.004833156
198	0x3bdd0c8e	0.0067458814
199	0x3caad306	0.020852577
200	0xbaf53b24	-0.0018709642
201	0xba9c9ade	-0.001194801
202	0x3d0ab981	0.033868317
203	0x3ca3f4c0	0.020014167
204	0x3c797fea	0.015228251
205	0x3c2ced63	0.010554644
206	0x3c048853	0.008089143
207	0x3c849646	0.016184937
208	0x3c0539fe	0.008131502
209	0x3c94b8fe	0.018154617
210	0x3ca5d2ec	0.020242177
211	0xbbeb80b4	-0.0071869735
212	0x3bba9304	0.005693795
213	0xbc7a34e6	-0.015271401
214	0x3c4baaaa	0.012430826
215	0x3c35ca50	0.011095598
216	0xbbdfb115	-0.0068265297
217	0x3be76808	0.007061962
218	0xbbd7f24a	-0.0065901624
219	0x39b81b80	0.00035115704
220	0xba992c0c	-0.0011686101
221	0x3a79e800	0.0009533167
222	0xbc51f574	-0.012814868
223	0x3ca34fa3	0.019935435
224	0x3b6c9b0b	0.0036103155
225	0x3b2d14f8	0.0026410203
226	0x3c167900	0.009184122
227	0xbbc796c7	-0.006090972
228	0x3c0374f7	0.008023492
229	0xbba7f9ca	-0.0051262127
230	0x3c1f61d0	0.00972791
231	0x3be04cf7	0.0068451124
232	0xba215540	-0.0006154366
233	0x3b91f380	0.0044540763
234	0x3c98acbe	0.018637057
235	0x3cac6f1d	0.021049077
236	0xbb0d74b4	-0.0021584453
237	0x3b17dba8	0.0023171697
238	0x3cdfcb1f	0.027318535
239	0x3bc7d357	0.0060981917
240	0x3d177413	0.03697593
241	0x3c170e98	0.009219788
242	0xbc57656c	-0.013146739
243	0x3a2a3140	0.0006492324
244	0x3c5add5f	0.013358443
245	0x3c87cf73	0.016578412
246	0x3cc72146	0.024307858
247	0x3be48699	0.006974053
248	0x3b1dc199	0.0024071692
249	0x3c1d7084	0.009609345
250	0x3bb7ca6c	0.0056088474
251	0x3c6173c8	0.013760515
252	0xbbad1324	-0.0052818228
253	0x3b545018	0.0032396372
254	0x3c43a0ff	0.01194024
255	0xbbe8a5f8	-0.007099863

net.4.bias f4 [4]
0	0x3b4b95d9	0.0031064658
1	0xbcd3aee2	-0.025840227
2	0xbcbd9d89	-0.023146408
3	0x3d394b08	0.04523757

net.0.weight f4 [64, 5]
0	0x3d913fc0	0.070922375
1	0xbecdd76b	-0.40203413
2	0x3d4d5451	0.05012924
3	0x3d894a50	0.06703627
4	0xbed4db42	-0.4157353
5	0xbe1cf1e6	-0.15326652
6	0x3ef6706f	0.48132655
7	0xbdebfd7c	-0.11522958
8	0x3e1e8995	0.15482171
9	0x3df34a5a	0.11879416
10	0xbe20648c	-0.15663356
11	0xbeb9d902	-0.36298376
12	0xbcc89962	-0.024487201
13	0x3e803449	0.2503989
14	0xbe315a39	-0.17319573
15	0xbeba5dbf	-0.36399648
16	0xbe850470	-0.25979948
17	0x3ed405ea	0.41410762
18	0xbbb8d238	-0.0056402944
19	0x3eadd1c5	0.33949104
20	0x3e38609f	0.18005608
21	0xbec7eb3a	-0.3904665
22	0xbcfdc65d	-0.030978376
23	0xbd86d48a	-0.06583507
24	0xbecaf0ca	-0.39636832
25	0x3e4dfaf5	0.20115264
26	0xbe4c28ad	-0.19937392
27	0xbe483d58	-0.19554651
28	0xb9ef24ca	-0.00045613042
29	0xbde84b1a	-0.113424495
30	0xbe33ffb4	-0.17578012
31	0x3f0359ed	0.5130909
32	0x3e957d7e	0.29197305
33	0x3ea300b4	0.31836474
34	0x3ee66d09	0.45005062
35	0x3eab8fa7	0.33508036
36	0x3edb95c2	0.42887694
37	0xbe1ef9b1	-0.15524937
38	0xbed3c3de	-0.41360372
39	0x3d844236	0.06457941
40	0x3e33abf0	0.17546058
41	0x3e30de49	0.17272295
42	0x3ee5f70b	0.4491504
43	0xbed91125	-0.42395893
44	0x3c27bdeb	0.010238151
45	0xbdf771c6	-0.120822474
46	0x3eb0edc7	0.3455641
47	0x3e1a8482	0.1508961
48	0x3e25f7b3	0.16207771
49	0xbebb0bf4	-0.36532557
50	0x3db5df1c	0.08880445
51	0x3cdf2f1d	0.027244145
52	0xbe8ff506	-0.28116626
53	0x3f093b2e	0.53605926
54	0xbecfd1aa	-0.40589648
55	0x3e5b5f8b	0.21423166
56	0x3d776992	0.060403414
57	0xbd863902	-0.06553842
58	0xbd190ec4	-0.037367597
59	0x3d5ba501	0.053624157
60	0xbeaaec77	-0.33383533
61	0x3ec21b89	0.37911633
62	0x3eac3ef3	0.33641776
63	0x3e3a21ae	0.1817691
64	0xbdcbba9f	-0.099477045
65	0xbe900229	-0.28126648
66	0xbece995f	-0.40351388
67	0xbebc2e44	-0.36754048
68	0xbcbba7aa	-0.022907097
69	0x3eef34e0	0.46720028
70	0xbdf41d00	-0.11919594
71	0xbeef74e3	-0.46768865
72	0x3ee36c2b	0.44418463
73	0xbe4d4c53	-0.20048647
74	0x3eaaf7f4	0.33392298
75	0xbdcec170	-0.10095489
76	0xbe86cd02	-0.26328284
77	0xbe41dbd6	-0.18931517
78	0xbeac6e83	-0.33678064
79	0xbdb8d31c	-0.09024641
80	0xbe393018	-0.18084753
81	0xbe185442	-0.14875892
82	0xbed59795	-0.4171721
83	0xbd76cd60	-0.060254455
84	0xbecec6c9	-0.40386036
85	0xbe3164fd	-0.1732368
86	0xbe751594	-0.23934013
87	0x3e1c9588	0.15291417
88	0x3e3c3c65	0.18382414
89	0xbeaa87fc	-0.33306873
90	0xbe9b78fc	-0.3036574
91	0xbcaf39f6	-0.021389943
92	0xbe79efeb	-0.24407928
93	0x3dd13d0b	0.10216721
94	0xbeb8a69e	-0.3606462
95	0x3e6e7aa0	0.23288965
96	0x3e60d074	0.21954519
97	0xbed168be	-0.40900224
98	0xbea855ca	-0.32877952
99	0xbebdfe2e	-0.37107986
100	0xbe23f6fa	-0.16012183
101	0x3c7f62a0	0.015587479
102	0x3e18cadc	0.14921135
103	0xbe87bc00	-0.2651062
104	0xbdaa2f5c	-0.08309814
105	0x3d260146	0.04052856
106	0xbecea816	-0.40362614
107	0x3ed70235	0.4199387
108	0xbec566b3	-0.38554916
109	0x3eb35704	0.35027325
110	0x3c110516	0.00885131
111	0xbe9afce0	-0.30271053
112	0xbd974883	-0.073868774
113	0x3e73a9dd	0.23795266
114	0x3c98a7d3	0.018634712
115	0x3eeda9b0	0.46418524
116	0x3e2a3c1f	0.16624497
117	0xbe88fcce	-0.26755375
118	0x3c5c5d17	0.013449929
119	0x3e7363bc	0.23768514
120	0x3eec716c	0.46180284
121	0xbddf657d	-0.10908029
122	0xbeedd8fc	-0.46454608
123	0x3eb45087	0.35217687
124	0x3c447d13	0.011992711
125	0xbde88db8	-0.11355156
126	0xbe48bc5e	-0.19603106
127	0x3d62e2f0	0.055392206
128	0xbdf2ec04	-0.11861423
129	0xbe6a01ba	-0.22852221
130	0xbe1f44d9	-0.15553607
131	0x3e6f5ac2	0.23374465
132	0x3ec43eaa	0.3832906
133	0x3e8df605	0.2772676
134	0x3b99d3ff	0.0046944614
135	0x3dcb1ad6	0.09917228
136	0xbdbfdf79	-0.09368796
137	0xbd9665d4	-0.07343641
138	0x3e616f8a	0.22015205
139	0xbe4b0a19	-0.1982807
140	0x3e993f7e	0.29931253
141	0xbe6838c2	-0.22677901
142	0xbe7bf568	-0.24605334
143	0xbd2db7d0	-0.042411625
144	0xbe626ce0	-0.22111845
145	0xbf152610	-0.58261204
146	0xbf014fce	-0.505124
147	0x3ecd7dbd	0.40134993
148	0x3db03690	0.08604157
149	0xbe01e95b	-0.12686674
150	0xbe383ff3	-0.17993145
151	0xbef1cca1	-0.47226432
152	0xbe13b742	-0.14425376
153	0x3e410d4a	0.18852726
154	0xbe69afb3	-0.2282093
155	0x3ea5df63	0.32396993
156	0xbdb74cc8	-0.08950192
157	0xbe09a655	-0.13442357
158	0xbe1203ee	-0.14259312
159	0x3dca1b69	0.09868509
160	0x3d109d70	0.035306394
161	0xbea617ab	-0.32439932
162	0xbe86470d	-0.26226082
163	0xbee2553b	-0.4420565
164	0x3ca14da4	0.019690342
165	0x3e0d6bec	0.138107
166	0x3d3269cd	0.04355793
167	0xbe52e418	-0.20594823
168	0x3e86a78c	0.26299703
169	0x3df02b36	0.11726992
170	0xbe77bd97	-0.24193417
171	0x3eb6f22a	0.35731632
172	0xbdda0e62	-0.106472746
173	0x3e24a324	0.16077858
174	0x3ea604e3	0.32425603
175	0xbe848104	-0.2587968
176	0xbe683f19	-0.2268032
177	0xbece0f20	-0.40245914
178	0x3e00127a	0.12507048
179	0xbeb674db	-0.3563603
180	0x3ecc400b	0.3989261
181	0xbe5889f0	-0.21146369
182	0xbd160d08	-0.03663352
183	0xbe856bc2	-0.26058775
184	0x3ec3a3ec	0.38211
185	0xbd2c6374	-0.042087033
186	0x3e9cb0f1	0.30603746
187	0x3ec61583	0.38688287
188	0x3e5eccfd	0.21757884
189	0xbe332d6b	-0.17497794
190	0xbee02e09	-0.43785122
191	0xbe444249	-0.19165911
192	0x3e494fd3	0.19659357
193	0xbe81112a	-0.25208408
194	0x3e162a02	0.14664462
195	0xbeba5d6a	-0.36399394
196	0xbe74feb7	-0.23925291
197	0x3d36c135	0.04461785
198	0x3e80566b	0.25065932
199	0xbd748f59	-0.05970702
200	0xbe9b97a7	-0.3038914
201	0xbeb3a4ac	-0.35086572
202	0xbe7ca2f8	-0.24671543
203	0xbd990a98	-0.07472724
204	0xbe8e6170	-0.27808714
205	0xbe791e13	-0.24327879
206	0x3dca762c	0.09885821
207	0xbd00bfaa	-0.031432785
208	0x3e906a35	0.2820603
209	0xbe0cb2d6	-0.13740095
210	0x3e44fc84	0.19236952
211	0xbe9df714	-0.30852568
212	0xbeea46ff	-0.4575729
213	0x3c0189d1	0.007906393
214	0x3e5904ad	0.2119319
215	0x3f178764	0.59190965
216	0x3e0fb389	0.14033331
217	0x3eed00a3	0.46289548
218	0xbdbf9680	-0.093548775
219	0x3e328e93	0.174372
220	0xbea7efaf	-0.32800052
221	0x3e8ba25e	0.27272314
222	0xbe6e6dab	-0.23284023
223	0xbe99b28a	-0.30019027
224	0xbcc47820	-0.023983061
225	0x3d9d1f6f	0.07672011
226	0x3dbe547c	0.09293458
227	0xbed4377e	-0.41448587
228	0x3e19b3a6	0.15009937
229	0x3dfda3a5	0.12384728
230	0xbdac50ef	-0.08413874
231	0x3d4b9696	0.049704157
232	0xbe9c65e3	-0.30546483
233	0xbe8a7f88	-0.27050424
234	0x3e02abad	0.12760802
235	0x3ec0c918	0.37653422
236	0xbe8f52bb	-0.27992806
237	0x3e8351e4	0.25648415
238	0xbeaed3ec	-0.3414606
239	0xbe347acc	-0.17624968
240	0x3df9d4c0	0.12198782
241	0xbea67b46	-0.32515925
242	0xbcb48193	-0.022034442
243	0xbe212e1b	-0.15740244
244	0x3c929612	0.017893825
245	0xbdfab11f	-0.122408144
246	0xbe88b4a4	-0.26700318
247	0x3e54f413	0.20796232
248	0x3dbdb133	0.09262314
249	0x3ef05ca3	0.46945676
250	0x3e8374ee	0.25675148
251	0x3e35ee5b	0.17766707
252	0xbda24472	-0.07923211
253	0x3ebcd0dc	0.36878097
254	0xbea4830a	-0.32131225
255	0x3e8c0b74	0.27352488

net.0.bias f4 [64]
0	0xbe2dda6e	-0.16977856
1	0x3dfe7aae	0.12425743
2	0xbe8b0294	-0.27150404
3	0x3d8458a9	0.06462223
4	0x3ec13c6d	0.37741414
5	0xbe120068	-0.14257967
6	0xbea4e065	-0.3220245
7	0x3ecfe490	0.40604067
8	0x3d4c3250	0.04985267
9	0x3e22b03b	0.15887539
10	0xbec0a517	-0.37625954
11	0x3ec52d05	0.3851091
12	0x3dff4886	0.124650046
13	0x3e066f36	0.13128361
14	0xbe663860	-0.22482443
15	0x3e9dbd6c	0.3080858
16	0x3dcb0510	0.09913075
17	0xbed89342	-0.4229985
18	0xbe8c9b17	-0.27462074
19	0xbe92682e	-0.28595108
20	0xbed47309	-0.41494015
21	0x3ecc7d59	0.39939383
22	0xbe200a44	-0.15628916
23	0x3e142344	0.14466578
24	0xbc2c3435	-0.010510494
25	0xbe4f1a31	-0.20224835
26	0x3e1381ee	0.14405033
27	0xbedd6de9	-0.43247917
28	0x3e2c0e5c	0.16802353
29	0xbd8bfdf4	-0.06835547
30	0xbdf7954b	-0.12089022
31	0xbe15be35	-0.1462334
32	0x3ecc313f	0.39881322
33	0x3d56ba79	0.052423928
34	0xbe5344f6	-0.20631775
35	0xbebef187	-0.37293646
36	0x3de38aab	0.11110433
37	0x3df371ba	0.11886926
38	0x3eb10827	0.34576532
39	0xbe874094	-0.26416457
40	0x3d8fc6a0	0.070203066
41	0x3e239d85	0.15978058
42	0xbdaf2f81	-0.085539825
43	0x3f189cf6	0.59614503
44	0x3dda49e0	0.10658622
45	0x3d9e073e	0.07716225
46	0x3ecd27ce	0.4006943
47	0x3cf689d0	0.030095011
48	0x3e08d24b	0.1336147
49	0x3f00d739	0.50328404
50	0xbc8d2d26	-0.017233443
51	0xbebd20bc	-0.36939037
52	0x3e5750d4	0.21026927
53	0x3cecd881	0.02891183
54	0xbe65c193	-0.22437124
55	0xbd157ea2	-0.03649772
56	0x3ea869d2	0.32893234
57	0xbe4ecfd0	-0.20196462
58	0xbc694418	-0.014237426
59	0x3e86b7a2	0.26311976
60	0x3d7fdfe7	0.06246939
61	0x3e8c600e	0.27417034
62	0x3d6d27d8	0.057899326
63	0xbeb80c20	-0.3594675

net.2.weight f4 [64, 64]
0	0xbdb3dec8	-0.087827265
1	0x3ddd0b4a	0.10793169
2	0xbc57c7c5	-0.013170187
3	0xbd7faac9	-0.062418733
4	0x3c3064d0	0.010766223
5	0xbd2a2f68	-0.041549116
6	0x3c83cb1a	0.016088057
7	0x3da49967	0.08037072
8	0xbd055020	-0.032547116
9	0x3cb63246	0.02224077
10	0xbc800c2c	-0.015630804
11	0x3d93597e	0.07194804
12	0xbd6fdf1e	-0.05856239
13	0x3d57dc38	0.05270025
14	0x3d1d019d	0.038331617
15	0x3db2921e	0.08719276
16	0xbddbf868	-0.10740739
17	0x3dded241	0.108799465
18	0x3c4cc669	0.012498477
19	0xbd3d88a8	-0.046272904
20	0xbc307f80	-0.010772586
21	0x3dcc64cb	0.09980162
22	0x3db393b7	0.08768409
23	0x3dcc3330	0.09970701
24	0xbd86bd81	-0.06579114
25	0x3bf5b7e0	0.0074987262
26	0xbdc976ee	-0.09837137
27	0x3db3cd76	0.08779423
28	0x3da5d28a	0.08096798
29	0xbdaaeac6	-0.08345561
30	0x3c893e0c	0.016753219
31	0xbcc73901	-0.024319174
32	0x3d777eb7	0.06042358
33	0x3d1aeb67	0.037822153
34	0x3b6d2784	0.0036186883
35	0x3cbd0e3d	0.023078078
36	0x3db64a09	0.0890084
37	0x3d3b8079	0.045776818
38	0xbd18a2ce	-0.037264638
39	0x3d93a441	0.07209063
40	0xbdd183be	-0.10230206
41	0xbce82cb4	-0.028341629
42	0xbc7028e9	-0.014658191
43	0xbcdea757	-0.027179403
44	0x3d5fd210	0.05464369
45	0x3d9ffce0	0.07811904
46	0x3d470d4c	0.048596665
47	0x3d5936bc	0.053030714
48	0xbd2d4a10	-0.04230696
49	0x3ccb5bfd	0.024824137
50	0xbde5d2c7	-0.11221843
51	0xbd426cbb	-0.047466975
52	0xbc051f40	-0.008125126
53	0xbd72e3b5	-0.05929919
54	0x39cd2bdc	0.00039133325
55	0x3bd238d8	0.0064154677
56	0xbdc5ccbf	-0.09658193
57	0xbdd74a68	-0.10512239
58	0x3d20e500	0.03928089
59	0x3b23d32c	0.0024997694
60	0xbde975df	-0.11399435
61	0xbbc308fb	-0.0059519983
62	0xbd0c7ca0	-0.03429854
63	0xbad64700	-0.0016348064
64	0xbdedd934	-0.11613694
65	0x3d4bfa31	0.049799148
66	0xbd9a9294	-0.07547489
67	0xbd2b7394	-0.04185827
68	0x3dcace9b	0.09902688
69	0xbda393fb	-0.079872094
70	0x3da9ad75	0.082850374
71	0x3d38f929	0.045159493
72	0x3dd95e04	0.10613635
73	0xbd8c05c7	-0.068370394
74	0xbcae1170	-0.02124855
75	0x3e0bef0f	0.13665412
76	0x3d9f4ee7	0.07778721
77	0xbde49722	-0.11161639
78	0x3c9b14b0	0.018930763
79	0x3ddca7f4	0.10774222
80	0x3d10bfbc	0.035339102
81	0x3e05d8c2	0.13070968
82	0x3de9d5f9	0.11417765
83	0xbdc493f8	-0.09598535
84	0xbba4f3a0	-0.005033925
85	0x3d0059aa	0.03133551
86	0x3a6f1986	0.000912093
87	0x3d414fdb	0.047195297
88	0xbdf8fdaa	-0.121577576
89	0x3ce89698	0.028392121
90	0xbdabe7ad	-0.08393798
91	0xbde4218a	-0.111392096
92	0x3bc4e300	0.006008506
93	0x3dedc0a2	0.116090074
94	0x3df21266	0.118199155
95	0xbd0b9139	-0.034074042
96	0xbde5abac	-0.112143844
97	0xbd42b406	-0.047534965
98	0xbcb3ac30	-0.021932691
99	0xbd070b18	-0.032969564
100	0x3c4589a6	0.012056744
101	0x3d3ed643	0.046591055
102	0xbd63d185	-0.055619735
103	0x3d458802	0.04822541
104	0xbc437880	-0.011930585
105	0x3dd6fe6d	0.104977466
106	0x3ba03102	0.0048886547
107	0x3d868632	0.065685645
108	0x3de839dc	0.11339161
109	0xbe067a10	-0.131325
110	0xbdf968ec	-0.121782154
111	0x3d38bbd0	0.045100987
112	0xbc239530	-0.0099843
113	0x3d0d63c0	0.034518957
114	0xbdde1b59	-0.1084506
115	0x3d3a6c87	0.045513656
116	0x3d9a4208	0.07532126
117	0x3d92947b	0.07157227
118	0xbc2b78ec	-0.010465842
119	0x3c2a6ac0	0.010401428
120	0xbe376e0e	-0.17913076
121	0x3dea0566	0.11426811
122	0x3d4cf174	0.050034955
123	0xbdd5f9b3	-0.10448017
124	0x3da2ccec	0.07949242
125	0xbd8af85d	-0.06785653
126	0xbd103715	-0.03520878
127	0x3ce03ab8	0.02737175
128	0x3bea5402	0.007151128
129	0xbe0cb542	-0.1374102
130	0x3dfafff5	0.12255851
131	0xbbb1ed68	-0.0054299124
132	0xbbc39b3b	-0.0059694326
133	0x3dcca930	0.099932075
134	0x3d69472c	0.05695264
135	0xbd6dbb54	-0.05803998
136	0xbdc299b4	-0.09501973
137	0xbc375ebf	-0.011192023
138	0x3d6c1dbc	0.057645544
139	0x3dd6f33c	0.10495612
140	0xbd08f79d	-0.033439267
141	0x3da931e2	0.082614675
142	0xbd44a815	-0.048011858
143	0xbcf178c0	-0.029476523
144	0x3d080978	0.033212155
145	0x3e209582	0.15682033
146	0x3d34efb7	0.044173922
147	0xbbf38f80	-0.007432878
148	0x3bd62780	0.0065354705
149	0x3c85ef04	0.016349323
150	0x3da999b1	0.082812674
151	0x3ca252f3	0.019814944
152	0x3db4d64b	0.08829936
153	0x3dd45ed0	0.103696465
154	0x3d2e4722	0.042548306
155	0xbda50fd6	-0.08059661
156	0xbd1db59c	-0.038503274
157	0xbcfb5ebd	-0.030684823
158	0x3dc0c38f	0.094123
159	0x3dd95ee5	0.10613803
160	0x3df5f9ae	0.12010513
161	0xbdc04f2f	-0.09390103
162	0xbe086a75	-0.1332186
163	0x3e548983	0.20755582
164	0x3ca4be72	0.020110343
165	0x3dab65f5	0.08369056
166	0x3bdbe584	0.00671071
167	0x3dd7dec1	0.10540534
168	0x3d746194	0.05966337
169	0x3dbfc628	0.09363967
170	0x3d0e93be	0.034808867
171	0x3ea70a48	0.3262503
172	0xbd86a828	-0.06575042
173	0xbd8ff806	-0.070297286
174	0x3c5b965c	0.013402548
175	0x3c8c9d20	0.017164767
176	0xbca6c672	-0.020358298
177	0xbd55de22	-0.052213795
178	0x3dae2604	0.08503345
179	0x3d9e3373	0.07724657
180	0x3dce38c6	0.100694224
181	0x3e0499a5	0.12949236
182	0x3d943d2f	0.07238232
183	0xbd78b0ca	-0.060715474
184	0xbbe9fee6	-0.007140982
185	0x3c509170	0.0127299875
186	0x3c898c11	0.016790422
187	0xbe017a8b	-0.12644403
188	0xbe0bf0e1	-0.13666107
189	0xbcc9bb91	-0.024625571
190	0xbdf4b6e8	-0.11948949
191	0x3d9aa534	0.07551041
192	0x3dc04ba1	0.09389425
193	0x3be87dec	0.007095089
194	0xbd977f0a	-0.07397278
195	0x3c739568	0.014867164
196	0x3d566448	0.05234173
197	0xbc8f0631	-0.017459007
198	0x3d853187	0.06503587
199	0x3d2b8404	0.041873947
200	0xbc8199c8	-0.015820399
201	0x3d9b1574	0.07572451
202	0xbc93b390	-0.018029958
203	0xbda62fac	-0.081145614
204	0xbd89c3e3	-0.067268156
205	0x3d63b861	0.05559576
206	0xbdc6763e	-0.09690522
207	0xbde9bff4	-0.11413565
208	0x3df58e4c	0.119900316
209	0x3e2387b9	0.15969743
210	0x3d37d522	0.044880994
211	0xbd136140	-0.035981417
212	0x3d073760	0.033011794
213	0x3d56d859	0.05245242
214	0x3dde6a09	0.10860068
215	0xbde16215	-0.11005036
216	0xbd35d3ea	-0.04439155
217	0x3d8cfa32	0.068836585
218	0xbc538639	-0.012910419
219	0x3dd398bb	0.103318654
220	0xbdca7994	-0.098864704
221	0xbaadb97d	-0.0013254132
222	0xbcb2f5bc	-0.02184569
223	0x3da0779c	0.07835314
224	0x3d95a9fe	0.07307814
225	0x3d54c0c0	0.051941633
226	0xbdcf3621	-0.10117746
227	0x3e0ce999	0.13760985
228	0xbdac5458	-0.08414525
229	0xbdc533d3	-0.09629025
230	0xbdce22c0	-0.10065222
231	0x3d23134a	0.039813317
232	0xbd02e744	-0.031958833
233	0x3c9549c0	0.018223643
234	0xbd5be8e0	-0.053688884
235	0x3e0b37b6	0.13595471
236	0xbb2d8780	-0.002647847
237	0xbd3c41fc	-0.045961365
238	0xbde08786	-0.10963349
239	0xbd7d18e8	-0.06179133
240	0x3d721118	0.059098333
241	0x3d2000fd	0.039063442
242	0x3df93f81	0.121703155
243	0x3ca706ce	0.020388987
244	0xbc302c40	-0.0107527375
245	0xbd3ab163	-0.045579325
246	0x3c48a672	0.012246715
247	0x3dfdeff9	0.12399287
248	0xbd56aa2a	-0.052408375
249	0xbcd09aa8	-0.02546437
250	0xbc5b2960	-0.013376564
251	0xbc0a5c0d	-0.008444798
252	0xbdcb1fbb	-0.099181615
253	0xbdb9d0ca	-0.090730265
254	0x3df462d7	0.11932915
255	0x3d790de4	0.060804263

net.2.bias f4 [64]
0	0x3d6c3cff	0.057675358
1	0x3c905e71	0.017623158
2	0x3caa5ec1	0.020797135
3	0xbe360f41	-0.17779256
4	0x3e182d76	0.14861092
5	0xbdd6b732	-0.104841605
6	0x3dd544fa	0.10413547
7	0xbdd225dd	-0.10261128
8	0x3d772ad8	0.060343593
9	0x3e0dffb3	0.13867073
10	0xbde1c71e	-0.11024307
11	0xbdf2f96c	-0.1186398
12	0xbda00353	-0.07813134
13	0x3da02e26	0.07821302
14	0xbdd7fc04	-0.10546115
15	0xbd663cb4	-0.056210235
16	0x3d8ecc6d	0.06972585
17	0xbd79e808	-0.061012298
18	0x3b24a467	0.0025122405
19	0x3d123c21	0.035701875
20	0xbcc71838	-0.02430354
21	0x3d4a30b4	0.049362853
22	0xbae81f80	-0.0017709583
23	0x3e43bf0b	0.19115846
24	0x3e108f65	0.141172
25	0xbdc9a3a2	-0.098456636
26	0xbd92e9b7	-0.07173484
27	0xba23c749	-0.00062476523
28	0xbd787080	-0.060654163
29	0xbe0103db	-0.12599127
30	0xbd76ed51	-0.060284916
31	0x3d1f6081	0.038910393
32	0xbbb4f900	-0.005522847
33	0x3e109516	0.14119372
34	0xbd835d58	-0.06414288
35	0x3de2572d	0.11051784
36	0xbc20bde3	-0.0098108975
37	0xbd1d2c05	-0.03837206
38	0x3e07c7ef	0.13259862
39	0xbd5312f6	-0.051531754
40	0xbdc74829	-0.0973056
41	0x3e05737e	0.13032338
42	0x3dc92700	0.09821892
43	0xbda0501c	-0.0782778
44	0x3d9f9135	0.07791368
45	0x3daebfd8	0.08532685
46	0xbdff3872	-0.12461938
47	0xbe2bd48d	-0.167803
48	0x3dd7de19	0.10540409
49	0xbd6231c0	-0.055223227
50	0xbd5b3f62	-0.053527243
51	0xbcbd5ceb	-0.023115596
52	0xba230cef	-0.0006219884
53	0xbe11c0d0	-0.14233708
54	0x3e026e48	0.12737381
55	0x3ac61b00	0.0015114248
56	0x3e0b6f23	0.13616614
57	0x3e21fec2	0.15819839
58	0x3bfbf125	0.007688659
59	0xbd1d2e85	-0.038374443
60	0xbd89d6d3	-0.067304276
61	0x3d90c372	0.07068528
62	0x3e18b33e	0.14912125
63	0x3cd0c8f8	0.025486454

net.4.weight f4 [1, 64]
0	0xbd50617a	-0.05087421
1	0x3d9a4b3b	0.0753388
2	0x3d9f8e30	0.07790792
3	0x3dcb393a	0.099230245
4	0x3dc6ed8d	0.09713278
5	0xbdd43a5f	-0.10362696
6	0xbd1269a3	-0.035745274
7	0x3d647dcf	0.055784043
8	0x3cf4a478	0.029863581
9	0x3de42c8a	0.11141308
10	0x3c8be020	0.017074645
11	0x3d25e1bf	0.04049849
12	0xbd31f0b7	-0.043442454
13	0xbcb033c8	-0.021509066
14	0xbd45e793	-0.04831655
15	0xbd8859de	-0.06657766
16	0x3b779d76	0.0037783063
17	0xbdf9c8fe	-0.12196539
18	0x3ddac096	0.10681264
19	0xbd7c5a95	-0.061609823
20	0xbd949bc2	-0.07256271
21	0xbdb1a1ed	-0.08673463
22	0x3dcdc024	0.100464135
23	0x3e72ff88	0.2373029
24	0xbe083ac5	-0.13303669
25	0xbd48c4b4	-0.049015716
26	0xbd595841	-0.05306268
27	0xbb98d9c1	-0.00466463
28	0x3cf43f20	0.029815257
29	0x3e0dce81	0.13848306
30	0x3d727ecf	0.059202965
31	0xbd566460	-0.05234182
32	0xbd689cbb	-0.056790095
33	0xbdb2c11b	-0.08728238
34	0xbd85e24a	-0.06537302
35	0xbd313128	-0.04325977
36	0xbcbeaaa8	-0.023274735
37	0xbd99a6a3	-0.075024866
38	0xbd81ae34	-0.06332055
39	0xbdbb8548	-0.09156281
40	0xbc0f7530	-0.008755967
41	0xbd1f91f9	-0.03895757
42	0xbc98ecee	-0.018667664
43	0xbd567460	-0.052357078
44	0xbd5377db	-0.051627975
45	0x3d9c20ee	0.07623468
46	0x3d93bd4a	0.072138384
47	0x3ddcd7ed	0.10783372
48	0x3de7fa0c	0.113269895
49	0x3ac51680	0.0015036613
50	0x3d241ed5	0.040068466
51	0xbd91796c	-0.071032375
52	0x3d4dcdd1	0.05024511
53	0x3dc28e07	0.09499746
54	0xbdbbf054	-0.09176698
55	0x39d4aa00	0.0004056245
56	0x3e34536f	0.17609952
57	0xbddad351	-0.10684837
58	0xbdbfe2d6	-0.093694374
59	0x3dc8fd37	0.09813922
60	0x3e0fa7b6	0.1402882
61	0xbc944b1e	-0.018102225
62	0xbe0bbc5b	-0.1364607
63	0x3dee4d4c	0.11635837
