ppo_model_final.pt (torch, 132483 bytes, 33 tensors)

net.0.weight f4 [64, 8]
000000 34 cc b1 3e c1 9b cf 3e 44 c1 e0 3e e3 db e8 3d
       0.34726107 0.40548518 0.4389745 0.11370065
000010 23 18 8d be 60 b8 c8 3e ba da b5 3e 98 87 0c be
       -0.27557477 0.39203167 0.35518438 -0.137236
000020 c2 dc 45 be 20 13 23 3e 36 fa ba 3e 0c 57 91 3e
       -0.19322494 0.15925264 0.3651902 0.28386724
000030 48 f1 b1 be 5b 94 cc be 23 68 1a 3e 83 96 ad be
       -0.34754395 -0.39956936 0.15078788 -0.33903894
000040 9c a6 39 be b9 fe 59 3e 8b dc 52 be e6 4f 13 be
       -0.18129963 0.21288575 -0.20591943 -0.14385948
000050 dc dc 92 be 27 08 3e 3d 3c 97 50 be 13 46 0e 3e
       -0.28684127 0.046394493 -0.20370191 0.13893919
000060 16 91 97 be 95 37 1a be 54 48 21 bd 0e 8c fb 3b
       -0.2960288 -0.15060265 -0.039375618 0.007676608
000070 98 1b aa bd da 5d 69 3e b5 97 c9 3e 5c 82 03 3f
       -0.08306044 0.22789708 0.39373556 0.5137079
000080 7b 35 8b be 74 ad 90 3e c6 fd 42 3e 73 36 c7 3d
       -0.2718924 0.28257334 0.1904212 0.09727182
000090 c3 fe 9d be b7 bb 57 be 8b 78 f9 3e a9 9a 34 3e
       -0.3085843 -0.21067701 0.4872478 0.17637123
0000a0 6f 07 5f 39 98 fa ca 3e d6 6e 0d bf 00 65 01 3e
       0.00021269706 0.39644313 -0.5524725 0.12636185
0000b0 3a e6 55 be 65 84 d3 3c 0c c6 21 3f b6 31 cf 3e
       -0.20888606 0.025819967 0.6319282 0.40467614
0000c0 4a 43 c4 3e c9 b6 59 be 8a 16 8b ba 04 1c b4 3d
       0.38332587 -0.21261133 -0.0010611576 0.08794406
0000d0 7e 75 fa bd 08 79 60 be c8 e3 74 3d e6 c0 bc be
       -0.12229441 -0.2192117 0.05978754 -0.3686592
0000e0 ef 6c b4 3d c7 94 64 3c 19 37 ce bc dc 67 7e 3e
       0.0880984 0.013951487 -0.025172757 0.24844307
0000f0 45 3c 4e 3b 81 38 91 bd f8 58 d3 3e ae 6a 46 3d
       0.003146903 -0.070908554 0.41278815 0.04844158
000100 92 6f 41 3e c2 41 54 3e 9e ce dc bd b5 15 73 3e
       0.18890217 0.2072821 -0.107815966 0.2373875
000110 d7 a6 ee bd 9e 88 06 bd 0a 08 1c 3e 0e 1d d0 bd
       -0.11652916 -0.032845132 0.15237442 -0.10161792
000120 ec 33 a6 3e b4 0b 52 3e 5c 70 44 bc d1 14 a0 3c
       0.32461488 0.20512277 -0.011989679 0.019541176
000130 41 d3 d8 3e e0 e8 44 be a5 d8 bc bd c1 86 9e 3e
       0.42348674 -0.1922946 -0.09221009 0.30962184
000140 fb b5 90 be 8d b9 c6 3d 31 90 24 3e 1f 49 d2 bd
       -0.2826384 0.0970336 0.1607063 -0.10267853
000150 6e 41 1e be 42 ed b7 be e8 bd 07 3e 56 3f 09 3e
       -0.15454647 -0.359232 0.13256037 0.13403067
000160 de eb 0d 3e b7 ba 51 be 9f 0d 84 be 4b aa 58 be
       0.13859507 -0.20481382 -0.25791642 -0.21158712
000170 a3 4a 1f be 02 06 96 be e0 29 82 bc 48 60 39 bd
       -0.15555815 -0.2930146 -0.015889108 -0.045257837
000180 ca 7d 9b be e0 13 ef 3d 2c e3 e6 3d 80 d2 65 bc
       -0.30369407 0.11673713 0.11273798 -0.014027238
000190 35 49 35 be 5f 07 a6 be 53 d0 5e be c0 fd 6b 3c
       -0.17703708 -0.324275 -0.21759157 0.01440376
0001a0 b6 3f 50 3d c5 a0 ab 3e 79 12 1d 3f 8a cf 19 3e
       0.05084201 0.33521095 0.6135631 0.15020576
0001b0 1d 82 87 3e ec a6 cb bd fa 0c a3 be e2 ff cd be
       0.26466456 -0.09943947 -0.31845838 -0.40234286
0001c0 d4 cf c5 bd eb 5e 02 be 96 19 94 be 60 ec 89 3e
       -0.09658781 -0.12731521 -0.2892577 0.26938152
0001d0 2f 1c ad be 8f 14 25 3d 5e c4 62 3e be 17 0d bd
       -0.33810565 0.04030281 0.2214522 -0.03444647
0001e0 48 0d f4 bd ee 31 66 be 62 89 0a bf 0b 47 30 3b
       -0.11916596 -0.22479984 -0.5411588 0.0026897814
0001f0 a6 f9 e7 3d a0 04 81 be 41 b3 19 3f 95 83 ef 3e
       0.113269135 -0.2519884 0.60039145 0.46780077
000200 5c 3a 36 be 58 c9 f9 3e 56 db 86 3d d9 5c 6e bb
       -0.177957 0.48786426 0.06584804 -0.003637126
000210 da 9a 3c bd ed 98 9b 3e 9e 22 57 3e 1c 4a f9 3e
       -0.046046115 0.3039011 0.21009299 0.48689353
000220 a3 c0 8c bd 09 0d 26 be ad 84 98 3e 5b aa 64 3e
       -0.0687268 -0.1621591 0.29788724 0.2233061
000230 0d c7 3c 3e 28 5f 05 3e ca 7a 82 3e 5c 73 1d be
       0.18435307 0.1302458 0.25484306 -0.15376037
000240 75 62 a1 3e 46 e9 7a 3e 26 01 83 3e 65 83 d0 be
       0.3152043 0.24503049 0.25586814 -0.40725246
000250 fe fc f6 bd 33 93 bf bc 2f dd 66 3e 88 b8 3f 3e
       -0.12059973 -0.02338562 0.22545312 0.18722737
000260 dd 5d d1 be ea c8 3e 3e 0c 85 d0 bd 53 45 49 be
       -0.40891925 0.1863133 -0.10181627 -0.19655351
000270 19 fc 07 3d e6 a9 67 be f1 5e c1 be af 40 55 3d
       0.033199403 -0.22623405 -0.37767747 0.05206364
000280 7d 7f 85 3e 9c 68 af 3e 17 0d b2 3e ae f8 cc 3d
       0.26073828 0.34259498 0.34775612 0.100083694
000290 0b 72 e8 3e b0 c3 72 3c ea af 11 be a2 37 8e bd
       0.45399508 0.014817163 -0.14227262 -0.06944205
0002a0 75 60 4e be 4d 1e 0d be fb ee 4a 3e 89 d6 c9 bd
       -0.20153983 -0.1378109 0.19817726 -0.098553725
0002b0 33 da d3 3e a8 39 b1 3b 01 1e 6f 3e 94 ff 01 be
       0.4137741 0.0054084845 0.2335129 -0.12695152
0002c0 38 8e 98 be dd d3 b8 bd 80 22 c8 be ef e2 d1 3d
       -0.29796004 -0.09024785 -0.3908882 0.10248362
0002d0 56 77 35 3b 49 0e c0 3a b5 ac bc 3d 4f ad f8 3e
       0.0027689538 0.0014652695 0.09212629 0.48569724
0002e0 26 30 d2 3e 03 b4 a5 3e 95 be 7e bd e5 b8 6c bc
       0.4105236 0.323639 -0.062193472 -0.014448379
0002f0 b2 22 c6 3d 32 5f 92 3e 75 d7 83 3e 60 dc cb ba
       0.09674586 0.28588253 0.25750318 -0.0015553348
000300 df 3b 4b bc 20 ab b2 bd 6b 68 36 be e6 96 10 3e
       -0.012404411 -0.08724046 -0.1781327 0.14120063
000310 f4 f9 84 3d 5a 00 14 3e 40 53 d6 3d 38 23 ab 3d
       0.06492987 0.14453259 0.104650974 0.08356327
000320 b0 f4 ad be d8 d9 9a be f1 32 b9 bd d7 7b ce 3d
       -0.33975744 -0.30244327 -0.090429194 0.10082214
000330 00 bb a3 be f5 d9 5b 3d d1 b8 d1 be 64 e6 55 3e
       -0.31978607 0.053674657 -0.40961316 0.20888668
000340 68 67 64 3d c1 3f 9d be 20 cb 79 bd 26 33 92 be
       0.05576268 -0.30712703 -0.06098473 -0.28554648
000350 10 6d 1a bd 7d 40 44 be 32 fb 26 3e 7b b2 96 be
       -0.037701666 -0.19165225 0.16306761 -0.29433045
000360 a4 f8 0b be 6e 95 c3 bc 0e 2c 31 3d 8b b6 25 3e
       -0.13669068 -0.023874965 0.043254904 0.16182916
000370 67 48 8f bd cb 7b 44 be 00 cf d0 3e 67 3c d8 3e
       -0.069962315 -0.19187848 0.40782928 0.42233583
000380 8d 03 1e 3b a4 ae 81 3e 40 54 09 3e 5c 98 35 3b
       0.0024111003 0.25328553 0.13411045 0.0027709221
000390 91 11 ba bc 2c 98 00 3d 8c 04 ac 3e 1c c9 d7 3e
       -0.022713454 0.031395122 0.3359722 0.42145622
0003a0 c8 e4 81 3e 6b 2e 6a 3d 38 ef 11 3d cd be 56 be
       0.2536986 0.057173174 0.035628527 -0.20971222
0003b0 87 9e 8d bd 38 62 d7 be f7 9a ff 3e bf b3 c0 3e
       -0.06915002 -0.42067122 0.49922916 0.37637135
0003c0 9c 67 7f be 7c 11 ec 3d 8a ea 61 3e a3 b9 b3 be
       -0.24941868 0.115267724 0.22062126 -0.35102567
0003d0 6b 21 4a 3d 93 de 2d 3e fd c2 99 3e ce 1a 3f 3e
       0.049348276 0.16979437 0.30031577 0.18662569
0003e0 ed d6 e8 bd be 10 1e bd 1f 82 a4 3e 3c f5 54 3d
       -0.11369119 -0.038590185 0.32130525 0.051991686
0003f0 2d 0e b0 3e 99 c2 ac 3c 4c cd e6 bd 3d af 80 be
       0.34385815 0.021088885 -0.11269626 -0.25133696

net.0.bias f4 [64]
000000 0c b3 7b 3e 58 e4 95 be 3f b3 5e 3e 52 25 da 3e
       0.2458002 -0.29275775 0.21748064 0.42606598
000010 bc 92 08 bc 17 2a 81 3e a9 0a 52 3e 8f 69 2c bd
       -0.008335765 0.25227425 0.20511879 -0.042092856
000020 67 3c 9e 3b cb 69 40 ba 7d a6 9c be 0e 4e 3f 3e
       0.004828978 -0.0007339983 -0.3059577 0.18682119
000030 60 49 a8 be 5e 20 05 bf e7 5f 5e 3e db b9 da 3e
       -0.3286848 -0.52002513 0.21716271 0.4271992
000040 5d f1 23 3f 06 09 6d 3e fa 50 ba be 7b c5 9a 3d
       0.64040166 0.23147973 -0.36389905 0.07557198
000050 8c 0e 1c be 31 1b 6a bd 22 62 c5 3e b6 85 09 3f
       -0.15239924 -0.057154838 0.38551432 0.5371965
000060 d5 cc f4 3d 3b 6f 9b be 33 32 10 be 0b a5 89 3e
       0.11953131 -0.303583 -0.1408165 0.2688373
000070 01 9c 0c 3f 0c c3 3f 3e 77 15 a4 39 2e d2 02 be
       0.54925543 0.18726748 0.0003129651 -0.1277549
000080 a2 b8 a2 3e a8 8a 0a 3e 22 0a 81 be 28 47 23 be
       0.3178149 0.13529456 -0.25203043 -0.15945113
000090 51 e1 88 3e 4c 56 8c 3e 07 d8 46 3c 5a 00 d8 be
       0.26734403 0.2740959 0.012136466 -0.42187768
0000a0 ef 97 65 bd 9a 14 85 be bf 76 66 be e0 56 6b 3c
       -0.0560531 -0.2599228 -0.22506236 0.014363974
0000b0 91 36 47 be 60 d3 49 3d 45 cb 39 3e a9 3d 8b bd
       -0.19454409 0.04927385 0.18143947 -0.0679887
0000c0 2e d1 70 be 65 82 9f be 2b 52 12 be 29 d7 21 3d
       -0.23517296 -0.3115417 -0.14289157 0.039511833
0000d0 21 81 aa 3e c4 2b 76 be 09 ac a0 3e e5 29 48 bb
       0.33301643 -0.24040133 0.31381252 -0.003054255
0000e0 dd e8 51 bd cb f1 d1 be 53 e2 d2 3e d1 73 07 be
       -0.051247466 -0.41004786 0.41188297 -0.13227774
0000f0 8f 41 18 bc 6b 0d a4 3e 63 6b 91 3e a8 e6 83 be
       -0.009292974 0.32041487 0.28402242 -0.25761914

net.2.weight f4 [64, 64]
000000 ef ba 9f bd 4c ed 67 bd 44 ee 52 3d 98 56 4b bd
       -0.07799327 -0.05662279 0.05149676 -0.04964313
000010 96 4c 83 3d f7 34 a2 bd 7b c2 30 bb e9 fc 1e bc
       0.06411092 -0.079202585 -0.0026971388 -0.009703853
000020 bf 3a d5 3d 35 50 7b 3c 2a 89 ad 3d 24 03 6e bd
       0.104115956 0.015338947 0.084734276 -0.058108464
000030 40 93 5f bd d6 2b ee bd 27 5d c9 bc e8 40 b8 bd
       -0.054583788 -0.11629455 -0.024580551 -0.08996755
000040 1e 75 e9 bd c2 d3 3f bc f0 57 54 3c ff f1 83 3c
       -0.113992915 -0.011708202 0.012960419 0.016106604
000050 e5 a9 42 3c 09 7b 04 bd c2 bb 8b 3c b5 30 8f bc
       0.011881326 -0.032343898 0.017057303 -0.01747928
000060 5f 9b 3c 3d 10 ab 18 3c f4 8d e3 3d c5 d2 a7 bd
       0.04604661 0.009318128 0.1111106 -0.08194498
000070 89 a5 01 be 45 1b 92 3d f9 e6 4b bd 4c cc 05 3e
       -0.12660803 0.071341075 -0.04978082 0.13066214
000080 2b 02 04 bd cf bd 6c 3b 92 28 a0 3d a1 03 81 bd
       -0.03222863 0.0036123877 0.07820238 -0.0629952
000090 a9 75 d8 3d d0 bc 87 bd 02 52 a2 3d d6 81 f4 bc
       0.10569317 -0.0662781 0.07925798 -0.029847067
0000a0 41 d1 dc bd 60 ad bb bc 48 99 bc bc 14 03 46 bd
       -0.107820995 -0.02290982 -0.023022309 -0.04834278
0000b0 cb 9b 03 3e d0 86 28 3d 74 4e a7 bd 10 ce 60 bd
       0.12852399 0.041144192 -0.081692606 -0.054884017
0000c0 37 33 9e bd 67 84 e2 3c 60 51 b9 3d b3 61 c6 3d
       -0.07724612 0.027651025 0.09048724 0.096866034
0000d0 8b f7 01 bd be 57 ee 3d 6c 31 d5 bd f5 54 6a 3d
       -0.031730216 0.11637829 -0.10409817 0.057209928
0000e0 87 47 e0 bd 0c 1e bf 3d 3d d4 bd bc f1 20 f0 3c
       -0.10951143 0.09331903 -0.023172492 0.029312583
0000f0 3f be c2 bd 30 9f 65 3c 40 2e 63 3c 68 5b c3 3d
       -0.09508943 0.014015004 0.013866007 0.09538919
000100 ba 34 c5 b9 ca 6b ac bd 35 3b 95 bd 5b 9f 36 3d
       -0.00037614052 -0.08418997 -0.072866835 0.044585567
000110 2e c8 26 be 4b 77 26 3d a6 68 f7 bd af e0 58 be
       -0.162873 0.04064111 -0.12080507 -0.2117946
000120 ea 11 c5 bd b8 71 20 3c fd f0 40 bd 02 4f da 3d
       -0.096225575 0.009792738 -0.047104824 0.10659601
000130 24 7b 7d bd ba 49 86 3d fa 59 2c be 80 26 27 bd
       -0.061885014 0.06557031 -0.16831198 -0.0408082
000140 d0 44 39 be 3a d3 0d bc 19 37 58 bd 03 b0 18 bc
       -0.18092656 -0.008656317 -0.05278692 -0.009319308
000150 92 04 25 bd a2 68 50 3d 81 69 84 3c 06 fe 96 3d
       -0.04028756 0.050881036 0.01616359 0.0737267
000160 92 07 13 be 81 32 cb bc 78 31 ac bd f7 a5 13 be
       -0.14358357 -0.024804356 -0.08407873 -0.1441878
000170 35 10 2e 3d 71 95 d8 bb cd b9 d5 3c b5 8a a2 3d
       0.042495925 -0.0066096117 0.026089573 0.079366125
000180 e6 db c3 bd 17 8e bc bc c0 41 79 bb a4 7e a4 3d
       -0.09563427 -0.023016972 -0.0038033575 0.08031967
000190 cb 8f 63 3d 0e 15 2c 3d 95 ce 41 3d 8f 58 61 3c
       0.055557054 0.042012267 0.047316153 0.013754024
0001a0 5f 00 82 bc 87 70 0a bd 20 3d 3f 3c 20 05 73 bd
       -0.015869318 -0.03379872 0.011672288 -0.05933106
0001b0 1e 84 27 be 60 d1 b0 bb 6e 5f 3f bc 6a 58 fc 3d
       -0.16358992 -0.005396053 -0.011680467 0.12321551
0001c0 06 ab 06 3e 15 70 16 be d9 59 92 3d 9c c6 71 3c
       0.13151178 -0.14691193 0.07146043 0.014756825
0001d0 cc a7 b7 3d 70 3a 9a bc 50 b7 c5 3c 79 95 54 3d
       0.089675516 -0.018826693 0.024135262 0.05190036
0001e0 ba 62 a3 3d 8b ac 15 be 8f 78 4f 3d b7 75 ab bd
       0.07977815 -0.14616601 0.050652083 -0.08372062
0001f0 a3 ac fd 3c f9 60 ff 3d b6 5e b3 bc 00 db 08 bd
       0.030966109 0.12469668 -0.021895748 -0.03341198
000200 69 67 08 bd 34 ef 16 bd 20 fd ae 3b 76 f7 0f bc
       -0.033301745 -0.036849216 0.0053402334 -0.008787027
000210 44 45 23 3d b9 c8 af 3b dc 47 a1 3b 3d e9 78 bd
       0.03986098 0.005364504 0.0049218964 -0.06076931
000220 b4 b7 c9 bd 9a 96 83 3d a9 b5 81 3d 42 1c f5 3d
       -0.09849492 0.06425209 0.06333477 0.119682804
000230 22 f0 c5 3d 92 c1 f6 bc 2c 15 01 be 21 3b 06 3e
       0.09664942 -0.030121598 -0.12605733 0.13108493
000240 74 a2 37 3e 46 74 e4 3b f3 68 99 bd 72 33 d9 bc
       0.17933065 0.0069718687 -0.074907206 -0.026513789
000250 6d 1a 35 be 6e e3 ea bd 95 3a 67 3c 3b 16 02 3e
       -0.17685862 -0.1146916 0.014113088 0.12703793
000260 c5 08 e1 bd 20 f0 7c bd 7a 07 cd bd 4b 1a 9c 3d
       -0.10988001 -0.06175244 -0.10011192 0.076222025
000270 2d 3e 54 3d 35 b6 aa 3d 03 ad aa 3b dc bb 93 3c
       0.051817108 0.083355345 0.005208613 0.018033914
000280 86 be c4 bb 27 e8 18 bd bc 2b 15 bd cc f6 03 3e
       -0.0060041575 -0.037330773 -0.03641866 0.12887114
000290 b0 d7 fd bd bb 64 56 3b 54 77 be 3c f3 c4 75 3d
       -0.12394655 0.0032713849 0.02325026 0.06000228
0002a0 86 a6 c6 bd 88 6b b5 3c 52 b6 c6 3d 2a fa 88 bd
       -0.096997306 0.022146001 0.097027436 -0.0668834
0002b0 f5 af 32 be 3e aa ce bd b3 d2 af 3c 9b 0b 14 be
       -0.17449935 -0.10091065 0.021462774 -0.14457552
0002c0 a0 8c 5e 3e 9c fe 1f be 25 bc 72 3e 52 74 b5 bc
       0.21733332 -0.1562447 0.23704584 -0.022150192
0002d0 b2 dd 0c 3e d8 6c 0d bd 32 8d bb bd 91 7b 5b be
       0.13756445 -0.03452763 -0.0915779 -0.21433856
0002e0 3d 89 f5 3c f3 a4 92 bd 2a 70 d8 3d 71 9e 5b bd
       0.029972667 -0.07160368 0.105682686 -0.0536179
0002f0 aa 53 5a 3d ce 23 71 3e 0b 91 45 3c ae 8d cf bd
       0.053302445 0.23548815 0.012058507 -0.10134445
000300 d2 02 d4 3d 28 86 82 bd 8e db d1 bd 8b 94 6b be
       0.103521004 -0.063732445 -0.10246955 -0.23005883
000310 33 80 22 be c5 37 04 be a9 5b b1 bd 5c 5e f6 3d
       -0.15869217 -0.129119 -0.08660061 0.12029716
000320 01 bc ec 3d da c7 2b 3e c7 ec ac bc 40 c1 04 3c
       0.115592964 0.16775456 -0.021108998 0.008102715
000330 30 71 48 bd 7a 9e 1b 3e a9 36 41 bd bd 47 4b be
       -0.04893607 0.15197173 -0.04717127 -0.19851585
000340 86 9a 21 be a0 dd 25 3e b8 10 3a bd ef df dd b9
       -0.15781602 0.16197824 -0.0454261 -0.00042319248
000350 61 53 83 3e 42 f8 f1 3d 37 89 6a bb 65 be 32 3e
       0.2564955 0.118149295 -0.0035787353 0.17455442
000360 71 03 15 3d 36 6d bf 3c 6e e2 9d 3d 07 02 f0 bc
       0.036380235 0.023367506 0.07709204 -0.029297842
000370 9f 18 06 3d c6 f9 73 be b6 4d 8f 3d e8 87 9c 3e
       0.032738324 -0.2382575 0.06997244 0.30572438
000380 8e e1 76 3e ea e6 46 3e f6 d1 b4 3d b7 14 32 bd
       0.2410948 0.19424024 0.08829109 -0.043476786
000390 30 1e 47 3e be 4a f0 3d 3b 44 66 3d 24 4f 4f 3d
       0.1944511 0.11733006 0.056217413 0.050612584
0003a0 96 7c 8f 3c 74 48 f5 bd b4 62 40 3d 18 8b ba bd
       0.017515462 -0.1197671 0.04696913 -0.09108561
0003b0 14 61 8e 3e f0 9f c5 3c c9 99 94 3e 18 49 a5 3e
       0.2780844 0.024124116 0.2902358 0.3228233
0003c0 4f db c1 bd 47 12 57 3d bc ee 41 3e 43 f1 43 be
       -0.09465658 0.052507665 0.18938726 -0.19135003
0003d0 7b 97 5f be a0 4d 93 3b a2 e2 f8 3d 9b 9f 71 3e
       -0.21835129 0.0044953376 0.12152602 0.23596041
0003e0 38 09 2b 3d 62 ca 81 3e 08 3f 75 3e e1 12 60 bc
       0.04175684 0.25349718 0.23949826 -0.013676376
0003f0 bc e9 cc bd 7b ad 0f be bc 3c 4d 3e 8e d7 aa 3d
       -0.10005519 -0.14031021 0.200427 0.08341895

net.2.bias f4 [64]
000000 08 5d 13 be 26 d7 8e bd e0 b7 d8 3c ac 21 02 3e
       -0.14390957 -0.0697463 0.026454866 0.12708157
000010 54 fc ee bb c8 90 3b bd 12 3f cc bd b9 dc b2 bb
       -0.0072932635 -0.04579237 -0.09972967 -0.005458441
000020 54 c3 99 3e 39 5b f8 3d bf 52 33 bd 25 06 42 bd
       0.30031836 0.12126774 -0.043780085 -0.04736914
000030 00 3b fb bc 64 b8 d1 3d 2d 70 a3 3d b9 72 cd ba
       -0.030667782 0.10240248 0.0798038 -0.0015674449
000040 b3 64 b3 3c c7 41 56 3d ea 2c de bd 8d 2d ae 3d
       0.021898603 0.052308824 -0.108484104 0.08504782
000050 18 25 1c 3e a3 ab cd 3d 47 73 8d bd d0 41 07 3d
       0.15248525 0.10042503 -0.06906753 0.033021748
000060 1d f7 e3 3b 2b 93 53 bd 9e 71 96 3d 6b 50 11 3d
       0.0069569484 -0.051654022 0.073458895 0.035477083
000070 da 7d 91 bc fb 56 6e 3c 93 e8 7a 3d e2 0f d4 bc
       -0.017760206 0.014547105 0.061256956 -0.02588648
000080 d6 d5 b6 3d 58 43 f3 bd e7 1f 14 bd 78 4e 06 3e
       0.08927505 -0.11878079 -0.036163237 0.13115871
000090 04 32 45 bd 47 d7 91 bd 7d 98 3f bd f9 fe 8e bc
       -0.0481434 -0.07121139 -0.046776284 -0.017455565
0000a0 72 28 3b 3d 54 14 0b 3e 18 85 b7 3e d2 22 fc 3d
       0.04569287 0.13581973 0.3584373 0.12311329
0000b0 f2 13 70 3c 61 28 95 bd 63 e1 da bd 92 ec 90 3d
       0.014653193 -0.07283092 -0.1068752 0.07076372
0000c0 a1 58 de 3d 50 27 00 be dc 13 79 3d 52 6c c5 bd
       0.10856748 -0.12514997 0.060809955 -0.09639801
0000d0 58 85 af 3c 7a b5 c9 bc 67 f7 1d 3d 8d 3c ee bd
       0.021425888 -0.024622668 0.03856602 -0.11632643
0000e0 ff ce 9f 3c b7 c0 96 3e 60 74 c5 bd ce 42 3b 3d
       0.019507883 0.29443905 -0.096413374 0.045718007
0000f0 71 50 84 bd 92 85 87 bd 2d 6a 65 3d 90 4e 55 bd
       -0.064606555 -0.066172734 0.05600946 -0.052076876

net.4.weight f4 [4, 64]
000000 99 9d 0a 3c d5 b5 a5 3a 21 f2 ec 3d d1 2e 09 be
       0.008460426 0.0012642691 0.1156962 -0.13396765
000010 0c ba c6 3b d1 16 04 bc ab bc 1d 3a 4f b9 70 3b
       0.006064659 -0.0080620805 0.00060171884 0.0036731546
000020 b6 73 e4 3d ae b8 1d 3d 01 2a 82 bb 8d c4 c2 3a
       0.111548826 0.038506202 -0.0039722924 0.0014859602
000030 20 da 82 3a ca 8e b2 3b 3c 27 17 3d 86 48 f9 3c
       0.0009983219 0.0054491507 0.03690265 0.03043009
000040 88 fd 29 3d 73 56 e9 3c de 39 3f 3b 92 34 07 3e
       0.041501552 0.028483605 0.0029178779 0.13203648
000050 e3 47 99 3d 64 70 7a bb a9 58 81 bb f0 cc a3 bc
       0.074844144 -0.0038213963 -0.0039473367 -0.019995183
000060 ac 74 b5 ba ad 14 35 3d d5 fd db 3b b4 b9 e7 bb
       -0.0013843975 0.04420917 0.0067136087 -0.007071698
000070 95 e4 41 3d a7 bb 27 3c 77 65 ed 3b 62 9f 09 bc
       0.047337133 0.010237611 0.0072447616 -0.008399816
000080 6d 2f cb bb 15 ab 55 3c 7a 36 b4 bd 73 83 3b 3e
       -0.006200722 0.013041277 -0.08799453 0.18311863
000090 d5 c3 39 3d b7 32 71 3b 97 fa 21 3e ec f4 1e 3b
       0.045352776 0.003680391 0.15818249 0.0024254872
0000a0 10 f1 40 bd 33 d4 13 3e a5 1a d3 3d 19 12 54 3d
       -0.047104895 0.14436416 0.103078164 0.05177507
0000b0 31 ef fd 3b 1a b2 8d 37 d5 a4 82 3d 14 f2 94 3c
       0.007749461 1.6891445e-05 0.063790955 0.018181838
0000c0 8a 04 a1 3c ea 8f 2d 3c f2 be 0b 3b 4b 97 3d bb
       0.019655485 0.010593394 0.002132353 -0.002892929
0000d0 80 b5 bd 3c 88 ed 12 bc c3 0e 74 ba 3f 7c 87 3b
       0.023157835 -0.008967765 -0.0009310061 0.0041346843
0000e0 7f d3 a3 3b 90 d6 18 3e 39 13 99 3a f7 b0 d2 3c
       0.0049995775 0.14925599 0.0011678702 0.025719149
0000f0 77 25 9e bc 0b 0a 2f bc 82 6e 73 bc e3 af 20 bb
       -0.019304974 -0.010683547 -0.01485789 -0.00245189
000100 b5 d6 e3 bb c0 f1 5d bd 35 76 b8 3c 4f 80 0c be
       -0.0069530853 -0.05418563 0.022517303 -0.13720821
000110 97 d5 9e bc 18 94 0f bb 50 4f 95 bc 8f 16 4b bc
       -0.019388957 -0.002190834 -0.018226296 -0.012395515
000120 72 07 f5 3d 0a 7b f0 ba 1b f5 ab 3a f0 07 8f 3c
       0.11964311 -0.0018347215 0.0013119312 0.01745984
000130 c4 9e 18 3b 2d 2a 4f 3d 0d 3f 24 ba cc 90 f1 bb
       0.002328799 0.05057733 -0.0006265499 -0.0073719975
000140 b4 12 fd 3d d6 fe 52 bc 54 3e 3b 3b 06 53 e3 3d
       0.12357083 -0.01287814 0.0028571086 0.1109982
000150 96 9d ae bc d0 c4 63 bb 1c b2 ba ba 0a 1d f3 bb
       -0.021315377 -0.003475476 -0.0014243755 -0.007419233
000160 a6 aa c3 3c 16 6e 2d 3c 90 e1 e9 3b 5b 67 a3 3a
       0.023885082 0.010585329 0.007137485 0.0012466715
000170 bd a4 ea bc 74 27 1d bb 32 d9 92 bc 1f 4b 7e 3c
       -0.028643006 -0.0023979815 -0.017925832 0.01552084
000180 56 de 89 3c 7c e3 07 3b 5b a5 80 3d 1d eb d9 bd
       0.01682965 0.0020734956 0.06281539 -0.106405474
000190 7f 21 93 bd b9 c2 db 3c da d1 74 bd df 42 32 ba
       -0.07184123 0.02682625 -0.059770443 -0.00068001257
0001a0 30 00 13 bd 7d 77 b2 3d 6f e4 90 3d dd 4a 74 bc
       -0.03588885 0.08714197 0.0707482 -0.014910427
0001b0 ea da 81 ba 20 03 ba b8 05 ce 34 3c 57 b9 5b bc
       -0.000990716 -8.869753e-05 0.011035447 -0.013410888
0001c0 8b da aa 3c 0b 6d 86 3b 04 09 22 3b 9c 3d 31 3c
       0.020856163 0.0041023544 0.0024724612 0.0108179115
0001d0 c5 3b 3d 3c d3 56 31 3c a4 9f 0c 3c ec c1 9b 3c
       0.011549895 0.010823923 0.008582983 0.019013368
0001e0 e8 32 7f bb e9 d8 26 3e e0 1d 60 3c 16 86 60 3c
       -0.0038940255 0.16293682 0.013678998 0.013703844
0001f0 a7 74 31 3c d4 bf 83 b9 6b b5 4d 3c f3 b5 f5 ba
       0.010831035 -0.0002512919 0.01255546 -0.0018746242
000200 00 40 95 ba 11 47 ad 3d 11 92 22 be 38 cd 6a 3e
       -0.0011386871 0.084608205 -0.15876032 0.22929847
000210 b3 6b a3 bc 2a 25 4b 3c 05 4b 44 bc 63 a6 22 3c
       -0.019948816 0.012398997 -0.011980777 0.009927365
000220 08 bc 66 bd df d9 a7 bc 6c 7c fc 3b 01 9b 49 3c
       -0.056331664 -0.020489631 0.007705262 0.012305022
000230 1c b4 99 ba da 08 3b be 53 40 5e bd ed 28 4c bc
       -0.001172665 -0.18265095 -0.054260563 -0.012460929
000240 45 e9 ef bd 74 8d 91 bc 26 23 d8 ba 75 67 f4 bd
       -0.117144145 -0.017767645 -0.0016489967 -0.11933795
000250 03 5a 31 be 5d 0e 6a 3c 53 ce f3 ba 46 df 44 ba
       -0.17319493 0.014285651 -0.0018600918 -0.0007510077
000260 2d 25 54 3c b6 5a bc 3b 28 af f4 bc cd 8d f3 3a
       0.0129483165 0.0057481183 -0.029868677 0.0018581689
000270 8f 2f af 3c 68 d9 a7 bc 19 3e d2 39 84 86 64 3c
       0.021384982 -0.02048941 0.00040100588 0.013948087
000280 a6 b0 9c bc 1d d4 c8 3c 44 80 8b 3e 0c 5e 05 bd
       -0.019127201 0.024515206 0.27246296 -0.032560393
000290 95 04 34 bc 23 15 e5 bc e4 73 8d bd b5 0d ee 3b
       -0.010987421 -0.02796418 -0.0690687 0.0072648176
0002a0 6e ee fe 3d 2f fb c7 bd 8c a6 13 3e 36 4f 20 be
       0.124478206 -0.09764706 0.14419001 -0.15655217
0002b0 3c 95 07 bb ae 20 f1 ba d2 4c be bd d1 f2 ac bd
       -0.0020688316 -0.001839658 -0.09291996 -0.08444751
0002c0 12 b0 34 bb 4e cf ad 3b 80 ea 4b b9 6a db 59 bc
       -0.0027570766 0.0053042537 -0.00019446947 -0.013296941
0002d0 fe b2 c8 bc 5f e7 6e 3c 24 ac 82 3c 39 33 d7 ba
       -0.024499413 0.01458153 0.015951224 -0.0016418464
0002e0 56 bd 2b 3b 57 94 00 bd 72 93 44 3c e7 b8 55 bd
       0.0026205382 -0.031391468 0.011998044 -0.05217829
0002f0 f2 b9 3a bd 55 4c 8c 3b 1d 29 42 bc a0 57 46 39
       -0.045587488 0.0042815604 -0.0118506225 0.00018915394
000300 6e 6a 02 3d ff c5 04 3d 24 a0 51 be 92 04 9c 3e
       0.03183978 0.032415386 -0.20471245 0.30472237
000310 4b 99 39 3a a3 8f 7f ba 26 1d 28 3d f3 44 43 bc
       0.00070800324 -0.00097488816 0.041043423 -0.011918294
000320 3e 30 85 be 14 c4 9f 3c 42 aa 98 ba 67 78 f8 b9
       -0.26013368 0.019502677 -0.001164742 -0.00047391953
000330 1d 00 98 ba 89 8d 23 be 2e 83 fc 3c d4 c0 c4 3b
       -0.0011596713 -0.1597196 0.03082427 0.006004432
000340 f0 2e 0b bd 85 22 8f 3c cc 52 b3 3a 9f 34 63 be
       -0.03398031 0.017472515 0.0013681292 -0.22188042
000350 14 9b 8b 3d 54 93 01 3b bd 46 ee 3b ad 89 e5 3c
       0.06816688 0.0019771652 0.0072716163 0.02801975
000360 ac ce 22 3c 7c a0 75 3b eb 92 88 3c 17 a3 9c 3b
       0.00993697 0.003747969 0.016671618 0.004780184
000370 a6 a5 bb bd 24 57 fe 39 32 7b 06 3c c0 f4 a1 3a
       -0.09162454 0.0004851158 0.008208083 0.0012356266
000380 2f 7c 2c 3c 49 d5 10 3d f0 9e 3c 3e 6a 02 83 bd
       0.010527655 0.035359655 0.18420005 -0.06396945
000390 15 1e 9d 3c 90 61 29 bd 3b 28 e2 3c bb 11 ce 3b
       0.019179383 -0.04135281 0.027607074 0.0062887347
0003a0 9c 56 70 3d 2d 3d 57 be 5e 05 a9 be 81 6b b3 3d
       0.058676347 -0.2101943 -0.33011907 0.08760739
0003b0 f3 c9 6b 3a 30 67 b0 b9 c7 8e 0e 3d 6c 75 0c 3d
       0.00089946314 -0.00033646217 0.03480413 0.03429167
0003c0 3e d7 96 bc 58 52 b0 bb 57 a7 22 bb 8a 23 ef ba
       -0.018413182 -0.00538091 -0.002481898 -0.0018244844
0003d0 f9 44 64 3c 2e 3f 57 3c e8 7b c8 bb 64 28 c2 3c
       0.01393246 0.013137622 -0.0061182864 0.0237009
0003e0 96 f9 e8 3a df 74 9e be 1a 31 08 ba 32 fa 0c 3d
       0.0017774578 -0.3094854 -0.0005195305 0.034418292
0003f0 bd 57 1c bb 99 53 0f 3b b7 5b 1f 3c e4 4c 82 ba
       -0.0023856007 0.0021869896 0.009726456 -0.0009941128

net.4.bias f4 [4]
000000 ba 89 22 bf f1 41 3c bf 96 fe 1a bf 5a 87 83 3f
       -0.63491404 -0.7353812 -0.6054472 1.0275681

net.0.weight f4 [64, 8]
000000 b9 c7 9c 3d 14 63 b7 3e f4 72 cf be 15 58 ab bd
       0.076552816 0.35817778 -0.4051739 -0.0836641
000010 25 67 f1 be 88 a9 ab be a3 cb 9b 3e 1d 5d 57 bc
       -0.47149006 -0.3352778 0.304288 -0.0131447585
000020 b4 89 0f 3f e2 10 08 3f 09 7e 51 3f f0 ab c0 be
       0.56069493 0.5315076 0.8183294 -0.37631178
000030 f7 30 35 3e 19 ab 86 bf 8e e9 fa bd 2e 05 8e be
       0.1769446 -1.0520965 -0.12251578 -0.27738327
000040 20 7e 41 be 23 3f a6 be e9 21 90 bf 80 34 10 bd
       -0.18895769 -0.32470044 -1.1260349 -0.035206318
000050 3b 62 b4 3e 59 f1 58 3e 57 f8 94 3e b9 1d 0c 3e
       0.35231194 0.21185817 0.29095718 0.13683213
000060 c6 a8 8c 3e c6 3a dc 3e 76 d5 c8 3d 71 2c e7 be
       0.27472514 0.4301359 0.098063394 -0.45151094
000070 74 3c e4 be 93 96 5e c0 51 4a ab 3e d6 31 c4 3e
       -0.44577372 -3.4779403 0.33455136 0.38319272
000080 11 54 ac 3f b3 b0 c2 3f d7 e0 b6 3d 3a 59 95 be
       1.3463155 1.5210174 0.089296035 -0.29169637
000090 4e d5 af be c2 ec 5d bd 29 8d b2 3d 0f ed 89 3e
       -0.34342426 -0.054180868 0.087183304 0.26938674
0000a0 47 77 d1 3e d6 62 ff 3e a2 b2 ce 3e b9 9d 23 bf
       0.40911314 0.49880093 0.4037066 -0.6391254
0000b0 a0 9f 41 3c 31 fb da bf c6 16 a4 3e 9e 2f 08 3e
       0.011817843 -1.7107908 0.32048625 0.13299415
0000c0 60 52 8c 3e 7e 16 6b 3e 7f b3 4b 3e 08 5b f0 be
       0.27406597 0.22957799 0.19892691 -0.4694445
0000d0 51 ae 92 be fe 5c e4 bf 03 27 cb 3d b4 0c 38 3c
       -0.28648618 -1.7840879 0.0991955 0.011233497
0000e0 03 72 05 40 df 2d 12 40 e9 c5 80 3f f5 d0 1d be
       2.0850837 2.2840497 1.0060397 -0.15411742
0000f0 73 b1 74 bc 2a 05 ab 3f 10 fb cc be 6e c1 2d bf
       -0.014934885 1.3360951 -0.40035295 -0.67873275
000100 54 f6 0c 3f 33 6b f2 3d 58 b5 bd bf 2e da d2 3b
       0.55063367 0.11836853 -1.4820967 0.0064347005
000110 52 e7 46 be 6c c8 38 bd 59 ab 79 3e 93 11 8f 3c
       -0.19424179 -0.045113012 0.2438177 0.017464435
000120 90 70 88 3e d5 ed 87 be 5e 10 b3 bd 32 3c 5d be
       0.26648378 -0.2654864 -0.08743356 -0.21604994
000130 11 29 8d be 18 33 31 3d cb 5b 8f be 43 4e 11 be
       -0.27570394 0.043261617 -0.2799972 -0.1419001
000140 45 c8 19 40 8f 33 11 40 07 ea 90 3f da 49 3a bd
       2.4028485 2.268772 1.132142 -0.045480587
000150 1b ca 1f 3c c5 7b f5 3f 95 f4 45 bf 57 eb 4b bf
       0.009752776 1.9178396 -0.7732633 -0.79655975
000160 a5 c2 ee bd 9f cc 1e be 50 72 92 bf fc dd 53 3a
       -0.11658219 -0.15507744 -1.1441135 0.00080820895
000170 d8 4e 17 3f d2 1e 9f 3f 13 00 2a 3d e8 a3 89 3d
       0.5910468 1.2431281 0.041503977 0.06720716
000180 ca 2f 20 3e b4 e7 de bd c6 65 b6 3d 08 cc 02 bd
       0.1564323 -0.108840376 0.089061305 -0.03193286
000190 48 bb 09 3f 1a 8d 9e 3f 63 fc a3 be 67 38 eb be
       0.53801394 1.2386811 -0.32028493 -0.4594147
0001a0 d7 e0 81 bd bd ab b3 be 4a 2a 39 be 57 e2 3c be
       -0.06341713 -0.35091963 -0.18082538 -0.18445717
0001b0 75 38 75 3e 2b f0 16 3e e0 9a a2 bd 4e 41 85 be
       0.23947318 0.14740054 -0.07939696 -0.26026386
0001c0 21 57 a0 3e 96 8a 78 3e 79 d5 52 bf a7 69 98 bc
       0.31316474 0.24271616 -0.82356983 -0.018605066
0001d0 b4 0c eb bd 57 09 da be 71 23 94 bc cd 53 a3 3a
       -0.11477032 -0.4258525 -0.018083306 0.0012460888
0001e0 99 90 35 be ee 94 53 be 82 e0 10 be 3d 87 79 be
       -0.17730941 -0.20662281 -0.14148143 -0.24367996
0001f0 c7 03 da bc 53 ff bc 3d a5 7c 29 3e e1 23 d4 3d
       -0.02661313 0.09228387 0.16551454 0.10358406
000200 53 26 79 3c 1e 4f 52 be a8 1b 15 bf a7 7e ea be
       0.015206891 -0.20537993 -0.58245325 -0.45799753
000210 61 b5 44 3e 57 43 05 be 15 02 ff 3d 99 22 94 be
       0.19209816 -0.1301397 0.12451569 -0.28932646
000220 96 5c 8f bf 75 17 7f bf c7 4b b5 bf 68 c4 08 3e
       -1.120013 -0.9964517 -1.416375 0.13356173
000230 1b a1 2d be dc 6b 47 bf 23 14 2e 3f 5b da 37 3f
       -0.16955988 -0.77898955 0.67999476 0.7181756
000240 c3 fb 63 3f 77 25 70 3f 4b 64 49 3d e5 b0 04 be
       0.8905603 0.93807167 0.049167912 -0.12958105
000250 98 50 ad bd 4b d6 b0 be 03 ba b6 bc 2b b3 ce bd
       -0.08462638 -0.34538493 -0.022305494 -0.10092767
000260 0f a5 89 bf 0a f7 31 bf 70 93 1e bf 03 41 e2 3b
       -1.0753497 -0.69517577 -0.6194372 0.0069047227
000270 71 90 29 3f b8 f6 2b bf 32 a9 3a 3f cf 51 09 3f
       0.66236025 -0.6717334 0.7291442 0.53640455
000280 6f d5 c0 bd 3d 71 1f bd e6 58 e9 3e 40 a5 f2 3d
       -0.09415709 -0.03892635 0.45575637 0.11847925
000290 4e 9b 19 3e e1 f7 81 3f 85 0e 94 3e 75 b3 d2 3d
       0.1500065 1.0153772 0.28917328 0.10288135
0002a0 77 74 0f 3f 9f 05 3c 3f 0d b5 d8 3e f2 cd 90 be
       0.56037086 0.7344608 0.4232563 -0.28282124
0002b0 4d 2c ee bd 57 53 4a c0 f0 8d 5e 3e 12 88 c0 3d
       -0.116295435 -3.1613367 0.21733832 0.09400953
0002c0 21 c2 63 3e 7a 05 82 be bf 3e 99 bf 3f f5 6c be
       0.22242023 -0.25394803 -1.1972274 -0.23140429
0002d0 dd 1b ed bc 79 59 eb 3d e1 40 cb 3e 0a b8 20 be
       -0.02894395 0.11491675 0.39697936 -0.15695205
0002e0 e4 b8 8d bd 0c f0 82 be a2 fe d4 bd d0 d9 0c bd
       -0.06920031 -0.25573766 -0.1040013 -0.03438741
0002f0 1c 70 8a be d0 1c 0c 3e d8 bc 28 3d 26 5c 89 bd
       -0.27038658 0.13682866 0.04119572 -0.06707029
000300 e9 26 6b 3e 8d cc 35 be 1d a3 3d bf 87 5e fa bc
       0.22964062 -0.17753811 -0.74077016 -0.030562652
000310 e9 95 34 be 81 a1 59 be a2 d6 c7 3e 75 18 89 bd
       -0.17635311 -0.21253015 0.3903094 -0.06694118
000320 66 6c c5 3e 83 33 62 3f 59 c4 d8 3e 02 5f c2 be
       0.38559264 0.8835985 0.423373 -0.3796311
000330 8e 17 1e 3e a7 1a 90 bf 6f 8e 90 3e a2 4a 4e 3e
       0.15438673 -1.1258134 0.28233668 0.20145658
000340 f0 f3 85 3e e0 97 78 be b1 59 8f be ec 02 82 be
       0.26162672 -0.24276686 -0.27998117 -0.25392854
000350 1e 3b bd bd dc 15 73 3e 4a 0d 49 be 40 52 0e bc
       -0.09239791 0.23738807 -0.19633976 -0.008686602
000360 02 9b 31 be 5e 48 12 bf 91 9a 39 bf f1 86 db 3c
       -0.17344287 -0.57141674 -0.72501475 0.026797744
000370 7a 3e 1b be 35 4d 8d be 97 7b f0 3e a8 db 83 3e
       -0.15160552 -0.27597967 0.46969292 0.25753522
000380 5f bc 21 40 29 d5 1b 40 d3 c3 00 3f c2 41 6a bd
       2.5271223 2.4348853 0.50298804 -0.057191618
000390 9d be 2d be 65 2d 95 3f a0 31 b1 be f5 82 2b bf
       -0.16967244 1.1654478 -0.34608173 -0.669967
0003a0 77 13 53 be 70 4d 18 3e 60 f9 50 3c 6e 7e 22 be
       -0.20612894 0.1487329 0.012754768 -0.15868542
0003b0 de 67 80 bd c0 eb 05 3e 58 a5 0c bd ad 32 8f be
       -0.06269811 0.13078213 -0.03433737 -0.2796835
0003c0 2e 72 1e be da 25 b2 bd 72 ec 4c be f4 a1 2d be
       -0.15473244 -0.08698626 -0.20012072 -0.16956311
0003d0 10 b2 4e be 52 68 f2 bd 66 45 48 3e 65 74 aa 3d
       -0.20185113 -0.11836304 0.19557723 0.08322982
0003e0 bb 6d c7 3c d1 18 56 3e 8d 46 0c 3f 51 8d c2 bd
       0.024344316 0.20907904 0.5479515 -0.0949961
0003f0 46 97 7b be 98 c9 63 3e 65 ac 76 be a7 a4 47 bd
       -0.24569425 0.2224487 -0.24089201 -0.04874101

net.0.bias f4 [64]
000000 f0 08 be bd db 35 43 3d 4f e2 42 3d 07 86 e0 3e
       -0.092790484 0.047658782 0.047579106 0.43852255
000010 c2 88 38 be bd 01 ec 3e a2 b7 52 3e 73 2d 9f be
       -0.18020919 0.46095076 0.20577863 -0.31089363
000020 a8 8e 57 3f 50 b6 98 3d 92 2f 2f bf ba a6 42 bc
       0.8420205 0.07456648 -0.6843196 -0.011880571
000030 05 ba a4 3e 48 33 8a 3d 8c 8e 2a 3f 82 e3 bd be
       0.32173172 0.06748062 0.6662376 -0.37087637
000040 d7 dc a3 3d 50 e4 33 3d 65 1a fc bc 36 48 04 3e
       0.08001106 0.043918908 -0.030774305 0.12918171
000050 8f ea 9d 3e 76 56 64 3e 85 87 69 3e 18 53 7b be
       0.30843017 0.22298607 0.22805603 -0.24543417
000060 09 39 80 3f ef ab 47 3d be b9 25 3e 6a 7a f0 3e
       1.0017406 0.048747953 0.16184136 0.46968395
000070 68 66 be be a4 23 42 be 8f bd c2 bc 2a 78 95 3c
       -0.37187505 -0.18958908 -0.02377203 0.018245775
000080 86 b8 38 3e e2 da c3 3e 12 68 e9 3d 2a 78 7d 3f
       0.1803914 0.38252932 0.11396803 0.9901148
000090 c4 df 87 bd 52 dc 1c 3e 2f 44 1c 3f d0 ed 86 3e
       -0.06634477 0.1531842 0.6104154 0.26353312
0000a0 20 13 ad bc 4b 75 c8 3e 2f 12 ae be 81 35 8f be
       -0.021127284 0.39151987 -0.33998248 -0.27970508
0000b0 cf 9b 2c 3d 1c 95 55 3f 3b 16 09 bd ba 82 53 3e
       0.04214078 0.8343065 -0.033468466 0.20655337
0000c0 07 03 c0 3e e0 ec f5 3c fd 31 8c be e2 ac 8f 3e
       0.3750231 0.030020177 -0.27381888 0.28061587
0000d0 d2 5b 7b 3e 3c 37 ad be 37 60 9e be fe df 57 3e
       0.24546745 -0.33831203 -0.3093278 0.2108154
0000e0 94 c7 db 3d 79 16 14 be 76 32 fe be 75 76 d7 be
       0.10731426 -0.14461698 -0.49647874 -0.42082563
0000f0 04 c2 4d 3f 05 78 7f 3c 29 92 87 bd bb 85 16 bf
       0.8037417 0.01559258 -0.06619675 -0.58797807

net.2.weight f4 [64, 64]
000000 b8 1b a0 3e 80 33 71 3e 01 d5 46 be 7f 0d d8 3e
       0.31271148 0.23554802 -0.19417192 0.42197797
000010 fb 50 4d be 11 34 d5 3e 38 50 a7 3d a0 7c a3 be
       -0.20050423 0.41641286 0.081695974 -0.3193102
000020 86 a9 80 be cf 6a 31 3e be 18 b4 be 81 ad 13 bf
       -0.25129336 0.173259 -0.35175127 -0.5768662
000030 f0 df e4 bd c3 5e a4 bb 73 ac 3e bb 7a 4c 6c 3e
       -0.11175525 -0.0050161793 -0.0029094487 0.23076048
000040 1e e2 eb 3d fa d6 0f be d7 dc 6c 3e ce 19 36 be
       0.11517738 -0.14046851 0.23131119 -0.17783281
000050 90 4c 0e be 8c 1e ce 3e 68 38 96 bd 46 fe ba 3d
       -0.13896394 0.4025768 -0.073349774 0.0913053
000060 03 6e a3 be af ab 0c 3e 34 4c 9d bd f1 2d 88 be
       -0.3191987 0.13737367 -0.0768055 -0.2659755
000070 1f f1 b3 be c8 e7 07 bd 7a a8 0e 3e 5a c4 75 be
       -0.35144898 -0.03318003 0.13931456 -0.24000683
000080 d4 11 fa bd 89 65 7b be 84 28 e0 3e 86 0f f4 be
       -0.12210432 -0.24550451 0.4378091 -0.47668093
000090 32 fd 7d bc 38 3d 3b 3e f4 d5 96 be c6 b3 4e be
       -0.015502261 0.18285072 -0.29460108 -0.20185766
0000a0 38 66 e5 3c 7d d2 0d 3f 08 ad be 3c c7 9c 2e 3c
       0.028002843 0.55399305 0.023275867 0.010657496
0000b0 30 4e 4e be a0 35 61 be ce dc 9b be 44 e6 29 be
       -0.20147014 -0.21993113 -0.30441898 -0.16591746
0000c0 53 87 21 3f 5a 8d 8b 3d 5f bc 22 be 2e 82 6f be
       0.63097113 0.0681407 -0.1589217 -0.23389503
0000d0 38 fe b4 bd de 23 ac be a0 88 db bc 96 9f c9 3d
       -0.08837551 -0.33621114 -0.026798546 0.09844892
0000e0 d3 28 0d be 0d 37 6b be 00 66 06 be eb 25 4f be
       -0.13785104 -0.22970219 -0.13124847 -0.20229308
0000f0 1e 68 f0 bc 58 f1 8b be 7a 1f 10 3c 54 06 02 bf
       -0.029346522 -0.27332568 0.008796567 -0.50790906
000100 32 fe 92 3d be f0 44 be a8 2d be bd e1 31 26 bf
       0.0717739 -0.19232461 -0.09286052 -0.6491986
000110 d2 10 04 be ad 1c bf be 47 82 48 be aa 57 73 bf
       -0.12897041 -0.37326565 -0.19580947 -0.9505564
000120 26 10 97 3e e1 0e 09 3e 73 96 b5 bf 01 91 ab 3b
       0.29504508 0.13384582 -1.4186538 0.0052357917
000130 f5 64 18 bf da cc d7 bd bd 83 ce 3e 09 eb 7e be
       -0.5952905 -0.10537119 0.40334883 -0.24894346
000140 e8 4c 1c be d7 c3 40 3d 57 2a f9 bd 79 4d 15 3e
       -0.15263712 0.047061767 -0.12166279 0.14580335
000150 a0 58 2c 3c a3 f6 d9 be f9 34 90 3d d8 97 4b bd
       0.010519177 -0.4257098 0.07041354 -0.049705356
000160 b7 37 73 3e d1 86 67 be 30 f0 4a be fc 9d 64 3d
       0.23751722 -0.22610022 -0.19818187 0.05581473
000170 2f 0a 4d bf 50 bf ee 3c d2 0b 85 3d 7c 24 84 bc
       -0.80093664 0.02914396 0.06496395 -0.016130678
000180 a8 46 5c be 36 6a 29 3d b7 f2 eb bd 68 1d 83 3d
       -0.21511328 0.041361056 -0.115209036 0.06402093
000190 9b 06 5c be a2 22 ec bc 84 6e 73 3b d7 47 2f 3f
       -0.21486895 -0.028825108 0.003714473 0.68468994
0001a0 53 82 51 be 4d 84 1f bf 26 b8 25 be 93 a5 c4 3e
       -0.20459871 -0.6231125 -0.16183528 0.38407573
0001b0 1b e4 16 3e 56 31 20 3f 16 2a 26 3e e6 b0 1e be
       0.14735453 0.6257528 0.16226992 -0.15497169
0001c0 c9 fb 48 bf 09 fe 4e be 05 cc 83 bf 73 f9 29 be
       -0.78509194 -0.20214094 -1.0296637 -0.16599064
0001d0 0e e0 2a be 9e 21 95 bd 6b b6 a5 3e d1 b1 28 3e
       -0.16687033 -0.072818026 0.32365736 0.16474082
0001e0 1e 5b 8e 3d 72 a7 34 3e aa 21 20 3e 00 c1 fc 3c
       0.06950973 0.17642 0.15637842 0.030853748
0001f0 8e 09 ba 3e c2 f2 07 3e bc 2e 3d 3d 1a fa 37 3e
       0.36335415 0.13276199 0.046187147 0.179665
000200 1a 83 73 bd 7f de 99 bd 5f bf 75 bc fb 50 13 bf
       -0.0594512 -0.07513141 -0.01499924 -0.5754544
000210 a8 ff 1b be d0 39 08 bf d0 78 6f be 3b 60 28 be
       -0.15234244 -0.53213215 -0.2338593 -0.16442959
000220 7f 56 51 3d 0a 13 89 bd e5 db ef 3c 48 80 e5 3d
       0.05110788 -0.066930845 0.029279659 0.11206108
000230 f0 a6 30 be e0 8f 10 3d 01 e1 86 3c 3d 05 aa bd
       -0.17251182 0.03529346 0.016464712 -0.083017804
000240 0b 8a ef 3d 89 49 7a bd 45 13 80 bd 80 07 a9 3d
       0.116962515 -0.061105285 -0.06253675 0.08253384
000250 ab 28 57 be 70 c8 07 bf 09 52 2f be 6e 03 ed bd
       -0.21011607 -0.5304022 -0.17121138 -0.1157292
000260 6f f5 21 3e 31 ae 40 be 35 a2 4c be 60 03 87 bd
       0.15816282 -0.18816449 -0.19983752 -0.065924406
000270 b6 8b de be 9d a8 3b 3e 01 87 25 3d 02 28 3a 3e
       -0.43465966 0.1832604 0.040411953 0.18179324
000280 9a 8c 0f be d1 6a 3e be f6 7f e0 bd 76 6b 6e be
       -0.14018479 -0.18595435 -0.109619066 -0.2328318
000290 a0 0a e8 bc cf d5 d3 bd e7 5b 29 be a2 e1 95 3e
       -0.028325379 -0.10343515 -0.16538964 0.29273707
0002a0 d4 55 0a be 50 d1 ca be 2a fd cd 3d 4b 29 d8 be
       -0.13509303 -0.39612818 0.10058053 -0.42219004
0002b0 1e 4c 85 be 8e 72 27 3e 4e 5d 02 be dc 81 54 be
       -0.26034635 0.16352293 -0.12730905 -0.20752662
0002c0 b1 24 04 bf 2b 63 5d 3e 75 d8 33 bb 9b 6d b9 3c
       -0.51618487 0.21619861 -0.002744225 0.022635272
0002d0 4b 59 17 be 91 77 27 be 9e 4f 38 3e 9a a6 9d 3d
       -0.14780156 -0.16354205 0.17999122 0.07697792
0002e0 aa 21 4a 3e 94 80 bc 3b 04 ce 21 be d6 d1 dc bd
       0.19739404 0.0057526324 -0.15801245 -0.107822105
0002f0 6a 06 83 bd ab 8d 32 bd 1b ba 92 3d b3 30 60 3d
       -0.06397708 -0.043592136 0.07164403 0.054733943
000300 e1 63 de bd d7 e4 10 3e be 06 b3 bd 57 fa 37 bf
       -0.10858894 0.14149795 -0.0874152 -0.71866363
000310 16 89 cc be 56 f9 5b b9 02 7a 1b bd 74 65 74 bf
       -0.39948338 -0.00020978352 -0.037958153 -0.95467305
000320 d0 82 e9 3c 06 2e ab 3d 88 0e c0 bf 4d 5b 22 be
       0.02850476 0.08358388 -1.5004435 -0.15855141
000330 37 89 06 bf 78 f7 40 be 35 ed 84 3d 02 03 d9 3b
       -0.52553123 -0.18844402 0.06490556 0.006622673
000340 35 b8 99 be 07 04 e3 bd 27 4f 8e be 12 41 6b 3e
       -0.3002335 -0.110847525 -0.27794763 0.22974041
000350 1b f2 3d bd 8a db 9f bd 9e 7e 64 3e e0 ed 90 bb
       -0.046373468 -0.07805546 0.22313926 -0.004422888
000360 ea ec a9 3e 9c 57 ce be 90 99 c8 bc b1 1d 66 bd
       0.33188564 -0.40301216 -0.024487287 -0.05618066
000370 0a e0 32 bf e0 ac 67 bc 56 2a e2 3d 86 0e 2f be
       -0.69873106 -0.014140338 0.11043231 -0.17095384
000380 92 aa 8f bd 96 a7 81 3e c3 59 16 be 0a 16 63 3e
       -0.070149556 0.2532317 -0.14682679 0.22176376
000390 3a 4d aa bd bd 18 58 bc 4e 2e 0f 3e 09 29 32 3f
       -0.08315511 -0.013189492 0.13982508 0.69593865
0003a0 64 2e 70 3d 55 c9 26 bf 86 7f 18 be dd 53 97 3e
       0.05863799 -0.6515096 -0.14892396 0.2955617
0003b0 bb bb ab 3e d1 3f a0 3e 12 06 08 3e e1 f0 f4 bd
       0.33541664 0.31298688 0.13283566 -0.119600065
0003c0 10 e1 2f bf 78 40 8a bc bf 53 59 bf 0b 1f 15 be
       -0.68702793 -0.016876444 -0.8489341 -0.14562623
0003d0 38 ae 3b be ae 85 c2 be ab 1d dc 3e 48 84 9f 3c
       -0.18328178 -0.37992615 0.42991385 0.019472256
0003e0 8f dd c4 3d 85 13 1b 3e 46 4f 33 be de fc 06 3e
       0.096125714 0.15144165 -0.17510709 0.13182399
0003f0 c6 f6 3c 3f 44 e9 35 be de cb 93 bd 71 47 d6 3d
       0.73814046 -0.17764765 -0.07216619 0.10462845

net.2.bias f4 [64]
000000 a3 c6 e8 3b 3d b8 2d 3f 73 ff c3 3e e8 98 25 3f
       0.0071037575 0.6785925 0.3828083 0.6468644
000010 49 89 9a 3e 22 e4 0f be 97 69 0c be 59 ab 30 3e
       0.30182865 -0.1405187 -0.13712154 0.17252864
000020 2d 52 4c 3f 01 54 8e 3e 5c 8a 2b bd 85 70 66 3e
       0.7981289 0.27798465 -0.041879997 0.2250386
000030 1a 6e 20 3e d5 38 b0 3e 6a be fb 3e 3c fa 80 be
       0.15667 0.3441836 0.49168712 -0.25190914
000040 1b c2 cb 3e 40 14 94 3c 07 2a ac 3e d2 97 38 3e
       0.39796528 0.018076062 0.33625814 0.18026665
000050 e9 da 9f 3f eb fd 08 3e 02 db 99 bd e3 f7 5e 3f
       1.2488681 0.13378112 -0.075124756 0.87096995
000060 18 a0 8b 3e 92 69 ea 3d fd 52 eb 3d ed d6 ac 3e
       0.2727058 0.11445917 0.11490438 0.33757725
000070 8f f5 e9 bd 71 06 eb 3d 24 45 32 3f 93 e7 6a 3f
       -0.1142379 0.11475838 0.6963675 0.91759604
000080 5c b7 1c bd cf 08 f3 3d a4 ba 0f ba 13 09 e5 3d
       -0.038260803 0.118669145 -0.0005482829 0.111833714
000090 2c 25 ab 3e 43 26 c0 bc e4 cd 9f 3f 92 f4 37 3d
       0.33426797 -0.023455745 1.2484708 0.044910975
0000a0 e6 61 a5 3e a5 a7 de 3d 2c 10 ff 3e 02 5a 37 3d
       0.32301253 0.108718194 0.49817026 0.044763573
0000b0 8b 47 5b 3d 34 7e 67 bc e0 5a 40 be 9c 06 ca bb
       0.053535026 -0.01412921 -0.18784666 -0.0061653387
0000c0 5a 3a db 3c 66 4b 00 3e c7 47 95 3f cd b4 8e 3d
       0.026761223 0.12528762 1.166253 0.06968079
0000d0 57 13 5c bd d9 27 28 3e 24 84 13 bf 51 7f 1c bf
       -0.05372938 0.1642145 -0.57623506 -0.6113177
0000e0 82 91 03 bf f3 3e 9d 3d bb 06 7a bc 34 06 e0 3d
       -0.513939 0.07678022 -0.015260394 0.10938683
0000f0 04 f2 ee bd e1 0d 20 3e 04 37 80 3d ce ee 9d 3d
       -0.116672546 0.15630294 0.062604934 0.07711564

net.4.weight f4 [1, 64]
000000 75 86 c1 3e 2d b0 a6 be ed 52 b2 bb a4 a3 e5 be
       0.37797895 -0.32556286 -0.0054420144 -0.4485141
000010 0e 63 53 3f 1b 0d 73 3f bc 7f 46 3f 49 be c2 be
       0.8257302 0.9494187 0.7753866 -0.380358
000020 56 35 f8 be 3b 9f 8a bd b4 85 03 3f 72 5e 2c 3d
       -0.48478192 -0.06768652 0.5137589 0.042082258
000030 0c bd ef 3e 1f 83 0b 3f f4 e5 c2 bd 31 72 e2 bd
       0.4682392 0.5449695 -0.09516516 -0.110569365
000040 b3 ad 66 bc 51 53 ac 3c 27 e6 6f 3f 17 7f 21 3e
       -0.014079499 0.021035822 0.9371056 0.15771137
000050 31 4c 5c bf cf 3b d5 3e cf 99 27 3e a2 c5 fc be
       -0.8605376 0.41647193 0.16367267 -0.49369532
000060 52 0d 56 be 6c 6d cf bd 84 46 56 3f c9 40 88 be
       -0.20903519 -0.101282924 0.8370135 -0.26611927
000070 4a d0 f3 3e af a4 e3 bd 24 e5 d6 be 61 be c7 be
       0.4761985 -0.11115395 -0.41971695 -0.39012435
000080 11 df 5d 3d b6 a2 42 3f c7 4b 09 3f 29 20 61 be
       0.05416781 0.7602953 0.5363125 -0.21984924
000090 54 70 80 3f 10 d3 e8 bc f3 b9 77 bf 0a f1 a7 3e
       1.003428 -0.028420955 -0.9676811 0.32801086
0000a0 b7 2a e9 bd 3e d1 7d 3d 37 ad 0a be 5d 52 34 be
       -0.113851 0.061967127 -0.13542639 -0.17609544
0000b0 f2 a7 cb 3e 8c 50 fb bd 78 28 6a 3a 34 ba b6 3c
       0.3977657 -0.122712225 0.0008932422 0.022305585
0000c0 11 bd 2e 3d cc de 5e 3f 37 a3 58 bf d7 84 55 3d
       0.042660777 0.8705871 -0.84624046 0.05212864
0000d0 de dd 00 3f 45 b2 89 bc 84 e6 b4 bf ff fa ae bf
       0.5033854 -0.016808638 -1.4132848 -1.3670348
0000e0 e1 38 93 bf 10 4c 09 3e 50 fe b6 3e 67 02 dc 3e
       -1.1501733 0.13407922 0.357409 0.42970583
0000f0 78 ff 2d 3d e2 9e 3e 3f 9e 52 c7 3e 63 cc 59 3f
       0.042479962 0.74461186 0.3893022 0.85077494
