ppo_model2.pt (torch, 42485 bytes, 11 tensors)

body.0.weight f4 [64, 5]
00000000: e04b 0cbf 7544 bc3d 79e6 c5bd d580 c63e
00000010: 521c 7c3e 5349 9ebb 0577 f3be 659a 6a3e
00000020: 2029 c73d fdba 9bbe d4b0 443e 2c00 a43e
00000030: fe17 d13d 79cd 57be 8426 ee3b e5b3 d5be
00000040: c1d5 b6be 2463 5dbe 407f a1be 5060 f23d
00000050: e310 733c 1a71 db3d 581f 21be 54b8 643e
00000060: e9fe b3be fefa a13e 597d 1f3c ea0e c03e
00000070: cce6 4cbe 52fc 8d3b 4faf 49be 208b 333e
00000080: 3294 bd3d 4fc8 273e 0b24 923e e986 06bf
00000090: 65bc c4be 5126 db3e 9c50 ab3e eaa0 80be
000000a0: 1fa8 603e 8beb d6be c4a3 b13e 0a72 aa3d
000000b0: abfb c7be a33a b4be 05d2 d6be 3e2a 313c
000000c0: d579 70be 353d 773e 3a58 f4be 52d3 bbbe
000000d0: 4c63 93bd e75a f1bd 3771 873d cfcf b1be
000000e0: 868d 08be 34e0 36be f0fc babe 66a8 bbbe
000000f0: 771f 99be 9368 ffbe 523a 823e 11ef 983e
00000100: eb01 6f3e 941f b0be 722e cebe 00f8 97be
00000110: 6606 3ebe 3036 86bd fbf3 0cbe af48 edbe
00000120: fe71 053f f5fb 963e 8fe7 f2be d96f 2b3e
00000130: 8933 843d e72b df3b 3777 cdbd be6d c23e
00000140: e37d 89be 4dfa adbe ae0b 06bd 737a ad3e
00000150: 223d 39bd 505a f4bc 5834 2b3e 80bd c33e
00000160: 282c 6abe 7a9b 92be 247e 203e 377a 64be
00000170: 58d7 40bd d82f e5bd 5e94 7ebe 9031 56be
00000180: 07aa 2abe e769 843e 0682 9abe b796 b63e
00000190: b91c 1f3e b17b 683e b671 d5be 1c9f 733d
000001a0: 01ed c73e c68d babe bde9 063c cfe6 423e
000001b0: aeba d53d b912 c3be 0fdf 11bf 886b d0be
000001c0: f254 153e aad4 823e 0557 c73e 9030 853d
000001d0: 1c2f 5bbe c9db bcbe 1442 43be 7951 223e
000001e0: 6e15 9dbe a8e7 c03e 53e7 cabe 7ce1 54be
000001f0: c15f 443d fd0c c73c 085b 9ebd b28f 3fbb
00000200: d805 423e 6c08 733e 3eb9 f5be 5916 07bf
00000210: 3615 97be 0b41 d73e 130d e53d 5f70 b2be
00000220: 6495 10be 11da 193f 1841 1e3e 5604 d8be
00000230: 2cf3 b43e 5c3b a1be 7dfc 9dbe 4045 e9bb
00000240: 449f 30be f77b 133e 67d5 0cbf b303 a7bc
00000250: 0e8c bb3e 7366 3e3e 8cba 0bbd 1ec1 82bd
00000260: 08c8 9f3d 6b2e 2dbe 3e56 a83e 7aae 303f
00000270: 977b 073f ea9b b3be 82c6 113d a9f1 da3e
00000280: 7a1d 403e d568 763e a4e0 09be 1289 3c3e
00000290: f07b 933e 00bf 0abe 9bc5 07bf 09ca af3e
000002a0: 67bf 2e3e bcd3 07be 30fc 853d f4a4 10be
000002b0: 088e 353e fe9b 74be e6b4 99be 9de2 293e
000002c0: 5be1 a8be 6866 753e 8b6e d7be 20c7 003d
000002d0: acdf 423e fd9d 463d 3362 8a3e 975c c53e
000002e0: d747 e0be f4f8 773e 08fe 0fbe d03d 543e
000002f0: c81a 8bbe b4c1 97bd 643d be3d 3037 8cbe
00000300: 6d7e 9dbe 9876 763d 91f7 f1bd 6e1d 1e3c
00000310: bc6e 0c3e 9c4e 893e 7973 b63d c78e 05bf
00000320: 7e1a 1e3e 51cc c63e a876 963e cf88 ab3e
00000330: 8f86 bf3d 9111 253e 7886 dabe e758 1b3d
00000340: dc7e 9c3b b83f cdbe 890c 123e 69df 1a3e
00000350: 19e9 583e 6285 2e3d b169 df3e 628b ab3e
00000360: 50b1 c7bc eaca 24be 8272 b3be 5002 84bd
00000370: d4d0 473e 9260 afbe ac6b 87be 9634 98be
00000380: e041 72be 1ccd f6be 7683 5bbd 0565 263d
00000390: 6a4b d73e 99f0 e2be e476 8e3e bc1d 0b3e
000003a0: a82b 37be 983f 44be f454 7abe 3735 cabe
000003b0: f8a1 e8be d4d0 5a3e 5a88 cf3e 6c34 38be
000003c0: 4c5c dd3e eeab 99bd fa88 b53e 8ee3 b73d
000003d0: ee10 833d 5047 f73d ddf3 90be 8740 b03e
000003e0: 45cf a3b9 b7c7 0ebd 203e 933d 8840 8d3d
000003f0: 0c32 9c3e a001 c6bd 58e9 c9be 9c17 e2bd
-0.54803276 0.09192745 -0.096631 0.38770166 0.24620178 -0.0048305183 -0.47551742 0.2291046
0.09724641 -0.30416098 0.1920808 0.3203138 0.10209654 -0.21074475 0.007267775 -0.4173881
-0.35709956 -0.2161985 -0.31542397 0.118347764 0.014835569 0.10714932 -0.15734613 0.2233594
-0.3515542 0.31636804 0.009734475 0.3751138 -0.20009917 0.0043330574 -0.19695781 0.1753354
0.09256782 0.16385005 0.28543124 -0.52549607 -0.38424984 0.4280267 0.33459938 -0.25122768
0.21939133 -0.4197658 0.34695256 0.083225325 -0.39059195 -0.35200986 -0.41957107 0.010813294
-0.23483975 0.24144442 -0.47723562 -0.36684662 -0.07196674 -0.11784916 0.06613391 -0.34728858
-0.13335237 -0.17858964 -0.365211 -0.36651915 -0.29906818 -0.4988447 0.2543512 0.29869893
0.23340575 -0.34399092 -0.4026981 -0.29681396 -0.18557128 -0.06553304 -0.13764946 -0.46344516
0.52127063 0.29489103 -0.4744229 0.16741885 0.06455142 0.0068106535 -0.10032504 0.37974352
-0.26853856 -0.33980027 -0.032725982 0.33882484 -0.045224316 -0.02982822 0.16719186 0.38230515
-0.22868407 -0.28634244 0.15673119 -0.22312246 -0.047080368 -0.11190766 -0.24861285 -0.20917344
-0.16666423 0.25862047 -0.30177325 0.3566186 0.155383 0.22703435 -0.41688317 0.05947791
0.39048007 -0.3643629 0.0082344385 0.19033359 0.10435997 -0.38100222 -0.56980985 -0.4070704
0.14583185 0.25552875 0.38933578 0.06503403 -0.2140469 -0.36886433 -0.19068176 0.15851392
-0.30680412 0.3767674 -0.3962961 -0.2078914 0.04794288 0.024298185 -0.077322066 -0.0029229936
0.18947542 0.23733681 -0.4799289 -0.52768475 -0.2950837 0.4204181 0.11184134 -0.34851357
-0.14119488 0.6009837 0.15454519 -0.42190808 0.35341775 -0.314906 -0.30856696 -0.007118851
-0.17248255 0.14402758 -0.55013126 -0.020387506 0.3663029 0.18593769 -0.03411345 -0.063844904
0.07801825 -0.16912238 0.32878298 0.6901623 0.5292296 -0.3507989 0.035589702 0.42762497
0.18761244 0.24063428 -0.134646 0.18411663 0.28805494 -0.13549423 -0.53035897 0.34333828
0.17065202 -0.13264364 0.065422416 -0.14125425 0.17729962 -0.23887631 -0.30020827 0.16590352
-0.32984433 0.23964846 -0.42076525 0.0314399 0.19030637 0.048490513 0.27028045 0.38547203
-0.4380481 0.24216062 -0.14061749 0.20726705 -0.2716887 -0.07409993 0.09289053 -0.27385855
-0.30760518 0.060171694 -0.11814798 0.009650571 0.13714117 0.26817787 0.089087434 -0.52170986
0.15439793 0.38827756 0.29387403 0.33502814 0.09351837 0.16119982 -0.42680717 0.03792658
0.004775865 -0.40087676 0.14262594 0.15124287 0.2118267 0.042607673 0.43635324 0.33504778
-0.024376541 -0.1609303 -0.350483 -0.064457536 0.19513255 -0.34253365 -0.26449335 -0.2972762
-0.23657942 -0.4820336 -0.053592168 0.040623683 0.42049724 -0.44324186 0.2782508 0.13585562
-0.17887747 -0.19164884 -0.2444647 -0.39493725 -0.45436072 0.21368724 0.40533715 -0.17988747
0.4323448 -0.07503496 0.35456067 0.089789495 0.063997135 0.12074149 -0.28311053 0.3442423
-0.0003124421 -0.03485843 0.07189584 0.06897074 0.30506933 -0.09668279 -0.3943584 -0.110396594

body.0.bias f4 [64]
00000000: d3c1 d0be 7b64 18bd 6c15 54be 6ad3 f5bd
00000010: 0bb4 c9be e241 fe3d f710 07bf e098 60bd
00000020: 574c b33d f785 c0be a59f 5a3e d0fe 7abd
00000030: 443c 723e 6fcf d4be 13e0 2e3d 93c8 2a3e
00000040: c1f5 78be 0077 90be 3c4e a43e 8edb 2c3d
00000050: 51f5 ff3e 988f 94be 2c4e 0cbf 487c 243e
00000060: d096 e53c c52b 16bf 90a0 52be 8ba8 013c
00000070: 736b d9be fa87 2dbe 617b 1bbe 7eda 15be
00000080: 80bb f4be 63d4 a23c a8cd 0b3e 323b 143e
00000090: 7517 64bd acd2 c6be 6cea 80bd acde 633e
000000a0: 268a ac3e fa0a a7be 42e1 b23c 2821 6bbd
000000b0: 9a2d 8dbe 3d51 d53c e4ef 9dbe 71a9 86be
000000c0: fbcc d33e 6d94 8dbe 9848 db3d b6f8 19be
000000d0: 8f51 b03e aca6 c7be 3f8f 53bd 0bad bdbe
000000e0: 0a3b 4abe 3d71 2bbe fa4c 183f 590e f2be
000000f0: 1d55 243d a02a 2abc 674b cc3e 7c1e 48be
-0.40772876 -0.0372052 -0.20711297 -0.12003215 -0.39395174 0.1241491 -0.5276026 -0.054833293
0.08754795 -0.37602207 0.21349962 -0.061278164 0.23655802 -0.4156451 0.042694163 0.16678075
-0.24312498 -0.2821579 0.32090938 0.04220157 0.4999185 -0.29015803 -0.5480678 0.16063035
0.028026015 -0.58660537 -0.20569062 0.007913719 -0.4246479 -0.16946402 -0.15183784 -0.1463413
-0.477993 0.019876665 0.1365267 0.14475706 -0.055686433 -0.38832605 -0.062947124 0.22252911
0.3369915 -0.32625562 0.021835927 -0.057404667 -0.27573854 0.026039714 -0.30847085 -0.2630115
0.41367325 -0.27652302 0.107072055 -0.15036282 0.34437224 -0.38994348 -0.051650282 -0.37046084
-0.19749084 -0.16742416 0.59492457 -0.4727657 0.040120233 -0.010386139 0.39901277 -0.19542879

body.2.weight f4 [64, 64]
00000000: 9cbf b7bd e44b 7fbd 80d4 b4bb 000e 82bd
00000010: 0462 433d 0a50 b13d 460b 8cbd ecdf 943d
00000020: ec78 2dbd f856 81bd fc64 cfbd 12e1 8ebd
00000030: da75 d0bd 8e88 f23d 4cc4 d03d 602f a13c
00000040: e628 e3bd b8dd d4bd 488c 943d 5893 e9bc
00000050: 1821 ddbd 00d9 f2bc d8a5 d8bc a0e0 893d
00000060: 88af 97bc d812 b73d 4029 433d 48dc 8abc
00000070: 2ef4 edbd 30fb 0bbc fab7 aebd c8ad 53bd
00000080: 86d0 cf3d a669 e03d 80e9 6dbc 5697 d33d
00000090: f044 f1bc b41b 52bd d4a4 a03d 5e5c cb3d
000000a0: 387e dfbd 6426 4abd 4088 a7bc 1c72 b33d
000000b0: 7c99 2c3d 10dd dabd c4ad 543d a8ec 71bd
000000c0: 68de c03c 22f3 873d b649 e53d a072 0b3c
000000d0: 3225 af3d e074 d3bd e0f1 8bbc f02f 37bd
000000e0: ec35 5c3d 40e2 cc3b 0616 e2bd ba37 953d
000000f0: fe52 d73d b6ed 833d a859 c73d 3005 2f3c
00000100: ff45 bb3d 937d a0bd f8cd 723d 6c9f 8bbd
00000110: 40d6 eabd 0a40 583c a096 1bbd 7ba3 8c3d
00000120: 3e23 3d3d e588 75bd 715b b33c fc30 0bbd
00000130: f9bf 2cbd 5023 313d 0216 903c 51c1 03bd
00000140: 8c11 14bd 6c8b 853d b0b9 303c 934c a73d
00000150: 8328 02be 4943 e43c 5edc 8bbd a748 82bc
00000160: 788f 32bd 03ed 7dbd eac0 b33d 1fdd 1ebd
00000170: aa89 c9bd 3dd4 bc3d 89a4 c03d 624a 87bd
00000180: 65a4 03be 5769 9fbd 7c3b 793d eb7e d23d
00000190: 4435 f53c 9041 8b3c 523d 953d d087 14be
000001a0: 7235 b1bd e23f d33c cb85 65bd acab 54bd
000001b0: beb2 85bd 88c1 313d 80be aaba c749 a5bd
000001c0: afd9 56be 48bb 623c 78e8 ff3c 0cfd f9bd
000001d0: 55d4 d3bd 7ef1 e5bd a22a 2abe b55d dd3d
000001e0: e47e 233d 857f 8cbd e7c3 56be 0ffc 203d
000001f0: 41ff cfbc d8c6 a4bc 1564 9abd f739 6fbd
00000200: 6852 f63b adb4 5d3d 9873 f2bc 8086 1bbc
00000210: 1879 d4bd 348d 5abd e84e d8bd 5154 debd
00000220: 5c1c ba3d 90ac 0a3d 00c0 bdbc ce2e e5bd
00000230: cdca b53d e0c4 323c dfe6 70bd 9e2a bfbd
00000240: 65dc c3bc 5032 7fbc 08e4 e83d 14d1 e93d
00000250: 0238 e7bd 2afc 99bd ee8c 723d 808d ddba
00000260: 4e03 e93d 0441 bf3c 8e86 febd c0ba ee3b
00000270: 8097 2fbd cf0c af3d 50ef c3bc 308c c2bd
00000280: a004 c3bc e3a5 b13c 548d a8bd f0a3 f5bd
00000290: a4fe 953d 30f8 d43c 7095 9bbc 9d93 1d3d
000002a0: c1c1 e1bd 763d f93d 2463 333c 80af e7bd
000002b0: 8c9b d9bd 78bb c13c 3e75 96bd 489c 5e3d
000002c0: 5e69 44bd 5c13 4ebd 64e6 13bd 60a6 3fbc
000002d0: cc20 e7bd 88de 763d e16b 2abd 9e14 dc3d
000002e0: 5c49 89bd 00ff 8e3a 64a3 ebbd 7607 e7bd
000002f0: cade d1bc ec44 743d 50aa 243d aa80 ed3d
00000300: 3e17 943b 6226 5bbc 58c0 9cbc d8f8 68bd
00000310: 41e7 87bc 2226 cfbd 73a4 d5bd be20 163c
00000320: 6753 46bd f4ec 7a3d d68d e7bd c0f1 96bc
00000330: 712d 233d 3823 edbd 47fb 883c f0a5 d3bd
00000340: 4f5a 48bd 2024 243c ae24 93bd 4061 1e3b
00000350: 03e1 8cbc 7d32 4b3d 0b3b debd 8e48 fb3d
00000360: 40b2 66bd 4bf0 4cbd 03ad 25bd 1bd4 973d
00000370: f8a6 673d d588 2d3d aa55 e8bd 5efe b03d
00000380: 83de 34bd 5374 78bd f8fa f83d 70da debc
00000390: 05d2 023d 9e05 973d f7a4 8f3c 8ff3 c93c
000003a0: 829a f3bb c7de 9d3d 197a 84bb 2412 abbd
000003b0: b85f 83bd 07c7 ab3c 20a4 833c b1f6 493d
000003c0: 750b e5bd 5e4a 0cbc 48a6 f33d 048f 913d
000003d0: ca0c 973d de64 c83d 5141 783d 3987 f43d
000003e0: 8814 a73d e3ef 9abd cc8d c4bd bf9d fbbd
000003f0: d37c 38bd 5ca1 bfbd c850 80bc 66e0 893d
-0.089720935 -0.062328234 -0.005518496 -0.063503265 0.047700897 0.08657844 -0.06838088 0.07269272
-0.04235165 -0.06315416 -0.10126683 -0.069765225 -0.101787284 0.11842452 0.10193691 0.01967591
-0.11091785 -0.10393852 0.07253319 -0.028512642 -0.10797328 -0.02964449 -0.026446268 0.06732297
-0.018516317 0.08939141 0.04764676 -0.016950741 -0.11618839 -0.0085437745 -0.085311845 -0.051679403
0.101471946 0.10957651 -0.014521003 0.103315994 -0.029451817 -0.05129595 0.078439385 0.09929727
-0.10912746 -0.04935302 -0.020450711 0.08761999 0.04213856 -0.106866956 0.05192353 -0.059063584
0.023543552 0.06638171 0.111957 0.008511215 0.08552016 -0.103250265 -0.017083108 -0.04472345
0.05376236 0.006252557 -0.11039357 0.072860196 0.105138764 0.06441824 0.097338974 0.010682389
0.0914421 -0.078364514 0.05927846 -0.06817517 -0.11466646 0.013198862 -0.037985444 0.06867119
0.046176188 -0.059945006 0.021894189 -0.033982262 -0.042175267 0.043246567 0.01758862 -0.032166783
-0.036149547 0.06520733 0.010786459 0.08168902 -0.12710766 0.027864115 -0.06829141 -0.015903784
-0.043593854 -0.06199361 0.0877703 -0.038785096 -0.098407105 0.09220169 0.094063826 -0.06605984
-0.1285568 -0.07783764 0.060847744 0.10278114 0.029932626 0.016999036 0.072870865 -0.14504933
-0.08652772 0.025787298 -0.056035798 -0.05192153 -0.06528233 0.043397456 -0.0013026744 -0.080707125
-0.20981477 0.013838597 0.03123878 -0.12206468 -0.103432335 -0.112277016 -0.16617826 0.10808889
0.039915934 -0.0686026 -0.20973168 0.03930288 -0.02539027 -0.020114347 -0.075386204 -0.05840489
0.007517148 0.054127384 -0.029596135 -0.0094925165 -0.10374659 -0.053357318 -0.10561925 -0.10855926
0.0908744 0.033855975 -0.023162842 -0.11190568 0.08876572 0.0109111965 -0.058813926 -0.093343005
-0.023908803 -0.01557596 0.113716185 0.114168316 -0.112899795 -0.075187996 0.059216432 -0.0016903132
0.113775834 0.023346432 -0.12428008 0.007285446 -0.04286909 0.08547365 -0.023917824 -0.09499395
-0.023805916 0.021685546 -0.08230081 -0.11994159 0.073239595 0.025997251 -0.018992156 0.038470853
-0.11023284 0.12169926 0.01094893 -0.11312771 -0.10625371 0.023648962 -0.07346581 0.05434826
-0.04795205 -0.05031143 -0.03610839 -0.011697382 -0.112855524 0.060270816 -0.041606788 0.1074612
-0.06703445 0.0010909736 -0.11505774 -0.1128072 -0.02561893 0.05963604 0.040201485 0.11596806
0.0045193722 -0.01337585 -0.019134685 -0.05687794 -0.016589763 -0.10114695 -0.10431757 0.00916308
-0.048419382 0.061261132 -0.1130635 -0.018425822 0.03983826 -0.11578983 0.01672138 -0.103343844
-0.04891425 0.0100183785 -0.071847305 0.0024166852 -0.017197138 0.049608696 -0.10851105 0.12269698
-0.056322336 -0.05003385 -0.0404482 0.07413503 0.05655572 0.04236682 -0.11344464 0.08642267
-0.044157516 -0.06065781 0.121572435 -0.027203768 0.03193857 0.07374118 0.017534716 0.02465227
-0.0074341903 0.07708507 -0.0040428755 -0.083530694 -0.06414741 0.020968927 0.016069472 0.04930753
-0.11183826 -0.008562652 0.1189695 0.07107356 0.07375486 0.09784864 0.060609166 0.11939854
0.08158213 -0.07565286 -0.09597358 -0.12285947 -0.045040917 -0.09356949 -0.01566352 0.06732254

body.2.bias f4 [64]
00000000: 2c38 503d 0570 71be 61ed 8b3d 27b5 8fbd
00000010: faf2 f33d cc82 02bd ff30 953d c79b afbd
00000020: 996e 9e3e 9478 8d3d 8737 edbc fe48 36bd
00000030: 76a6 29be 66e8 89bd ebf8 723e 1878 14bd
00000040: 2269 cb3d c03d cc3c 7f8f 9c3d ecfe 4cbe
00000050: 2899 023d 00bd 5e3b 25da afbc 3521 143a
00000060: 8e18 a03d da49 e43c bf11 813a 10cf 353d
00000070: 74a9 ddbd ad00 8cbc d1f3 49be 3d16 69bd
00000080: 6e22 3d3d ea2b 42be 1ab8 d73c d3d3 39be
00000090: 34f1 33bd ea8f c33d 53fd 56be 0461 72ba
000000a0: 14d1 2ebb fa25 d4bd 39cf 58bc 98a5 c0bc
000000b0: c059 82bd 4737 86bb c132 c5bd 64d7 cebd
000000c0: ce3a 94be 90f0 17bd db74 7ebe 593e d6bd
000000d0: fe89 fa3d 3a6f 00be c050 ab3d f530 973d
000000e0: fb4d 723d e9f1 1bbe 693a 34be 6ed1 e5bd
000000f0: 363c 313e f87a 94be b46a 40bd a2ec fe3d
0.05083482 -0.23577888 0.06832386 -0.07016974 0.119115785 -0.03186302 0.07284736 -0.08574634
0.30943754 0.06907764 -0.028957142 -0.044503205 -0.16567406 -0.067337796 0.23727767 -0.036247343
0.09932162 0.024931788 0.07644557 -0.2001912 0.031884342 0.0033987164 -0.021466324 0.00056507
0.078171834 0.027867246 0.0009847208 0.044386923 -0.10823336 -0.017090166 -0.19721915 -0.056905974
0.046175413 -0.18962064 0.026332904 -0.18147211 -0.0439312 0.09548934 -0.20995073 -0.0009246024
-0.0026674913 -0.10358806 -0.0132329995 -0.023516461 -0.06364775 -0.004095945 -0.09628821 -0.10099676
-0.28951114 -0.037094653 -0.24849264 -0.104611106 0.12233351 -0.1254243 0.08365011 0.07382385
0.0591564 -0.15229 -0.17600407 -0.11221586 0.17308125 -0.29000068 -0.04697676 0.12447478

body.4.weight f4 [4, 64]
00000000: f06c 10ba b516 533d 9b33 2e3c a9d5 cf3a
00000010: 62a8 073c f102 f1b9 e29e 2f3e f335 7fbb
00000020: fbcc bcba a04a 75ba 5d5e 7d3d cbdf 373e
00000030: 2138 283d 6513 2c3c d551 1a3e 1e06 0c3c
00000040: ba45 0d3b 14c3 743b e66e 4ebb b890 1c3e
00000050: 1a4a 133c 90f2 06bb 8adc a9bb 6326 2a3c
00000060: 0cc7 3cbc 6fbb f03a 1876 313e 3085 ce3a
00000070: f8b8 ae3a 7a47 3f3c d410 1e3d 9029 70bc
00000080: 5f79 16bd 841a b03c 852b 2f3c aee9 223d
00000090: 6476 1f3c b8f5 733b 0ab8 963d 40b6 d6b7
000000a0: e969 363e e843 b33a 427d cdbc 94b9 ba3b
000000b0: 15f4 27bc a8eb 2f3d 9d89 efbc 92c9 8d3d
000000c0: cd94 163e f354 2c3e 14ef 223e c5ce 493d
000000d0: 2b7a eabb 7dfe b3bc 2cff aaba 6385 643d
000000e0: c342 3f3c b658 09bd b6ab 333e 5613 5fbc
000000f0: 9af6 1b3e aab1 313e e837 8d3d a09d 203e
00000100: 107d 1e3c a87e b83c 028f 1fba 4547 4a3b
00000110: e237 223c f145 e13b afab 7b3c cd22 d43c
00000120: 0449 9d3d 3b8d 15bc 9d79 183d ca11 ba3d
00000130: 1046 6e3d e2c3 003c 0378 8abc fa65 133c
00000140: 0dd5 31bb 8f6d bdbb d195 07bc 8cdb e03d
00000150: 0014 10bb 00b8 ad39 82cb 253c 3c71 96bd
00000160: 9f45 9abb 0de3 933b de15 c83d 7463 f33b
00000170: 12b8 1d3c 01c7 9d3d 5988 063d c19f 983c
00000180: 38b3 1ebd cbc4 f53c 84ef b8ba 4dae 593d
00000190: 502d 46bc b85c 7cbb 619d a53d d45f 85bb
000001a0: edd3 953d 48cc 0e3b b4ca f1bc f0fc 00ba
000001b0: 670f 103d cb7e ba3c 6589 97bc c67b 663d
000001c0: f5d5 cd3d f740 9f3d 6a80 0f3e 2db6 543d
000001d0: 00b4 c9b7 944f b3bc 9e09 d33a e6ff a03c
000001e0: 6c61 afbc f725 d6bc 7670 9b3d 3c5d 5cbb
000001f0: 2452 e73c c0be f33d a375 ca3d 2b4d dd3b
00000200: 6ae8 02bc 9350 263d 49aa 9ebb 00d2 723b
00000210: 4edc 01bc 4cf3 823b 3a55 d43d f64e bd3c
00000220: 2322 873d 2861 b13a 2b56 863d 6c07 103e
00000230: b621 763d 0b60 1fbb cadc 9e3d 3d80 4abc
00000240: 2980 ca3a e606 9e3b 2b9d 863b db43 d43c
00000250: a8b7 ab3b 72b3 1fbc 1326 863c 74ea 183c
00000260: dd55 80bc 5985 8dbb c399 1c3e bc52 503b
00000270: 687f 9b3b 2121 4d3d 886b 233d f892 c6bb
00000280: 4a19 5bbd 6141 2e3d 66e6 0a3c e965 3a3d
00000290: 2fde f1bc c467 213b 3060 9cbb dab6 cfbb
000002a0: e115 ef3d 58cb c8ba bf44 2dbd bc77 ba3b
000002b0: 6aaf 97bc a1a2 113d aaba 8fbc c7ee 633d
000002c0: e1d1 f03d fa1e 173e 5234 b83d cfd0 4c3d
000002d0: 04a2 46bb f103 c3bc 0831 5dba 119c ec3c
000002e0: b6b0 083b 7790 7ebc 8f28 ee3d b3c8 9dbc
000002f0: 8460 c73d ae57 0e3e 8092 273d f2a1 913d
00000300: fe9c b43b 1eba b03c 8ee5 ca3b b4d0 dabb
00000310: 5cc3 cd3b deb7 3abb 59e1 153e 6d07 e73c
00000320: f037 683e 84a1 e23b 004f d03c 5dcb aa3d
00000330: c493 483d 2ed5 ef3b 7893 143e 29ff b63a
00000340: 2aea ce3b 8871 e13b 42fa 08b9 c282 143d
00000350: c974 18bc 8455 06bc a06a 43ba 47be 4c3d
00000360: 3268 8dbc a0e0 723a e459 4f3d 88a0 0e3c
00000370: e458 fb3b 1578 b13c 5b1b d43c c92e 21bc
00000380: 4a82 0dbd 38c4 9f3c ca83 153c 8952 ee3c
00000390: be91 103c 5024 c73b 2567 84bd e0c6 79ba
000003a0: 728a be3d cc72 043c 4f1a d9bc 1ab2 01bc
000003b0: ed6c 91ba 428a bd3c 3bf3 d6bc caf2 273d
000003c0: 4ec3 8c3b 3a1a 893d 8952 14bd 5e01 853c
000003d0: 142a 963b 6028 86bc f6d6 04bc e678 933d
000003e0: 3ef8 0fbc f76c 05bd 1d05 733d d901 90bb
000003f0: 27d9 273e 83b4 383d 3cd6 2c3d 26b7 493e
-0.0005509397 0.051535327 0.010632421 0.0015856522 0.008279892 -0.00045969294 0.17150453 -0.0038942068
-0.0014404351 -0.00093571283 0.06185757 0.17956464 0.041069154 0.010502671 0.15070279 0.00854638
0.0021556453 0.003734772 -0.0031499206 0.15289581 0.008989835 -0.0020591356 -0.005183761 0.010385129
-0.011522066 0.0018366406 0.17330205 0.0015756246 0.0013330271 0.011674756 0.038590267 -0.014658347
-0.036736842 0.021497019 0.010691528 0.039773636 0.009732816 0.0037225317 0.073593214 -2.5595655e-05
0.17813839 0.0013676854 -0.025084142 0.005698392 -0.010251065 0.04294935 -0.029240424 0.06923212
0.147052 0.1682928 0.15911514 0.049269456 -0.007155677 -0.021971935 -0.0013046018 0.05579127
0.011673632 -0.033531867 0.17545971 -0.01361545 0.1523079 0.1735293 0.06895429 0.15685129
0.009673372 0.022521332 -0.00060866785 0.0030865234 0.009901019 0.0068747927 0.015360757 0.0258955
0.07679942 -0.00912791 0.037225354 0.09085424 0.058172286 0.007859202 -0.01690293 0.008996481
-0.0027135045 -0.0057808827 -0.008275465 0.10979375 -0.0021984577 0.00033134222 0.010119321 -0.073458165
-0.0047080065 0.0045131505 0.09769796 0.007427627 0.009626405 0.077039726 0.032844875 0.018630864
-0.038745135 0.030001065 -0.0014109467 0.05314474 -0.012095764 -0.0038507413 0.08086658 -0.0040702615
0.07315812 0.0021789242 -0.029515602 -0.0004920503 0.03517094 0.022765538 -0.018498132 0.056270383
0.10050575 0.07776063 0.1401383 0.05193155 -2.4044886e-05 -0.021888532 0.0016100889 0.019653272
-0.021408759 -0.02614115 0.075898096 -0.0033624908 0.02823741 0.11901617 0.09885719 0.006753584
-0.007989982 0.040604185 -0.004842077 0.003705144 -0.00792606 0.0039962884 0.10367818 0.02310894
0.06598308 0.0013532983 0.06559404 0.14065331 0.060090743 -0.002431872 0.07756956 -0.012359676
0.0015449572 0.0048225997 0.0041080914 0.025911262 0.0052403994 -0.009747373 0.016375577 0.009333242
-0.015665943 -0.004318875 0.1529303 0.0031787595 0.0047454126 0.050080422 0.03989747 -0.0060600005
-0.053490914 0.04254282 0.008477783 0.045507345 -0.02952489 0.00246285 -0.0047722086 -0.0063389363
0.11674095 -0.001531939 -0.04230189 0.005690543 -0.018516261 0.035555486 -0.017545063 0.055647638
0.11758781 0.1475791 0.08994354 0.050003823 -0.0030308971 -0.02380559 -0.0008437787 0.028883012
0.002085728 -0.015537373 0.1162883 -0.01926074 0.09735206 0.13900635 0.040911198 0.07110967
0.005511879 0.021573123 0.006191916 -0.0066777114 0.006279392 -0.002849094 0.14636745 0.028201783
0.22677588 0.006916227 0.025428295 0.0833957 0.048969045 0.007319114 0.1450938 0.0013961542
0.0063145356 0.006879989 -0.00013063199 0.036257513 -0.0093051875 -0.008199099 -0.0007454548 0.04998615
-0.017261598 0.0009265039 0.050622836 0.008705266 0.0076705087 0.021663705 0.02589195 -0.009837815
-0.03454808 0.019502744 0.009125659 0.02909209 0.00882381 0.006077327 -0.06464986 -0.0009528231
0.0930375 0.00808401 -0.026501803 -0.007915998 -0.0011095084 0.023137216 -0.026239028 0.041003026
0.004295743 0.066944554 -0.036211524 0.016236003 0.004582653 -0.016376674 -0.008107891 0.07200794
-0.008787213 -0.03257462 0.05933105 -0.0043947515 0.16391431 0.045094024 0.042196497 0.19698772

body.4.bias f4 [4]
00000000: f408 b73d 939f 533d dec2 e73d 9f4a 833e
0.089372545 0.051665854 0.11316465 0.2564287

body.0.weight f4 [64, 5]
00000000: 126e 8d3e b037 473d d4d3 a13e 402d 3fbe
00000010: a45d f7bd 75d7 5dbe b469 8d3e 1075 713e
00000020: 939e a2be 7f8e 7dbe ceb0 013f 3d92 f43e
00000030: dec7 d63d 77d0 ae3d c670 3d3f 16ff 8f3e
00000040: 53c5 e63e 4253 a13c 320b bcbb 7228 983e
00000050: c706 28bf c541 d1be 4878 d83e 02b4 353e
00000060: 08db a5be d6d2 323e b103 b23d 9f3a 433e
00000070: 2483 44bc 169b 003f f0b7 dd3e b948 6b3f
00000080: db73 4dbe 29b8 313e 2b5b 4f3f 3ce7 26bf
00000090: 692f 42be 45ec 9cbd 5444 6f3e c916 1cbf
000000a0: ea50 0cbf 47c4 65be 40b8 0e3e c4b7 373e
000000b0: 77ad c2be 4042 0ebe 98c7 993e dca3 90bd
000000c0: c067 67bc c293 81be 1ddf 31bf 3e6d e3be
000000d0: 5430 5c3e 598d 113e 6244 ecbe d9ce d0bd
000000e0: 9fff c5be 0f4c 033f 5e2e 193e 3112 dfbe
000000f0: 6745 1c3f b6ce bb3e d72c fe3d 422b 41bd
00000100: 5e1d ef3e dae3 af3e 6054 85bc c0c2 253e
00000110: d8ba c2be 65f9 80be 2f11 1b3f c343 193f
00000120: 8aff e3bc d8b1 113c 36f0 303f f020 203f
00000130: 1115 803e 4868 863e 305c b33e 2b4e 3d3f
00000140: aa84 c9bc 3792 c2be 1682 c23e f076 b43e
00000150: d1ef b4be 0325 313f e2f7 e73e 40ac 663e
00000160: c44a 0d3e 573c 893e 9807 593e 487c bf3e
00000170: d92f 94be 34c5 933d 806d 1c3f 5594 94be
00000180: fd5e bfbe cebf ee3e 35ae 53be 46bc 0a3e
00000190: 030b b4be 13d0 a93e d352 bd3e 6909 3b3e
000001a0: fe32 843e b1c5 06be 389a febe de35 a43e
000001b0: d18a f63e 3ecf c9be 970e 143f 99c4 bb3e
000001c0: c29a babe 5299 8c3e d188 db3e f097 183f
000001d0: f950 773f d778 01bf 2ffe b93d 3eaa 763e
000001e0: b829 793e 2ab6 85be 1012 2bbd 8715 9cbe
000001f0: 006c ffbd 0ef0 c83e 684d 303e 18b9 a7be
00000200: ba60 8abe c4a8 abbe dc0b 15be 328e 91be
00000210: a8d1 233e 4b50 6fbe c2bd 10be 4fb6 e83e
00000220: aa61 833f b3bd ac3d 6b37 bd3e 1ee8 023d
00000230: b48b 45be a579 62be b10d 9f3e 99a7 aebb
00000240: 8b57 eb3e b200 523f b100 fd3e f417 4fbc
00000250: 0ee6 6ebb d327 203f 802d 08be 9efc a2be
00000260: 0bb5 b6be 40dd 82bd 0c99 7ebe bd91 b03e
00000270: 769e 093f 4916 b5be e1e0 c93d e3dd fd3e
00000280: c737 403f 8159 763f 14e7 0dbe 5331 923d
00000290: c86e 5e3e 7d6c f93d 7ec7 103f 2df8 123e
000002a0: fe91 a5bc 41ae 943e b958 ddbc 35bd 0a3f
000002b0: 1025 d4be e21c 2bbd db7b a33d c95e 583e
000002c0: e7ed 383f fe39 1b3e 3aca 98bd 71c5 b13e
000002d0: 6f14 94be 33c7 8f3e 93c8 6f3e b465 9d3e
000002e0: 126b b2be 181c 8abe 64fe 403e 8376 55be
000002f0: 5c23 c4bd a291 acbe 54b6 8a3e 858d 2abe
00000300: 4a3b 9bbe b2ed 2abe 655a b83b c6e6 683f
00000310: c21e 503e 387d c1be aaf2 9e3c f18b cc3d
00000320: d587 713f 745f 7f3f 8a87 733e ece4 843e
00000330: 8b12 9f3e 1ae8 18bf e82b 1dbf aa9f 89be
00000340: d922 b83e d9ba c3be 09cb bb3e 3f8b 16be
00000350: 365f 583e b83d c0be b370 653e e0ea 01bf
00000360: 6db9 5fbe 88bf f63e fc66 0e3e 4613 47bd
00000370: 9488 de3e 25c0 72be c6b1 8f3e 7a0f 0dbe
00000380: 6063 93be 2b69 083f aef5 0e3e 16fa a1be
00000390: 22b6 31bd aa11 2e3f 7aa3 573f 83d9 3b3f
000003a0: 1a31 ebbd 6f19 a8bd e5d3 033f cd9b c9be
000003b0: 4aad a23e 846f 103e 0953 a8be 724a 3cbe
000003c0: 4cc8 2dbc 0324 a1be 65bb 00be 082b c0bd
000003d0: 21df 02be b582 733f 0793 4c3f f252 443e
000003e0: cc3c e03e ecd0 273f 9f72 f93e a9c1 2f3e
000003f0: 72b8 0dbf 750e d73e 8eaf 343f 9b54 babe
0.2762304 0.048637092 0.31606925 -0.18669605 -0.120784074 -0.21664222 0.27619708 0.23579812
-0.31761608 -0.24761389 0.5066041 0.4776782 0.104873404 0.08535855 0.74000204 0.28124303
0.4507242 0.01969302 -0.0057386393 0.29718357 -0.6563534 -0.4087049 0.42279267 0.17744449
-0.3239367 0.1746324 0.0869211 0.19065331 -0.011994157 0.5023664 0.43304396 0.9190784
-0.20063727 0.17355408 0.80998486 -0.65196586 -0.18963398 -0.07662252 0.23365909 -0.6097227
-0.54810965 -0.22438155 0.13937473 0.17941195 -0.38022968 -0.1389246 0.3003509 -0.07062504
-0.014123857 -0.25308043 -0.6948107 -0.44419283 0.2150281 0.14214076 -0.46145922 -0.10195703
-0.38671586 0.5128793 0.14959094 -0.43568566 0.610434 0.36681145 0.12410896 -0.047160394
0.46702093 0.34353524 -0.016275585 0.16187572 -0.38033175 -0.25190273 0.60573095 0.5986902
-0.027831811 0.008892499 0.6911653 0.6255026 0.25016072 0.26251435 0.3503127 0.739474
-0.024599392 -0.38002178 0.37989873 0.35246992 -0.35339215 0.691971 0.45306307 0.22526646
0.13798052 0.26803848 0.21194303 0.37399507 -0.28942755 0.07215348 0.61104584 -0.29019418
-0.37377158 0.4663071 -0.20671923 0.13548383 -0.3516465 0.3316656 0.36977252 0.18265308
0.25820154 -0.13161351 -0.49727035 0.32072347 0.48152784 -0.39415926 0.5783476 0.3667343
-0.36446196 0.27460724 0.4287782 0.5960684 0.9660793 -0.5057501 0.09081685 0.2408838
0.2433232 -0.26115543 -0.041765273 -0.30485174 -0.12471771 0.39245647 0.17217028 -0.32758403
-0.27026922 -0.33527195 -0.14555305 -0.284288 0.15997946 -0.23370473 -0.14134887 0.4545159
1.026418 0.0843462 0.36956343 0.031959645 -0.19291574 -0.22116716 0.31065133 -0.005330038
0.45965227 0.8203231 0.4941459 -0.012639988 -0.0036453041 0.62560767 -0.13298607 -0.31833357
-0.35685 -0.06389856 -0.2486307 0.3448619 0.5375742 -0.35368565 0.09857345 0.4958335
0.7508511 0.9623032 -0.1385768 0.07138314 0.21721947 0.121788956 0.565544 0.14352484
-0.020211216 0.29039195 -0.027019845 0.54194957 -0.41434526 -0.04177559 0.07982608 0.21129908
0.7223801 0.15158841 -0.07460447 0.34720948 -0.2892184 0.28081664 0.23416357 0.30741656
-0.34847313 -0.2697456 0.18847042 -0.2084599 -0.09577057 -0.3370486 0.2709223 -0.16655548
-0.3031867 -0.16692236 0.0056260102 0.9097713 0.20324233 -0.37790847 0.01940282 0.09987629
0.9434789 0.99755025 0.23782173 0.25955904 0.31068835 -0.5972916 -0.6139512 -0.26879627
0.35964087 -0.3822849 0.3667834 -0.14701556 0.2113007 -0.37547088 0.22406273 -0.50749016
-0.21848078 0.48193002 0.13906473 -0.048602365 0.43463576 -0.2370611 0.28065318 -0.13775435
-0.28786755 0.53285474 0.13960907 -0.31636113 -0.043386586 0.67995703 0.8423382 0.7337877
-0.11483975 -0.08207976 0.514952 -0.3937668 0.31772834 0.1410504 -0.3287585 -0.18387774
-0.0106068365 -0.31472787 -0.12571485 -0.093832076 -0.1278043 0.9512132 0.79911846 0.19172266
0.43796384 0.65553164 0.4872026 0.17163719 -0.55359566 0.42003217 0.70580375 -0.36392674

body.0.bias f4 [64]
00000000: 0486 04be 42c4 cabe 1ccb 1d3f c32f 223f
00000010: 5c68 0ebf 5824 98bc e5ae bcbc 93fe 04bf
00000020: 80ba 0fbf 8dff 93be 7b21 27be bd7b 06bf
00000030: d390 2a3f 16ea a53e fb7f 163f 3eb2 fa3e
00000040: 5d35 64be fd82 20be 05c0 323f f500 853e
00000050: f35c c3be 6507 7fbe eff6 823e e12b e03d
00000060: 9044 6dbd e049 283e f0e3 c53c feab fe3e
00000070: 99e7 d4bd fc4a 613d af5a 6cbe 9398 dfbd
00000080: e783 bd3e 95ff 2a3f 9b9e 083f 786e 313f
00000090: 3a10 bbbe b8a3 5c3e 2b1c adbe 374d 003f
000000a0: db10 ff3e 6104 e4be 3559 aa3e c737 92be
000000b0: 6d5b ddbe d3df 2d3f 3fe9 513f 5012 e43d
000000c0: 447c c63e dbaa a33e 8a80 2abd f836 753e
000000d0: 80ce 983e 5a74 a03e d825 72bd 7c72 2d3f
000000e0: 0531 333e 2dec cb3e 6845 113f d2ee 393d
000000f0: 3342 123f 5d83 78be a983 84bd f046 ae3e
-0.12941748 -0.39602858 0.61638045 0.6335413 -0.5562799 -0.018572018 -0.023032615 -0.5195095
-0.5614395 -0.28905907 -0.16321366 -0.5253256 0.66627234 0.32405156 0.5878903 0.48964113
-0.22285981 -0.15674968 0.6982425 0.25977293 -0.38156852 -0.24905165 0.2557902 0.10945869
-0.057926714 0.16434431 0.02415654 0.49740595 -0.10395736 0.05500315 -0.23081468 -0.10917773
0.37014696 0.6679624 0.5336701 0.69309187 -0.36535817 0.21546829 -0.33810553 0.5011782
0.49817547 -0.4453459 0.33271185 -0.2855818 -0.43233815 0.67919654 0.8199653 0.11136305
0.38766682 0.3196629 -0.04162649 0.2394675 0.29845047 0.3133877 -0.05911812 0.67752814
0.17499168 0.39828625 0.5674653 0.045393772 0.5713226 -0.24268861 -0.06470425 0.34038496

body.2.weight f4 [64, 64]
00000000: 3e7c 8fbd 12e1 c03d 40db 9bbb a8e6 9fbc
00000010: 84b3 4dbd 3431 e2bd 8079 b03d f216 853d
00000020: 40bc 3a3d c836 31bd 9436 c7bd 4040 95bd
00000030: c498 213d d011 52bd e84e 33bd e007 c7bd
00000040: 1486 bcbd 2671 bcbd faad 963d 28ec 9dbc
00000050: 5864 a3bc c21c d5bd b85f 94bc 547b 923d
00000060: 880e dbbc b46f 2fbd f67c 8fbd 36a4 da3d
00000070: b017 573d 90d4 8e3d 5421 7e3d 5c42 723d
00000080: 6cf4 2fbd 4456 1d3d 0022 2dbc 5059 35bc
00000090: 2049 c03c e813 b3bd d070 cebc ac10 23bd
000000a0: 48ff 213d b80c d63d f4d8 8d3d 80c1 563d
000000b0: cece 9e3d 14c0 56bd 483e b13d 42a8 c23d
000000c0: 00b6 323b fe6c b4bd e60c debd f8b2 31bd
000000d0: aab0 b4bd 7012 90bd daf4 f63d d22f ad3d
000000e0: d2a5 afbd 5210 9a3d e0c9 8bbc a89b 893d
000000f0: 069a 91bd 16e1 c33d ee6b dcbd c03f e9bc
00000100: 4873 f9bd 68ed 31bd 981f aebd aa3a d7bd
00000110: b62e aabd a853 823d 7883 91bc 60df 0e3d
00000120: 7af2 99bd 226f c83d 4444 8fbd 44c8 c03d
00000130: aee1 963d 288a 8e3c 0822 ce3c 622d a9bd
00000140: b4bc 5ebd 6c45 e9bd bc1b c3bd 541d 04bd
00000150: b4e6 d23d 6e2f e43d e8bf b43c 7c8c e1bd
00000160: 787a 9d3c 4435 c93d 007c 33b9 00d4 30bb
00000170: 505a ab3c f061 66bd 8c02 34bd 6836 cc3c
00000180: 162b c3bd c025 01bc f2f0 9dbd dc38 62bd
00000190: f03b 51bd 6c6e e13d a0e1 3ebd c007 f73c
000001a0: a8aa f0bd 9488 cd3d 108a ea3d e6b7 c63d
000001b0: 5614 99bd 4472 44bd 882d ffbd d870 343d
000001c0: 343f e6bd f89f d23d b8d7 e3bd 400f cdbb
000001d0: 007a 5abd c0c8 ee3d 748e fdbd 7097 003c
000001e0: 385f edbd d0c9 3cbd 0059 3cba fc28 7e3d
000001f0: 8862 e8bd 2c05 5c3d 7ad5 dfbd 86d6 edbd
00000200: a815 10bd 309e 97bc 28fc 0c3e 1093 d63e
00000210: f927 d23d 8c6e 933e 9872 acbc 95c9 d9bd
00000220: 4035 d6bc 2489 76bd b9b0 a63c 257b 92bd
00000230: e994 b93d 6c9d 00bd a07d 013e 2f25 703c
00000240: 58ed 54bd dd9b 0a3e d790 dd3d 733b 073e
00000250: 70e8 8d3c 94ea 3e3c 176a 0f3e ca0e ca3d
00000260: 34ca 1b3d 78f0 67bd ee06 803d 48d3 913a
00000270: 19c0 613d 4335 0e3e bc14 4fbd c3f7 5a3d
00000280: 9e5b 043e 00e6 af3e 3bcc 733e 8983 d13e
00000290: 71be dcbd 80a9 13bc d953 02bd dda6 023b
000002a0: 4f84 f03d 12e6 1dbe 9237 ca3d 84ee 9a3d
000002b0: 0c0e b53d 622d 563e ffb6 e23e 7877 50bd
000002c0: 66db e73d 5e01 8b3b 3ded 09bd 3037 1b3d
000002d0: ae7d f93d 355e c53e b4b6 d93d 894f 28bd
000002e0: b6b8 97bd 2332 a2bd a7e3 92bd cab6 10be
000002f0: c479 023c ebc1 e23d 566a f53d 9ad1 e73d
00000300: b033 d2bc 626c fdbd 1047 d63c bc82 0e3d
00000310: 307c eabc 3437 efbd 406d edbc 2035 3bbc
00000320: 9667 bf3d ece4 a4bd 9a93 f33d 12d0 9b3d
00000330: a697 b6bd 309b bf3c 6c96 c8bd f4cd d7bd
00000340: 843c 53bd a8e6 90bd f8b1 8cbc 68ca 633d
00000350: e0c3 bcbc 9406 f33d cc55 333d 8000 abbd
00000360: 0e18 e3bd 20d6 11bd 9092 7b3c 3472 dd3d
00000370: 1c96 6abd 86ab e9bd 8098 803c 94dd 6bbd
00000380: cafa 8fbd 7c07 efbd 4e7c a93d c06e ffbd
00000390: 4e2b e7bd 20bf 123c 800e e43c 1828 83bd
000003a0: 1625 ec3d 4e00 c3bd c463 c9bd cc79 32bd
000003b0: 7caf f0bd ce29 d33d 80b2 1abc 6ef5 913d
000003c0: 083c f5bd 0812 71bd fc65 1dbd b8d0 a83d
000003d0: ae3d ec3d cc63 afbd 5273 913d 08fc 90bc
000003e0: c083 013b 3869 603d 30ff ca3c 741e 0a3d
000003f0: dcf1 b2bd 4098 6dbb 525f a5bd 82b2 e2bd
-0.07006119 0.09417929 -0.0047563612 -0.019519165 -0.050220028 -0.11044541 0.08616924 0.06498517
0.045589685 -0.043265134 -0.09727207 -0.07287645 0.03945233 -0.05128652 -0.043776423 -0.09718299
-0.09205261 -0.09201269 0.07357402 -0.019277647 -0.019945309 -0.10405876 -0.018112049 0.07152429
-0.026740327 -0.042831138 -0.07006256 0.10675852 0.052512825 0.06974137 0.062043503 0.059145316
-0.04295771 0.038412347 -0.010567188 -0.011068657 0.023472369 -0.08744031 -0.025200278 -0.03981082
0.039550096 0.10451645 0.06926146 0.05243063 0.077542886 -0.052429274 0.08654457 0.09504749
0.0027269125 -0.08809851 -0.10842304 -0.04338357 -0.088227585 -0.07034767 0.120584205 0.084563866
-0.085765496 0.07522644 -0.017064035 0.06719142 -0.07109456 0.09564416 -0.107627735 -0.028472781
-0.12180191 -0.0434393 -0.0850212 -0.10509236 -0.08309691 0.063636124 -0.017762884 0.034880996
-0.07516952 0.09786822 -0.069954425 0.09413198 0.07367264 0.017399862 0.025162712 -0.08260609
-0.05437918 -0.11390194 -0.09526774 -0.032254532 0.102979094 0.11141859 0.022064164 -0.110131234
0.019223437 0.09824613 -0.00017116964 -0.002698183 0.020917088 -0.056245744 -0.04394774 0.024928287
-0.09529702 -0.007882535 -0.07711972 -0.055230007 -0.05108255 0.110073894 -0.04660189 0.030155063
-0.117513 0.10035816 0.114521146 0.097030446 -0.07474582 -0.047960535 -0.12459856 0.04405293
-0.11242524 0.10284418 -0.111251295 -0.0062579215 -0.053339005 0.11659384 -0.123806864 0.0078486055
-0.11590427 -0.0460909 -0.0007184893 0.062050804 -0.11346918 0.05371587 -0.10929389 -0.11613183
-0.035176903 -0.018508047 0.13768065 0.41909075 0.102615304 0.28795278 -0.021050736 -0.10634152
-0.026148438 -0.06018938 0.02034794 -0.07152394 0.090616055 -0.03140013 0.12645578 0.014657303
-0.05198416 0.1353602 0.10818642 0.13206272 0.017322749 0.0116526075 0.14005314 0.09866102
0.038034633 -0.056625813 0.06251322 0.0011125589 0.05511484 0.13887505 -0.050556883 0.05345894
0.12925574 0.34355164 0.23808376 0.40920666 -0.10778511 -0.00901258 -0.031818245 0.0019935884
0.11743986 -0.15419796 0.098738804 0.075650245 0.0884057 0.2091575 0.4428024 -0.050895184
0.11321144 0.0042421063 -0.033673514 0.037894428 0.121821746 0.38548437 0.10630551 -0.041091476
-0.07408278 -0.07919719 -0.071723275 -0.14132228 0.0079636015 0.11072143 0.119831726 0.11319275
-0.025659412 -0.12374188 0.026156932 0.034792647 -0.02862367 -0.11680451 -0.028982759 -0.01142624
0.09345929 -0.08051476 0.11893387 0.07608046 -0.089156434 0.023389429 -0.09794316 -0.10537329
-0.051571384 -0.07075244 -0.017174706 0.05561295 -0.02304262 0.11866489 0.043782994 -0.08349705
-0.110885724 -0.035604596 0.015354767 0.10812798 -0.05727206 -0.114096686 0.015697718 -0.05758436
-0.07030256 -0.116713494 0.08275662 -0.12472296 -0.112875566 0.008956701 0.027838945 -0.06404132
0.11530511 -0.095215425 -0.09833482 -0.043573186 -0.11752221 0.10310708 -0.009441972 0.0712689
-0.11974341 -0.058855087 -0.038427338 0.08242935 0.11535202 -0.085639566 0.07102074 -0.017698303
0.0019762367 0.054787844 0.024779886 0.03372045 -0.08737537 -0.0036254078 -0.080748215 -0.11069204

body.2.bias f4 [64]
00000000: 40e0 043b cc2a 503d 37f8 d73d 2c52 e6bd
00000010: 3d29 7c3e 0024 883d dd48 893d 046b 233d
00000020: d1b9 743e d9b5 863e 7864 9c3e be62 ec3d
00000030: fb23 b13b b8a1 c63c 8edb b2bd 886a 053d
00000040: ff72 dabc bff2 903d cd5c ee3e 34b5 76bd
00000050: 9050 bdbd 9e72 d83e 43e7 743e 9a85 c63e
00000060: 1c8e 9cbe ab46 9d3e 11ae c13d 90a6 4b3d
00000070: ff37 4a3b 10f9 9f3d a117 203d 075a 843e
00000080: f987 8e39 b123 0dbe ba7f ed3e 6840 463d
00000090: 990a e33e e046 653c facc b8bd 5b10 aa3e
000000a0: 8448 8a3e da16 b73e 7ef6 bc3d ca0c 84bd
000000b0: c95f 863e df1b b0be a483 913e c8e6 053d
000000c0: 4f2f bcbd 80aa 2e3d 5473 03bd 6bc3 c13d
000000d0: 9d1e 22be c09e 643d 226d ef3d f321 bdbd
000000e0: 777d 733d 229f 94bd 7795 60bd 64f0 9a3e
000000f0: 0ee1 8f3d c0a3 6fbe d6b5 2c3d 4071 bc3c
0.0020275265 0.050822064 0.1054539 -0.11246142 0.24625106 0.066474915 0.06703351 0.03989698
0.23899008 0.26310614 0.30545402 0.11542271 0.0054059005 0.024247035 -0.08733283 0.0325723
-0.026666163 0.0707755 0.46555176 -0.060231403 -0.09243882 0.42274946 0.23916344 0.38773805
-0.3057717 0.30717978 0.09457029 0.049719393 0.003085613 0.07811177 0.039085034 0.25849935
0.00027185658 -0.13783146 0.4638651 0.048401266 0.44344023 0.013993949 -0.09023471 0.33215603
0.2700845 0.35759622 0.09226702 -0.06447752 0.26244953 -0.34396264 0.28420746 0.032690793
-0.09188711 0.04264307 -0.032092407 0.09461101 -0.1583199 0.05581546 0.11690737 -0.09234991
0.059445824 -0.07256915 -0.05483004 0.30261528 0.07025348 -0.2340231 0.0421656 0.02300322

body.4.weight f4 [1, 64]
00000000: 46fd f4bd ba6a a2bd 7b44 9f3e 0071 dfbc
00000010: 3920 0ebe f8ed ee3c bd5a ed3c aa20 bc3c
00000020: f5ba 6cbe 1d02 5dbe 033c 7bbe 8f91 5c3c
00000030: 8c66 0c3d f097 d2bd 85a6 143c b3ec f83d
00000040: ee06 27bc c29c 42bd 6661 53be 2dd4 4f3e
00000050: ac1d 5e3d 01b3 68be d813 95be 4b6a 84be
00000060: a3f9 ac3e 059e 8bbe 7d58 20bd a4ce ccbd
00000070: 6cf3 d53d eeba 81bd 2feb ec3d 892d 3cbe
00000080: 13b6 ed3d e2b8 3e3e f1b3 6bbe 705d f0bc
00000090: 2a3a 47be cefe f3bd dc0c d53d e57c 77be
000000a0: 88ca 7abe e3c3 82be 5ccd c13d 697b 913d
000000b0: 3f44 3dbe 4e8a 9a3e cf9e 81be 8a73 cdbd
000000c0: 8d65 a93d 38f1 05bb 4f48 c43d 4ba8 f23c
000000d0: 60fb 613d e0e0 313d 1bd8 c4ba fe31 4f3d
000000e0: a234 543e a0f0 5f3d 58cd c2bd 8cd8 50be
000000f0: 163b 823c 67ef 8a3e 9b48 db3a cca2 193d
-0.119623706 -0.07930513 0.31106934 -0.027275562 -0.1387948 0.029166207 0.028973931 0.022964794
-0.23118193 -0.21582837 -0.24534611 0.013462438 0.034277484 -0.10282886 0.0090729045 0.12154522
-0.010194523 -0.047512777 -0.20642623 0.20295782 0.054227516 -0.22724535 -0.29116702 -0.25862345
0.33784208 -0.27268997 -0.03914689 -0.10000351 0.1044682 -0.06334482 0.11568295 -0.18376745
0.116069935 0.18625215 -0.23017861 -0.02934143 -0.19455782 -0.119138345 0.10402843 -0.24168737
-0.24491322 -0.25540075 0.09462997 0.07103617 -0.18483065 0.30183643 -0.25316474 -0.10031803
0.082713224 -0.0020437967 0.09584104 0.029621264 0.05517137 0.043427348 -0.0015018018 0.050584786
0.20723203 0.054672837 -0.095118225 -0.20395106 0.015897315 0.27135774 0.0016730012 0.03750877
