ppo_model.pt (torch, 42531 bytes, 11 tensors)

layers.0.weight f4 [64, 5]
000000 4c 93 c5 3e 14 95 23 3e 86 0e bf 3e db 52 7a be
       0.3858894 0.15974838 0.37315768 -0.2444567
000010 96 c7 aa be b3 d6 b1 3e b7 af d1 3d 00 0a 69 3d
       -0.33355397 0.34734115 0.10238593 0.056894302
000020 e5 5e 44 3e db cd 24 3e f0 92 8e bd 5c 74 93 3e
       0.19176824 0.16094153 -0.0696162 0.28799713
000030 09 25 fb 3e 9c e1 c5 3e 1f 8c a7 3e 1b 3c db be
       0.49051693 0.3864869 0.3272409 -0.42819294
000040 d8 d2 ca bd f8 2b 89 3d 62 3c ae be 88 0e 14 bd
       -0.099034965 0.066978395 -0.34030443 -0.03614667
000050 ab 8f 5c 3e fe b0 f2 3e ad c5 0a be 3e 48 e0 3d
       0.2153918 0.4740066 -0.1355197 0.10951279
000060 b3 39 ad 3e f3 36 1f 3e dd ba 8f be e0 55 c4 bd
       0.33833084 0.15548305 -0.28072253 -0.09586692
000070 21 92 d5 3e 98 f4 83 be 19 7f 59 be 48 ef 45 be
       0.4171305 -0.25772548 -0.2123989 -0.1932956
000080 a2 c6 b9 3e 10 17 a9 bd 1c 52 76 be 91 57 f6 3e
       0.36284357 -0.08256352 -0.2405476 0.48113683
000090 6f d7 3f 3e bd 4c 66 be ac 8f 28 3e 50 26 0e 3f
       0.18734525 -0.22490211 0.16461056 0.5552721
0000a0 ce 02 9a 3e b3 6d 92 be bf 5c e5 bd 64 f1 07 bc
       0.30080265 -0.2859932 -0.111993305 -0.008297298
0000b0 df 2d 26 bd b9 27 a0 3d 30 8e 85 be 6d 0c 18 3f
       -0.04057109 0.078200765 -0.26085043 0.5939396
0000c0 c3 b2 bf 3e 4a 3f 52 3d 86 6e e0 be 65 f5 3e 3e
       0.37441072 0.05132989 -0.43834323 0.18648298
0000d0 b2 1d e8 bc 3f e4 f5 bd 22 6d eb 3d 26 ae bf 3e
       -0.028334472 -0.12006425 0.11495425 0.37437552
0000e0 81 f1 62 3d f1 5a 72 3d 00 71 41 3e 64 dc ae be
       0.055406097 0.05916876 0.18890762 -0.3415252
0000f0 f4 d9 37 be 95 10 f7 3e d8 e0 21 be ea 18 03 3f
       -0.17954236 0.4825484 -0.15808427 0.5120989
000100 be 99 50 bd a3 b3 e8 bc 5f c6 09 be 01 9f 69 3d
       -0.05092787 -0.02840597 -0.13454579 0.057036404
000110 25 f5 22 3e bd e7 93 be 27 a9 0b bd fd d2 b7 3e
       0.15913828 -0.2888774 -0.034096863 0.3590316
000120 01 4b 50 3e 80 da a3 3e 2a 0f ba 3e 20 10 1d be
       0.20341112 0.3200264 0.36339694 -0.15338182
000130 58 90 47 3e ae ab 2c be ae 17 98 be 0c ae 16 be
       0.19488657 -0.16862366 -0.29705566 -0.14714831
000140 ce 0c 02 be 01 f6 c9 3e ed 4b 00 3f 17 7d a9 3e
       -0.12700197 0.394455 0.50115854 0.33103248
000150 0e e9 08 3e 9c 1d e7 bc 3a f1 44 ba a6 08 f8 3c
       0.13370153 -0.028212361 -0.0007512752 0.030277561
000160 77 70 87 3e 58 64 41 3e 80 5a 70 bc 02 7d 02 be
       0.2645299 0.18885934 -0.014670014 -0.12742999
000170 a8 b1 50 3e 20 13 70 be b5 aa c6 be a3 d2 46 3d
       0.2038027 -0.23444796 -0.38802114 0.048540723
000180 8c 23 33 bd cb 9d 6c be 06 e3 0d bd cc 8d 38 be
       -0.043735072 -0.23107068 -0.034640335 -0.18022841
000190 4e c7 65 be 9c 2d 62 3e 3e bc c7 3e 68 c3 c5 bd
       -0.2243931 0.22087711 0.39010805 -0.096564114
0001a0 50 ee 9a be 09 04 91 3e 31 67 8f 3d 37 0c 06 3e
       -0.30259943 0.2832339 0.07002104 0.13090597
0001b0 59 c7 f5 3e 8c 65 e2 3e 65 9d dd 3b 0f f8 e9 3e
       0.48003653 0.442181 0.0067631477 0.45697066
0001c0 59 cf 8f be cf 45 8d 3e 1e af 9f bc e2 13 ba 3e
       -0.2808788 0.27592322 -0.019492682 0.36343294
0001d0 63 3d 15 3e 00 0b 28 3e e4 bd 48 3e 5b 51 f2 bd
       0.14574198 0.16410446 0.19603688 -0.118319236
0001e0 8a a6 d4 3e 08 66 08 3e 26 a7 97 be a0 15 7e be
       0.4153331 0.13320172 -0.29619712 -0.24812937
0001f0 b0 1f 84 be 93 0c 34 3e 81 5b 7b bd 6b e7 c4 bd
       -0.25805426 0.17582922 -0.06136656 -0.09614452
000200 45 f6 b8 3e 9a f8 9d 3e 0e 9f 8d 3e d4 a3 3b 3e
       0.3612539 0.3085373 0.27660412 0.18324214
000210 18 0a 80 3d 94 66 d8 be bc 13 e9 bd 64 c7 a9 be
       0.06251925 -0.4226576 -0.11380717 -0.33159935
000220 e0 f3 95 3e 2c 38 9f 3e e8 e9 0b be 48 e4 61 bd
       0.29287624 0.31097543 -0.13663447 -0.055149347
000230 04 12 bf bc 3d 8d a0 3e 5f 0a ae 3e 5c 82 0b 3e
       -0.02332402 0.31357756 0.33992288 0.13623947
000240 c7 f0 21 be 4c c3 ea bd 3c 30 aa 3e 68 ef 3a be
       -0.15814506 -0.11463031 0.33239925 -0.18255389
000250 90 2d b9 bc c8 07 27 bd 21 49 90 3e 33 b1 df bd
       -0.022604734 -0.040778905 0.28180793 -0.1092247
000260 19 d4 05 be 48 04 22 3e aa e2 83 bd 36 03 14 3a
       -0.1306919 0.15821946 -0.06439717 0.00056462304
000270 e8 75 84 be 6a fa 85 bd fd d5 e3 3d ee 1d 88 be
       -0.25871205 -0.06541903 0.111247994 -0.26585335
000280 fd a8 28 3d 2a 19 76 bd 7b 36 ba 3e 94 08 08 3f
       0.041176785 -0.060082592 0.3636969 0.5313809
000290 4a e8 65 be 6d 22 05 3f 51 ca a6 be 82 29 32 3e
       -0.22451892 0.52005655 -0.3257623 0.17398646
0002a0 87 7f b3 bc 0b 22 23 3a aa 37 ee 3e 89 62 9c be
       -0.021911396 0.00062230293 0.46526843 -0.30543926
0002b0 de cf bc 3a 1c 8f cb 3d 01 b0 86 3e 0b 68 b6 bd
       0.0014405211 0.09939405 0.26306155 -0.08906563
0002c0 bb 95 00 3f 19 69 bc 3e af b1 5d 3e 1d b0 08 3f
       0.5022847 0.36798933 0.21649812 0.5339373
0002d0 9c ec 63 be e7 6c db be 38 7d 8d be 78 80 c0 be
       -0.22258228 -0.42856523 -0.27634597 -0.37598014
0002e0 87 b9 de 3e 15 6a b6 be 7d 85 a4 be c2 24 d5 3e
       0.4350092 -0.3562781 -0.32133093 0.41629606
0002f0 cd b4 47 3e c4 66 69 3c a9 44 c4 bd 69 c1 a9 be
       0.19502564 0.014245693 -0.095834084 -0.33155373
000300 16 0b 61 be 41 80 45 be ea 71 d6 3d 5e 4f 08 3e
       -0.21976885 -0.19287206 0.10470946 0.13311526
000310 f4 76 ab 3e 52 b8 ee 3d d6 f9 06 3f eb a3 46 3e
       0.33489192 0.1165625 0.5272497 0.19398467
000320 36 b6 4e 3e 43 de 3d be 7e d8 4c 3d 97 ff 95 be
       0.20186695 -0.18541817 0.05001115 -0.29296562
000330 2b e4 26 3e 10 9c 3d 3e 26 50 2e be 5c f7 aa be
       0.16297977 0.18516564 -0.17022762 -0.33391845
000340 4e dd 9e be 99 49 dc be ca 3f 99 bd 03 f1 f1 3d
       -0.31028217 -0.430249 -0.0748287 0.118135475
000350 7b bd 93 be d3 e7 d4 3e c2 b0 ca 3e 8d 93 ea be
       -0.288555 0.41583118 0.3958798 -0.45815697
000360 fd da b4 3e c8 28 e2 3e 5b 1e 47 3e c4 e0 e2 be
       0.35323325 0.4417174 0.19445173 -0.44312108
000370 38 ae b5 3d 20 9a 8a 3d d6 70 96 3e de 36 ca be
       0.0887112 0.06767678 0.29382962 -0.39494985
000380 bf 71 d9 be 88 ce b3 3e b0 35 1f be 64 a9 87 be
       -0.42469594 0.35118508 -0.15547824 -0.26496422
000390 1d 2f 92 be c6 c3 b2 be 7c cc 95 be b6 20 28 3e
       -0.2855157 -0.34914988 -0.29257572 0.16418728
0003a0 eb 2d e7 3e 29 2d a2 be 89 a1 4d 3e 5a d8 c2 3d
       0.4515222 -0.3167508 0.20081152 0.09513922
0003b0 ba 60 35 be 80 c4 d2 3e a4 93 94 be 09 ce bf 3d
       -0.1771268 0.41165543 -0.2901889 0.0936547
0003c0 10 2d 68 3e 3e 08 b5 be 31 ad 6d 3e cb b3 d9 3d
       0.2267344 -0.3535785 0.23210599 0.10629996
0003d0 e9 df ff 3d b9 6a 49 3e f1 ab f8 3e 78 0f a8 be
       0.12493879 0.19669618 0.4856868 -0.32824302
0003e0 1a f2 93 be 18 7d 54 3e 79 46 08 3e a5 55 ad 3e
       -0.28895646 0.20750844 0.13308133 0.33854404
0003f0 5e fa 09 3f 3d 79 a8 3e 16 06 04 be e1 09 34 be
       0.53897655 0.32904997 -0.12892947 -0.17581894

layers.0.bias f4 [64]
000000 b6 ad 8b 3e ae 2d 50 3e b0 46 b9 be a0 37 94 3c
       0.27280968 0.20329925 -0.36186743 0.01809293
000010 c9 be 53 be 98 fd 17 3e 80 76 9a be 27 c6 90 3e
       -0.20678248 0.14842832 -0.30168533 0.28276178
000020 6e 7e bd 3e 5c e4 24 be d0 d1 a1 bd 7f 67 58 bd
       0.3701052 -0.16102737 -0.07901347 -0.052833077
000030 2d 46 a7 be af 8b 90 bd 79 fb 10 3e 00 0f e4 ba
       -0.32670727 -0.070578925 0.14158429 -0.001739949
000040 74 59 33 3e 07 9a 4a be 14 83 aa 3e 8e 31 51 3e
       0.17514592 -0.1978532 0.3330313 0.2042906
000050 94 77 c8 bd b1 cf dd 3d e1 9c 13 3e 97 66 c4 be
       -0.09788433 0.108306296 0.14415313 -0.3835952
000060 c2 ff 1b be 73 9e ce 3e 82 82 ba be b0 e8 0a 3d
       -0.15234283 0.40355262 -0.36427695 0.033913314
000070 b1 78 ce 3d 9f 79 af be 8d 45 ba be 3f 24 30 3d
       0.10081614 -0.34272477 -0.36381188 0.043003317
000080 66 2c a9 3e 18 13 03 3f 84 da 91 be 59 fd ee 3e
       0.33041686 0.5120101 -0.28487027 0.46677664
000090 00 13 3b 3e 96 96 1c be 4a 42 e8 bd dc b2 dc bd
       0.18268967 -0.15291819 -0.11340769 -0.10776302
0000a0 0a 9b 62 bd c0 b4 9a bb 93 ed cc 3e 58 77 31 bd
       -0.055323638 -0.004721254 0.40025005 -0.043326706
0000b0 70 39 34 3e cf 0c b7 be 45 7a a4 3e 28 e1 d6 bd
       0.17600036 -0.3575196 0.32124534 -0.10492164
0000c0 83 7b bb be 6d e3 92 3e fa 93 a4 bd a6 37 02 be
       -0.3661767 0.28689137 -0.08036037 -0.1271654
0000d0 fe 42 e2 3e 0d 6e 87 3e 29 8f a8 3b 72 86 e4 bd
       0.44191736 0.2645115 0.005144019 -0.11158456
0000e0 7d 74 6c be c8 b7 c5 bd 41 f1 8f be 76 f3 5f be
       -0.23091312 -0.09654194 -0.2811375 -0.21870217
0000f0 c2 65 90 3e 04 32 b9 3b 92 40 f6 3e af c1 e0 be
       0.28202635 0.0056517143 0.48096138 -0.4389777

layers.2.weight f4 [64, 64]
000000 36 43 f9 bd a4 f1 f8 3d 58 81 16 bd a8 e1 ce bd
       -0.121710226 0.12155464 -0.036744446 -0.10101634
000010 b0 fb b8 3d 36 99 bf bd 94 68 4a 3d 00 9c 28 3b
       0.090323806 -0.093553945 0.04941614 0.002572775
000020 cc fb b1 bd e6 18 c6 3d aa fa f1 bd 30 ce 6b bc
       -0.086906046 0.09672718 -0.118153885 -0.014392421
000030 dc a1 27 3d 76 23 f6 bd 8a 88 e7 bd 8c b5 bb bd
       0.040925846 -0.120184824 -0.1130534 -0.09165487
000040 58 89 e2 3c 80 97 a5 3b 70 b3 a3 3d 74 bc 38 3d
       0.027653381 0.0050534606 0.07993209 0.045101598
000050 3c 24 f4 bd dc 65 c9 bd c8 cd 8b 3c 02 0b 88 bd
       -0.11920974 -0.09833881 0.017065898 -0.066427246
000060 90 b0 53 bc 14 28 11 3d d8 56 ad bd d0 96 0b 3c
       -0.012920514 0.035438612 -0.0846383 0.008519843
000070 00 53 2d bb 2c 94 b7 3d a6 83 b8 3d ba 74 a1 3d
       -0.0026447177 0.089638084 0.09009485 0.07883592
000080 b8 8e cc bc 58 86 09 bd c4 e1 f7 3d 98 cf 9b bd
       -0.024970397 -0.033575386 0.12103608 -0.07607955
000090 b4 c2 6a 3d 90 6b c8 bd 0c 86 0f 3d 9c b9 0c 3d
       0.05731459 -0.09786141 0.035039946 0.0343567
0000a0 22 a8 c5 bd b0 1d 9e bc a0 e0 d3 bd c4 ec 4d bd
       -0.096512094 -0.019301265 -0.10345578 -0.050274625
0000b0 02 67 c7 3d 94 96 99 bd 98 5f ba bd 80 8b f6 bd
       0.09736444 -0.074994236 -0.09100264 -0.12038326
0000c0 98 66 0f 3d f6 15 ac 3d 86 6b 80 bd e0 23 fb 3b
       0.03500995 0.08402626 -0.062705085 0.0076641887
0000d0 78 af 96 3c e4 a3 23 bd 80 41 da bd 20 0e f6 bd
       0.018394217 -0.03995122 -0.106570244 -0.12014413
0000e0 a6 68 fb bd f2 94 af 3d 68 bb a7 bc c8 15 4d 3d
       -0.122758195 0.08573331 -0.020475104 0.0500696
0000f0 e8 2f cd 3d 20 ad 65 3c 62 14 9c 3d 18 14 00 3d
       0.10018903 0.014018327 0.07621075 0.031269163
000100 f4 0b d4 bd e4 d2 0e 3e ed 54 ed 3d 04 22 24 3d
       -0.103538424 0.13947636 0.11588464 0.040071502
000110 14 33 82 3d 12 1f 92 3d 00 3f a8 ba a0 e5 10 3e
       0.06357399 0.071348324 -0.0012836158 0.14150095
000120 ea f8 fd 3d 37 ae 95 3d 94 5f ad 3d 29 d8 26 3e
       0.12400992 0.073086195 0.08465496 0.16293396
000130 f1 1f 03 3e ae bf b1 bd 26 a9 45 3e 14 4f 5e 3d
       0.12805153 -0.08679138 0.19302806 0.054274634
000140 3b b1 52 3e 09 44 33 3e 9a 5a a3 3d 0c 8e b8 3d
       0.2057542 0.17506422 0.07976265 0.09011468
000150 e0 d2 5d 3c 27 df 51 3e 81 ad 89 3e 90 2b 8a 3d
       0.013539046 0.20495282 0.26890185 0.0674659
000160 96 f8 a9 3d a5 11 14 3d 48 22 e3 bd 6c a9 44 3d
       0.08299367 0.03614964 -0.11090523 0.048013136
000170 a8 1a 5c 3e 20 ac aa bc b5 11 a0 3c f9 eb e3 bc
       0.21494544 -0.020834029 0.019539693 -0.027822481
000180 8e 14 d7 3d 49 b6 27 3e d1 09 3f 3e 8e 14 ba 3d
       0.10501967 0.1637813 0.18656088 0.09085952
000190 26 70 ea bd 7d f3 10 3d 6d 48 b4 3d 13 45 df 3d
       -0.11447172 0.03538846 0.088028766 0.10901847
0001a0 b6 01 7f 3d 88 d4 9a 3d 98 ba 4c 3e 53 b3 d9 3d
       0.06225749 0.07560068 0.19993055 0.106299065
0001b0 a8 f1 c6 bd 7c 2e 51 bd d8 40 c7 3a c0 2c b8 bd
       -0.09714061 -0.05106972 0.001520182 -0.089929104
0001c0 1b 6b 73 3d 06 ac ca bd f4 2a 30 3d a6 3a 15 bb
       0.059428316 -0.09896092 0.043009713 -0.0022770553
0001d0 83 c3 80 3e 80 73 c5 3d 6d 62 11 bd f9 4e 6c 3e
       0.25149164 0.096411705 -0.035494257 0.23077
0001e0 99 8f 80 bd 8c cd ea 3d c0 2c e8 bd 22 78 a7 3d
       -0.06277389 0.11464986 -0.113366604 0.081772104
0001f0 31 88 9a 3d 6b 1c 32 3e c8 76 29 3e 7c 48 84 bd
       0.07545508 0.17393653 0.16549218 -0.06459138
000200 d8 09 12 3d 0d d8 17 bd 95 23 4f bd 0c 2f 67 bd
       0.03565392 -0.037071276 -0.050571043 -0.05644135
000210 71 4a c0 3c 30 81 4a 3a fc 8b 9c bd b9 71 c8 bd
       0.023472996 0.0007724939 -0.076438874 -0.09787316
000220 a3 0c a8 3c 50 23 ee bc aa b7 f2 3d 07 35 e1 bd
       0.020513838 -0.029069573 0.118514374 -0.10996442
000230 12 5a cd 3d 80 4b a1 3c 7e fd 47 bd c0 9e e9 3d
       0.10026945 0.019689322 -0.048825733 0.11407232
000240 29 31 9c bd 3c ad 62 ba d8 c3 cb 3c 17 aa 4e 3d
       -0.07626564 -0.000864703 0.024873659 0.05045518
000250 ec 40 7b 3d 41 57 ea 3d 86 2b c2 3d 2a fd 49 3d
       0.06134121 0.114424236 0.09480958 0.0493137
000260 50 88 63 bd 8b ef 4c bd f4 88 30 3d c0 34 4f 3d
       -0.05554992 -0.050033133 0.04309936 0.050587416
000270 78 60 d4 3c 6a 53 b6 3d ed e5 82 bc 78 20 42 3d
       0.025924906 0.08902629 -0.015978778 0.047394246
000280 27 16 e7 bd b8 e5 88 3d fd 53 0e 3d 8d 0b 01 3d
       -0.11283522 0.066844404 0.034748066 0.031505156
000290 58 14 ae 3c d7 3c 5a 3d b0 81 be 3c 54 21 d4 3c
       0.021249935 0.053280678 0.0232552 0.025894798
0002a0 a0 cb 9b bc fc 52 e9 3d 4b 04 cf 3d e8 f1 c9 bd
       -0.019017994 0.11392781 0.10108241 -0.09860593
0002b0 4a 8d bc 3d f6 e3 9f bd 6a 56 85 bd 88 a1 b2 bd
       0.09206636 -0.07807152 -0.06510623 -0.08722216
0002c0 5f a5 19 3d 58 d3 be 3d 3e b8 9e 3d cc de 9d bd
       0.037511226 0.09317654 0.07749985 -0.07708511
0002d0 46 a1 ab bd bf 2c 63 bc fc 5b 02 be 42 83 cd 3d
       -0.0838037 -0.013865649 -0.12730402 0.10034801
0002e0 d8 2d 44 bd 20 7c 05 bd 26 01 f0 bd 58 b1 3b 3d
       -0.047895283 -0.032589078 -0.11718969 0.045823425
0002f0 56 c1 a1 bd 2b 9c 9b bd e3 7f f9 bd 38 eb 2c 3d
       -0.07898204 -0.07598146 -0.121825956 0.04221651
000300 48 5e 12 3d 11 2e ca bd 9c 4b 80 bb c0 80 a7 3c
       0.035734445 -0.09872068 -0.0039152633 0.020447135
000310 6a 6b cf bd f1 45 a8 bc 2c 52 8a 3d 2d 6a fb 3d
       -0.101279095 -0.020541163 0.06753954 0.12276111
000320 5e 57 de bd 02 3b f3 bd 29 52 f7 3d d0 d6 07 3e
       -0.10856508 -0.11876489 0.12076218 0.13265538
000330 fd 7f 66 bc 1a 17 26 3d d2 25 df bd b0 b3 b2 bd
       -0.014068601 0.040549375 -0.108958855 -0.08725679
000340 f4 97 1a 3d 6c f0 63 3d 90 49 35 3c 94 57 83 3b
       0.03774257 0.055649206 0.011064902 0.004008243
000350 5a fc be 3d 8a be 87 bd 05 62 b5 3d 87 51 8f 3d
       0.09325476 -0.06628139 0.08856586 0.06997972
000360 20 66 41 3d fa 4c 90 3d a0 5a ee bb 0e 88 b2 3d
       0.047216535 0.07045932 -0.007273987 0.087173566
000370 30 29 24 3d b8 c0 7a 3d 7d 0e df bd a1 e1 b6 bd
       0.040078342 0.061218947 -0.10891435 -0.08929754
000380 67 f4 5f 3c c7 42 d6 3c ab e3 5d bd 51 d1 ae bd
       0.01366911 0.026154889 -0.0541722 -0.08536018
000390 ab bc 05 3e 6c ec a1 bd 63 4e 9b 3c a5 69 28 bd
       0.13060252 -0.07906422 0.018958276 -0.041116375
0003a0 d7 a6 b8 bd a6 02 d3 3d d9 86 bb bd fd d4 4a 3d
       -0.09016197 0.103032395 -0.091565795 0.049519528
0003b0 40 15 fb bd 86 77 a7 3d 15 07 a6 3b 6e cc 88 3d
       -0.122599125 0.08177094 0.005066762 0.06679617
0003c0 96 c0 94 bd 6e 5b 8d bd a7 77 87 bd 3a a7 b1 3d
       -0.07263295 -0.069022045 -0.06614619 0.08674474
0003d0 ab e1 a6 3d 32 b1 ac 3d d7 89 b3 3d a5 36 39 3c
       0.081485115 0.08432235 0.08766525 0.011304532
0003e0 8c 59 61 ba 38 2d 8d 3c 0a 59 b7 bd ba d0 d8 bc
       -0.00085964124 0.017233476 -0.0895253 -0.026466716
0003f0 d5 ff 3a bd 01 83 0c 3d 5a 49 1d bc 6e 36 04 3e
       -0.045654137 0.034304623 -0.009600008 0.12911388

layers.2.bias f4 [64]
000000 32 fc 89 bd d8 e5 20 3e 85 c0 5d bd a0 c8 a0 bc
       -0.067375556 0.15712678 -0.05413868 -0.019626915
000010 2d 89 d0 3d 90 7c 3d bc d4 f2 de 3d f8 ba cd 3c
       0.10182414 -0.011565343 0.108861595 0.025113568
000020 c4 02 aa 3c ee a8 ec bd ee 5a e5 bc 9e 93 af bd
       0.020753272 -0.11555658 -0.02799746 -0.085730776
000030 34 0a 12 3d aa 24 13 bd d0 09 7a 3d 7a 08 95 3c
       0.03565426 -0.035923637 0.061044514 0.018192519
000040 34 d9 bb bd 0f d0 94 bd 19 4d 3d 3d a6 79 4b 3d
       -0.091722876 -0.072662465 0.046216104 0.04967656
000050 6d de 47 be 5d 6e 78 3d 32 ef 07 be e3 75 42 3d
       -0.19518442 0.060652126 -0.1327484 0.047475707
000060 8c 27 25 3d 47 fb c8 bd 91 aa 44 3d c0 83 71 3d
       0.040320918 -0.09813552 0.048014227 0.058963537
000070 a2 ba 20 bd 44 9d 00 be 13 0b 37 3c de 42 96 3d
       -0.039240487 -0.12559992 0.011172074 0.07336973
000080 30 0f 88 bd dd 6b e9 bc 54 7c 70 3d 4e 6d cc bd
       -0.06643522 -0.028493816 0.05871232 -0.09981786
000090 64 2e 43 bd 2d 42 61 3d a7 d7 eb 3d 3e 97 3a 3d
       -0.047651663 0.05499475 0.11515742 0.045554392
0000a0 99 de 8e bd 1b e1 a8 bd 40 50 3e 3c 89 72 cf 3d
       -0.06976051 -0.082460605 0.011615813 0.10129268
0000b0 b8 d7 c3 bc 58 b5 bb 3c 6d b1 02 3d 21 94 70 bd
       -0.023906574 0.02291362 0.031907488 -0.058735017
0000c0 3c 59 fa bd c4 29 0c be 90 a0 75 bd dc 80 58 bd
       -0.12224051 -0.13687807 -0.059967577 -0.052857265
0000d0 e9 1a 1f 3e 02 a2 34 3c 58 e9 e0 bd ce ae e5 bd
       0.15537609 0.011024954 -0.10982007 -0.11214982
0000e0 92 45 55 bd 76 db 5e 3d 49 e8 18 3d 95 fd 00 be
       -0.0520683 0.054408513 0.0373309 -0.12596734
0000f0 50 cd f5 3c b7 c5 52 bd 45 5b 6f 3d 4e 70 69 3b
       0.030005127 -0.051458087 0.05843665 0.0035619917

layers.4.weight f4 [4, 64]
000000 36 33 fc bd 8e 68 ad 3e 28 1d 92 bd 29 7b b0 3d
       -0.12314455 0.3386883 -0.07134467 0.08617241
000010 f9 e0 ca bd 28 6b bb 3d f8 f4 d6 3d da 0a 99 bd
       -0.099061914 0.09151298 0.10495943 -0.07472773
000020 fb 23 0b 3e f2 cf ee 3d 52 e8 d7 3d a8 cc b6 3c
       0.13587944 0.11660756 0.105423585 0.022314385
000030 f2 77 df 3d 14 46 cc 3d f4 8c 05 bd 2f ba ed 3d
       0.1091155 0.09974304 -0.032605127 0.11607777
000040 33 fc 95 3c 56 0b 5d bd d3 32 55 3d 87 07 cb bc
       0.018308735 -0.05396589 0.052050423 -0.024783863
000050 b8 c7 b7 3d 08 d8 86 3e 02 1a b9 3d cc 21 32 bd
       0.0897364 0.26336694 0.09038164 -0.043489262
000060 24 50 96 bd d3 d0 6f 3d 3e a2 0e bd 88 c2 b3 3d
       -0.07339504 0.05854876 -0.034822695 0.08777338
000070 20 ca 8d 3d 82 e0 b6 3d 22 3c 76 3d 29 10 88 bd
       0.06923318 0.0892954 0.06011594 -0.06643707
000080 4c 22 a5 3c ff e8 ac 3d 90 4d 23 bc 6d 27 ab bd
       0.020157956 0.08442878 -0.009967223 -0.08357129
000090 c2 6c d0 3d 4d 69 a2 bd 90 87 fc 3d ee 35 69 bd
       0.10176994 -0.07930241 0.12330544 -0.056936197
0000a0 dc 99 8a bc 79 a7 8a 3d 24 2a fd bd 20 1e 08 3e
       -0.016919069 0.06770224 -0.12361553 0.13292742
0000b0 f4 b3 0c 3d 28 32 01 be 3f c2 49 3e 84 b1 33 bd
       0.034351304 -0.1261679 0.19703005 -0.043870464
0000c0 22 e6 fc bd e5 36 f1 3d be 1b 52 3e e5 d6 50 3e
       -0.12348582 0.117780484 0.20518395 0.20394476
0000d0 f1 d5 c9 3d b5 46 50 3e 28 53 c8 3d 70 8a 4d bd
       0.09855259 0.20339473 0.09781486 -0.050180852
0000e0 ef 0c 8a bd 46 19 57 3e 8e ab 87 3d dc 93 c3 3d
       -0.06740748 0.21005735 0.06624518 0.09549686
0000f0 12 b0 b1 3d ba 39 8f 3d a2 d7 c9 bd 12 21 cd 3b
       0.08676161 0.06993432 -0.09855582 0.006260046
000100 78 c6 d3 bd 60 e7 22 bd 98 d3 ab 3d 07 01 b7 3c
       -0.10340589 -0.039771438 0.08389968 0.022339357
000110 d6 37 ed bd 96 67 41 bd 34 42 89 3d 1a cc 81 3d
       -0.115829155 -0.047217928 0.0670208 0.063377574
000120 4c 71 3a bd 08 c1 89 bc d5 27 26 bd ce 13 e8 bd
       -0.045518205 -0.016815677 -0.04056533 -0.113319024
000130 6b 24 dd bd 18 c0 5e 3e 38 49 4b 3d eb 0a 1a 3d
       -0.10797962 0.21752965 0.049630374 0.03760807
000140 87 74 07 bd 97 4c 22 bc cd 32 c6 bc f2 15 91 3d
       -0.033070114 -0.009905956 -0.024194146 0.07084264
000150 e9 98 f2 3d 5e d5 25 bd 7f 07 ab bb 70 a0 8f 3c
       0.118455715 -0.040486686 -0.0052193995 0.017532557
000160 20 19 59 bc 14 a3 0d bd 25 38 0e bd 20 5e 7c bc
       -0.013250619 -0.03457935 -0.034721512 -0.0154033005
000170 7d b7 bd 3d 01 64 ea 3c 46 38 1d 3d a6 05 d2 3d
       0.09263513 0.028612139 0.038383745 0.102549836
000180 ff 4c d9 bb bb df 36 3d e0 82 84 3c 75 e8 c6 bd
       -0.006631493 0.04464696 0.016175687 -0.097123064
000190 a0 c1 40 3c 3f 01 19 3c 9e d1 75 3d 7a 34 99 bc
       0.011764914 0.009338676 0.06001436 -0.01870178
0001a0 fb 8b bd bc 18 45 8e 3c a8 6f 38 bd 8d 7a 94 bd
       -0.023138037 0.01736693 -0.04502836 -0.07249937
0001b0 62 90 b0 3d f8 69 ef 3d ef 8e ce 3c f7 a2 bc 3c
       0.08621289 0.11690134 0.02521464 0.023026926
0001c0 e0 ea 84 3d ae 10 0f 3e 1d 7f 8c 3d 30 c4 8e 3d
       0.06490111 0.13971207 0.068601824 0.069710135
0001d0 ca fa 9c bc b9 60 00 be 90 13 f8 bc f6 83 d5 3d
       -0.019162554 -0.12536897 -0.030282766 0.1042556
0001e0 97 6c a7 bd 5a 3d 4e bd c6 0f e3 bd 20 26 89 3d
       -0.08175009 -0.05035148 -0.11086993 0.06696725
0001f0 40 1b bf bc f6 d9 98 3d 27 8c 7f 3d 85 f1 ea 3d
       -0.023328424 0.07463448 0.06238952 0.114718474
000200 00 61 05 3b a1 6a fb 3d 5c 5e d7 3d 8a 73 c0 bd
       0.0020352006 0.12276197 0.105160445 -0.09397037
000210 d8 29 ea bc b9 68 9f bd 7c 0e f1 ba 58 94 f0 3c
       -0.028584406 -0.07783646 -0.0018391158 0.02936761
000220 35 34 6b bc 6a 92 da bc b8 28 77 3d c2 58 de bd
       -0.014355709 -0.026681144 0.060341567 -0.10856773
000230 96 78 03 3e e7 f3 e9 bc 6c a6 5b 3d 10 fc 1d 3d
       0.12838969 -0.028558685 0.05362551 0.038570464
000240 9d 3d fe 3d c1 df c1 3d 05 b3 7a 3d e6 b8 c1 bd
       0.124140956 0.09466506 0.061205883 -0.09459095
000250 74 a1 86 bc 60 e2 34 3d b3 cd 2f 3d 28 3d c2 3d
       -0.016434409 0.0441612 0.04292078 0.09484321
000260 3f ee c9 3d 32 07 f3 3d aa 46 56 bd be e2 f4 3d
       0.09859895 0.11866607 -0.052313484 0.1195731
000270 d2 54 79 bd fa 34 2e bd b3 b9 8b bd b0 15 1d 3d
       -0.060871907 -0.04253099 -0.06822529 0.03835076
000280 09 41 f3 3c 99 03 2d bc c8 5a 88 bc d5 a2 8d 3d
       0.029694097 -0.01055994 -0.01664485 0.06915823
000290 8e 9c 95 bd cd 32 d6 bd 3c 58 c5 bc ee 54 6b bd
       -0.07305251 -0.10458908 -0.024089925 -0.057454042
0002a0 05 40 9d bd d8 13 fb 3b b8 d4 d6 bd 4b a6 7e 3c
       -0.076782264 0.0076622777 -0.10489792 0.015542577
0002b0 28 b8 e7 3d 52 ac 65 3d 6c fd 30 3e 94 f4 3c 3d
       0.11314422 0.05607254 0.17284173 0.046131685
0002c0 84 ed 11 bd cc 3a 00 3e 0f 48 57 bc b7 b8 27 3e
       -0.035626903 0.12522429 -0.013139739 0.16379057
0002d0 72 cc 2f 3d e4 93 28 bd ae 48 9a bd 42 39 fc 3d
       0.042919584 -0.041156664 -0.07533394 0.123156086
0002e0 9e a9 0a 3e 26 e4 4e bc fc 61 7c bd ad 43 aa 3c
       0.13541266 -0.012627637 -0.061616883 0.020784223
0002f0 00 c8 34 bd 28 df ca 3d 78 51 2c 3c 07 d7 e6 bd
       -0.044136047 0.09905845 0.010517471 -0.11271482
000300 90 fc cc 3d d7 f9 bd bd e6 5a a3 bd 8b e3 01 3e
       0.1000911 -0.09276169 -0.07976322 0.12684457
000310 9a f8 29 bc cd 45 d3 bd bc 91 71 bc 38 d3 17 3d
       -0.010374213 -0.10316048 -0.014744218 0.03706667
000320 d7 2b 10 3d b1 d2 80 bd 7c 80 c4 bd 48 0a a7 bc
       0.03519806 -0.06290186 -0.09594819 -0.020390645
000330 9a 37 5b be 72 d2 c3 3d 40 b0 47 3d 07 ba 35 bd
       -0.21407929 0.09561624 0.04875207 -0.044366863
000340 84 d0 41 3d 61 82 8d bd 73 fd 44 3d 52 68 cb bd
       0.047317997 -0.069096334 0.04809327 -0.09932007
000350 b7 3b e0 3d 01 68 04 be 8d 95 0a 3d 63 1e 69 bd
       0.1094889 -0.129303 0.03383403 -0.056913745
000360 72 ea d6 bb 44 db 0e 3e 04 28 79 bd a0 88 6d 3d
       -0.00655871 0.1395083 -0.060829177 0.057991624
000370 ef 3f 33 3d fd f6 80 3d d5 da 09 bd 87 99 66 bc
       0.043762144 0.06297109 -0.03365596 -0.01407469
000380 b9 40 cd bd 31 e9 66 3d 10 14 c0 bd cc ec 89 bd
       -0.100221105 0.056374732 -0.093788266 -0.067346185
000390 14 10 a2 3d d3 05 1f bd 58 9a 7f 3d b9 47 73 bd
       0.07913223 -0.038823914 0.062403053 -0.059394572
0003a0 4a c1 a4 bc 84 a7 ed 3c b2 e1 c0 bd 2e 1f c8 bd
       -0.020111699 0.029010542 -0.09418048 -0.09771572
0003b0 e0 79 9a 3b 55 39 9e bc 3f fc 58 3d e6 eb 32 bd
       0.0047142357 -0.019314447 0.052974936 -0.043682
0003c0 34 1f 74 3d 11 f2 e9 3d a4 f4 c0 3d d4 13 68 3d
       0.05960007 0.11423124 0.094216615 0.056659535
0003d0 92 f0 b5 bd 6a 60 95 bd 74 86 f9 bd 3c d3 f9 bd
       -0.08883776 -0.0729378 -0.12183848 -0.12198493
0003e0 4c 19 eb 3d 4f f4 6b bd 1b 8c c9 bd f7 aa aa 3c
       0.11479434 -0.057606038 -0.09841176 0.020833476
0003f0 fc 6e 9a 3d 19 2c 2a 3d 9c aa 14 bc c9 b0 73 bd
       0.075407 0.04154596 -0.00907388 -0.059494767

layers.4.bias f4 [4]
000000 c2 17 26 3e 27 cb 25 3e 41 14 01 3e 66 36 b7 3b
       0.1622 0.16190778 0.12605383 0.0055912016

layers.0.weight f4 [64, 5]
000000 f1 b8 23 3e 52 37 28 3e fe 09 d9 3f cc d5 48 bd
       0.15988518 0.16427353 1.6956174 -0.049032018
000010 eb 77 1e bc a5 78 d8 3e c3 10 80 bd 84 94 71 3f
       -0.009672145 0.42279544 -0.06253197 0.9436724
000020 78 25 c0 bd 99 e8 02 3f 89 27 d9 be 63 69 bd bd
       -0.093821466 0.51136166 -0.42412975 -0.092486165
000030 42 93 c3 3e 50 80 d8 be 00 1c 27 3d 35 48 b2 3f
       0.38198286 -0.42285395 0.040798187 1.3928286
000040 a4 29 6b 3f de 81 2a c0 fc 54 92 3e 13 32 02 3f
       0.91860414 -2.6641765 0.28580463 0.5085766
000050 02 08 f2 3d d7 09 f7 3e 23 0e 6d 3e c8 78 cc 3e
       0.118179336 0.48249695 0.23149924 0.399359
000060 c0 2c 50 b8 a8 90 9b bd 1c 4f 79 be 9e 74 b5 3e
       -4.963274e-05 -0.0759595 -0.24346584 0.35440534
000070 80 f9 82 bc 2f 7f ce be 6a de 1f be 5c a0 dd be
       -0.015988111 -0.40331408 -0.15612188 -0.43286407
000080 cc 9a e0 be 6a f3 8c be 42 ef cd be 12 cb 79 3e
       -0.438681 -0.2752946 -0.40221602 0.24393871
000090 db 64 d8 be ce 71 d3 be 85 ee a1 bd a4 46 5a be
       -0.42264447 -0.41297764 -0.07906822 -0.2131601
0000a0 14 10 7c 3e 75 8e 78 be c8 a0 98 3d f0 38 46 be
       0.24615508 -0.24273093 0.074525416 -0.19357657
0000b0 0c c9 25 be 31 01 ac 3f 45 5b 55 3f 71 91 19 c0
       -0.16189975 1.3437864 0.8334239 -2.399502
0000c0 f6 84 42 3e 4d 05 2d 3e e2 38 0b 3e da 8b cc 3e
       0.18996033 0.16896553 0.13595918 0.39950448
0000d0 c4 00 fd 3f 5e 9e f4 3e 7c 72 de 3c e8 3d 78 3e
       1.9765859 0.47777075 0.0271542 0.24242365
0000e0 2d 84 80 3c ea ea ce 3e 41 00 c4 be 28 d3 9c bc
       0.015688026 0.404136 -0.38281444 -0.019143656
0000f0 9d 9c 40 bf 40 26 bb be 4e d6 0a 40 9e 3e 83 3e
       -0.7523897 -0.3655262 2.1693301 0.2563371
000100 32 37 44 3e ce be 83 be 71 eb 58 be 59 78 f9 3f
       0.1916168 -0.2573151 -0.21183564 1.9489852
000110 2f 5a 87 3e 08 82 5a 3d 8f ed ba be 00 81 03 3d
       0.26435992 0.053346664 -0.36509368 0.032105446
000120 54 97 e1 3e 8c 92 74 be 40 2c e6 bd 08 64 f7 3c
       0.44060767 -0.23884028 -0.11238909 0.030199066
000130 b4 eb 44 be 8c f9 90 bd d0 5c ab be 45 09 9f 3d
       -0.19230539 -0.07078847 -0.33469248 0.0776544
000140 d3 a7 18 bf ab 5e 02 bf ae b1 1d 40 84 55 b0 3e
       -0.5963108 -0.509257 2.4639697 0.34440243
000150 0b d6 16 bd 79 21 a8 3f 0a 27 42 3f ea 59 3b c0
       -0.03682522 1.3135215 0.7584082 -2.927363
000160 a4 da 81 3e 37 3b 96 3e a3 b5 bb 3f d5 f7 80 3f
       0.25362122 0.29342052 1.4664806 1.0075632
000170 9d dd 31 c0 29 e7 14 3f 2f d0 e0 3e e5 72 c9 3d
       -2.7791512 0.5816522 0.4390883 0.098363675
000180 7d bd 0a 3e b8 e8 e7 3d 80 6e 2f 3e 3e 1f bc 3e
       0.13548847 0.113236845 0.17131996 0.36742586
000190 28 36 14 3e 93 ed 25 3f 14 5d 2a 3f b5 ac 12 be
       0.14473784 0.64815634 0.66548276 -0.14323695
0001a0 66 80 e4 3e b4 fe 6b 3e e6 65 9b be 5c 43 c5 3e
       0.4462921 0.2304638 -0.3035118 0.38527954
0001b0 2e 69 36 be 64 05 c0 be fd 02 04 bf 5e 55 37 3e
       -0.1781356 -0.37504113 -0.5156706 0.17903659
0001c0 f0 f9 b0 3f 22 0c 92 bd 01 20 d5 3e 09 fe 45 be
       1.3826275 -0.071312204 0.4162598 -0.19335188
0001d0 f8 98 66 3e 7a 42 0d 3e 62 99 70 be f3 e6 fa bd
       0.2251929 0.1379489 -0.23496011 -0.12251081
0001e0 88 af df be 09 4f 34 3e 73 d7 dd 3e 22 d5 62 bd
       -0.43688607 0.17608275 0.43328437 -0.05537904
0001f0 6a f1 c1 bd c1 47 85 3e 05 b5 62 3e 78 ae 48 bf
       -0.09469874 0.26031306 0.22139366 -0.7839122
000200 98 5c 54 3e 68 c9 61 3e f7 ba 96 3f 8f 97 76 3f
       0.20738447 0.22049487 1.1775807 0.9632501
000210 08 68 25 c0 31 4e ae 3e ad 8b b2 3e ab 49 e7 be
       -2.5844746 0.3404403 0.3487219 -0.45173392
000220 ca 28 76 be 44 c4 f1 bd 8d d7 4e bd 81 1c a7 3c
       -0.24038997 -0.11805013 -0.050498534 0.020399334
000230 ea e2 81 3f 2e 15 7d 3f 7d cc c5 bf 6b a4 56 3e
       1.0147374 0.9886044 -1.545303 0.20961158
000240 01 04 42 3e d7 a6 23 bf 97 e2 a2 be ac 81 13 40
       0.1894684 -0.6392645 -0.318135 2.3047895
000250 d9 2a 1e 3d ff e7 da 3c 00 4e 86 be 7c 98 55 3e
       0.03861508 0.026721952 -0.26231384 0.2085895
000260 3a 36 7d be bc 33 b6 be aa 8b 94 be 76 4d df bd
       -0.24727717 -0.35586345 -0.29012805 -0.109034464
000270 62 73 97 be da 77 e0 3f 65 8d 0e be a5 cd 9d bd
       -0.29580218 1.7536576 -0.13921125 -0.07705239
000280 42 56 ea 3b 0b 7e c7 be a0 7a 18 3e 52 96 67 be
       0.007151396 -0.3896335 0.14890528 -0.22615936
000290 b6 b0 fe 3d 0e 24 5c be 88 5e 4f 3e 54 e9 da 3e
       0.12436049 -0.21498129 0.20250905 0.4275614
0002a0 c0 9f a1 be 0a ec de be 2e ea 07 be c0 12 b5 be
       -0.31567192 -0.4353946 -0.13272926 -0.35365868
0002b0 35 6c 5b be 1a cc 87 be 08 b2 e8 bd e2 ee 38 be
       -0.21427996 -0.26522905 -0.11362082 -0.18059877
0002c0 70 db 8d 3c 18 35 8e bd d8 0c 2a bd 1f b3 64 be
       0.01731655 -0.069437206 -0.041516155 -0.22333954
0002d0 c6 c4 e0 bd d0 f8 fe bc 28 cb 43 be 2d ec 25 be
       -0.109750316 -0.031124502 -0.19120467 -0.16203375
0002e0 ea 6e 7b 3c 28 e8 65 be 68 15 01 be e3 f2 9e 3f
       0.015346268 -0.22451842 -0.12605822 1.2417873
0002f0 87 ca 31 be ec 17 67 3e 25 06 5c 3e 88 91 f0 3e
       -0.17362414 0.22567719 0.21486719 0.46986032
000300 d3 a9 18 be 58 8f 25 3e f6 92 2e 3f f2 ef f8 be
       -0.14908533 0.16167963 0.68192995 -0.48620564
000310 03 7b 76 be 70 32 fe 3f cb 35 68 3e a4 77 46 3e
       -0.24070363 1.9859142 0.2267677 0.19381577
000320 0d 06 1f bd 1f 26 84 3e 9f 86 f2 3e f0 b4 15 bd
       -0.03882413 0.25810334 0.47368333 -0.03654951
000330 37 1b 8f be 8e 3b 71 bd 3b d6 17 3f b1 02 8f 3f
       -0.2795045 -0.058894686 0.59311265 1.1172696
000340 4d 28 5e 3e f9 d7 99 3d a0 77 4c bf 79 b2 fb be
       0.21695061 0.07511897 -0.79870033 -0.491596
000350 68 20 20 40 f3 63 fb 3d c8 77 fb 3d 3e b8 e3 be
       2.501978 0.12274923 0.12278706 -0.44476503
000360 2e 4b 57 bd d8 e2 14 40 62 ba 67 3d 6a 9c 16 3f
       -0.05256193 2.3263454 0.056574233 0.5883242
000370 53 6f fb 3e e5 79 d9 3e 04 11 53 3f fa b7 0f be
       0.4910837 0.4247581 0.8244784 -0.14035025
000380 ad 16 7d bd f9 61 61 3f c2 fe 83 3f ea 51 22 c0
       -0.061789203 0.8804012 1.0312121 -2.5362496
000390 03 9b f8 3e d6 4e 1f 3e c1 d1 39 3e 2a c6 c9 3e
       0.48555765 0.15557417 0.18146421 0.39409
0003a0 db fd 0f 3f ce 99 1a bd 17 df db 3e c8 81 09 3e
       0.5624673 -0.037744336 0.42943642 0.13428414
0003b0 ba 50 32 be f0 8e e3 bc d0 70 02 bd 6b 4e 87 be
       -0.17413607 -0.027778119 -0.031845868 -0.26427016
0003c0 5d 17 e7 3e 86 ba bc bd ec 29 c9 3f 2d 36 9d bd
       0.45135012 -0.09215264 1.5715919 -0.07676349
0003d0 50 1f 66 3e c9 26 84 bc 0d 6e 73 3e e4 1e 03 be
       0.22472882 -0.016131775 0.2377245 -0.12804753
0003e0 2b b1 48 be e5 8b ca 3d 49 59 e0 3e 2f 28 18 3f
       -0.19598834 0.09889964 0.4381812 0.59436315
0003f0 e8 f5 d6 be f7 0a 0e bd 8b 1a 4a 3f e0 2f a2 be
       -0.41984487 -0.034678426 0.7894675 -0.3167715

layers.0.bias f4 [64]
000000 67 ad bf 3e c9 ff 7d 3e b7 72 a7 be 9f 12 07 3e
       0.37436983 0.24804606 -0.32704708 0.13190697
000010 15 e2 1d 3f 0a b9 85 be 62 6d 8f be e1 40 99 3e
       0.616731 -0.26117736 -0.2801314 0.2993231
000020 60 94 30 3c f1 e5 1c 3e a5 9f 10 3e af ec b7 3e
       0.010777563 0.1532209 0.141234 0.35922763
000030 bb c4 0c 3f a3 b3 21 3f 70 2b 5e be fe a7 cd bc
       0.54987687 0.6316473 -0.21696258 -0.025104519
000040 62 15 2a 3f b1 67 47 be e5 f8 d7 3e 4b 99 8f bd
       0.6643888 -0.19473149 0.4218208 -0.0701166
000050 87 1d 1d 3c 52 a4 aa 3e 89 9c 81 3e f1 4e c5 3e
       0.009589559 0.3332849 0.2531474 0.3853679
000060 20 12 47 3e 58 c6 2c 3e bd 61 b3 be 51 d0 cc be
       0.19440508 0.16872537 -0.35035506 -0.40002683
000070 21 3a 16 3e 86 59 36 3f 86 f5 e4 3e 53 5a 61 3d
       0.14670612 0.7123035 0.4471857 0.05501778
000080 4a 16 93 3e a4 ba c7 3e 61 0e b7 be a0 13 b8 be
       0.28727943 0.39009583 -0.35753158 -0.35952473
000090 25 9b 38 be 31 fd cd 3d 19 d1 04 3e 06 52 45 3e
       -0.18027933 0.10058058 0.1297039 0.1926957
0000a0 07 45 5a bd a4 16 11 3f df de 68 3e 19 e0 0a 3e
       -0.053288486 0.5667517 0.22741269 0.13562049
0000b0 f8 a3 45 be a4 77 98 3d 30 7c 7b 3e 40 e6 a7 bd
       -0.1930083 0.07444695 0.24559093 -0.081982136
0000c0 07 dc 68 3e 8a a9 0c 3e 72 95 13 3e 7f ee 92 3e
       0.22740184 0.13736549 0.14412478 0.28697583
0000d0 ca a4 ca be 06 c9 53 bb 96 ac 9f be 04 49 2e be
       -0.3957885 -0.0032315864 -0.3118636 -0.17020041
0000e0 04 60 4d be 92 fc ec be be e6 90 3e 76 b9 f1 3e
       -0.20056158 -0.46286446 0.28301042 0.47211808
0000f0 28 1d d1 3e 40 7d b8 be fb be 62 3f 3b 01 9d 3e
       0.40842557 -0.36033058 0.88572663 0.30665

layers.2.weight f4 [64, 64]
000000 85 d6 84 bc f3 46 0c be 27 9d 57 3c bd 92 45 be
       -0.016215572 -0.1369894 0.013160027 -0.19294257
000010 1e 97 d8 bd 94 1f 8c 3d a6 bd 99 bd f2 2a 50 bb
       -0.10575698 0.068419605 -0.07506876 -0.0031763879
000020 48 d7 d2 bd 87 42 0d bd a3 c3 71 3d 7b 2e 01 3d
       -0.10294968 -0.034487274 0.059024464 0.031538468
000030 c1 b6 98 3d 9d 2f f3 bd 86 42 f3 bd e0 2c 92 3d
       0.074567325 -0.11874316 -0.11877923 0.071374655
000040 bf 5b 32 bd e8 3d 25 bd 4a 7d 9b 3c 00 df 02 bd
       -0.043544527 -0.04034224 0.01898064 -0.03195095
000050 26 0f cc bd 3c bb d0 bd 98 96 5e 3c a2 9c b2 bc
       -0.09963827 -0.10191962 0.013585709 -0.021803204
000060 0c c0 15 bd 89 32 e0 bd 17 34 db bd a3 16 68 bd
       -0.036560103 -0.10947139 -0.10703295 -0.056662213
000070 b6 cb 40 3d 8e 59 97 3d 70 38 85 3c 7a e1 1d bd
       0.047069274 0.07390128 0.016262263 -0.03854511
000080 2b 57 1e 3d 04 af 1b 3d e0 a2 f2 bc 10 01 55 bc
       0.03865735 0.038008705 -0.02961868 -0.013000742
000090 d0 b7 cc bb b0 19 3c 3e 95 88 ab 3d 1a 52 dd bd
       -0.006247498 0.18369174 0.0837566 -0.10806675
0000a0 37 c8 5a 3d e6 a7 b7 3d 1f 55 16 3e b8 f4 3e 3c
       0.053413596 0.08967571 0.14680909 0.011655025
0000b0 23 26 11 be 57 7f 47 be 1f 0a 04 be b0 fc 5a bd
       -0.14174704 -0.1948217 -0.12894486 -0.053463638
0000c0 62 75 a4 bd e3 f5 69 bd 90 38 3a 3d 83 98 28 3e
       -0.080302015 -0.05711926 0.0454641 0.16464429
0000d0 e8 a3 71 3d 85 5e eb 3d 90 23 7b bc 0c 51 9a bd
       0.058994204 0.114926375 -0.015328303 -0.0753499
0000e0 8c 96 ce 3d 23 2b 63 bc 30 78 6f bd 93 c1 47 bd
       0.10087308 -0.013865265 -0.05846423 -0.04876859
0000f0 db c5 18 3d 64 b5 d5 bd 53 52 de bd 7d 23 6d 3d
       0.037298065 -0.10434988 -0.10855546 0.057895172
000100 b8 66 c4 bd db d0 a0 3d f4 70 70 bd ff 01 c4 3d
       -0.095899045 0.07852336 -0.05870147 0.09570693
000110 72 38 2f 3d a0 f3 8a bd b8 0b 05 3d d8 13 a1 bd
       0.04277844 -0.06784749 0.03248188 -0.07865113
000120 94 b6 2b bd 47 f6 97 bd c8 e9 df 3c bb 6c ce 3d
       -0.041922167 -0.074200206 0.027333155 0.100793324
000130 ba 29 af 3d 23 aa 82 bc 30 fd 6b bc 08 46 b3 3c
       0.085528806 -0.015950268 -0.014403626 0.02188398
000140 7a 60 6e bd 15 9b a3 bd 3c 54 fb bd 82 02 c9 3d
       -0.058197476 -0.07988564 -0.12271926 0.098149315
000150 42 b4 fd bd b8 ed 2b 3d 5a 92 74 3c f6 63 93 bd
       -0.12387897 0.041974753 0.014927471 -0.071968004
000160 de 41 c2 bd 80 c1 35 3b 23 d8 e2 bd 56 e6 99 bd
       -0.094852194 0.0027733743 -0.11076381 -0.07514636
000170 9b d6 01 3d de ac a6 3d da 84 fb 3d 18 3f a2 3d
       0.031698804 0.081384405 0.12281199 0.079221904
000180 ee e0 ce bd 90 4c 16 3c f0 5d aa bd ba 68 e2 bd
       -0.10101496 0.009173527 -0.083186984 -0.11055131
000190 7d 6e b3 3c be 8a f3 bd 6c c4 c1 bd 09 db 67 bd
       0.02190327 -0.11891697 -0.094612926 -0.056605373
0001a0 25 6a ba 3c c4 19 e7 3d 52 df b1 bd 1d 63 79 bd
       0.022755692 0.11284211 -0.08685173 -0.060885537
0001b0 34 85 24 bc 10 f2 9c bd 26 73 96 bd a0 d5 f9 bc
       -0.010041524 -0.07663357 -0.073461816 -0.030497372
0001c0 4b d9 6e 3d 86 9d e3 3d b9 aa 0c 3d 9f f8 87 3d
       0.058312695 0.111140296 0.0343425 0.066392176
0001d0 7e 51 e1 bd a0 91 91 bd b0 4c ce bc 22 45 d0 3d
       -0.110018715 -0.07107854 -0.025183052 0.10169436
0001e0 94 c0 34 bd 6d 18 5e 3a f4 37 ca 3c 4f 58 cb bd
       -0.04412897 0.00084722677 0.024684884 -0.09928953
0001f0 7a a8 9c 3d 6c 81 e3 3d 5d bc d0 3c 74 5c 0a bd
       0.07649322 0.1110867 0.025480444 -0.033779576
000200 17 c6 b5 3b 6f e0 7a 3d 4b 3e e1 bd 9c 3c fb bd
       0.005547296 0.061249193 -0.109982096 -0.1226742
000210 99 54 36 bc d4 46 a1 bd 00 9e 6b 3a 25 86 7c bd
       -0.011128568 -0.078748375 0.00089880824 -0.061651368
000220 40 43 12 3d a1 66 93 bd e3 0d 42 bd c7 00 02 3d
       0.035708666 -0.07197309 -0.047376525 0.031739023
000230 cc 54 04 be 4e 9c 1d 3c c0 20 b6 bb a4 93 38 bd
       -0.12922972 0.0096197855 -0.0055581033 -0.045062676
000240 86 a7 8b bd 67 8a 02 be f7 9a d0 bb 8f d3 4b bc
       -0.06819062 -0.12748109 -0.0063661295 -0.012440576
000250 a8 a5 96 3c 40 34 14 bd a6 93 0c 3d 64 a0 be bd
       0.018389538 -0.036182642 0.034320496 -0.09307936
000260 43 75 88 3d ee 2d 82 bc d3 e3 f8 3c 76 ec 6f 3d
       0.06662991 -0.015891042 0.030382073 0.058575116
000270 02 81 06 be e0 5a 74 3d c4 d4 a3 3d 01 84 26 bd
       -0.1313515 0.059656978 0.07999566 -0.040653232
000280 96 bd 32 3d 30 d8 6f 3c 30 5b 6f 3d a0 83 6d bd
       0.043637834 0.014638945 0.058436573 -0.057986856
000290 68 0b 42 bd 17 d2 92 bc 38 c9 09 be d6 99 cf bc
       -0.04737416 -0.017922444 -0.13455665 -0.02534191
0002a0 f2 92 d3 bb f3 83 08 3d 14 be ec bd c6 24 9c 3d
       -0.006456726 0.03332896 -0.11559692 0.076242015
0002b0 1e e7 b2 3d 11 09 3f 3d 5d ae cf 3d 40 fd 6d bc
       0.08735488 0.046639506 0.10140679 -0.014525712
0002c0 2c 85 d6 bd e8 ba 50 3d e2 ba 9b 3d 25 1b ad bb
       -0.10474619 0.050959498 0.076040044 -0.005282777
0002d0 0a 30 d9 bd c4 3a 73 bd 5c a1 b0 bd 2c 36 c0 bd
       -0.10604866 -0.059382215 -0.08624527 -0.093853325
0002e0 e6 9a b5 bd 81 3b 8b 3c e3 1f 00 be 27 6c 83 bc
       -0.08867435 0.016996147 -0.12512164 -0.016042782
0002f0 43 28 36 3c c0 49 b9 bc ff 24 6e 3d 98 d4 00 3d
       0.011117998 -0.022618175 0.05814075 0.031452745
000300 91 37 09 bd 09 99 12 3d 1f df d2 bd b3 5b 12 bd
       -0.033500258 0.035790477 -0.10296463 -0.035731982
000310 ee bf 82 bd b4 6b 8c 3d 90 a7 d4 bd 2f 43 92 bd
       -0.06384264 0.0685648 -0.103835225 -0.071417205
000320 1c c1 82 bd 0c f4 b3 bd af 17 a4 bd 2b 88 8a 3c
       -0.06384489 -0.087867826 -0.0801233 0.016910633
000330 76 51 b8 3d fb fc d0 3c 70 f4 85 bc 46 e4 ab 3b
       0.089999124 0.025511255 -0.016351908 0.005245718
000340 45 c2 f4 bd 36 72 35 3c 12 d3 7c bd fd 99 83 be
       -0.119511165 0.011074593 -0.06172473 -0.2570342
000350 4d 03 ac bd 30 1d 70 bd 5e c0 be 3d 28 73 d1 3c
       -0.08399067 -0.058621585 0.09314035 0.025567606
000360 98 dd f0 3d 03 7b 55 bd 78 b7 c0 bc 5f 3e 3a bd
       0.11761016 -0.052119266 -0.023524985 -0.045469638
000370 d8 2e ce bb 6c 7d 03 be 14 bc 1a 3d d3 28 70 3c
       -0.0062922053 -0.12840813 0.03777702 0.014658171
000380 90 42 03 3e 00 c2 d4 bd 4c b5 ee bd a8 f5 a8 bc
       0.1281836 -0.10388565 -0.116556734 -0.02062495
000390 25 08 a2 bd 59 ad 84 bd 0c be 88 bd 3f cc d9 bc
       -0.0791171 -0.06478376 -0.066768736 -0.02658665
0003a0 a0 97 1d be de 5f 5a bd 99 81 a4 bc f4 83 b8 3d
       -0.15389872 -0.053314082 -0.020081328 0.09009543
0003b0 6f ba ba bd 1c 0b 7f bc b9 b1 0c be c0 e3 f4 bb
       -0.09117591 -0.0155666135 -0.13739671 -0.007473439
0003c0 4f 23 a3 bd 49 b6 cd bd ac 1c 06 3c 27 21 78 3d
       -0.07965719 -0.10044534 0.008185547 0.06057849
0003d0 c0 02 f9 3c a3 23 ef 3d 70 d8 72 bd 7c 1a f0 3d
       0.03039682 0.11676719 -0.059288442 0.117238015
0003e0 28 e8 a9 3d b3 56 95 3b 05 6c a4 bc 03 6d db 3d
       0.082962334 0.0045574545 -0.020071039 0.10714152
0003f0 0c 7e 78 bb 84 80 2a 3d cc 77 03 be 4a b5 66 3d
       -0.0037916927 0.04162647 -0.12838668 0.056325234

layers.2.bias f4 [64]
000000 5b eb 45 3e 1c ce f5 bd 6f 33 fd bc 42 20 c0 bd
       0.19328062 -0.12002203 -0.030908315 -0.09381153
000010 61 e6 fc bd e8 a7 9e 3c c7 63 b1 bb 60 95 0a be
       -0.12348629 0.019367173 -0.0054135057 -0.13533545
000020 75 73 de 3d b8 37 10 3e 6c 62 be 3c a0 d0 a1 b9
       0.108618654 0.14083755 0.02324029 -0.0003086375
000030 24 da b7 bd 97 2e 5a bd 04 28 25 3e d6 87 f1 3d
       -0.08977154 -0.053267088 0.16128546 0.11793487
000040 d8 ee 69 bd 09 11 88 bc 80 17 2e bc 6d d2 4f bd
       -0.057112545 -0.016609685 -0.01062572 -0.050737787
000050 ce 43 ce bd 72 5d 86 bc 92 00 95 3d ea f6 2c 3d
       -0.100715265 -0.01640198 0.072754994 0.042227663
000060 25 a6 33 3d 0d 12 0b 3e 94 20 29 be 2e be fc 3d
       0.04385962 0.13581105 -0.16516334 0.123409614
000070 d2 5a 9d bd dd cc 72 3e 46 63 8e bd c0 bd c2 bc
       -0.07683338 0.23710962 -0.06952529 -0.02377212
000080 04 55 c5 bd 91 a1 06 bd c3 f5 31 bd 35 79 8c bd
       -0.09635356 -0.032868925 -0.043447267 -0.06859056
000090 01 24 f9 3d e0 6d 4d 3e 02 a2 de bd 42 f0 ca 3d
       0.1216507 0.20061445 -0.10870744 0.09909107
0000a0 48 6e aa bd 63 b0 b7 3d 0f a6 fe bd 63 f5 61 3d
       -0.08321816 0.0896919 -0.12434017 0.05516566
0000b0 41 e1 7b 3d ca 2e c2 bd 0e fc c2 3d 68 f2 34 bd
       0.061494116 -0.094815806 0.09520732 -0.04417649
0000c0 14 ec ec bd 24 cc 75 3d bc a2 9a bd 5b 3e 88 bd
       -0.11568466 0.060009137 -0.0755057 -0.06652518
0000d0 8b 42 1d be 14 33 fd bd 20 88 67 bd 03 d5 af bc
       -0.15357415 -0.12363258 -0.056526303 -0.021463877
0000e0 ee 8b aa 3d cb 50 95 be 6d 47 86 bd 80 cf f8 3c
       0.08327471 -0.29163203 -0.06556592 0.030372381
0000f0 7a 41 b7 3c 96 8b 63 bc df 52 9b bc 79 8f 67 3d
       0.022370089 -0.01388826 -0.018960414 0.05653331

layers.4.weight f4 [1, 64]
000000 bc 1a 80 bc 5f e6 35 3d af b1 af 3c f8 ab 0d bb
       -0.015637748 0.044409152 0.02144703 -0.0021617394
000010 ae 11 3f bc 00 e7 fe 3d d4 08 08 bc 80 ee ad bd
       -0.01166193 0.124464035 -0.008302886 -0.08492756
000020 8c 01 97 3d 84 3a a1 3d 78 e4 b7 3d 08 58 b8 bd
       0.07373342 0.07872489 0.08979124 -0.09001166
000030 a4 de 30 b9 18 fa ae bc 07 fd 48 bd 51 5d 83 3c
       -0.00016867608 -0.021359488 -0.04906943 0.016035708
000040 ea b3 d5 ba 64 99 4d bb da e5 5d bd cb 78 7b bd
       -0.0016304229 -0.0031371946 -0.05417428 -0.061394494
000050 48 9b f3 3d 8f e4 af 3d 84 ff c0 bd 56 2e 41 bc
       0.11894852 0.08588516 -0.09423736 -0.0117908325
000060 26 82 c6 3c b3 8b bb be 25 51 67 bc eb b0 58 be
       0.024231981 -0.3663002 -0.014118467 -0.21161239
000070 68 87 2a 3d 81 3f d3 3d 79 a4 a1 bd 20 00 8c bb
       0.04163304 0.10314847 -0.07892699 -0.004272476
000080 cf 4b 71 bc e0 24 be bb ed d1 6d 3e b2 bf 2a 3d
       -0.014727547 -0.0058027357 0.23224612 0.04168672
000090 23 49 8a bd a8 34 10 3e 5c ae d1 bd 89 bc c6 bd
       -0.06752231 0.14082587 -0.102383345 -0.09703929
0000a0 a2 e1 8e 3d 58 25 e4 bc 9a 09 56 bd e9 e5 f1 bc
       0.0697663 -0.027849838 -0.05225525 -0.029528575
0000b0 c1 f4 2b bd 0e 31 13 bc f2 02 a5 bd 17 07 5b 3e
       -0.041981462 -0.0089838635 -0.080572024 0.21389423
0000c0 9c db 43 bd 9a 80 77 bd 90 34 30 bc 9d 7b e3 bc
       -0.047816858 -0.06042538 -0.010754719 -0.027768904
0000d0 2e 6c c2 bd 98 89 00 bd 80 15 47 bc 93 1a 1d ba
       -0.0949329 -0.03138122 -0.012151122 -0.00059930346
0000e0 b9 98 c3 3d 35 be 2f bd bd 37 c2 bd 64 df dc bd
       0.09550614 -0.042906005 -0.094832875 -0.10784796
0000f0 65 32 83 bb b5 3d 86 3d 6d 3f 5b 3d 70 84 b8 3d
       -0.00400381 0.065547384 0.053527284 0.090096354
