ppo_model.pt (torch, 42467 bytes, 11 tensors)

body.0.weight f4 [64, 5]
0.07950718 -0.14775452 -1.370104 -0.09285996 0.37067392 0.2734164 0.1257125 4.331336
0.53256106 0.33358327 0.32150984 0.2775908 -0.1751638 -0.18691075 -0.112493694 0.3541695
0.38795555 -0.4196155 -0.30104452 -0.091049135 0.6579871 0.86187303 -3.2011936 -0.092884265
0.5425443 -0.24727903 -0.91107637 3.4842982 0.19846939 -0.2428212 -0.17156857 0.15856022
-0.022376345 -0.4092106 0.30262315 0.00016943115 0.013536336 1.9096831 0.20270374 -0.3196195
0.41361243 0.635111 3.631499 0.069700204 -0.3898248 0.19435543 -0.079158545 0.0019609332
-0.3978401 -0.123957574 -0.31558916 0.16843295 -0.062011957 -0.08263719 -0.1295369 0.48177353
0.37043044 4.5128927 0.046531532 -0.04603565 -0.43565527 -0.28768256 0.63349706 -0.000632379
-0.09350945 -0.18442209 0.5627145 3.7775595 -0.040134158 0.20664603 -0.27254844 -0.35118186
4.340054 0.21748978 -0.12139588 -0.11958825 0.39884326 0.25935924 -0.25342146 0.33037058
-0.10983404 -0.3847173 -0.3737328 -0.37354088 0.04037983 0.4379481 0.13470273 -0.49330747
-0.09218552 0.3460806 -0.31016913 -0.48600057 3.6785457 0.18260671 -0.4362645 -0.32039684
-0.0003162045 0.8360713 0.10948504 0.037185453 -0.032662224 -0.37427226 3.960521 0.1894861
-0.44803172 0.5609622 -0.058946535 -0.025842894 -0.28224665 0.2616441 -0.21840616 0.35533804
0.085286856 -0.09322932 -0.22673184 -0.6553859 -0.091114335 3.4877431 0.27157983 -0.47131094
-0.15614721 0.39748096 0.37526554 -0.19452798 -0.421824 0.46039683 0.0438104 0.08938413
-0.0764471 0.53121084 -0.99127597 -0.687295 2.8478434 0.16424435 -0.2854661 -0.4596621
-0.3640169 4.434055 0.09381123 0.09455032 0.0881927 0.33544677 0.2665335 -0.18816298
-0.446986 -0.6928067 -0.57298756 4.446665 0.26366004 -0.12586991 -0.24594466 0.2891244
0.2726581 -0.38302034 0.4382579 -0.38910183 0.4056626 -0.38843372 -0.29888293 -0.19990821
-0.40367168 -0.063163474 1.2671136 0.16278349 -0.022783596 0.342489 -0.203554 -0.37771672
-0.32850382 0.2624222 0.14222448 0.3392124 -3.6353943 0.091441356 -0.17328048 0.20331356
0.0073942607 -0.3417223 -0.0011545713 -0.30335483 0.26406148 0.12002225 0.8407135 -0.21223308
0.4283513 0.3837066 -0.0065403744 3.5391073 0.24811947 -0.57219553 0.276208 -0.032226477
4.4902444 0.14729406 -0.1002599 -0.41836053 0.40264556 0.27147636 -0.0018363775 -0.40048176
-0.057324376 -0.50286615 0.6309626 0.11623738 -0.017321886 1.246016 1.0194521 -1.5530013
0.030845324 1.0539579 -0.80745685 -0.41568503 4.026946 0.18689904 -0.2258413 -0.16470224
0.4253677 0.007766068 -0.39280206 -0.15091905 -0.32680234 -0.40891787 0.7818126 -0.0009504772
-0.03487634 -0.44812104 -0.034827176 -2.1822395 -0.02076694 0.14056502 -0.5824529 0.0033691728
4.383976 0.2687405 0.11955002 0.23979263 0.48316598 -1.8027107 -0.09534967 0.45385796
-0.727288 -0.3435186 3.7238083 0.21155618 -0.31190708 0.2190315 0.21665248 3.0505269
0.1754716 -0.30972975 0.43419993 -0.014135987 -0.24751344 -0.21565072 -0.036425114 0.14602691
00000000: a9d4 a23d f64c 17be 915f afbf 5d2d bebd
00000010: f9c8 bd3e 3cfd 8b3e c7ba 003e 4e9a 8a40
00000020: ec55 083f 6dcb aa3e f09c a43e 6220 8e3e
00000030: 245e 33be 8865 3fbe 1863 e6bd b455 b53e
00000040: 1ca2 c63e d8d7 d6be 8222 9abe f877 babd
00000050: d871 283f b6a3 5c3f 5be0 4cc0 1b3a bebd
00000060: 2fe4 0a3f b736 7dbe 4d3c 69bf befe 5e40
00000070: 8f3b 4b3e 1fa6 78be acaf 2fbe 9c5d 223e
00000080: 994e b7bc 0d84 d1be 6cf1 9a3e 54a9 3139
00000090: 82c7 5d3c 7f70 f43f 9291 4f3e 2ba5 a3be
000000a0: 02c5 d33e a296 223f 7b6a 6840 fbbe 8e3d
000000b0: 1e97 c7be 1c05 473e e01d a2bd 0083 003b
000000c0: b3b1 cbbe 78dd fdbd e794 a1be b079 2c3e
000000d0: 4000 7ebd b03d a9bd 52a5 04be 05ab f63e
000000e0: 0fa9 bd3e 9e69 9040 d997 3e3d e18f 3cbd
000000f0: 350e dfbe 214b 93be dd2c 223f 3cc6 25ba
00000100: e281 bfbd 25d9 3cbe 0f0e 103f 89c3 7140
00000110: b763 24bd 049b 533e 788b 8bbe 1cce b3be
00000120: b9e1 8a40 a4b5 5e3e 679e f8bd afea f4bd
00000130: 2f35 cc3e bcca 843e 75c0 81be 5526 a93e
00000140: abf0 e0bd aaf9 c4be e859 bfbe c040 bfbe
00000150: 5265 253d bc3a e03e 83ef 093e cc92 fcbe
00000160: c3cb bcbd 7a31 b13e 7dce 9ebe 11d5 f8be
00000170: 4b6d 6b40 41fd 3a3e 0f5e dfbe 0e0b a4be
00000180: 40c8 a5b9 c508 563f b139 e03d c64f 183d
00000190: d3c8 05bd 9da0 bfbe 2d79 7d40 a508 423e
000001a0: 6a64 e5be 389b 0f3f ec71 71bd 7ab4 d3bc
000001b0: a282 90be 37f6 853e dda5 5fbe deee b53e
000001c0: e0aa ae3d 04ef bebd 642c 68be 5fc7 27bf
000001d0: 279a babd 2f37 5f40 830c 8b3e ab4f f1be
000001e0: 0ee5 1fbe a082 cb3e ce22 c03e 5832 47be
000001f0: 51f9 d7be 22b9 eb3e 8972 333d 070f b73d
00000200: 4c90 9cbd 6ffd 073f 43c4 7dbf 91f2 2fbf
00000210: 1143 3640 ac2f 283e 9d28 92be d558 ebbe
00000220: 6c60 babe c7e3 8d40 1a20 c03d 99a3 c13d
00000230: 609e b43d aebf ab3e 1477 883e ccad 40be
00000240: 59db e4be c85b 31bf 50af 12bf 144b 8e40
00000250: 73fe 863e 0be4 00be ebd8 7bbe 1d08 943e
00000260: d899 8b3e 3e1b c4be 5763 e03e 5b38 c7be
00000270: 02b3 cf3e c9e0 c6be 2f07 99be bdb4 4cbe
00000280: 0eae cebe da5b 81bd c730 a23f b7b0 263e
00000290: aaa4 babc b85a af3e 7670 50be 1664 c1be
000002a0: a731 a8be 345c 863e 4ba3 113e 3fad ad3e
000002b0: 4daa 68c0 9b45 bb3d 7070 31be 6e31 503e
000002c0: 8e4b f23b 3af6 aebe fc54 97ba 5351 9bbe
000002d0: 1133 873e 3ace f53d 0039 573f a153 59be
000002e0: dd50 db3e 3175 c43e a350 d6bb bc80 6240
000002f0: 0813 7e3e 687b 12bf 236b 8d3e e9ff 03bd
00000300: 15b0 8f40 41d4 163e 1055 cdbd 5a33 d6be
00000310: 8f27 ce3e f3fe 8a3e 9bb2 f0ba f20b cdbe
00000320: f7cc 6abd d6bb 00bf c486 213f dd0d ee3d
00000330: a1e6 8dbc 747d 9f3f 687d 823f bfc8 c6bf
00000340: 55af fc3c 18e8 863f 7eb5 4ebf abd4 d4be
00000350: bedc 8040 7662 3f3e f142 67be b4a7 28be
00000360: ccc9 d93e 807a fe3b 5a1d c9be 868a 1abe
00000370: a352 a7be af5d d1be df24 483f 7229 79ba
00000380: 7eda 0ebd 1f70 e5be f1a6 0ebd d0a9 0bc0
00000390: 6e1f aabc 47f0 0f3e a21b 15bf 57cd 5c3b
000003a0: 8849 8c40 5b98 893e a4d6 f43d 338c 753e
000003b0: 8861 f73e 39bf e6bf b046 c3bd 1260 e83e
000003c0: 8c2f 3abf ace1 afbe e052 6e40 2fa2 583e
000003d0: 49b2 9fbe cb49 603e 26da 5d3e d53b 4340
000003e0: d4ae 333e e694 9ebe 744f de3e a09a 67bc
000003f0: 2a74 7dbe 8bd3 5cbe 8032 15bd 1488 153e

body.0.bias f4 [64]
0.11124827 0.45230848 -0.18151057 -0.19164172 0.4954507 -0.059009265 0.40852076 -0.3675477
0.4898882 0.045389324 -0.2022428 -0.018871503 -0.082560316 -0.07067595 0.19862337 0.51756793
-0.019152122 0.05757579 0.07508612 -0.64647466 -0.4599887 -0.24067102 0.05316764 -0.3300572
-0.07194543 -0.217006 -0.49325505 -0.124127015 0.29001963 0.2107036 0.19885886 -0.07911435
-0.36475983 -0.13419038 0.023918375 -0.07125872 -0.16571973 -0.2105761 0.11988816 -0.44164583
-0.18372385 1.0852966 -0.5082978 0.3731386 -0.6425248 0.27136773 -0.019554427 0.7925826
-0.35886946 -0.18838689 -0.14284444 -0.36507672 -0.03604658 -0.70762277 0.034458067 0.0048606303
-0.383831 0.26782316 -0.046665777 -0.19540994 -0.3353355 0.13277662 0.10165561 0.12468555
00000000: 22d6 e33d fa94 e73e e8dd 39be ba3d 44be
00000010: b7ab fd3e b3b3 71bd a229 d13e 362f bcbe
00000020: a0d2 fa3e 28ea 393d bd18 4fbe 6998 9abc
00000030: 6215 a9bd 8dbe 90bd ed63 4b3e 557f 043f
00000040: e9e4 9cbc 97d4 6b3d c0c6 993d 5d7f 25bf
00000050: a483 ebbe 7772 76be 50c6 593d 42fd a8be
00000060: 2058 93bd d236 5ebe ed8b fcbe 4e36 febd
00000070: 747d 943e afc2 573e a8a1 4b3e b406 a2bd
00000080: cdc1 babe 3469 09be 78f0 c33c 17f0 91bd
00000090: 6fb2 29be 43a1 57be ec87 f53d 671f e2be
000000a0: 1b22 3cbe 00eb 8a3f ce1f 02bf 060c bf3e
000000b0: 817c 24bf b6f0 8a3e 9b30 a0bc b1e6 4a3f
000000c0: bdbd b7be 7ee8 40be d045 12be 56eb babe
000000d0: 94a5 13bd c426 35bf e723 0d3d ec45 9f3b
000000e0: 7f85 c4be 1e20 893e 9d24 3fbd 8b19 48be
000000f0: 18b1 abbe 98f6 073e d130 d03d 235b ff3d

body.2.weight f4 [64, 64]
-0.060935676 0.07643505 -0.084371105 -0.014813587 -0.058483277 -0.15432937 -0.09631884 -0.036302302
0.08766396 -0.12417406 -0.11552848 -0.08119128 0.0432215 -0.039446525 -0.1893979 0.03065762
0.05903494 -0.04894659 0.036661666 -0.14118949 0.05503452 -0.11665485 -0.020984307 -0.042942137
-0.08397856 0.068738446 0.06982863 -0.06268588 -0.04154697 -0.16905245 0.017480748 0.05505231
0.011853575 -0.034995798 -0.040585876 -0.040664148 -0.011701634 -0.108870804 -0.100047976 -0.03279511
-0.11320617 -0.036857903 0.0021037862 0.02416122 -0.041465417 -0.10130309 -0.06358987 0.06626373
0.022926617 -0.06384289 -0.04022257 0.056125656 -0.09811117 -0.14396577 0.096854575 0.03755995
0.08076861 -0.11733593 0.076743186 0.0022521273 -0.0026040198 -0.11608244 0.0412648 -0.07916029
0.112341575 -0.041679014 0.06069754 0.0927722 -0.094844505 -0.015792048 -0.05512388 -0.10543103
-0.1029411 0.07768297 -0.070074916 -0.05353034 0.06547244 -0.1397355 -0.07443425 0.1640949
0.07597324 0.019291887 -0.047303732 -0.03677549 -0.01658809 0.02462875 -0.008601978 -0.12645966
0.10321514 0.03729858 -0.0610769 0.020409245 0.00925909 -0.14382762 0.007811391 0.06079361
-0.031061668 -0.06727051 -0.097322285 -0.06561075 0.045094557 -0.136583 -0.15651467 -0.10295728
0.00908638 -0.09458263 -0.09946039 0.076854706 0.10218095 0.022049008 0.06636179 -0.12982836
0.10176529 -0.0012591941 -0.100660145 0.039385945 -0.109832585 -0.05537335 0.12142203 -0.14916596
0.07776219 -0.07102196 -0.117354974 -0.04252285 0.11162138 0.05008867 0.012158229 0.04078102
-0.008325193 -0.0786887 0.022374883 0.11592193 -0.030131452 0.077662684 0.08059693 0.069923
-0.094304405 0.07980335 0.002037406 -0.17752753 0.09874184 -0.13295558 -0.12641679 0.00040991965
0.095297486 -0.048115626 -0.104520515 0.03142173 0.042465042 -0.014971015 -0.12117849 -0.18439479
0.01483877 0.050286762 -0.120692305 0.07664922 -0.028316498 -0.10828991 0.112912826 -0.10708514
0.0043072393 -0.03995122 -0.04034541 0.11752941 -0.08247658 -0.01519873 -0.014679279 0.05267714
0.06614088 -0.08854067 0.010310465 -0.11220491 0.09105587 -0.040618826 -0.11607499 0.006769053
-0.09863802 -0.100604735 0.112820074 0.014718428 -0.14109726 -0.10182628 0.0405827 -0.09515147
-0.04802005 0.0011879159 -0.15620041 0.109854415 0.057280872 -0.012958163 -0.11230133 0.12045652
-0.11475174 -0.0986983 0.10842191 0.03410873 -0.0116548985 -0.020889632 -0.025218517 0.09048352
-0.088634595 0.07886304 0.046329528 0.066953704 0.051004246 0.026415545 -0.019829627 -0.0154443085
-0.011385262 0.05295846 0.077803195 0.0037065996 -0.07473056 -0.032016963 0.09581256 0.0017775197
-0.06744252 -0.058192194 -0.03019975 -0.09346076 -0.020520657 -0.0500984 0.027380154 -0.08348034
-0.03067248 0.08748391 -0.10546775 -0.048468947 0.087270856 -0.019877346 -0.007702632 -0.108582735
-0.07084673 -0.078999095 -0.07828964 -0.03206137 -0.092196494 -0.09650262 -0.11462847 -0.10867102
-0.05310323 0.08596729 -0.036772415 -0.080992416 -0.11786072 0.09590584 0.019457161 0.035549603
-0.02239421 0.07324328 0.07730496 -0.052787967 0.0047944095 -0.09463657 -0.00020850211 0.0069093555
00000000: b097 79bd fb89 9c3d c2ca acbd b0b4 72bc
00000010: 298c 6fbd 8508 1ebe d042 c5bd b9b1 14bd
00000020: 2a89 b33d f84e febd 329a ecbd 9d47 a6bd
00000030: 0709 313d ae92 21bd 86f1 41be b025 fb3c
00000040: 9fce 713d 387c 48bd 8b2a 163d fa93 10be
00000050: e06b 613d bde8 eebd 48e7 abbc 18e4 2fbd
00000060: f4fc abbd bec6 8c3d 5002 8f3d 7461 80bd
00000070: 282d 2abd 161c 2dbe c933 8f3c 887e 613d
00000080: 7f35 423c c157 0fbd 603d 26bd 738f 26bd
00000090: 36b8 3fbc a8f7 debd f4e5 ccbd 2a54 06bd
000000a0: a3d8 e7bd 50f8 16bd addf 093b c0ed c53c
000000b0: a4d7 29bd ff77 cfbd 683b 82bd 47b5 873d
000000c0: 9ad0 bb3c 10c0 82bd 6cc0 24bd 04e4 653d
000000d0: 82ee c8bd c36b 13be b15b c63d 76d8 193d
000000e0: 036a a53d d24d f0bd 882b 9d3d 6d98 133b
000000f0: 34a8 2abb a1bc edbd 4705 293d ca1e a2bd
00000100: 5713 e63d 9db7 2abd fc9d 783d 5aff bd3d
00000110: d63d c2bd 535e 81bc 94c9 61bd 39ec d7bd
00000120: c9d2 d2bd 4018 9f3d 7083 8fbd a142 5bbd
00000130: 6a16 863d d316 0fbe fc70 98bd 7e08 283e
00000140: dc97 9b3d 050a 9e3c 8fc1 41bd e5a1 16bd
00000150: bfe3 87bc 3bc2 c93c 50ef 0cbc a47e 01be
00000160: 7662 d33d 65c6 183d c62b 7abd 4a31 a73c
00000170: 70b3 173c 8c47 13be b2f6 ff3b b802 793d
00000180: 0a75 febc 1fc5 89bd e850 c7bd ee5e 86bd
00000190: 12b5 383d 6adc 0bbe 6245 20be 44db d2bd
000001a0: 0adf 143c 8ab4 c1bd e4b1 cbbd 0066 9d3d
000001b0: 3f44 d13d 1fa0 b43c b1e8 873d baf1 04be
000001c0: 526a d03d 8b0b a5ba e826 cebd 2853 213d
000001d0: e8ef e0bd 2acf 62bd 1dac f83d f6be 18be
000001e0: c841 9f3d f673 91bd ce57 f0bd 712c 2ebd
000001f0: c099 e43d c729 4d3d 4f33 473c 000a 273d
00000200: 6466 08bc 8b27 a1bd 884b b73c 7a68 ed3d
00000210: 3cd6 f6bc 9d0d 9f3d 0110 a53d ca33 8f3d
00000220: ab22 c1bd f06f a33d 0086 053b c7c9 35be
00000230: 2939 ca3d 8225 08be 6773 01be 7cea d639
00000240: 542b c33d e414 45bd da0e d6bd 12b4 003d
00000250: d3ef 2d3d fd48 75bc 6e2c f8bd fdd1 3cbe
00000260: 501e 733c 7ef9 4d3d 872d f7bd 44fa 9c3d
00000270: 00f8 e7bc 1ac7 ddbd d73e e73d 744f dbbd
00000280: be23 8d3b e4a3 23bd 3b41 25bd 42b3 f03d
00000290: 7be9 a8bd 1804 79bc 5c81 70bc fcc3 573d
000002a0: df74 873d d054 b5bd 39ed 283c b0cb e5bd
000002b0: 807b ba3d ed5f 26bd b9b8 edbd efce dd3b
000002c0: bb02 cabd db09 cebd 360e e73d 9025 713c
000002d0: cd7b 10be 4c8a d0bd 0c3a 263d c6de c2bd
000002e0: acb0 44bd d8b3 9b3a 00f3 1fbe 5afb e03d
000002f0: 599f 6a3d 7a4e 54bc 3dfe e5bd e8b1 f63d
00000300: f602 ebbd 5622 cabd 4e0c de3d 98b5 0b3d
00000310: 30f4 3ebc bc20 abbc 1097 cebc 6c4f b93d
00000320: 0e86 b5bd f282 a13d 08c4 3d3d 061f 893d
00000330: d4e9 503d 6a65 d83c be71 a2bc 200a 7dbc
00000340: 4089 3abc f8ea 583d 4857 9f3d 6cea 723b
00000350: 560c 99bd 3824 03bd 6039 c43d aafb e83a
00000360: 4e1f 8abd f05a 6ebd 7765 f7bc 5b68 bfbd
00000370: f01a a8bc fb33 4dbd 584c e03c bef7 aabd
00000380: da44 fbbc c42a b33d 7aff d7bd 6087 46bd
00000390: 10bb b23d d1d5 a2bc 5c66 fcbb a060 debd
000003a0: 1718 91bd 47ca a1bd 5256 a0bd c852 03bd
000003b0: 84d1 bcbd 2aa3 c5bd 55c2 eabd e98e debd
000003c0: c682 59bd 9e0f b03d ac9e 16bd 5adf a5bd
000003d0: f660 f1bd 486a c43d a064 9f3c 769c 113d
000003e0: 1074 b7bc 9300 963d 1052 9e3d 3238 58bd
000003f0: 6c1a 9d3b d1d0 c1bd 5ca1 5ab9 e067 e23b

body.2.bias f4 [64]
0.062562816 -0.122509524 -0.061220262 -0.026885381 -0.016665168 0.037034273 0.03328943 0.0053866
-0.028110003 0.006885431 -0.07356773 -0.054268986 -0.15197696 -0.29837763 -0.114876226 0.080489166
0.28229755 -0.05204994 -0.1464347 0.0038868359 -0.4099302 -0.2846914 0.019549228 -0.04531845
-0.19549733 -0.24864388 0.08520417 -0.116135456 -0.102294326 0.04004956 -0.026317561 -0.27031246
-0.08330942 0.09522101 -0.09703034 -0.08554764 0.24704865 -0.07891491 -0.004084206 -0.09852366
-0.09969651 0.030858707 -0.0014141651 0.42155933 -0.0743211 -0.21522775 -0.07328172 -0.05918095
0.05075865 -0.14461571 -0.32156426 -0.052677933 -0.12239044 -0.20101377 -0.062584564 -0.021109603
-0.03404925 0.22596005 0.028590715 -0.34932438 -0.05508905 -0.007473968 0.008391232 0.08739198
00000000: ef20 803d 46e6 fabd 19c2 7abd bb3e dcbc
00000010: 6485 88bc 40b1 173d 7f5a 083d 1382 b03b
00000020: f346 e6bc 2e9f e13b aeaa 96bd 2849 5ebd
00000030: d99f 1bbe f4c4 98be 3a44 ebbd 81d7 a43d
00000040: 4e89 903e 5132 55bd faf2 15be 49ba 7e3b
00000050: 5fe2 d1be 12c3 91be b425 a03c d79f 39bd
00000060: 7430 48be 809c 7ebe 867f ae3d 6dd8 edbd
00000070: b07f d1bd 020b 243d ed97 d7bc 6566 8abe
00000080: 219e aabd 3c03 c33d d8b7 c6bd 9a33 afbd
00000090: 52fa 7c3e 249e a1bd ced4 85bb c6c6 c9bd
000000a0: af2d ccbd 66cb fc3c 825b b9ba a0d6 d73e
000000b0: a935 98bd aa64 5cbe ba14 96bd b967 72bd
000000c0: 4de8 4f3d 2416 14be 12a4 a4be d1c4 57bd
000000d0: d7a7 fabd 8ed6 4dbe 562c 80bd 0cee acbc
000000e0: 3a77 0bbd 1262 673e 1337 ea3c a5da b2be
000000f0: 0ea5 61bd 30e8 f4bb 617b 093c 91fa b23d

body.4.weight f4 [4, 64]
-0.013921518 -0.04355485 0.017119445 -0.004833082 0.02109707 0.016568055 0.6061824 0.40730277
-0.06516364 0.00061314576 -0.02081514 0.5625625 0.40741032 0.12327382 -0.002250618 0.40713665
0.014098891 -0.01985341 -0.0078030163 0.41827434 0.31509086 0.30381233 0.5781063 0.03231015
0.047994405 0.01940913 0.0018923358 0.0028352123 0.0059751016 0.052753855 -0.029250491 0.019294282
0.048798718 0.056371305 0.009527873 0.026702903 -0.081458844 0.25048175 -0.008797111 -0.0050765947
-0.0011233179 -0.12252295 -0.029481668 -0.040629394 0.5394982 0.20282203 0.08524519 -0.00549902
-0.026806403 0.002799746 0.348995 -0.04240336 -0.07820612 0.2408618 -0.0056649544 0.0062317126
-0.0041816523 -0.4600754 0.15099457 0.28184965 -0.013290985 -0.31058854 0.0075991885 0.037685968
0.050175395 -0.095720105 -0.038097523 0.01513351 0.021133952 0.044152986 -0.02836201 0.5859043
-0.05731066 0.003461709 -0.1141721 0.14621693 -0.43974388 0.30232084 -0.0067534167 0.51239586
0.8955983 0.02817963 -0.0149364155 -0.04061108 -0.12875137 0.021660602 0.48616868 0.07060251
-0.014896496 -0.054671515 0.014810263 0.0034648704 0.016929377 0.018994423 -0.050087627 -0.41792044
0.060106836 0.7488825 -0.004348985 0.031221742 1.3731478 -0.11051709 -0.017182555 0.020398218
0.014116646 -0.13865203 -0.023724085 0.6868032 0.47326657 0.11302116 -0.03675525 0.0020309861
-0.009256768 -0.04770806 -0.20697783 -0.0028965487 -0.106000215 -0.07590003 0.002295359 0.0284572
-0.0077242083 0.47008058 -0.119310565 -0.042606514 -0.010365004 1.3220224 -0.009716674 0.024980297
0.029670857 -0.039823897 -0.01954135 0.016366467 -0.032140587 0.010592973 -0.07940442 0.5234647
-0.0014145203 0.004796179 -0.09174359 0.05330378 -0.5661102 0.3837621 -0.00023709529 0.5878682
1.0828316 -0.02510649 -0.02430178 0.073143095 0.09036524 0.12871148 0.4773338 0.022116799
0.016642757 -0.05535648 0.009364239 -0.0032007974 -0.02176393 0.003746946 -0.042113192 -0.25310877
-0.05040028 0.86700475 -0.0026189182 -0.023511272 1.133799 -0.27176616 -0.009057839 0.003906244
0.020766959 0.02518744 -0.0032289282 0.5039801 0.4876526 0.112889364 -0.048159014 0.023297325
-0.0052441778 -0.016488291 -0.14690813 -0.00015554554 -0.0009117272 -0.044923678 0.0119093 -0.014505229
0.007982712 0.76268387 -0.12179325 0.065155365 -0.014606923 1.4544277 -0.013942248 -0.03205686
-0.051176183 0.0033549364 0.013042282 -0.005625468 0.015337326 0.052335463 0.16204578 0.18826063
-0.04742008 0.004588358 -0.09077067 0.3174858 -0.4700101 0.47267148 -0.007909325 0.551727
0.9408186 -0.02110083 -0.022078926 -0.1466905 0.096297584 0.33286428 0.29131934 0.08802399
-0.014995122 0.21009652 0.0054722526 -0.003055971 0.006623089 -0.012819923 -0.033695452 0.12685673
0.025668923 0.7303948 -0.0043614325 0.02435263 1.0258099 -0.064590536 -0.019020274 0.003590699
-0.003438862 -0.037025973 -0.0037486083 0.219424 0.37160125 -0.11746417 0.015443509 -0.008412178
-0.0058913333 -0.009191567 0.23185371 -0.030645864 -0.04085802 0.22207244 0.005939427 0.00040684777
0.0023765832 0.7319365 0.18836644 0.2687335 -0.015674576 1.3588978 0.015491469 0.013143659
00000000: 1417 64bc 9266 32bd 143e 8c3c d55e 9ebb
00000010: c3d3 ac3c bbb9 873c c52e 1b3f fd89 d03e
00000020: 8474 85bd 84bb 203a 8384 aabc 1904 103f
00000030: 1698 d03e fc76 fc3d 1b7f 13bb 3774 d03e
00000040: 09ff 663c 9ea3 a2bc 72b0 ffbb 0e28 d63e
00000050: 9753 a13e 4a8d 9b3e c6fe 133f a657 043d
00000060: c895 443d e5ff 9e3c 4108 f83a f8ce 393b
00000070: c9ca c33b 6d14 583d ba9e efbc 0b0f 9e3c
00000080: 2ae1 473d 99e5 663d cc1a 1c3c 0cc0 da3c
00000090: e5d3 a6bd 253f 803e c221 10bc 9059 a6bb
000000a0: 4b3c 93ba 50ed fabd 8a83 f1bc 026b 26bd
000000b0: 8e1c 0a3f 94b0 4f3e 0895 ae3d 2031 b4bb
000000c0: 1a99 dbbc f27b 373b 79af b23e 25af 2dbd
000000d0: 882a a0bd 7aa4 763e 15a1 b9bb 6533 cc3b
000000e0: 3e06 89bb 018f ebbe 529e 1a3e 994e 903e
000000f0: 6ec2 59bc 7605 9fbe 9d02 f93b 9a5c 1a3d
00000100: b784 4d3d e708 c4bd 260c 1cbd 8bf2 773c
00000110: 1c21 ad3c c3d9 343d 7257 e8bc d3fd 153f
00000120: 95be 6abd d7dd 623b 10d3 e9bd e4b9 153e
00000130: 1c26 e1be ccc9 9a3e c44b ddbb 602c 033f
00000140: ee45 653f f8d8 e63c deb7 74bc ce57 26bd
00000150: 66d7 03be 9371 b13c 1aeb f83e 0c98 903d
00000160: 6f10 74bc 3def 5fbd bfa6 723c e112 633b
00000170: 7aaf 8a3c 319a 9b3c af28 4dbd abf9 d5be
00000180: 9632 763d c3b6 3f3f ee81 8ebb bdc4 ff3c
00000190: 4fc3 af3f c956 e2bd 6ec2 8cbc 2a1a a73c
000001a0: 8149 673c ccfa 0dbe 0359 c2bc 56d2 2f3f
000001b0: ff4f f23e a377 e73d ac8c 16bd 4b1a 053b
000001c0: b3a9 17bc 8769 43bd fff1 53be 06d4 3dbb
000001d0: a416 d9bd 7a71 9bbd bc6d 163b 131f e93c
000001e0: 5b1b fdbb 67ae f03e 1959 f4bd 2b84 2ebd
000001f0: fad1 29bc 0838 a93f af32 1fbc 7ba3 cc3c
00000200: 4c10 f33c 621e 23bd 2e15 a0bc f812 863c
00000210: d9a5 03bd 268e 2d3c c99e a2bd c801 063f
00000220: 6d67 b9ba 4429 9d3b 10e4 bbbd 1055 5a3d
00000230: 99ec 10bf 777c c43e c89c 78b9 887e 163f
00000240: 3a9a 8a3f 20ac cdbc 8714 c7bc 0ccc 953d
00000250: 6911 b93d f1cc 033e 1965 f43e 4a2e b53c
00000260: 6456 883c 7abd 62bd 776c 193c 78c4 51bb
00000270: 454a b2bc 538f 753b e27e 2cbd 7997 81be
00000280: 8670 4ebd 06f4 5d3f 28a2 2bbb b69a c0bc
00000290: 5320 913f ef24 8bbe 5567 14bc e6ff 7f3b
000002a0: 781f aa3c e455 ce3c 6d9c 53bb d704 013f
000002b0: 9aad f93e 8a32 e73d 6342 45bd 08da be3c
000002c0: 5ad7 abbb 7412 87bc 166f 16be f019 23b9
000002d0: fa00 6fba e401 38bd 3a1f 433c 57a7 6dbc
000002e0: ecc9 023c 403f 433f bd6e f9bd 2d70 853d
000002f0: e051 6fbc b02a ba3f 076e 64bc 0e4e 03bd
00000300: 1e9e 51bd 7ede 5b3b 4caf 553c d955 b8bb
00000310: 6849 7b3c b65d 563d 54ef 253e 65c7 403e
00000320: 8f3b 42bd f059 963b f9e5 b9bd 808d a23e
00000330: 2aa5 f0be ff01 f23e 1d96 01bc fb3d 0d3f
00000340: 7dd9 703f a6db acbc ddde b4bc 0936 16be
00000350: ab37 c53d 306d aa3e cf27 953e ec45 b43d
00000360: 1aae 75bc 8b23 573e 9550 b33b b046 48bb
00000370: 7f06 d93b a80a 52bc 3e04 0abd bbe6 013e
00000380: a247 d23c 27fb 3a3f 59ea 8ebb 2b7f c73c
00000390: bd4d 833f 0b48 84bd 68d0 9bbc ef51 6b3b
000003a0: 885e 61bb 8ca8 17bd 36ab 75bb afb0 603e
000003b0: 8542 be3e 0e91 f0bd c606 7d3c 3bd3 09bc
000003c0: 160c c1bb 3a98 16bc 0f6b 6d3e 090d fbbc
000003d0: bd5a 27bd f566 633e 869f c23b 2f4e d539
000003e0: 73c0 1b3b 3160 3b3f 22e3 403e 7097 893e
000003f0: f867 80bc 5df0 ad3f eecf 7d3c 8058 573c

body.4.bias f4 [4]
0.14864798 0.20757796 0.0847177 -0.109205335
00000000: 2d37 183e 518f 543e 7980 ad3d 0ca7 dfbd

body.0.weight f4 [64, 5]
0.9363139 0.070186295 -0.4715893 -0.26386318 0.017454334 0.7838188 0.57498795 1.9506878
-0.0011696608 0.72033304 -0.40661323 0.349136 0.38287693 -0.088110566 -0.065766126 0.27325347
0.6139793 2.4608114 -0.1694334 0.2685576 0.2551427 -0.15365142 0.33924806 -0.24863519
-0.29683143 0.0051479596 0.26040834 -1.9451498 -0.035170767 0.050846122 -0.19771008 -0.35995242
4.7352223 -0.134582 -0.0277588 -0.09807857 -0.7409686 5.3860054 -0.27033296 -0.3291272
0.15860085 -0.4921094 4.541173 -0.2666383 -0.23578522 0.33214694 -0.29314715 -0.2627473
-0.16719401 -0.37607926 1.9682449 1.913425 -3.8692617 0.09007933 0.25616312 -0.018952651
0.25913662 0.2075607 -0.41692874 0.001738492 0.5578919 0.856849 1.4882854 -0.009221254
-0.06806318 0.78301483 0.27747527 -7.822625 0.27823976 -0.53758943 0.5222909 1.0140073
-1.0007769 -0.07993612 -0.16327667 -0.41916236 0.08795446 -0.15417665 -0.16681665 -0.3223353
0.13105923 0.39559597 -0.09386647 -0.2847367 -0.4228507 0.659188 0.6839746 -0.8656601
-0.43912163 0.29646876 -0.30143452 0.32754672 5.2275276 -0.12258306 -0.34052745 -0.20797284
0.42863685 0.34544575 -0.22896428 -0.39732656 3.103188 1.9145108 -5.098914 -0.15541314
0.7978507 -0.01768736 0.62056005 2.365599 -0.20071024 0.45306528 0.14984351 -0.057774812
-0.09227696 -0.1378656 -0.20542452 0.03475362 -0.33725634 -0.044663846 -0.2071217 -0.1279079
-0.050242376 0.103903115 3.1474144 -0.10666405 0.29759184 2.4686663 2.3945568 -6.0143137
-0.069022425 0.865698 -0.5850899 -0.64468837 5.008052 -0.23135784 -0.09189346 0.7079898
0.7369206 1.2853866 -0.056237597 -0.3748492 -0.69994 -0.32802415 3.1533458 0.056734987
-0.26421884 1.5662016 0.9883657 -2.8518527 -0.0695091 0.7842041 1.4983541 0.41488507
1.4233761 -0.10816991 0.4148333 -0.5357905 -0.058011673 -0.4945011 0.23638856 -0.08567125
-0.06768787 0.32146275 0.43159103 -0.27021265 -0.40277398 0.19543417 0.25736898 -0.40773824
-0.3234375 0.026642155 -0.39834386 0.036935955 -0.41679567 -0.2952881 -0.35246077 0.28145036
0.11243963 4.620953 0.012364613 0.56114185 -0.42941874 -0.18785897 -0.38429043 -0.40636438
-0.30413467 -0.0972338 0.21086335 0.24893045 -0.066355765 -0.24917135 -0.043552395 -0.26974642
4.04917 -0.22453617 -0.20110077 -1.2274861 -1.0316275 2.813212 0.9546795 -0.29793885
0.21445273 -0.27458394 4.3239903 -0.21285649 -0.271382 0.13372312 0.20348392 0.15997861
-0.30159366 -0.06830469 -1.1071914 -1.407005 3.3721695 0.019722141 -0.43025836 -0.12469247
0.19058973 -0.18665612 -0.32479095 -0.099396795 0.70154494 0.54304147 -0.9177859 -0.23100084
-0.031842515 0.56034595 0.07149785 -0.82250047 -0.16311285 -0.3971406 0.57411367 -0.16457719
1.5006803 -0.13158017 0.15009685 -0.62742347 0.14877105 3.404868 -0.07935301 0.4947576
0.15726326 0.64118284 5.661696 -0.033755135 0.80772394 0.9719832 1.1181207 0.47465795
-0.08937459 0.39619827 -0.028455535 -0.46477744 4.3990245 -0.23732579 -0.22067219 0.64449805
00000000: 45b2 6f3f d5bd 8f3d 2774 f1be 1319 87be
00000010: 64fc 8e3c 59a8 483f 6932 133f 23b0 f93f
00000020: 4e4f 99ba bf67 383f 9c2f d0be f4c1 b23e
00000030: 7208 c43e 5073 b4bd 64b0 86bd e1e7 8b3e
00000040: bf2d 1d3f ef7d 1d40 f37f 2dbe 6280 893e
00000050: 10a2 823e cc56 1dbe ecb1 ad3e 399a 7ebe
00000060: 4afa 97be 37b0 a83b 3e54 853e abfa f8bf
00000070: 390f 10bd 0644 503d 8374 4abe af4b b8be
00000080: f186 9740 ddcf 09be 6c66 e3bc 6bdd c8bd
00000090: 1eb0 3dbf 285a ac40 1569 8abe 5c83 a8be
000000a0: 4368 223e c3f5 fbbe 4a51 9140 d184 88be
000000b0: ae71 71be 2a0f aa3e 6217 96be d086 86be
000000c0: e834 2bbe 768d c0be 73ef fb3f 1ceb f43f
000000d0: fca1 77c0 837b b83d d027 833e 9742 9bbc
000000e0: 8ead 843e cb8a 543e af77 d5be 1dde e33a
000000f0: 01d2 0e3f 755a 5b3f 2380 be3f be14 17bc
00000100: b564 8bbd a973 483f 3d11 8e3e f252 fac0
00000110: 7175 8e3e 769f 09bf dbb4 053f feca 813f
00000120: 7519 80bf 8cb5 a3bd 0032 27be 739c d6be
00000130: 7821 b43d 7ce0 1dbe fcd1 2abe 2209 a5be
00000140: 6434 063e 8e8b ca3e 103d c0bd 02c9 91be
00000150: e37f d8be 8bc0 283f f618 2f3f e69b 5dbf
00000160: 8dd4 e0be c1ca 973e a055 9abe 34b4 a73e
00000170: e847 a740 d40c fbbd 9d59 aebe d5f6 54be
00000180: 4a76 db3e 44de b03e 9d75 6abe 636e cbbe
00000190: a29a 4640 b10e f53f 4e2a a3c0 9f24 1fbe
000001a0: f23f 4c3f 15e5 90bc 06dd 1e3f f965 1740
000001b0: fc86 4dbe 2cf8 e73e 9470 193e 48a5 6cbd
000001c0: b4fb bcbd a42c 0dbe ce5a 52be d059 0e3d
000001d0: ddac acbe 70f1 36bd b617 54be 4afa 02be
000001e0: f3ca 4dbd 28cb d43d 3d6f 4940 ae72 dabd
000001f0: f55d 983e a1fe 1d40 6b40 1940 4275 c0c0
00000200: a15b 8dbd 629e 5d3f 74c8 15bf 4c0a 25bf
00000210: f641 a040 12e9 6cbe a332 bcbd d23e 353f
00000220: d4a6 3c3f 8c87 a43f 6559 66bd 3cec bfbe
00000230: 452f 33bf c8f2 a7be 6bd0 4940 f262 683d
00000240: b147 87be 4b79 c83f 8905 7d3f c184 36c0
00000250: c95a 8ebd 9ac1 483f 11ca bf3f d16b d43e
00000260: 3031 b63f 3088 ddbd 0865 d43e 9129 09bf
00000270: a69d 6dbd 402f fdbe d80f 723e 6974 afbd
00000280: f09f 8abd c496 a43e 80f9 dc3e 5059 8abe
00000290: 6438 cebe e51f 483e dec5 833e 11c3 d0be
000002a0: 9a99 a5be a640 da3c baf3 cbbe 284a 173d
000002b0: 3e66 d5be 0030 97be bd75 b4be 431a 903e
000002c0: c046 e63d d9de 9340 f294 4a3c fea6 0f3f
000002d0: c6dc dbbe 1a5e 40be b7c1 c4be fe0e d0be
000002e0: 8ab7 9bbe 8422 c7bd 90ec 573e a0e7 7e3e
000002f0: 88e5 87bd c626 7fbe ff63 32bd 341c 8abe
00000300: cd92 8140 cfec 65be 5ced 4dbe 441e 9dbf
00000310: 5f0c 84bf aa0b 3440 e065 743f 718b 98be
00000320: 7f99 5b3e 4496 8cbe 215e 8a40 0df7 59be
00000330: 95f2 8abe b7ee 083e 175e 503e 6fd1 233e
00000340: 7c6a 9abe 54e3 8bbd 73b8 8dbf bd18 b4bf
00000350: a0d1 5740 5490 a13c d34a dcbe c45e ffbd
00000360: f429 433e c822 3fbe 004b a6be 8c90 cbbd
00000370: 7398 333f c404 0b3f 04f4 6abf 7c8b 6cbe
00000380: 4c6d 02bd d572 0f3f 776d 923d 648f 52bf
00000390: 0e07 27be 0356 cbbe 1df9 123f ec86 28be
000003a0: 4b16 c03f f4bc 06be fdb2 193e d39e 20bf
000003b0: 7057 183e 5be9 5940 d583 a2bd de50 fd3e
000003c0: 9f09 213e 8f24 243f 9d2c b540 d342 0abd
000003d0: ffc6 4e3f e4d3 783f 941e 8f3f 5e06 f33e
000003e0: 060a b7bd 80da ca3e 951b e9bc 4ff7 edbe
000003f0: cfc4 8c40 8805 73be e4f7 61be d3fd 243f

body.0.bias f4 [64]
0.24390315 0.7147063 -0.37560064 0.87575835 -0.3127737 -0.73492014 1.5869521 1.593692
1.5092331 -0.18397346 0.66620576 -0.14125615 0.84163547 -0.47497582 0.61228037 0.3782714
-0.039286375 -0.031666238 1.3310211 -0.086536855 0.41578397 0.77710426 0.20146012 0.10823417
0.99472725 0.04146062 1.7055111 0.8560024 -0.016639508 0.23312835 1.1204889 -0.23416409
-0.2861373 -0.44402373 0.054935396 1.41423 0.15565473 0.0447942 1.2149401 1.3492572
1.2452886 0.31451023 1.1397605 -0.069354236 0.11053627 0.56601316 1.0883278 0.9270687
1.4305687 1.1044576 1.3585722 1.3705186 0.9945275 0.35737035 -0.4303047 0.99462366
0.82547355 0.39229774 0.35735053 0.50905937 0.10511732 -0.37515354 -0.16500378 0.06704184
00000000: bfc1 793e fef6 363f ba4e c0be b331 603f
00000010: e023 a0be ba23 3cbf 3f21 cb3f 19fe cb3f
00000020: 8d2e c13f 8a63 3cbe 768c 2a3f 74a5 10be
00000030: 6c75 573f 0830 f3be 68be 1c3f caac c13e
00000040: c0ea 20bd 75b4 01bd e65e aa3f 3c3a b1bd
00000050: a3e1 d43e 4ef0 463f 904b 4e3e e0a9 dd3d
00000060: 72a6 7e3f 9cd2 293d 304e da3f f922 5b3f
00000070: 944f 88bc 33b9 6e3e 2e6c 8f3f b6c8 6fbe
00000080: 9780 92be 1457 e3be f003 613d 7d05 b53f
00000090: f463 1f3e 207a 373d 2883 9b3f 76b4 ac3f
000000a0: 9e65 9f3f 7c07 a13e ace3 913f 9809 8ebd
000000b0: d760 e23d 3de6 103f 534e 8b3f 6054 6d3f
000000c0: e01c b73f de5e 8d3f b2e5 ad3f 276d af3f
000000d0: 5b99 7e3f 3ff9 b63e e650 dcbe a89f 7e3f
000000e0: 3c52 533f 40db c83e a6f6 b63e b751 023f
000000f0: c047 d73d 2014 c0be c0f6 28be 3b4d 893d

body.2.weight f4 [64, 64]
-0.01941637 -0.09165093 0.0034690648 0.007817092 -0.08145361 -0.26130295 0.21674873 -0.0892941
0.112529844 -0.023039907 -0.080823965 0.023953035 0.019845197 -0.13578744 -0.17540614 -0.016648278
0.065367654 0.04899196 0.09300499 -0.023971349 0.061183296 0.12961696 -0.07961589 -0.10022771
0.05557094 -0.1144542 0.13381304 -0.115209 -0.119187795 -0.12205633 -0.084806144 -0.06203676
-0.03591253 -0.11911088 0.061672255 -0.22870246 0.10705039 0.012175456 0.16258495 -0.19488104
0.040783912 0.028226316 -0.13573545 -0.1122482 -0.00953262 0.0033115328 0.021084875 -0.038096923
-0.21258216 0.010295092 0.16801144 -0.15969856 -0.016394304 0.11784434 -0.013426942 -0.11199938
0.008963524 0.07105383 -0.041036617 0.096082695 0.047156304 0.095116496 -0.046969652 -0.0198364
0.088671416 0.089915484 -0.015180171 -0.3118591 0.094184846 0.016385773 -0.28482768 -0.51979506
-0.72358996 0.02801922 0.81966484 0.00763392 -0.039537743 0.37628335 0.7460548 0.003085956
-0.09365307 -0.21449539 -0.62222266 0.06058182 0.45215598 -0.4916397 0.064671084 0.027372614
-0.080855384 0.49866423 -0.3929348 -0.4266294 -0.027916044 0.32013193 0.08377198 0.016992792
0.05508849 -0.08934497 0.0948444 -0.0017575186 -0.05478418 -0.11137499 -0.6621928 0.004308387
0.083228044 -0.108369514 0.25641084 0.10193594 0.12202852 0.34827602 -0.28823876 -0.5078376
0.007094468 -0.0675785 -0.736129 -0.1629524 -0.56302214 -0.16497727 0.09554401 -0.5121506
-0.38737375 0.0051531205 0.25057793 -0.41867676 0.23556428 0.024421528 -0.07857987 0.06581748
-0.061633017 -0.043403763 -0.029757336 0.1035337 0.006923735 -0.23702987 0.08540474 -0.09304297
-0.010162149 -0.10246426 -0.033290174 0.10411553 -0.07597232 -0.06335086 0.026744489 0.09764454
0.09916392 0.16486557 -0.04188397 0.07921897 -0.004246504 0.09678402 -0.042820007 -0.12152748
-0.031241072 -0.03724232 0.11342556 0.075670846 0.009135991 0.05263623 -0.09829967 -0.121467344
0.07373421 -0.1003435 0.03155859 -0.18007046 0.081623554 -0.021791175 0.23874752 -0.030401213
-0.122545876 -0.021610826 0.051216546 -0.026189283 -0.14888667 -0.15463604 0.14345327 -0.17298412
-0.4366159 0.058139995 0.18471472 -0.037969686 0.0010939006 0.08182535 -0.038001437 -0.11682333
-0.05750535 -0.061932653 0.13954514 0.12539671 -0.06621137 0.04811889 -0.10342544 -0.11431435
-0.38292342 0.1990094 0.10517812 -0.06299395 -0.055892378 -0.19598415 0.051012497 -0.56628174
-0.5608865 0.12397306 0.46169263 -0.019350234 -0.12135357 0.19980186 0.15602022 -0.12133582
-0.099145085 -0.41328645 -0.6016659 0.08126438 0.34828982 -0.05771842 -0.11843583 -0.08717148
-0.027362153 0.38189456 -0.24522772 -0.370309 0.113099955 0.2801375 0.11120211 0.1929842
-0.06355423 -0.12226506 0.0015110373 -0.062037133 0.07097249 0.0095626265 -0.24305229 0.118017934
-0.23538752 0.08334544 0.16658238 -0.02676557 -0.046564113 0.08181975 -0.21566314 -0.28418106
-0.18195742 -0.10839079 -0.21866605 -0.28705564 -0.514237 -0.0012362581 0.100302085 -0.44595534
-0.43459624 -0.05422567 0.12255191 -0.4336144 0.057989284 0.124121085 -0.10702711 -0.27081203
00000000: 140f 9fbc 7cb3 bbbd 4059 633b 4313 003c
00000010: 26d1 a6bd 80c9 85be 61f3 5d3e d3df b6bd
00000020: 0c76 e63d 30be bcbc 0987 a5bd 2839 c43c
00000030: 6592 a23c dd0b 0bbe ab9d 33be f861 88bc
00000040: 7adf 853d cbab 483d 6679 be3d 905f c4bc
00000050: 569b 7a3d 4fba 043e a80d a3bd 3044 cdbd
00000060: 5b9e 633d f766 eabd 4906 093e b2f2 ebbd
00000070: bb18 f4bd abf8 f9bd d8ae adbd 421a 7ebd
00000080: 0419 13bd 68f0 f3bd 0c9c 7c3d fa30 6abe
00000090: 3c3d db3d 907b 473c ab7c 263e e58e 47be
000000a0: 080d 273d e03a e73c 3cfe 0abe 62e2 e5bd
000000b0: b52e 1cbc 4d06 593b 30ba ac3c 850b 1cbd
000000c0: 23af 59be bfac 283c 310b 2c3e 0588 23be
000000d0: 594d 86bc 6058 f13d adfc 5bbc ee5f e5bd
000000e0: bfdb 123c ac84 913d 0316 28bd 01c7 c43d
000000f0: f826 413d 70cc c23d 4063 40bd f27f a2bc
00000100: 5c99 b53d 9c25 b83d 40b6 78bc ffab 9fbe
00000110: fce3 c03d 753b 863c efd4 91be 4a11 05bf
00000120: 313d 39bf 9088 e53c 8ed5 513f f625 fa3b
00000130: 54f2 21bd 36a8 c03e 73fd 3e3f c03d 4a3b
00000140: 2ecd bfbd aea4 5bbe fc49 1fbf a424 783d
00000150: fd80 e73e 33b8 fbbe 4672 843d 883c e03c
00000160: 8297 a5bd eb50 ff3e c02e c9be 2b6f dabe
00000170: 30b0 e4bc 55e8 a33e a590 ab3d 7834 8b3c
00000180: 78a4 613d 7ffa b6bd c83d c23d 8a5c e6ba
00000190: 6065 60bd 9218 e4bd 7885 29bf 5f2d 8d3b
000001a0: 7773 aa3d d6f0 ddbd 4848 833e cac3 d03d
000001b0: 17ea f93d 3c51 b23e 0894 93be a501 02bf
000001c0: b678 e83b 9966 8abd f372 3cbf fedc 26be
000001d0: 3822 10bf cdef 28be 94ac c33d 4d1c 03bf
000001e0: da55 c6be 82db a83b c04b 803e cd5c d6be
000001f0: c337 713e a80f c83c 7cee a0bd 51cb 863d
00000200: e772 7cbd 25c8 31bd a8c5 f3bc 7a09 d43d
00000210: 80e0 e23b f5b7 72be aee8 ae3d 508d bebd
00000220: 247f 26bc c8d8 d1bd 475b 08bd 863a d53d
00000230: 6097 9bbd 18be 81bd 4217 db3c dcf9 c73d
00000240: 7416 cb3d 85d2 283e 878e 2bbd 8e3d a23d
00000250: 4226 8bbb b336 c63d 0864 2fbd 66e3 f8bd
00000260: 47ed ffbc 678b 18bd a94b e83d 51f9 9a3d
00000270: 20af 153c 1699 573d 5651 c9bd dfc3 f8bd
00000280: f601 973d e580 cdbd 9443 013d 6464 38be
00000290: 402a a73d 6883 b2bc 3b7a 743e f70b f9bc
000002a0: 55f9 fabd 3009 b1bc 71c8 513d e88a d6bc
000002b0: bf75 18be e958 1ebe 6ae5 123e c022 31be
000002c0: 1f8c dfbe 3424 6e3d db25 3d3e 1a86 1bbd
000002d0: 3761 8f3a 0d94 a73d 65a7 1bbd 1241 efbd
000002e0: bb8a 6bbd 18ad 7dbd ece4 0e3e ff67 003e
000002f0: d499 87bd 5018 453d b8d0 d3bd a41d eabd
00000300: 8a0e c4be 1fc9 4b3e a067 d73d f902 81bd
00000310: 68ef 64bd 12b0 48be 7bf2 503d d7f7 10bf
00000320: 4296 0fbf 96e5 fd3d fa62 ec3e 6284 9ebc
00000330: 3888 f8bd dc98 4c3e c4c3 1f3e ea7e f8bd
00000340: 940c cbbd 489a d3be c706 1abf f06d a63d
00000350: 0b53 b23e 266a 6cbd 7c8e f2bd f686 b2bd
00000360: 9826 e0bc af87 c33e fa1c 7bbe 2499 bdbe
00000370: f3a0 e73d 2f6e 8f3e efbd e33d a69d 453e
00000380: b828 82bd 1b66 fabd 000e c63a a61a 7ebd
00000390: 065a 913d 90ac 1c3c b3e2 78be 63b3 f13d
000003a0: 6d09 71be 04b1 aa3d 9294 2a3e 7843 dbbc
000003b0: 03ba 3ebd 1d91 a73d ccd6 5cbe 2e80 91be
000003c0: 0c53 3abe fefb ddbd fee9 5fbe f5f8 92be
000003d0: 09a5 03bf f009 a2ba 2e6b cd3d 4254 e4be
000003e0: 6683 debe bc1b 5ebd 7ffc fa3d b502 debe
000003f0: 2c86 6d3d 3233 fe3d 0831 dbbd e0a7 8abe

body.2.bias f4 [64]
0.118386276 0.25239676 0.09506679 0.6508484 -0.111268006 1.224053 1.3240244 1.2476702
-0.0478203 0.81962466 -0.07331957 0.00014137 1.1750007 0.11459313 0.8991909 1.4541949
-0.2389832 0.52313 0.2646136 -0.43784228 1.2713379 -0.23382111 0.082354926 0.37240455
0.086099245 0.52704793 0.12359236 -0.15383813 -0.22563352 1.1122516 0.8815938 -0.4224252
-0.111594215 0.10571895 0.8951633 -0.25117534 -0.13151994 0.011041188 1.2573867 1.3159024
0.0880867 0.85113525 -0.5966862 -0.35925582 1.1741856 1.239633 -0.0018749757 0.08722065
-0.017756343 0.1140146 0.07718905 -0.11249781 1.2760664 0.2078463 -0.06132932 -0.005591175
-0.20686875 -0.0074462295 0.2937579 0.09226569 0.19343653 -0.16720746 0.20005377 -0.49135423
00000000: 8174 f23d 263a 813e 61b2 c23d 009e 263f
00000010: 7be0 e3bd c5ad 9c3f a279 a93f a8b3 9f3f
00000020: 38df 43bd ecd2 513f 9228 96bd b83c 1439
00000030: 6c66 963f ceaf ea3d 6031 663f 0f23 ba3f
00000040: 03b8 74be d9eb 053f 6f7b 873e dd2c e0be
00000050: 33bb a23f cd6e 6fbe b3a9 a83d cfab be3e
00000060: cd54 b03d 9dec 063f fe1d fd3d be87 1dbe
00000070: 790c 67be 435e 8e3f 22b0 613f 1e48 d8be
00000080: 828b e4bd 2d83 d83d 6c29 653f 0e9a 80be
00000090: 2aad 06be 19e6 343c 0cf2 a03f 7d6f a83f
000000a0: cd66 b43d 00e4 593f 6dc0 18bf 61f0 b7be
000000b0: b74b 963f 4bac 9e3f bfc1 f5ba bda0 b23d
000000c0: c075 91bc 7d80 e93d 4b15 9e3d 4065 e6bd
000000d0: 2556 a33f a9d5 543e 7434 7bbd 2d36 b7bb
000000e0: 67d5 53be 80ff f3bb 6f67 963e cbf5 bc3d
000000f0: 3a14 463e 6f38 2bbe e5da 4c3e c892 fbbe

body.4.weight f4 [1, 64]
-0.13442531 -0.31621447 -0.057115324 -0.3239143 -0.056034483 0.365993 0.39381346 0.5081502
-0.040015385 0.7707135 0.009459257 0.055767097 0.37824434 0.11902973 0.5099674 1.1068045
-0.95008975 -0.3398457 0.11085676 -0.16588603 0.4012497 -0.87681115 0.068133466 0.9382248
0.7340966 -0.5353228 0.41167554 -0.05035213 -1.1285925 0.34184438 1.0494167 -0.6526894
-0.019733684 -0.04371708 0.60231644 -0.6865938 0.0049422528 -0.03307005 0.4104227 0.4549925
0.006842892 0.43745226 -0.4376309 -0.47592023 0.36208263 0.30250347 -0.088994265 -0.15912555
0.09146123 -0.08917919 -0.0041267253 -0.9384773 0.4446211 -0.19598266 0.032818645 -0.024573553
-0.25324428 -0.034926306 0.47401127 -0.122691795 -0.64346766 -0.89379644 -0.047945134 -0.7028974
00000000: caa6 09be dde6 a1be c2f1 69bd 18d8 a5be
00000010: 6a84 65bd 6f63 bb3e eba1 c93e 2216 023f
00000020: 2ce7 23bd 7b4d 453f 00fb 1a3c 0a6c 643d
00000030: 3ea9 c13e dcc5 f33d 398d 023f c5ab 8d3f
00000040: 1539 73bf 4100 aebe de08 e33d 07de 29be
00000050: 9a70 cd3e b276 60bf 8f89 8b3d 802f 703f
00000060: c1ed 3b3f ea0a 09bf 23c7 d23e 093e 4ebd
00000070: b875 90bf 3a06 af3e 4953 863f a716 27bf
00000080: 89a8 a1bc ae10 33bd 6931 1a3f 9cc4 2fbf
00000090: 9ff2 a13b 7674 07bd ed22 d23e c7f4 e83e
000000a0: 573a e03b bef9 df3e 2811 e0be d1ab f3be
000000b0: e562 b93e bce1 9a3e a042 b6bd cff1 22be
000000c0: 0650 bb3d 94a3 b6bd 7b39 87bb 0c40 70bf
000000d0: 60a5 e33e aeaf 48be d86c 063d 7a4e c9bc
000000e0: 3ca9 81be e30e 0fbd 9bb1 f23e d645 fbbd
000000f0: 4cba 24bf d8cf 64bf 1e62 44bd 16f1 33bf
