ppo_model2.pt (torch, 42485 bytes, 11 tensors)

body.0.weight f4 [64, 5]
000000 f8 cf 16 bf 1c 68 ca 3d 04 a2 54 bd 3f 25 9f 3e
       -0.58911085 0.098831385 -0.051912323 0.31083104
000010 4a 2c 85 3e be 08 83 bc 65 f5 01 bf d3 4d 6f 3e
       0.26010352 -0.01599538 -0.5076507 0.23369531
000020 0e 2f 50 3d f3 32 b3 be ae 3a 3f 3e 66 47 a1 3e
       0.050826125 -0.3499981 0.18674728 0.31499785
000030 6b 29 c6 3d bc 3b 5d be c9 b1 3e 3b e7 87 c8 be
       0.096758686 -0.21604818 0.0029097667 -0.39166185
000040 9f b0 a9 be 9f c0 3e be 0c 38 94 be 8d 5a 14 3e
       -0.33142564 -0.18628167 -0.2894901 0.14487667
000050 41 d8 f9 bc bc 5d 62 3d 22 46 a0 bd 6d dd 65 3e
       -0.030498626 0.055265173 -0.07825877 0.22447748
000060 1a 7b d9 be f2 4c b6 3e a2 75 49 3d 03 98 d3 3e
       -0.42476732 0.3560558 0.04918445 0.41326913
000070 1a 5e 2d be d6 69 33 3d 79 c7 60 be 92 49 fa 3d
       -0.16930428 0.043802105 -0.21951093 0.12221064
000080 4a 18 55 3e d9 fd 34 3e 02 e8 91 3e a8 20 09 bf
       0.20810047 0.1767496 0.2849732 -0.53565454
000090 ce 54 c6 be de b1 f6 3e 4a 38 8d 3e dc 96 8c be
       -0.38736576 0.48182577 0.27582008 -0.27458847
0000a0 98 c0 37 3e 53 51 f6 be 76 aa c9 3e ae 1d 86 3d
       0.17944562 -0.4810892 0.39387864 0.0654863
0000b0 f4 d0 f0 be 9e a6 91 be 77 2a b8 be ef db 68 3d
       -0.4703442 -0.2844743 -0.35969898 0.05685037
0000c0 2c 50 3c be 21 46 99 3e 3e ba ba be e6 17 9f be
       -0.18389958 0.29936317 -0.36470217 -0.3107292
0000d0 5a 48 8d bb 00 8f 63 bd 6c 69 3a 3e cf cf b1 be
       -0.0043116035 -0.055556297 0.18204278 -0.34728858
0000e0 86 8d 08 be 34 e0 36 be f0 fc ba be 66 a8 bb be
       -0.13335237 -0.17858964 -0.365211 -0.36651915
0000f0 60 50 c5 be d0 e8 1d bf ef cf a2 3e 80 37 3f 3e
       -0.38537884 -0.6168337 0.31799266 0.18673515
000100 16 a6 6a 3e 94 1f b0 be 72 2e ce be 00 f8 97 be
       0.2291492 -0.34399092 -0.4026981 -0.29681396
000110 66 06 3e be 30 36 86 bd ee b9 5a be 60 b4 0c bf
       -0.18557128 -0.06553304 -0.21359989 -0.5496273
000120 b9 c8 eb 3e eb 6d 2e 3e 86 48 0c bf b6 0f 60 3e
       0.46051577 0.17034118 -0.5479816 0.21880993
000130 0b 65 bf 3d a5 e4 1a bd 82 af d0 bc b7 ec be 3e
       0.09345444 -0.03781571 -0.025474314 0.37289974
000140 f9 9e ac be fc c7 dc be 39 7a 37 3d 38 41 9a 3e
       -0.33715037 -0.43121326 0.044794295 0.30127883
000150 5b 98 8b bd 50 5a f4 bc 58 34 2b 3e 80 bd c3 3e
       -0.06816169 -0.02982822 0.16719186 0.38230515
000160 28 2c 6a be 7a 9b 92 be 24 7e 20 3e 37 7a 64 be
       -0.22868407 -0.28634244 0.15673119 -0.22312246
000170 58 d7 40 bd d8 2f e5 bd 5e 94 7e be 7d a8 3b bc
       -0.047080368 -0.11190766 -0.24861285 -0.011453745
000180 e6 07 53 3c e5 91 a9 3e 65 f0 ed bd ce af 01 3f
       0.012880301 0.3311912 -0.11618117 0.5065888
000190 d1 49 37 3e a5 19 8a 3e a9 e6 04 bf 76 4f 54 3d
       0.17899252 0.2697269 -0.5191446 0.051833592
0001a0 f1 20 ca 3e e7 65 fa be 32 9e fd bd 21 53 84 3e
       0.39478257 -0.4890587 -0.12383689 0.25844672
0001b0 27 2c bb 3b 7a 78 f9 be bb 61 25 bf e1 f8 ff be
       0.0057120505 -0.4872473 -0.6460225 -0.49994567
0001c0 fe d5 69 3e 05 fe 45 3e 7a 65 cc 3e f6 9f 80 3d
       0.22835538 0.19335182 0.3992117 0.0628051
0001d0 78 7e 57 be e3 8b ba be cc 7c 3d be c5 15 25 3e
       -0.21044338 -0.3643485 -0.18504637 0.16121586
0001e0 15 f1 9f be 42 0a be 3e b0 38 ce be 08 d8 5a be
       -0.31238618 0.371172 -0.40277624 -0.21371472
0001f0 e9 53 32 3d 23 8a d6 3c 8e c5 bd bd 89 fa e8 3d
       0.043537054 0.026188916 -0.09266196 0.11375911
000200 e5 7e 41 3e a2 be 8c 3e f0 88 02 bf ad bb 0e bf
       0.18896063 0.2748919 -0.509902 -0.5575512
000210 a8 22 61 be ff 99 b8 3e b0 3e 3a 3e 56 a6 d2 be
       -0.21985877 0.3605499 0.18187976 -0.4114253
000220 01 22 17 be 7b f7 2d 3f c3 7c 22 3e f1 ab e2 be
       -0.14759065 0.6795575 0.15867905 -0.44271806
000230 2c f3 b4 3e 5c 3b a1 be 7d fc 9d be 40 45 e9 bb
       0.35341775 -0.314906 -0.30856696 -0.007118851
000240 44 9f 30 be 40 b0 d8 3d 4e d9 1b bf 12 e9 cb 3d
       -0.17248255 0.10580492 -0.60878456 0.09956564
000250 80 2c 9e 3e c3 0d 50 3e 14 c0 78 bc cc ab 59 bd
       0.30893326 0.2031775 -0.015182514 -0.053142354
000260 da 30 ae 3d ed 58 27 be 1d 44 b0 3e 1b 0d 37 3f
       0.085054114 -0.16342516 0.34426966 0.7150437
000270 14 7c 07 3f 29 db fb be 72 2a 1f 3d 08 e7 dd 3e
       0.52923703 -0.49190643 0.03885884 0.43340325
000280 98 7a 35 3e 9c d0 57 3e 15 b4 ab bc d5 be 16 3e
       0.17722547 0.21075672 -0.020959893 0.14721234
000290 7c c8 9c 3e 39 71 3c be df 89 16 bf 85 5e b0 3e
       0.30621707 -0.18402566 -0.58804125 0.34447113
0002a0 7c 6a f3 3d f8 fb 45 be 30 fc 85 3d f4 a4 10 be
       0.11885545 -0.193344 0.065422416 -0.14125425
0002b0 08 8e 35 3e fe 9b 74 be e6 b4 99 be 9e ef 1d 3e
       0.17729962 -0.23887631 -0.30020827 0.15423438
0002c0 8a 93 af be f2 ec 6a 3e 10 e2 de be 1d 41 67 3c
       -0.3429225 0.2294195 -0.43531847 0.014114645
0002d0 81 73 13 3e 86 13 81 bc be 48 91 3e 02 11 a5 3e
       0.1439953 -0.01575638 0.2837581 0.32239538
0002e0 bd 32 0b bf f4 f8 77 3e 08 fe 0f be d0 3d 54 3e
       -0.54374295 0.24216062 -0.14061749 0.20726705
0002f0 c8 1a 8b be b4 c1 97 bd 13 ca 4f 3d d8 74 a5 be
       -0.2716887 -0.07409993 0.050729822 -0.32315707
000300 45 a9 69 be ce cd 85 ba d9 b9 17 be 4e 50 ad bc
       -0.22818477 -0.0010208429 -0.14816989 -0.021156456
000310 9a a0 b8 3d 6b 9d 90 3e 2a 10 c4 3c 04 c7 16 bf
       0.09015007 0.282451 0.023933489 -0.58897424
000320 d3 a0 a5 3d 52 16 9c 3e 47 5e 5d 3e 39 5e 75 3e
       0.080873154 0.3048578 0.21617995 0.23961724
000330 b2 15 0f bd 2e c4 1d 3e a7 96 de be 65 93 f3 3c
       -0.0349328 0.15406868 -0.43474314 0.02973337
000340 fa cc 45 39 14 43 d1 be e7 6c 07 3e 9e 42 2f 3e
       0.00018863744 -0.4087149 0.13225137 0.17115256
000350 0b 9b ed 3d c5 f1 3a 3d b6 80 d2 3e 62 8b ab 3e
       0.11601838 0.045640726 0.41113824 0.33504778
000360 50 b1 c7 bc ea ca 24 be 82 72 b3 be 50 02 84 bd
       -0.024376541 -0.1609303 -0.350483 -0.064457536
000370 d4 d0 47 3e 92 60 af be ac 6b 87 be 96 34 98 be
       0.19513255 -0.34253365 -0.26449335 -0.2972762
000380 e0 41 72 be 14 52 0c bf 0b d6 85 bd 08 3a 6e 3d
       -0.23657942 -0.5481274 -0.06534966 0.05816081
000390 86 89 b8 3e e7 c3 d6 be e4 76 8e 3e bc 1d 0b 3e
       0.36042422 -0.41946337 0.2782508 0.13585562
0003a0 a8 2b 37 be 98 3f 44 be f4 54 7a be a5 ee d6 be
       -0.17887747 -0.19164884 -0.2444647 -0.41978946
0003b0 75 79 00 bf ff 82 91 3e 0d 3d a8 3e 99 50 0a be
       -0.5018533 0.28420255 0.32859078 -0.13507308
0003c0 11 0c ed 3e 72 dd 58 bd 09 82 57 3e b9 60 95 3d
       0.46298268 -0.05294556 0.21045698 0.07293839
0003d0 b0 ad ca 3d 50 47 f7 3d dd f3 90 be 87 40 b0 3e
       0.098964095 0.12074149 -0.28311053 0.3442423
0003e0 45 cf a3 b9 b7 c7 0e bd 20 3e 93 3d 88 40 8d 3d
       -0.0003124421 -0.03485843 0.07189584 0.06897074
0003f0 0c 32 9c 3e a0 01 c6 bd 58 e9 c9 be 9c 17 e2 bd
       0.30506933 -0.09668279 -0.3943584 -0.110396594

body.0.bias f4 [64]
000000 81 ea dc be 49 86 58 bd 7b 8a 59 be 96 1c bf bd
       -0.43147662 -0.05286244 -0.21244232 -0.09331624
000010 10 f7 e2 be 1e b1 27 3e 31 09 12 bf 5b 37 a8 bd
       -0.4432912 0.16376159 -0.57045275 -0.08213683
000020 be ce 54 3d 74 7d a2 be 2f d4 a1 3e d0 fe 7a bd
       0.051954977 -0.31736338 0.31607196 -0.061278164
000030 0a ac 14 3e 6f cf d4 be 14 7a cb bd 73 d7 5e 3e
       0.14518753 -0.4156451 -0.09935394 0.21761875
000040 1e db 8f be 00 77 90 be 3c 4e a4 3e d4 af 65 3e
       -0.2809686 -0.2821579 0.32090938 0.22430354
000050 7b 23 fc 3e d0 30 d0 be 13 97 1a bf 65 6c 24 3e
       0.4924582 -0.4066224 -0.6038677 0.16056974
000060 32 55 c0 3c 8b 6e 1e bf fa 9e 6b be 09 0c c1 3c
       0.023478124 -0.61887425 -0.23009863 0.02356531
000070 73 6b d9 be 72 df 3e be a3 88 10 be 43 69 19 be
       -0.4246479 -0.18639925 -0.14114623 -0.1498156
000080 d1 d1 03 bf 3a 31 8a bd a8 cd 0b 3e 30 9f 05 3e
       -0.5149203 -0.067476705 0.1365267 0.13049006
000090 42 71 f7 bd ac d2 c6 be f0 e7 ca bd e3 0f 2d 3e
       -0.12082149 -0.38832605 -0.0990752 0.16900592
0000a0 54 96 74 3e cf a0 a7 be 56 b0 a2 3c 28 21 6b bd
       0.2388547 -0.32739875 0.019859474 -0.057404667
0000b0 9a 2d 8d be 48 79 c2 bb e4 ef 9d be dc 1c 9b be
       -0.27573854 -0.005934868 -0.30847085 -0.30295455
0000c0 8d 15 d7 3e 6d 94 8d be 98 48 db 3d b6 f8 19 be
       0.4200863 -0.27652302 0.107072055 -0.15036282
0000d0 9c f9 e8 3e ac a6 c7 be 10 4e a3 bd 87 f7 ca be
       0.45502937 -0.38994348 -0.079738736 -0.39641973
0000e0 0a 3b 4a be bf ff 56 be 09 80 16 3f 91 a2 00 bf
       -0.19749084 -0.20995997 0.58789116 -0.50248057
0000f0 56 63 a0 3c a0 2a 2a bc 52 c3 c7 3e bd 9c 1f be
       0.019578617 -0.010386139 0.39016205 -0.15587135

body.2.weight f4 [64, 64]
000000 9c bf b7 bd e4 4b 7f bd 80 d4 b4 bb 00 0e 82 bd
       -0.089720935 -0.062328234 -0.005518496 -0.063503265
000010 04 62 43 3d 0a 50 b1 3d 46 0b 8c bd ec df 94 3d
       0.047700897 0.08657844 -0.06838088 0.07269272
000020 ec 78 2d bd f8 56 81 bd fc 64 cf bd 12 e1 8e bd
       -0.04235165 -0.06315416 -0.10126683 -0.069765225
000030 da 75 d0 bd 8e 88 f2 3d 4c c4 d0 3d 60 2f a1 3c
       -0.101787284 0.11842452 0.10193691 0.01967591
000040 e6 28 e3 bd b8 dd d4 bd 48 8c 94 3d 58 93 e9 bc
       -0.11091785 -0.10393852 0.07253319 -0.028512642
000050 18 21 dd bd 00 d9 f2 bc d8 a5 d8 bc a0 e0 89 3d
       -0.10797328 -0.02964449 -0.026446268 0.06732297
000060 88 af 97 bc d8 12 b7 3d 40 29 43 3d 48 dc 8a bc
       -0.018516317 0.08939141 0.04764676 -0.016950741
000070 2e f4 ed bd 30 fb 0b bc fa b7 ae bd c8 ad 53 bd
       -0.11618839 -0.0085437745 -0.085311845 -0.051679403
000080 86 d0 cf 3d a6 69 e0 3d 80 e9 6d bc 56 97 d3 3d
       0.101471946 0.10957651 -0.014521003 0.103315994
000090 f0 44 f1 bc b4 1b 52 bd d4 a4 a0 3d 5e 5c cb 3d
       -0.029451817 -0.05129595 0.078439385 0.09929727
0000a0 38 7e df bd 64 26 4a bd 40 88 a7 bc 1c 72 b3 3d
       -0.10912746 -0.04935302 -0.020450711 0.08761999
0000b0 7c 99 2c 3d 10 dd da bd c4 ad 54 3d a8 ec 71 bd
       0.04213856 -0.106866956 0.05192353 -0.059063584
0000c0 68 de c0 3c 22 f3 87 3d b6 49 e5 3d a0 72 0b 3c
       0.023543552 0.06638171 0.111957 0.008511215
0000d0 32 25 af 3d e0 74 d3 bd e0 f1 8b bc f0 2f 37 bd
       0.08552016 -0.103250265 -0.017083108 -0.04472345
0000e0 ec 35 5c 3d 40 e2 cc 3b 06 16 e2 bd ba 37 95 3d
       0.05376236 0.006252557 -0.11039357 0.072860196
0000f0 fe 52 d7 3d b6 ed 83 3d a8 59 c7 3d 30 05 2f 3c
       0.105138764 0.06441824 0.097338974 0.010682389
000100 ff 45 bb 3d 93 7d a0 bd f8 cd 72 3d 6c 9f 8b bd
       0.0914421 -0.078364514 0.05927846 -0.06817517
000110 40 d6 ea bd 0a 40 58 3c a0 96 1b bd 7b a3 8c 3d
       -0.11466646 0.013198862 -0.037985444 0.06867119
000120 3e 23 3d 3d e5 88 75 bd 71 5b b3 3c fc 30 0b bd
       0.046176188 -0.059945006 0.021894189 -0.033982262
000130 f9 bf 2c bd 50 23 31 3d 02 16 90 3c 51 c1 03 bd
       -0.042175267 0.043246567 0.01758862 -0.032166783
000140 8c 11 14 bd 6c 8b 85 3d b0 b9 30 3c 93 4c a7 3d
       -0.036149547 0.06520733 0.010786459 0.08168902
000150 83 28 02 be 49 43 e4 3c 5e dc 8b bd a7 48 82 bc
       -0.12710766 0.027864115 -0.06829141 -0.015903784
000160 78 8f 32 bd 03 ed 7d bd ea c0 b3 3d 1f dd 1e bd
       -0.043593854 -0.06199361 0.0877703 -0.038785096
000170 aa 89 c9 bd 3d d4 bc 3d 89 a4 c0 3d 62 4a 87 bd
       -0.098407105 0.09220169 0.094063826 -0.06605984
000180 65 a4 03 be 57 69 9f bd 7c 3b 79 3d eb 7e d2 3d
       -0.1285568 -0.07783764 0.060847744 0.10278114
000190 44 35 f5 3c 90 41 8b 3c 52 3d 95 3d d0 87 14 be
       0.029932626 0.016999036 0.072870865 -0.14504933
0001a0 72 35 b1 bd e2 3f d3 3c cb 85 65 bd ac ab 54 bd
       -0.08652772 0.025787298 -0.056035798 -0.05192153
0001b0 be b2 85 bd 88 c1 31 3d 80 be aa ba c7 49 a5 bd
       -0.06528233 0.043397456 -0.0013026744 -0.080707125
0001c0 af d9 56 be 48 bb 62 3c 78 e8 ff 3c 0c fd f9 bd
       -0.20981477 0.013838597 0.03123878 -0.12206468
0001d0 55 d4 d3 bd 7e f1 e5 bd a2 2a 2a be b5 5d dd 3d
       -0.103432335 -0.112277016 -0.16617826 0.10808889
0001e0 e4 7e 23 3d 85 7f 8c bd e7 c3 56 be 0f fc 20 3d
       0.039915934 -0.0686026 -0.20973168 0.03930288
0001f0 41 ff cf bc d8 c6 a4 bc 15 64 9a bd f7 39 6f bd
       -0.02539027 -0.020114347 -0.075386204 -0.05840489
000200 68 52 f6 3b ad b4 5d 3d 98 73 f2 bc 80 86 1b bc
       0.007517148 0.054127384 -0.029596135 -0.0094925165
000210 18 79 d4 bd 34 8d 5a bd e8 4e d8 bd 51 54 de bd
       -0.10374659 -0.053357318 -0.10561925 -0.10855926
000220 5c 1c ba 3d 90 ac 0a 3d 00 c0 bd bc ce 2e e5 bd
       0.0908744 0.033855975 -0.023162842 -0.11190568
000230 cd ca b5 3d e0 c4 32 3c df e6 70 bd 9e 2a bf bd
       0.08876572 0.0109111965 -0.058813926 -0.093343005
000240 65 dc c3 bc 50 32 7f bc 08 e4 e8 3d 14 d1 e9 3d
       -0.023908803 -0.01557596 0.113716185 0.114168316
000250 02 38 e7 bd 2a fc 99 bd ee 8c 72 3d 80 8d dd ba
       -0.112899795 -0.075187996 0.059216432 -0.0016903132
000260 4e 03 e9 3d 04 41 bf 3c 8e 86 fe bd c0 ba ee 3b
       0.113775834 0.023346432 -0.12428008 0.007285446
000270 80 97 2f bd cf 0c af 3d 50 ef c3 bc 30 8c c2 bd
       -0.04286909 0.08547365 -0.023917824 -0.09499395
000280 a0 04 c3 bc e3 a5 b1 3c 54 8d a8 bd f0 a3 f5 bd
       -0.023805916 0.021685546 -0.08230081 -0.11994159
000290 a4 fe 95 3d 30 f8 d4 3c 70 95 9b bc 9d 93 1d 3d
       0.073239595 0.025997251 -0.018992156 0.038470853
0002a0 c1 c1 e1 bd 76 3d f9 3d 24 63 33 3c 80 af e7 bd
       -0.11023284 0.12169926 0.01094893 -0.11312771
0002b0 8c 9b d9 bd 78 bb c1 3c 3e 75 96 bd 48 9c 5e 3d
       -0.10625371 0.023648962 -0.07346581 0.05434826
0002c0 5e 69 44 bd 5c 13 4e bd 64 e6 13 bd 60 a6 3f bc
       -0.04795205 -0.05031143 -0.03610839 -0.011697382
0002d0 cc 20 e7 bd 88 de 76 3d e1 6b 2a bd 9e 14 dc 3d
       -0.112855524 0.060270816 -0.041606788 0.1074612
0002e0 5c 49 89 bd 00 ff 8e 3a 64 a3 eb bd 76 07 e7 bd
       -0.06703445 0.0010909736 -0.11505774 -0.1128072
0002f0 ca de d1 bc ec 44 74 3d 50 aa 24 3d aa 80 ed 3d
       -0.02561893 0.05963604 0.040201485 0.11596806
000300 3e 17 94 3b 62 26 5b bc 58 c0 9c bc d8 f8 68 bd
       0.0045193722 -0.01337585 -0.019134685 -0.05687794
000310 41 e7 87 bc 22 26 cf bd 73 a4 d5 bd be 20 16 3c
       -0.016589763 -0.10114695 -0.10431757 0.00916308
000320 67 53 46 bd f4 ec 7a 3d d6 8d e7 bd c0 f1 96 bc
       -0.048419382 0.061261132 -0.1130635 -0.018425822
000330 71 2d 23 3d 38 23 ed bd 47 fb 88 3c f0 a5 d3 bd
       0.03983826 -0.11578983 0.01672138 -0.103343844
000340 4f 5a 48 bd 20 24 24 3c ae 24 93 bd 40 61 1e 3b
       -0.04891425 0.0100183785 -0.071847305 0.0024166852
000350 03 e1 8c bc 7d 32 4b 3d 0b 3b de bd 8e 48 fb 3d
       -0.017197138 0.049608696 -0.10851105 0.12269698
000360 40 b2 66 bd 4b f0 4c bd 03 ad 25 bd 1b d4 97 3d
       -0.056322336 -0.05003385 -0.0404482 0.07413503
000370 f8 a6 67 3d d5 88 2d 3d aa 55 e8 bd 5e fe b0 3d
       0.05655572 0.04236682 -0.11344464 0.08642267
000380 83 de 34 bd 53 74 78 bd f8 fa f8 3d 70 da de bc
       -0.044157516 -0.06065781 0.121572435 -0.027203768
000390 05 d2 02 3d 9e 05 97 3d f7 a4 8f 3c 8f f3 c9 3c
       0.03193857 0.07374118 0.017534716 0.02465227
0003a0 82 9a f3 bb c7 de 9d 3d 19 7a 84 bb 24 12 ab bd
       -0.0074341903 0.07708507 -0.0040428755 -0.083530694
0003b0 b8 5f 83 bd 07 c7 ab 3c 20 a4 83 3c b1 f6 49 3d
       -0.06414741 0.020968927 0.016069472 0.04930753
0003c0 75 0b e5 bd 5e 4a 0c bc 48 a6 f3 3d 04 8f 91 3d
       -0.11183826 -0.008562652 0.1189695 0.07107356
0003d0 ca 0c 97 3d de 64 c8 3d 51 41 78 3d 39 87 f4 3d
       0.07375486 0.09784864 0.060609166 0.11939854
0003e0 88 14 a7 3d e3 ef 9a bd cc 8d c4 bd bf 9d fb bd
       0.08158213 -0.07565286 -0.09597358 -0.12285947
0003f0 d3 7c 38 bd 5c a1 bf bd c8 50 80 bc 66 e0 89 3d
       -0.045040917 -0.09356949 -0.01566352 0.06732254

body.2.bias f4 [64]
000000 2c 38 50 3d 05 70 71 be 61 ed 8b 3d 27 b5 8f bd
       0.05083482 -0.23577888 0.06832386 -0.07016974
000010 fa f2 f3 3d c3 84 0f bd 05 ae ee 3c c7 9b af bd
       0.119115785 -0.03503872 0.029135713 -0.08574634
000020 68 b1 a4 3e bf 7c 85 3d 87 37 ed bc 4a 39 77 bd
       0.321666 0.06517934 -0.028957142 -0.06035737
000030 76 a6 29 be 6f 33 8f bd 6b c3 39 3e 18 78 14 bd
       -0.16567406 -0.06992232 0.18140952 -0.036247343
000040 9e 7f c2 3d c0 3d cc 3c 7f 8f 9c 3d bd db 22 be
       0.09496997 0.024931788 0.07644557 -0.15904136
000050 28 99 02 3d 00 bd 5e 3b 62 a6 da bc 2a 5b 82 bc
       0.031884342 0.0033987164 -0.026690666 -0.015912611
000060 8e 18 a0 3d da 49 e4 3c 45 ad df bc 10 cf 35 3d
       0.078171834 0.027867246 -0.027304301 0.044386923
000070 74 a9 dd bd 8c 83 2f bd d1 f3 49 be 29 c8 73 bd
       -0.10823336 -0.042850062 -0.19721915 -0.05951706
000080 cb 5c 49 3d ea 2b 42 be 1a b8 d7 3c d3 d3 39 be
       0.04916076 -0.18962064 0.026332904 -0.18147211
000090 8d f4 8c bd ea 8f c3 3d 46 0c 1c be 04 61 72 ba
       -0.06882582 0.09548934 -0.15239057 -0.0009246024
0000a0 b5 4d 48 3d 54 af dc bd 09 c4 ed 3c 98 a5 c0 bc
       0.048902232 -0.10775629 0.02902414 -0.023516461
0000b0 b5 0c 8d bd 47 37 86 bb e1 76 b7 bd 64 d7 ce bd
       -0.06887189 -0.004095945 -0.08958221 -0.10099676
0000c0 89 0d a8 be 58 f5 a5 bd 1d e0 87 be 59 3e d6 bd
       -0.32822827 -0.08103436 -0.26538172 -0.104611106
0000d0 fe 89 fa 3d 79 74 05 be d8 58 ff 3d f5 30 97 3d
       0.12233351 -0.13032712 0.124681175 0.07382385
0000e0 fb 4d 72 3d e9 f1 1b be 0c b7 34 be 57 85 ee bd
       0.0591564 -0.15229 -0.17647952 -0.11646526
0000f0 7d 32 95 3d 1b eb bc be b4 6a 40 bd 5d 36 a0 3d
       0.072850205 -0.3689812 -0.04697676 0.07822869

body.4.weight f4 [4, 64]
000000 f0 6c 10 ba b5 16 53 3d 9b 33 2e 3c a9 d5 cf 3a
       -0.0005509397 0.051535327 0.010632421 0.0015856522
000010 62 a8 07 3c 6a 95 2c 3b f4 d1 4f 3e f3 35 7f bb
       0.008279892 0.0026334175 0.20294935 -0.0038942068
000020 67 ed c1 3d 48 ca 83 bb 5d 5e 7d 3d 1b 92 3e 3e
       0.09469109 -0.0040219165 0.06185757 0.18610422
000030 21 38 28 3d 42 4e 01 3c b1 38 15 3e 1e 06 0c 3c
       0.041069154 0.007892193 0.14572407 0.00854638
000040 97 db cf 3b 14 c3 74 3b e6 6e 4e bb 91 9d 1c 3e
       0.006343316 0.003734772 -0.0031499206 0.15294482
000050 1a 4a 13 3c 90 f2 06 bb a0 60 2a 38 4c f6 c7 3c
       0.008989835 -0.0020591356 4.0621147e-05 0.024409436
000060 0c c7 3c bc 6f bb f0 3a e5 49 47 3e 30 85 ce 3a
       -0.011522066 0.0018366406 0.19461782 0.0015756246
000070 f8 b8 ae 3a 4c 14 bb 3c d4 10 1e 3d 78 62 45 bc
       0.0013330271 0.022836827 0.038590267 -0.012047403
000080 f8 12 ff bc 84 1a b0 3c 85 2b 2f 3c ae e9 22 3d
       -0.031136975 0.021497019 0.010691528 0.039773636
000090 54 fd 56 3d b8 f5 73 3b fd 82 9b 3d 40 b6 d6 b7
       0.052487686 0.0037225317 0.075933434 -2.5595655e-05
0000a0 68 33 3f 3e 5a 16 80 3c e6 7a 27 3e 94 b9 ba 3b
       0.18671954 0.015635658 0.16355476 0.005698392
0000b0 ec b7 a4 bb a8 eb 2f 3d 00 d5 b6 bc 92 c9 8d 3d
       -0.005026808 0.04294935 -0.022318363 0.06923212
0000c0 d1 55 25 3e ea eb 37 3e ca f1 29 3e c5 ce 49 3d
       0.16146018 0.17961088 0.16596141 0.049269456
0000d0 2b 7a ea bb 58 42 b6 bc 72 ce 83 3d 63 85 64 3d
       -0.007155677 -0.022248432 0.06435861 0.05579127
0000e0 c3 42 3f 3c b6 58 09 bd a7 34 37 3e 4f a3 1b bc
       0.011673632 -0.033531867 0.17891179 -0.009499385
0000f0 c4 84 34 3e 78 76 27 3e e8 37 8d 3d c9 de 2a 3e
       0.17628771 0.16353786 0.06895429 0.16686548
000100 10 7d 1e 3c a8 7e b8 3c 02 8f 1f ba 45 47 4a 3b
       0.009673372 0.022521332 -0.00060866785 0.0030865234
000110 e2 37 22 3c 1c d6 77 3b 1e 0e c0 3d cd 22 d4 3c
       0.009901019 0.0037816828 0.09377693 0.0258955
000120 68 d8 0d 3e fd 06 b9 bb 9d 79 18 3d 21 64 2d 3e
       0.13852084 -0.005646585 0.037225354 0.16932727
000130 10 46 6e 3d 05 89 2b 3c 8f 1f a8 3d fa 65 13 3c
       0.058172286 0.01046968 0.08209144 0.008996481
000140 a4 73 9c 3a 8f 6d bd bb d1 95 07 bc ed 60 60 3e
       0.0011936319 -0.0057808827 -0.008275465 0.21911974
000150 00 14 10 bb 00 b8 ad 39 bb 7e a0 3b ce 48 ba bd
       -0.0021984577 0.00033134222 0.00489792 -0.09095918
000160 9f 45 9a bb 0d e3 93 3b dd 3e 33 3e 74 63 f3 3b
       -0.0047080065 0.0045131505 0.17504449 0.007427627
000170 12 b8 1d 3c fd d2 39 3e 59 88 06 3d 35 3c 83 3c
       0.009626405 0.18146892 0.032844875 0.01601992
000180 45 27 92 bd cb c4 f5 3c 84 ef b8 ba 4d ae 59 3d
       -0.07136396 0.030001065 -0.0014109467 0.05314474
000190 81 00 fc bc b8 5c 7c bb 67 4d 07 3e d4 5f 85 bb
       -0.030761959 -0.0038507413 0.1321312 -0.0040702615
0001a0 1e cb 1b 3e 01 51 3b 3b f5 0a d3 3a f0 fc 00 ba
       0.15214202 0.0028582218 0.0016101288 -0.0004920503
0001b0 da 52 f5 3c cb 7e ba 3c 47 c9 30 bd c6 7b 66 3d
       0.029946733 0.022765538 -0.043160703 0.056270383
0001c0 ba 58 13 3e 06 e8 1f 3e 66 8b 5b 3e 2d b6 54 3d
       0.14389315 0.15615854 0.21439895 0.05193155
0001d0 00 b4 c9 b7 23 d3 d1 bc 11 cb d0 3c e6 ff a0 3c
       -2.4044886e-05 -0.025613373 0.025487455 0.019653272
0001e0 6c 61 af bc f7 25 d6 bc dc e5 17 3e 6e cf c2 bb
       -0.021408759 -0.02614115 0.14833778 -0.0059451377
0001f0 2b df 0b 3e 81 6b 4c 3e a3 75 ca 3d 42 bd c9 3d
       0.1365935 0.19962884 0.09885719 0.09850551
000200 6a e8 02 bc 93 50 26 3d 49 aa 9e bb 00 d2 72 3b
       -0.007989982 0.040604185 -0.004842077 0.003705144
000210 4e dc 01 bc e8 a2 52 3a 1e ce b4 3d f6 4e bd 3c
       -0.00792606 0.0008035139 0.08828376 0.02310894
000220 45 77 1a 3d fe e2 0e bb 2b 56 86 3d dd 11 02 3e
       0.0377114 -0.0021802778 0.06559404 0.12702127
000230 b6 21 76 3d 12 49 19 bb a4 49 ca 3d 3d 80 4a bc
       0.060090743 -0.00233895 0.09877327 -0.012359676
000240 b6 95 bc 3b e6 06 9e 3b 2b 9d 86 3b 72 52 8d 3d
       0.0057551516 0.0048225997 0.0041080914 0.06900491
000250 a8 b7 ab 3b 72 b3 1f bc a6 b3 36 3c 46 29 46 bc
       0.0052403994 -0.009747373 0.01115123 -0.012094801
000260 dd 55 80 bc 59 85 8d bb 0a f8 06 3e bc 52 50 3b
       -0.015665943 -0.004318875 0.13180557 0.0031787595
000270 68 7f 9b 3b e2 26 5a 3d 88 6b 23 3d f5 4f c7 bb
       0.0047454126 0.053259738 0.03989747 -0.0060825297
000280 66 17 6b bd 61 41 2e 3d 66 e6 0a 3c e9 65 3a 3d
       -0.05739536 0.04254282 0.008477783 0.045507345
000290 4d 3c 35 3d c4 67 21 3b c2 41 44 bc da b6 cf bb
       0.04424696 0.00246285 -0.0119785685 -0.0063389363
0002a0 00 54 c4 3d 40 14 08 3b 0f 4c 3c 3d bc 77 ba 3b
       0.09586334 0.0020764023 0.045970973 0.005690543
0002b0 3d 6b c2 bc a1 a2 11 3d 25 6b 63 bc c7 ee 63 3d
       -0.023732776 0.035555486 -0.013880526 0.055647638
0002c0 44 97 3d 3e 5d e7 10 3e 43 02 eb 3d cf d0 4c 3d
       0.18514735 0.14150758 0.11475041 0.050003823
0002d0 04 a2 46 bb b7 8f c4 bc 15 9e a0 3c 11 9c ec 3c
       -0.0030308971 -0.02399431 0.01960663 0.028883012
0002e0 b6 b0 08 3b 77 90 7e bc a2 de cd 3d ec 4f b3 bc
       0.002085728 -0.015537373 0.100522295 -0.021888696
0002f0 ae 64 07 3e e5 55 2d 3e 80 92 27 3d 06 ce 30 3d
       0.13222 0.16927297 0.040911198 0.04316523
000300 fe 9c b4 3b 1e ba b0 3c 8e e5 ca 3b b4 d0 da bb
       0.005511879 0.021573123 0.006191916 -0.0066777114
000310 5c c3 cd 3b 37 40 c3 bb 03 b0 7f 3e 6d 07 e7 3c
       0.006279392 -0.0059585827 0.24969487 0.028201783
000320 3b 54 ab 3e 08 2f 5f 3b 00 4f d0 3c 2f 0d 1b 3e
       0.334627 0.0034055132 0.025428295 0.15141748
000330 c4 93 48 3d f6 24 06 3c 6f cf 38 3e 29 ff b6 3a
       0.048969045 0.008187523 0.1804788 0.0013961542
000340 16 69 c6 3a 88 71 e1 3b 42 fa 08 b9 5d bf 99 3d
       0.0015137519 0.006879989 -0.00013063199 0.07507203
000350 c9 74 18 bc 84 55 06 bc f0 51 b3 bb ac b6 15 3d
       -0.0093051875 -0.008199099 -0.005472414 0.036551163
000360 32 68 8d bc a0 e0 72 3a 2a 77 e9 3d 88 a0 0e 3c
       -0.017261598 0.0009265039 0.11399682 0.008705266
000370 e4 58 fb 3b 64 70 d3 3d 5b 1b d4 3c c9 2e 21 bc
       0.0076705087 0.10324171 0.02589195 -0.009837815
000380 0c 85 3c bd 38 c4 9f 3c ca 83 15 3c 89 52 ee 3c
       -0.04602532 0.019502744 0.009125659 0.02909209
000390 43 ac 61 3d 50 24 c7 3b 1e d5 8b bc e0 c6 79 ba
       0.055095922 0.006077327 -0.017069396 -0.0009528231
0003a0 7e fe 31 3e 18 35 cf 3b bf 9a 85 bd 1a b2 01 bc
       0.17382237 0.006323468 -0.06523656 -0.007915998
0003b0 50 28 ad bb 42 8a bd 3c 31 bb 05 bd ca f2 27 3d
       -0.0052843466 0.023137216 -0.032649223 0.041003026
0003c0 57 4b e5 3c 5c 55 10 3e cd 2e 75 3c 5e 01 85 3c
       0.027990026 0.14095062 0.014964771 0.016236003
0003d0 14 2a 96 3b 82 c1 92 bc ad 30 3e bd e6 78 93 3d
       0.004582653 -0.017914537 -0.04643314 0.07200794
0003e0 3e f8 0f bc f7 6c 05 bd 26 a1 ce 3d f3 70 0b bc
       -0.008787213 -0.03257462 0.100893304 -0.008510816
0003f0 e4 90 6d 3e bf 9c be 3d 3c d6 2c 3d 9c 33 96 3e
       0.23199803 0.09307241 0.042196497 0.2933625

body.4.bias f4 [4]
000000 25 11 37 3e bb 22 0c 3e 3b 46 c2 3d 3d d8 c5 3e
       0.17877634 0.13685124 0.09486052 0.3864154

body.0.weight f4 [64, 5]
000000 12 6e 8d 3e b0 37 47 3d d4 d3 a1 3e 40 2d 3f be
       0.2762304 0.048637092 0.31606925 -0.18669605
000010 a4 5d f7 bd 75 d7 5d be b4 69 8d 3e 10 75 71 3e
       -0.120784074 -0.21664222 0.27619708 0.23579812
000020 93 9e a2 be 7f 8e 7d be f0 de 2c 3f b8 93 1f 3f
       -0.31761608 -0.24761389 0.67527676 0.62334776
000030 ac 35 fe bd 08 35 9e 3d f6 73 48 3f d2 98 10 3e
       -0.12412581 0.07724959 0.7830194 0.14120796
000040 55 bc ad 3e 81 93 82 3e 96 a7 c9 3a c4 71 8d 3e
       0.33932748 0.25503162 0.0015385028 0.2762586
000050 57 b9 68 bf c7 99 1b bf be eb 29 3f 64 b8 51 3e
       -0.90907806 -0.6078152 0.6637534 0.20480496
000060 e6 f1 9f be 90 1e b7 3d 67 97 dc 3c d4 55 db 3e
       -0.3123924 0.08941376 0.026927663 0.4283892
000070 56 7c c1 ba d4 9d 03 3f ce 8b 18 3f 15 da 87 3f
       -0.0014761786 0.514127 0.59588325 1.0613428
000080 02 c5 db be f1 84 29 3e 19 5a 5a 3f 57 8e 6a bf
       -0.42923743 0.1655462 0.8529373 -0.91623443
000090 ba ee cb be 4f ca 25 3e d4 bf 85 3e 4f 1a 1c bf
       -0.3983057 0.16190456 0.26122916 -0.60977644
0000a0 d9 7e 4d bf 8f 9d d9 be 9d 5a c1 3e 20 b5 53 3e
       -0.8027168 -0.4250302 0.37764445 0.20674562
0000b0 58 d4 be be 40 42 0e be 98 c7 99 3e dc a3 90 bd
       -0.3727138 -0.1389246 0.3003509 -0.07062504
0000c0 c0 67 67 bc c2 93 81 be 74 93 74 bf 08 43 27 bf
       -0.014123857 -0.25308043 -0.95537496 -0.65336657
0000d0 f3 60 e6 3e 3d e0 2c 3e 8a fc eb be d6 43 b3 be
       0.4499584 0.16882415 -0.4609111 -0.35012692
0000e0 ae 73 17 bf b1 64 40 3f ea 9d 30 3e e7 77 e6 be
       -0.5916089 0.7515364 0.1724774 -0.45013353
0000f0 9b 7e 17 3f 97 36 af 3e e6 6f af bd 31 d8 88 bd
       0.5917756 0.34221336 -0.08566265 -0.0668186
000100 de 51 cd 3e da e3 af 3e 60 54 85 bc c0 c2 25 3e
       0.40101522 0.34353524 -0.016275585 0.16187572
000110 d8 ba c2 be 65 f9 80 be fa ef 47 3f 90 08 40 3f
       -0.38033175 -0.25190273 0.7810055 0.75013065
000120 27 b8 83 be 09 e0 81 3b ff c0 3b 3f ed b5 41 3f
       -0.25726435 0.0039634746 0.73341364 0.7566822
000130 f9 7e b7 3e 6e 92 0d 3d b9 90 b4 3e 77 e6 45 3f
       0.3583906 0.034563474 0.35266665 0.77304786
000140 93 90 8a be 53 92 11 bf 1c 55 1f 3f d2 7a c4 3e
       -0.27063426 -0.568639 0.6223924 0.38374954
000150 10 4f a7 be 77 4b 4a 3f af fb 07 3f 68 01 12 bc
       -0.32677507 0.790214 0.53118414 -0.008911468
000160 ae 2d 30 3e 3f 28 91 3e 7b fa bc 3e 28 58 02 3f
       0.17204925 0.28351018 0.3690985 0.50915766
000170 d2 b4 04 bf b9 e4 8b 3d d2 84 26 3f 3a 57 99 be
       -0.5183841 0.06830735 0.6504642 -0.2994936
000180 15 f4 c3 be f3 af 01 3f 5b 20 5c be 64 b3 e2 3d
       -0.38272157 0.506591 -0.21496718 0.11069372
000190 75 f7 ed be 3e 1d 7a 3e cf 33 43 3e a7 67 e3 3d
       -0.46477857 0.24425218 0.19062732 0.111037545
0001a0 2a dd 34 3e 42 3f bd be 4e a2 34 bf 6c 14 0d 3f
       0.17662492 -0.36962324 -0.7056016 0.55109286
0001b0 06 ad 01 3f 13 d9 d3 be 74 d1 35 3f 37 0a f4 3e
       0.5065464 -0.41376552 0.71022725 0.47664043
0001c0 3d 2a 19 bf 84 ca 86 3e 76 ce ec 3e 5b 40 41 3f
       -0.59830076 0.26326382 0.46251267 0.75488824
0001d0 85 d3 8c 3f fb f4 3b bf 03 48 b6 3d 2a 6a 91 3e
       1.1002051 -0.73420686 0.08900454 0.2840131
0001e0 b8 29 79 3e 2a b6 85 be 10 12 2b bd 87 15 9c be
       0.2433232 -0.26115543 -0.041765273 -0.30485174
0001f0 00 6c ff bd 0e f0 c8 3e 68 4d 30 3e 18 b9 a7 be
       -0.12471771 0.39245647 0.17217028 -0.32758403
000200 ba 60 8a be c4 a8 ab be dc 0b 15 be 32 8e 91 be
       -0.27026922 -0.33527195 -0.14555305 -0.284288
000210 a8 d1 23 3e 4b 50 6f be c2 bd 10 be 5e c3 13 3f
       0.15997946 -0.23370473 -0.14134887 0.5771998
000220 06 95 90 3f c4 76 11 be ed f8 ca 3e 0a f8 84 3d
       1.1295478 -0.14205462 0.3964304 0.06492622
000230 a7 e7 8b be 2b e7 96 be 37 40 0c 3f 2e 41 d6 3b
       -0.27325174 -0.29473242 0.54785484 0.0065385317
000240 f2 69 ea 3e 6a 35 5b 3f b2 1c 03 3f 93 00 81 be
       0.45783955 0.8562838 0.5121566 -0.2519575
000250 db e1 f0 bc 2c f9 12 3f 80 2d 08 be 9e fc a2 be
       -0.029404571 0.57411456 -0.13298607 -0.31833357
000260 0b b5 b6 be 40 dd 82 bd 0c 99 7e be 3a 60 f8 3e
       -0.35685 -0.06389856 -0.2486307 0.48510915
000270 df 9f 28 3f c8 f1 14 bf 8a 0d d5 3d c9 31 09 3f
       0.65868944 -0.5818143 0.10402973 0.5359159
000280 5f 69 6b 3f c7 d6 8d 3f 02 36 bc be a3 43 77 3d
       0.9195766 1.108117 -0.36759955 0.060367238
000290 8f a9 85 3e db 65 e3 3c 8c c2 02 3f 07 80 c2 3e
       0.26105925 0.02775853 0.51078105 0.37988302
0002a0 26 a4 e8 ba f9 93 9d 3e 4e 59 28 3e 1e af 2b 3f
       -0.0017749115 0.30776957 0.16440317 0.6706408
0002b0 9c 55 fc be f7 4a cb bc f8 c9 01 3e 55 87 85 3e
       -0.49284065 -0.02481602 0.12674701 0.26079813
0002c0 00 cc 47 3f e2 2e c1 3e 55 40 12 bd e9 4a da 3e
       0.78045654 0.3773108 -0.035705883 0.42635277
0002d0 0b 32 07 bf 0d 4c f7 3d fe 84 ea 3e e5 c0 aa 3e
       -0.52810735 0.120750524 0.4580459 0.33350292
0002e0 4b cd f9 be 18 1c 8a be 64 fe 40 3e 83 76 55 be
       -0.4878944 -0.2697456 0.18847042 -0.2084599
0002f0 5c 23 c4 bd a2 91 ac be f5 55 89 3e 45 4c 2d be
       -0.09577057 -0.3370486 0.26823393 -0.16923626
000300 26 9d 9c be 6c b4 2d be 8c 71 3d 3b 81 9f 8a 3f
       -0.30588645 -0.16963357 0.002890679 1.0829927
000310 1e 8e b4 3e ca 71 1b bf c8 63 69 3c c4 6c 13 3e
       0.35264677 -0.60720503 0.014244981 0.1439696
000320 e6 65 8c 3f 4c 50 90 3f d5 40 1f 3c 81 c8 85 3e
       1.0968597 1.1274505 0.009720047 0.26129535
000330 da 65 b4 3e 5b 12 5b bf 44 f8 59 bf a1 75 02 bd
       0.35233957 -0.85574883 -0.8514445 -0.03185046
000340 ef 12 c4 3e e7 6f de be 02 e2 b9 3e 9d 3f 1a be
       0.38295695 -0.4344475 0.36305243 -0.15063329
000350 82 22 80 3e df fb c1 be f7 70 56 3e cc 4f 4a bf
       0.25026327 -0.37887475 0.2094153 -0.7902801
000360 22 97 f2 be 95 39 37 3f 64 a9 1b 3e 46 b9 d2 bd
       -0.4738093 0.7157224 0.15201336 -0.10289244
000370 94 88 de 3e 25 c0 72 be c6 b1 8f 3e 7a 0f 0d be
       0.43463576 -0.2370611 0.28065318 -0.13775435
000380 60 63 93 be 79 fa 05 3f 87 f1 d8 3d f8 44 fd be
       -0.28786755 0.52335316 0.10592943 -0.4946668
000390 10 31 91 bd 0b 60 14 3f dd a5 59 3f 95 54 42 3f
       -0.07089436 0.5795905 0.8501871 0.7591031
0003a0 77 32 f7 3d 6a 4a b3 bc 3a b2 15 3f cd 9b c9 be
       0.12070172 -0.02188607 0.5847508 -0.3937668
0003b0 4a ad a2 3e 84 6f 10 3e 09 53 a8 be 72 4a 3c be
       0.31772834 0.1410504 -0.3287585 -0.18387774
0003c0 c3 0d f2 bb 96 7c 9f be 1b 52 f9 bd cb 91 b9 bd
       -0.0073868944 -0.3114974 -0.121738635 -0.09061011
0003d0 d7 27 ff bd a9 94 8a 3f 28 e8 67 3f 34 c4 13 bd
       -0.12458771 1.0826617 0.9058862 -0.036075786
0003e0 78 51 e3 3e 6b e7 2f 3f a1 38 1e 3f 98 22 90 3e
       0.44398093 0.6871249 0.6180516 0.28151393
0003f0 f9 ea 47 bf 66 12 db 3e 6c 49 3d 3f 9b 54 ba be
       -0.78092915 0.42787474 0.7394016 -0.36392674

body.0.bias f4 [64]
000000 04 86 04 be 42 c4 ca be 69 78 28 3f 4d 32 1b 3f
       -0.12941748 -0.39602858 0.6580873 0.6062363
000010 b6 b8 17 bf 87 33 46 bc c9 c3 8c 3c a5 1b 11 bf
       -0.5926622 -0.012097246 0.017183201 -0.5668281
000020 8f 46 1a bf 8d ff 93 be 35 b1 51 be dc ae 12 bf
       -0.60263914 -0.28905907 -0.20477755 -0.57298064
000030 5f a7 1e 3f 16 ea a5 3e f4 48 23 3f 6d ff 04 3f
       0.6197414 0.32405156 0.6378319 0.5195225
000040 64 df 87 be 4f 3f 1a be b5 ac 3c 3f 0d 8e 80 3e
       -0.2653762 -0.15063213 0.7370103 0.25108376
000050 07 aa 0b bf c4 dc 8f be 7b 4b 91 3e a2 ed 17 3e
       -0.54556316 -0.28098118 0.283779 0.14836743
000060 90 44 6d bd e0 49 28 3e f0 e3 c5 3c c1 27 06 3f
       -0.057926714 0.16434431 0.02415654 0.5240441
000070 ae a6 e3 bd 53 46 bf 3c af 5a 6c be 37 03 9b bd
       -0.11115776 0.023348963 -0.23081468 -0.075689726
000080 72 d4 d2 3e f4 87 2c 3f 5c 19 1e 3f 44 86 45 3f
       0.41177708 0.6739495 0.61757445 0.77158
000090 7f 75 f5 be b8 a3 5c 3e 07 7e ae be 2d 39 0c 3f
       -0.47941205 0.21546829 -0.34080526 0.54774743
0000a0 90 32 09 3f 61 51 02 bf 47 96 a8 3e ff 76 ba be
       0.5359278 -0.50905424 0.32927153 -0.36418912
0000b0 6d 5b dd be 02 12 21 3f d2 84 65 3f 50 12 e4 3d
       -0.43233815 0.629181 0.8965579 0.11136305
0000c0 90 22 c8 3e 9b ec b1 3e 20 46 4b bc f8 36 75 3e
       0.3908887 0.34750828 -0.012406856 0.2394675
0000d0 ac 05 ae 3e d6 32 99 3e d8 25 72 bd e4 1b 35 3f
       0.33988702 0.29921597 -0.05911812 0.7074568
0000e0 6b e2 12 3e 8d 1e db 3e 03 83 1b 3f cf 00 df ba
       0.14344184 0.42796746 0.60746783 -0.0017013791
0000f0 d5 52 19 3f b3 ff 29 be 56 f3 68 3c f0 46 ae 3e
       0.59892017 -0.16601448 0.014218172 0.34038496

body.2.weight f4 [64, 64]
000000 3e 7c 8f bd 12 e1 c0 3d 40 db 9b bb a8 e6 9f bc
       -0.07006119 0.09417929 -0.0047563612 -0.019519165
000010 84 b3 4d bd 34 31 e2 bd 80 79 b0 3d f2 16 85 3d
       -0.050220028 -0.11044541 0.08616924 0.06498517
000020 40 bc 3a 3d c8 36 31 bd 94 36 c7 bd 40 40 95 bd
       0.045589685 -0.043265134 -0.09727207 -0.07287645
000030 c4 98 21 3d d0 11 52 bd e8 4e 33 bd e0 07 c7 bd
       0.03945233 -0.05128652 -0.043776423 -0.09718299
000040 14 86 bc bd 26 71 bc bd fa ad 96 3d 28 ec 9d bc
       -0.09205261 -0.09201269 0.07357402 -0.019277647
000050 58 64 a3 bc c2 1c d5 bd b8 5f 94 bc 54 7b 92 3d
       -0.019945309 -0.10405876 -0.018112049 0.07152429
000060 88 0e db bc b4 6f 2f bd f6 7c 8f bd 36 a4 da 3d
       -0.026740327 -0.042831138 -0.07006256 0.10675852
000070 b0 17 57 3d 90 d4 8e 3d 54 21 7e 3d 5c 42 72 3d
       0.052512825 0.06974137 0.062043503 0.059145316
000080 6c f4 2f bd 44 56 1d 3d 00 22 2d bc 50 59 35 bc
       -0.04295771 0.038412347 -0.010567188 -0.011068657
000090 20 49 c0 3c e8 13 b3 bd d0 70 ce bc ac 10 23 bd
       0.023472369 -0.08744031 -0.025200278 -0.03981082
0000a0 48 ff 21 3d b8 0c d6 3d f4 d8 8d 3d 80 c1 56 3d
       0.039550096 0.10451645 0.06926146 0.05243063
0000b0 ce ce 9e 3d 14 c0 56 bd 48 3e b1 3d 42 a8 c2 3d
       0.077542886 -0.052429274 0.08654457 0.09504749
0000c0 00 b6 32 3b fe 6c b4 bd e6 0c de bd f8 b2 31 bd
       0.0027269125 -0.08809851 -0.10842304 -0.04338357
0000d0 aa b0 b4 bd 70 12 90 bd da f4 f6 3d d2 2f ad 3d
       -0.088227585 -0.07034767 0.120584205 0.084563866
0000e0 d2 a5 af bd 52 10 9a 3d e0 c9 8b bc a8 9b 89 3d
       -0.085765496 0.07522644 -0.017064035 0.06719142
0000f0 06 9a 91 bd 16 e1 c3 3d ee 6b dc bd c0 3f e9 bc
       -0.07109456 0.09564416 -0.107627735 -0.028472781
000100 48 73 f9 bd 68 ed 31 bd 98 1f ae bd aa 3a d7 bd
       -0.12180191 -0.0434393 -0.0850212 -0.10509236
000110 b6 2e aa bd a8 53 82 3d 78 83 91 bc 60 df 0e 3d
       -0.08309691 0.063636124 -0.017762884 0.034880996
000120 7a f2 99 bd 22 6f c8 3d 44 44 8f bd 44 c8 c0 3d
       -0.07516952 0.09786822 -0.069954425 0.09413198
000130 ae e1 96 3d 28 8a 8e 3c 08 22 ce 3c 62 2d a9 bd
       0.07367264 0.017399862 0.025162712 -0.08260609
000140 b4 bc 5e bd 6c 45 e9 bd bc 1b c3 bd 54 1d 04 bd
       -0.05437918 -0.11390194 -0.09526774 -0.032254532
000150 b4 e6 d2 3d 6e 2f e4 3d e8 bf b4 3c 7c 8c e1 bd
       0.102979094 0.11141859 0.022064164 -0.110131234
000160 78 7a 9d 3c 44 35 c9 3d 00 7c 33 b9 00 d4 30 bb
       0.019223437 0.09824613 -0.00017116964 -0.002698183
000170 50 5a ab 3c f0 61 66 bd 8c 02 34 bd 68 36 cc 3c
       0.020917088 -0.056245744 -0.04394774 0.024928287
000180 16 2b c3 bd c0 25 01 bc f2 f0 9d bd dc 38 62 bd
       -0.09529702 -0.007882535 -0.07711972 -0.055230007
000190 f0 3b 51 bd 6c 6e e1 3d a0 e1 3e bd c0 07 f7 3c
       -0.05108255 0.110073894 -0.04660189 0.030155063
0001a0 a8 aa f0 bd 94 88 cd 3d 10 8a ea 3d e6 b7 c6 3d
       -0.117513 0.10035816 0.114521146 0.097030446
0001b0 56 14 99 bd 44 72 44 bd 88 2d ff bd d8 70 34 3d
       -0.07474582 -0.047960535 -0.12459856 0.04405293
0001c0 34 3f e6 bd f8 9f d2 3d b8 d7 e3 bd 40 0f cd bb
       -0.11242524 0.10284418 -0.111251295 -0.0062579215
0001d0 00 7a 5a bd c0 c8 ee 3d 74 8e fd bd 70 97 00 3c
       -0.053339005 0.11659384 -0.123806864 0.0078486055
0001e0 38 5f ed bd d0 c9 3c bd 00 59 3c ba fc 28 7e 3d
       -0.11590427 -0.0460909 -0.0007184893 0.062050804
0001f0 88 62 e8 bd 2c 05 5c 3d 7a d5 df bd 86 d6 ed bd
       -0.11346918 0.05371587 -0.10929389 -0.11613183
000200 a8 15 10 bd 30 9e 97 bc 20 f3 c5 3d cc 61 c7 3e
       -0.035176903 -0.018508047 0.09665513 0.389418
000210 f3 47 2f 3e 46 57 a9 3e 0a 65 5e bd 57 cf 54 bd
       0.1711729 0.33074397 -0.054295577 -0.051955547
000220 5d 50 1e 3d 24 89 76 bd 94 5e 90 3d c6 e4 8c bc
       0.03865086 -0.06018938 0.07049289 -0.017198931
000230 e4 cd 74 3e 6c 9d 00 bd fb c8 a3 3d 0c e9 bf bb
       0.23906666 -0.03140013 0.07997318 -0.005856639
000240 a6 bc 9d bc d8 1c e7 3d dc 9e 94 3d 12 5e db 3d
       -0.019254994 0.112847984 0.072568625 0.10711302
000250 24 40 1e 3d d7 fd 33 3d e2 e5 f8 3d c2 d0 73 3d
       0.038635388 0.043943252 0.12153222 0.05952526
000260 34 ca 1b 3d 78 f0 67 bd ee 06 80 3d 94 82 14 b9
       0.038034633 -0.056625813 0.06251322 -0.00014163024
000270 73 90 aa 3d 24 2f 61 3e bc 14 4f bd 43 27 a7 3c
       0.08328333 0.21990639 -0.050556883 0.020404464
000280 8c 8a af 3d 9e df bb 3e 16 85 da 3e f4 f4 03 3f
       0.085713476 0.36694044 0.42679662 0.51545644
000290 3c 3f 99 bd 80 a9 13 bc e9 21 ee bc 79 b5 27 bd
       -0.07482764 -0.00901258 -0.029068904 -0.04094455
0002a0 40 b1 bc 3d 81 1a ee bd f8 b1 ac 3d 8c 18 0c 3e
       0.09213495 -0.11626149 0.08432382 0.13681239
0002b0 0c 0e b5 3d ac 57 bc 3e 38 b0 05 3f 78 77 50 bd
       0.0884057 0.36785638 0.52222013 -0.050895184
0002c0 cd df de 3d 76 f5 6d bc 57 16 43 bd 30 37 1b 3d
       0.1088253 -0.0145238545 -0.047628727 0.037894428
0002d0 f1 68 ad 3d 71 19 b9 3e b4 b6 d9 3d f2 c5 75 bd
       0.084672816 0.36152223 0.10630551 -0.06000323
0002e0 c6 d9 69 bd 0b 36 c7 bd 73 30 ee bd fc 0c d2 bd
       -0.05709245 -0.09727105 -0.11630335 -0.10256383
0002f0 14 c8 c2 bb 9e 2d 4f 3e fe f1 39 3e 9a d1 e7 3d
       -0.0059442613 0.20232245 0.18158719 0.11319275
000300 b0 33 d2 bc 62 6c fd bd 10 47 d6 3c bc 82 0e 3d
       -0.025659412 -0.12374188 0.026156932 0.034792647
000310 30 7c ea bc 34 37 ef bd 40 6d ed bc 20 35 3b bc
       -0.02862367 -0.11680451 -0.028982759 -0.01142624
000320 96 67 bf 3d ec e4 a4 bd 9a 93 f3 3d 12 d0 9b 3d
       0.09345929 -0.08051476 0.11893387 0.07608046
000330 a6 97 b6 bd 30 9b bf 3c 6c 96 c8 bd f4 cd d7 bd
       -0.089156434 0.023389429 -0.09794316 -0.10537329
000340 84 3c 53 bd a8 e6 90 bd f8 b1 8c bc 68 ca 63 3d
       -0.051571384 -0.07075244 -0.017174706 0.05561295
000350 e0 c3 bc bc 94 06 f3 3d cc 55 33 3d 80 00 ab bd
       -0.02304262 0.11866489 0.043782994 -0.08349705
000360 0e 18 e3 bd 20 d6 11 bd 90 92 7b 3c 34 72 dd 3d
       -0.110885724 -0.035604596 0.015354767 0.10812798
000370 1c 96 6a bd 86 ab e9 bd 80 98 80 3c 94 dd 6b bd
       -0.05727206 -0.114096686 0.015697718 -0.05758436
000380 ca fa 8f bd 7c 07 ef bd 4e 7c a9 3d c0 6e ff bd
       -0.07030256 -0.116713494 0.08275662 -0.12472296
000390 4e 2b e7 bd 20 bf 12 3c 80 0e e4 3c 18 28 83 bd
       -0.112875566 0.008956701 0.027838945 -0.06404132
0003a0 16 25 ec 3d 4e 00 c3 bd c4 63 c9 bd cc 79 32 bd
       0.11530511 -0.095215425 -0.09833482 -0.043573186
0003b0 7c af f0 bd ce 29 d3 3d 80 b2 1a bc 6e f5 91 3d
       -0.11752221 0.10310708 -0.009441972 0.0712689
0003c0 08 3c f5 bd 08 12 71 bd fc 65 1d bd b8 d0 a8 3d
       -0.11974341 -0.058855087 -0.038427338 0.08242935
0003d0 ae 3d ec 3d cc 63 af bd 52 73 91 3d 08 fc 90 bc
       0.11535202 -0.085639566 0.07102074 -0.017698303
0003e0 c0 83 01 3b 38 69 60 3d 30 ff ca 3c 74 1e 0a 3d
       0.0019762367 0.054787844 0.024779886 0.03372045
0003f0 dc f1 b2 bd 40 98 6d bb 52 5f a5 bd 82 b2 e2 bd
       -0.08737537 -0.0036254078 -0.080748215 -0.11069204

body.2.bias f4 [64]
000000 40 e0 04 3b cc 2a 50 3d 5f ce 9d 3d 2c 52 e6 bd
       0.0020275265 0.050822064 0.07705378 -0.11246142
000010 54 75 90 3e 00 24 88 3d dd 48 89 3d 04 6b 23 3d
       0.28214514 0.066474915 0.06703351 0.03989698
000020 04 0d 72 3e 38 22 99 3e 1d bb ae 3e be 62 ec 3d
       0.23637778 0.2990892 0.3412713 0.11542271
000030 9f e7 a0 3d b8 a1 c6 3c 8e db b2 bd 86 13 50 3c
       0.07856678 0.024247035 -0.08733283 0.012699967
000040 ff 72 da bc bf f2 90 3d f0 5d fe 3e 14 a3 87 bd
       -0.026666163 0.0707755 0.49681044 -0.066229016
000050 90 50 bd bd 1f c8 ea 3e a4 4b 61 3e 86 db d8 3e
       -0.09243882 0.45855805 0.22001511 0.42354983
000060 ff ac b4 be 2e 9c af 3e 11 ae c1 3d 90 a6 4b 3d
       -0.35288236 0.34298843 0.09457029 0.049719393
000070 ff 37 4a 3b 10 f9 9f 3d eb e5 03 3e 70 b4 96 3e
       0.003085613 0.07811177 0.12880675 0.29434538
000080 2e fb 46 bd 8f b9 d5 bc a9 cf ff 3e 68 40 46 3d
       -0.048579387 -0.026089458 0.4996312 0.048401266
000090 24 64 f5 3e e0 46 65 3c fa cc b8 bd c7 67 bc 3e
       0.47927964 0.013993949 -0.09023471 0.36797926
0000a0 2b a3 9c 3e 10 77 c9 3e 7e f6 bc 3d 24 18 46 bd
       0.30593237 0.3934865 0.09226702 -0.048362866
0000b0 40 43 85 3e dc 1b ca be 76 a0 a3 3e c8 e6 05 3d
       0.2602787 -0.3947438 0.3195836 0.032690793
0000c0 e8 88 c1 bd 80 aa 2e 3d 54 73 03 bd 6b c3 c1 3d
       -0.09449941 0.04264307 -0.032092407 0.09461101
0000d0 74 ef ac bd c0 9e 64 3d 22 6d ef 3d 0c f6 f5 3a
       -0.084441096 0.05581546 0.11690737 0.0018765344
0000e0 64 23 b8 3d 22 9f 94 bd 77 95 60 bd 38 49 ad 3e
       0.08991125 -0.07256915 -0.05483004 0.33844924
0000f0 0e e1 8f 3d fa b9 8f be d6 b5 2c 3d 40 71 bc 3c
       0.07025348 -0.28071576 0.0421656 0.02300322

body.4.weight f4 [1, 64]
000000 46 fd f4 bd ba 6a a2 bd 99 a7 87 3e 00 71 df bc
       -0.119623706 -0.07930513 0.26495054 -0.027275562
000010 ef b2 3a be f8 ed ee 3c bd 5a ed 3c aa 20 bc 3c
       -0.1823232 0.029166207 0.028973931 0.022964794
000020 29 0e 6a be 1e b8 8a be ca 8e 93 be 8f 91 5c 3c
       -0.22856964 -0.27093595 -0.28819877 0.013462438
000030 55 50 de 3d f0 97 d2 bd 85 a6 14 3c 17 e7 2b 3e
       0.10855166 -0.10282886 0.0090729045 0.16787373
000040 ee 06 27 bc c2 9c 42 bd 7c 42 7f be 38 b0 45 3e
       -0.010194523 -0.047512777 -0.24927706 0.19305503
000050 ac 1d 5e 3d 9a 01 8e be 3a 12 8a be 32 ea 9b be
       0.054227516 -0.27735597 -0.2696703 -0.30452114
000060 e2 bb c5 3e 6e 3b a4 be 7d 58 20 bd a4 ce cc bd
       0.38619906 -0.3207659 -0.03914689 -0.10000351
000070 6c f3 d5 3d ee ba 81 bd 12 7e 89 3e a1 d0 6f be
       0.1044682 -0.06334482 0.26853997 -0.2341943
000080 5e 1c 2c 3e b2 87 c1 3e 9a 59 91 be 70 5d f0 bc
       0.16807696 0.3779884 -0.28388673 -0.02934143
000090 84 28 77 be ce fe f3 bd dc 0c d5 3d 02 72 91 be
       -0.24136549 -0.119138345 0.10402843 -0.28407294
0000a0 28 44 99 be d7 69 9d be 5c cd c1 3d 98 2c d9 3d
       -0.29934812 -0.30744812 0.09462997 0.10604209
0000b0 0c b6 4e be d9 03 b4 3e 84 f6 9e be 8a 73 cd bd
       -0.20186633 0.35159186 -0.31047451 -0.10031803
0000c0 f4 0b a4 3d 38 f1 05 bb 4f 48 c4 3d 4b a8 f2 3c
       0.080100924 -0.0020437967 0.09584104 0.029621264
0000d0 5a 2d 3a 3e e0 e0 31 3d 1b d8 c4 ba d5 51 51 3e
       0.18181363 0.043427348 -0.0015018018 0.20441373
0000e0 f3 93 8b 3e a0 f0 5f 3d 58 cd c2 bd 97 77 7e be
       0.27261314 0.054672837 -0.095118225 -0.24850307
0000f0 16 3b 82 3c 6a e0 a3 3e 9b 48 db 3a cc a2 19 3d
       0.015897315 0.32007152 0.0016730012 0.03750877
