ppo_model_final.pt (torch, 132483 bytes, 33 tensors)

net.0.weight f4 [64, 8]
00000000: dc32 983e a865 b7bd f440 58be d9d9 953e
00000010: d02d 423e bac0 7bbe 82bf 873e ab5b 953e
00000020: 71bb 813e 4109 9b3e 69ff 95bd 6d05 2dbe
00000030: 9818 603d f3ac a3be 843e 843e 4c10 10be
00000040: fdb3 a2be d734 783e 4377 0a3e be54 89be
00000050: ac12 f03d 139b a33e 6253 8bbe d3f9 9cbe
00000060: 6881 043e e233 36bd c4ad 39bd 5f0a fe3b
00000070: 4ccd 17be 8e18 bc3e dc34 b23e 3fb5 8f3e
00000080: 11d1 653e 5eeb 80be 15d6 ce3c cdaf 24bc
00000090: 857b 753e 1f0e 92bc 837b 2dbe 3602 753c
000000a0: 38c9 4a3e 91b9 89be 53eb 823e 7ab0 3fbe
000000b0: 5326 503e 95b5 f2bd 46f5 5cbd dedb 0c3e
000000c0: fc3b 51be f836 fa3d 0ab8 1ebd 716e 543e
000000d0: 53f1 2b3e df95 d63d 7f3c 98be ec3b 6abe
000000e0: 0c68 ffbd 2242 b43e dc09 483e 9d74 6d3e
000000f0: 5019 8abe b326 2cbc 8b2a 77be 19d7 1abe
00000100: 7cac b53d 8942 b43e 7cf6 acbe f0a0 a0be
00000110: ddd1 2bbe c995 31be 5ed3 503e 4853 b5bd
00000120: b493 a63d 89c6 823e dc70 92bd 5aa6 12be
00000130: e051 86bd 520c 7abe 3c14 9fbe 1cb4 a13d
00000140: 758a 65be d2e3 babe fb02 0bbe 9481 93be
00000150: 9b30 2ebe bce7 8c3e 1831 37be cb7f 273e
00000160: e917 73be 814b babe 2aaf ca3c bff9 943e
00000170: 481e 5b3e 1e0d efbd f531 b7be 1b30 b7be
00000180: 36b9 73bd 4e45 a4be 60d9 57ba 06e3 83be
00000190: 095a de3d 3e94 94be f98d 8a3e e3c2 943e
000001a0: f95f 063d a17b 6c3e 8d76 96bc 636b 863e
000001b0: 0a38 f139 33eb 823d 6d64 b93e 5482 933e
000001c0: 9711 b6bc 86c6 0cbe 08f3 0d3e 522e 843d
000001d0: c5bc 323e 1107 1b3e 0977 60be abe6 a9be
000001e0: cb07 29be 090a 263e 195a 0d3e 6152 3f3d
000001f0: 03d8 db3d 83f8 dd3b 2d56 a9be 3557 953e
00000200: 3502 913e 573a 923e 4ca1 1cbe d42a 3fbe
00000210: b803 d6bd 3fa9 993e 88ba 55be d8b2 663d
00000220: 75da c6bd 705c b03d d64e 893e 7359 9f3e
00000230: d5a1 6bbc 41eb 283e 2aec 883e e5e2 df3c
00000240: d03f 49be 5537 7fbe fd05 553e 489f 1e3e
00000250: e891 273d d6af b9bd b1c7 aabe d960 21be
00000260: 7897 0fbd a054 3c3c da3c 5a3e 4855 a9be
00000270: 7b96 11be 3050 a03c 3a93 633e d3d7 02be
00000280: 45ab 89be 84d4 d1bd bbbd 363d 8951 93bd
00000290: 491b 3a3e 0c9e a4be fd40 73bd 897c 9f3e
000002a0: 8ce2 c13d 82fc 1c3e 4f55 8c3e 787e 40be
000002b0: d984 9ebe 5c13 a0bd 48e1 2abe 3701 91be
000002c0: fc63 8fbe 1ba9 78b9 4121 e5bd fe11 163e
000002d0: 2f7e 7a3e 1da1 a3be ba4c 30be 5c0f 06be
000002e0: add7 a63e e076 1f3c 9627 85be d267 01be
000002f0: d3a1 7bbe b003 15bd 3fd6 a1be a82b 49be
00000300: b57d 843d cc6d b1be 1b6f ffbd f6f7 8abe
00000310: a087 13be 4375 a53e a74d 51bd dbc7 153e
00000320: dcae 963e 4d40 9b3d 52fd e0bc ead8 ca3d
00000330: 6fa9 933e 9c95 2e3e 0d3c a23d 35bc 6a3e
00000340: 5285 abbe c580 8bbe 1a76 553e 9d1c 99be
00000350: ed69 19be f25b 5e3e 0467 42be ad77 05be
00000360: f98e 92bc bf09 77bd f945 a03e 71b1 c7bc
00000370: 1432 393d 5824 4ebd b3ba dd3e 318a ac3d
00000380: f2a0 5abe 98e4 963e c19b 56be 917f 953d
00000390: a387 e4bd 1086 9d3e 8853 77bc f9bc 0abc
000003a0: 47c6 b4be c009 5d3c c4d5 d73d 7206 edbd
000003b0: c7cc 9ebe 126b 57be 52f7 b4be 4879 a23d
000003c0: c9f6 40be d3ef db3d a06b 3dbd 4025 92be
000003d0: dab7 3fbd 8586 afbe bbbe 4f3d aefb 53bc
000003e0: 13be 233d 2c18 0ebe 051c 9e3e 80e4 33be
000003f0: 49e0 863e f3f1 763e 2443 6e3e cdde b1bd
0.29726303 -0.08954936 -0.21118528 0.29267767 0.18962789 -0.24585238 0.26513296 0.291715
0.2533832 0.30280498 -0.07324106 -0.16896601 0.054710954 -0.31967887 0.25828946 -0.14068717
-0.31777945 0.24238907 0.13522057 -0.26822466 0.117223114 0.3195425 -0.27212054 -0.3065935
0.1293999 -0.044483073 -0.04533173 0.007752701 -0.14824408 0.36737484 0.34805954 0.28067967
0.22443034 -0.2517957 0.025248567 -0.01005168 0.239729 -0.017829 -0.16941647 0.01495414
0.19803321 -0.26899388 0.25570163 -0.18719664 0.2032712 -0.1185104 -0.05394485 0.13755748
-0.20433038 0.12217516 -0.038749732 0.20745255 0.16791277 0.104778044 -0.29733655 -0.22874421
-0.12471017 0.35206705 0.19535011 0.23189016 -0.26972437 -0.0105072735 -0.24137323 -0.15121116
0.088707894 0.35207012 -0.33781803 -0.31372786 -0.16779275 -0.17342295 0.2039313 -0.08853775
0.08133641 0.25542095 -0.071504325 -0.1432127 -0.06558585 -0.24418762 -0.31070125 0.07895681
-0.22416098 -0.36501938 -0.13575356 -0.28809798 -0.17010729 0.2752055 -0.17889822 0.16357343
-0.2373959 -0.3638573 0.024741728 0.2909679 0.2139827 -0.11672424 -0.35780302 -0.3577889
-0.059502803 -0.32084125 -0.00082339905 -0.25759143 0.108570166 -0.2901935 0.27061442 0.29054937
0.03280637 0.23094036 -0.018367076 0.26253805 0.00046008854 0.06392517 0.3620943 0.2881037
-0.022225184 -0.13747606 0.1386224 0.064541474 0.17454822 0.15139414 -0.21920408 -0.33183798
-0.16506879 0.16214766 0.13803901 0.046709422 0.1073456 0.0067740097 -0.3307356 0.29168096
0.28321996 0.28560135 -0.15295905 -0.18668681 -0.10449928 0.30011937 -0.20871937 0.056322902
-0.09709636 0.08611381 0.2681796 0.31122932 -0.0143818455 0.16495992 0.2674268 0.027329871
-0.19653249 -0.24923451 0.20803066 0.15490448 0.04091063 -0.09066741 -0.33355477 -0.157596
-0.03505656 0.011494786 0.21312276 -0.33072877 -0.1421756 0.019569486 0.22224131 -0.12777643
-0.2688848 -0.10245612 0.044614535 -0.07193286 0.18174471 -0.3215183 -0.05938815 0.311497
0.094670385 0.15330699 0.27408835 -0.18798244 -0.3096073 -0.078161925 -0.166875 -0.2832124
-0.2800597 -0.0002371412 -0.11187983 0.14655301 0.24462198 -0.31958857 -0.17216769 -0.13091797
0.32586423 0.009732932 -0.26006764 -0.1263726 -0.2457345 -0.03638047 -0.3160877 -0.1964556
0.06469289 -0.3465408 -0.124723636 -0.27142304 -0.14407206 0.32316026 -0.051099446 0.1462702
0.29430282 0.07580624 -0.027464543 0.09904654 0.28840205 0.17049259 0.0792161 0.22923358
-0.33500153 -0.2724668 0.20845833 -0.29904643 -0.14981814 0.21714762 -0.1898461 -0.13033934
-0.01789044 -0.06031203 0.31303385 -0.024376603 0.045213774 -0.05032763 0.43306503 0.084247954
-0.21350458 0.29471278 -0.20957853 0.07299722 -0.11158683 0.30766344 -0.015095599 -0.008467906
-0.35307524 0.013491094 0.105388194 -0.11573495 -0.31015608 -0.21036938 -0.3534494 0.07933289
-0.18844141 0.10739102 -0.046245217 -0.28544044 -0.046806194 -0.34282318 0.050719004 -0.012938423
0.03997619 -0.13876408 0.30880752 -0.17567635 0.2634299 0.24115734 0.232678 -0.08685074

net.0.bias f4 [64]
00000000: af67 4fbe 0a6c f7bd fd48 a93d ec4a 793e
00000010: 7430 81be 60e9 babe 50d9 6fbe 183f f6bd
00000020: 3a59 72be f03b 1b3d deff a83e 9e0b f83d
00000030: 742d 71be 9c18 34be 82fc 0e3e a442 2bbe
00000040: 7872 9cbd 0fef 86be ab5e 803e b5a4 853e
00000050: 2a3e b6be c642 92be 007a 35be 0074 99bb
00000060: 51da 6e3e ea48 b5bc 7adb 653e d9f0 343d
00000070: 14ba eb3e 44ae 53be 2181 a33e 082c 95be
00000080: 5969 9bbc ab98 fd3c 6787 d93d c135 683e
00000090: deb5 18be 0720 f53d 5ee9 03bd 7d06 8e3d
000000a0: 43f9 2f3e cf6b eabc b5d7 c33d 78a0 60be
000000b0: 5da6 8f3e 5117 2bbc 69f2 92be 28b8 693d
000000c0: 52f3 863e 5593 84be 5294 a33e 8542 e03d
000000d0: 36b5 a03e 37b0 823e 68c2 4a3e 2872 4cbd
000000e0: c1fb 98be 9370 c13d 3407 ac3e 5380 463d
000000f0: b33b 3bbe 96bb 903e 984a 2f3d 1c8b 64be
-0.20254396 -0.12081154 0.082658745 0.24344987 -0.2523228 -0.36506176 -0.23422742 -0.12023753
-0.2366685 0.037898958 0.3300771 0.12111591 -0.23552495 -0.17587513 0.13963512 -0.1672464
-0.07639021 -0.26354262 0.25072226 0.26102224 -0.35594302 -0.2856657 -0.1772232 -0.0046830177
0.23325469 -0.022129495 0.22447005 0.044175003 0.46040404 -0.20671946 0.31934455 -0.29135156
-0.018971132 0.030956587 0.10621529 0.22676755 -0.14913127 0.11968999 -0.03220498 0.06934831
0.1718493 -0.02861586 0.09562627 -0.21936214 0.28056613 -0.010442571 -0.2870057 0.05706039
0.26357514 -0.25893655 0.31949097 0.109501876 0.31388253 0.25525066 0.19800723 -0.049913555
-0.29879573 0.094453 0.33599246 0.048462223 -0.18284492 0.28268117 0.042795748 -0.22318691

net.2.weight f4 [64, 64]
00000000: e9ba 503d 44ce 93bc d6ef cdbd 15ee 9fbd
00000010: b020 e0ba 0ae5 1fbe 78da d0bd fa54 8e3c
00000020: 40d5 ccbc a6f3 da3d d339 5f3d 4325 e53b
00000030: bdb9 6a3d 8319 773d 21da 0fbd 3c12 373d
00000040: acbe 9fbd b45a d43c 6253 8dbb 143a e33d
00000050: 6c99 d9bc bc8a 89bd a9ba ffbd b0b1 493c
00000060: bf71 d8bd 567a 323d 8a56 95bd e5a5 d43d
00000070: 9c1a 8a3d 2837 893d 06c7 c6bc 64fa 25bd
00000080: f842 8cbd e02c 19be 8138 87bd fc64 b7bc
00000090: bce9 123d 5de0 183d 68be 8e3d 003c d0bc
000000a0: dae3 3fbd d8f0 28bd 5bde b33d 5c56 0f3d
000000b0: 02c1 3f3d 4656 063d a571 1c3d 404d 5f3d
000000c0: 9a1b 043d 57bb cdbc fcd4 05be 5a30 5ebd
000000d0: 2a05 ec3c 4419 9fbd a681 753d c096 03bd
000000e0: dea7 dc3d cfa3 853b d548 5e3d 2aa4 b2bd
000000f0: 1302 e03c ff7c b8bd 5039 3e3d 776e 2dbe
00000100: f341 9c3c c170 043c fc47 b4bd 9524 f13d
00000110: 8646 14be 7c84 ca3d 454a 15bc 8f74 96bc
00000120: 9c29 e83d a09a f13d ed64 f03c 5842 81bd
00000130: 8e57 1f3d 2a35 ad3d 73e0 3fbe 9fc4 d83d
00000140: 3851 dcbc 1747 fcbd 13ef 09be 7cf4 eb3d
00000150: 1f20 80bc 7c27 f23d ec12 1ebe 80c2 b2ba
00000160: f0cf b6bd e057 963d 883e ebbc 18b7 1d3e
00000170: f149 993d 1088 473d 9814 cd3d 20a8 35be
00000180: 958d 0b3d 760d c6bc 8c69 c8bd b3f5 87bd
00000190: b2fe f2bc e76e f23c 7c90 d1bd 9c7a 833d
000001a0: 6e4b 593d 9f02 843d ec6b f63d fb01 863d
000001b0: 0b94 953c b4cf 05bd c0ac aebd 9a4f cf3d
000001c0: 0d4d 6a3d 95ff 8abc 67c4 0abe b522 22be
000001d0: 70c5 1fbc 6a15 36bd 41bd 30bd 6ee6 b73d
000001e0: a0cf a0bb a3aa ac3d 9247 033e 0801 d6bd
000001f0: a9fd ac3d 9bd7 67bd 24f4 32bd 1066 64bc
00000200: 290b 9abd 1455 c0bd f8bf 8a3c 6f9f d23d
00000210: bc02 27bd 2ce1 ebbd 2c21 903d f84a f0bd
00000220: dcd2 20bd 3cbd 1fbd aefe b43d e07a cdbd
00000230: b211 e93d d06f 243d 0313 4dbd 6a73 333d
00000240: eace f03d 54f4 093c ab51 f9bd e440 23bd
00000250: d603 f6bd 60a0 53bd 5293 b2bd 62d4 f7bd
00000260: 0e51 973d 3b98 27bd 804d 46bc 8004 c7bc
00000270: effc 4f3c 804e 343c d670 eabd fffe b03d
00000280: 004a e83c 98ba afbd c4ad 933c 8668 ab3d
00000290: 30b0 923d 3cab 2ebd 1e53 9a3d 6331 01be
000002a0: a85f d63d 5779 b53d 7a7e 943c 7d2c 573d
000002b0: ae3f 953c dfff 71bd a33c 70bd 427e 8bbd
000002c0: f4e8 e63d 2c0f 02bd 3876 52bd 8268 ba3d
000002d0: 5fee c33d 346a e2bd db83 3d3d f460 18bd
000002e0: bc8e 6f3d bdd2 81bd 13cc d8bc efe8 7cbc
000002f0: 09d1 633d 6cdc 28bd f056 243c ece8 1a3d
00000300: 8468 b6bc 228c 8c3c b881 ea3d 14da 9abd
00000310: 8f22 c73d 037f a73d 2169 b23d 39ab 593e
00000320: d2fd d83d 3460 963d 0c35 ae3c 661e a93c
00000330: 6628 863d 6e2a bdbc 46d0 013e 7dc2 b0bc
00000340: b2a2 d73d c34a b7bc 3cab 823d f026 c43c
00000350: b6ac 9abc 6c0a e2bd b18d 1c3e 68cb a73d
00000360: ded5 b5bd 9311 0e3e 70cb 81bc 89be 1dbd
00000370: 220d bbbd 4470 46bd 51c8 cdbd e6de de3d
00000380: 94ec 073e 5c9c 11bd 17c4 8a3d 0b1d fbbd
00000390: 376a fa3d 6d5a 6a3e 8f9d 823d 9255 dcbd
000003a0: 696a e538 6986 c1bd 06f0 21bd fe54 91bd
000003b0: c742 273e 675d 493e 6319 5c3d 3c35 eebd
000003c0: 529c 083d 93c5 033e b7e3 17be d320 4c3e
000003d0: 35c0 6fbd 2167 3a3e cf7d bdbb fca6 b53d
000003e0: ba59 a03d e541 0f3e 041a bd3c e4df 063c
000003f0: 5a96 9a3d fca7 3b3d 2c25 08bd 9dc0 903d
0.0509595 -0.018042691 -0.10055511 -0.078090824 -0.0017099585 -0.15614715 -0.101979196 0.017374504
-0.02500403 0.106910035 0.054498505 0.0069929673 0.05730604 0.060327064 -0.035120133 0.044695124
-0.0780004 0.025922157 -0.0043129185 0.11095062 -0.026562415 -0.067159146 -0.124867745 0.01231043
-0.1056857 0.0435737 -0.07291897 0.10383204 0.067433566 0.06699973 -0.024264824 -0.040521994
-0.06848711 -0.14958525 -0.06602574 -0.02238702 0.035867438 0.037323344 0.06969911 -0.025419235
-0.046848156 -0.04124531 0.08782645 0.034994468 0.046814926 0.03279712 0.038194317 0.05451703
0.032252885 -0.025113745 -0.13069528 -0.05424533 0.028811056 -0.07768491 0.059938096 -0.03212619
0.107742056 0.0040783654 0.054268677 -0.08722718 0.027344739 -0.09008216 0.046441376 -0.1693667
0.019074416 0.008083523 -0.088027924 0.117745556 -0.14480028 0.09888551 -0.0091119455 -0.018366126
0.11336061 0.117970705 0.029345 -0.06311482 0.038901858 0.08457406 -0.18737964 0.105843775
-0.026894197 -0.12318247 -0.13470106 0.11521241 -0.015640317 0.11823937 -0.15436906 -0.0013638288
-0.0892638 0.073409796 -0.02871634 0.15401876 0.07484806 0.048713744 0.100136936 -0.17739916
0.03407057 -0.02417634 -0.097857565 -0.0663866 -0.029662464 0.029593898 -0.10232636 0.0641987
0.05305045 0.064458124 0.12032303 0.065433465 0.018259069 -0.032668784 -0.08529043 0.10122605
0.057202388 -0.016967574 -0.13551484 -0.15833552 -0.009751663 -0.044454016 -0.043149237 0.08979498
-0.0049075633 0.08430984 0.1282027 -0.104494154 0.08446819 -0.0566021 -0.043689862 -0.013940349
-0.0752166 -0.09391227 0.016937241 0.10284316 -0.040774092 -0.115175575 0.07037577 -0.11733049
-0.03926359 -0.038998827 0.08837639 -0.10033202 0.11380328 0.040145695 -0.05006696 0.04381124
0.11758216 0.008420069 -0.1217378 -0.039856806 -0.120124504 -0.051666617 -0.08719505 -0.12101056
0.07388507 -0.040916663 -0.012103438 -0.024294138 0.012694581 0.011005044 -0.11447303 0.08642387
0.028355598 -0.08580512 0.018027194 0.08369546 0.07162511 -0.04264377 0.075353846 -0.12616496
0.10467464 0.08861034 0.018126715 0.05253266 0.018218841 -0.05908191 -0.058651578 -0.06811191
0.11274901 -0.03175275 -0.051382273 0.091019645 0.0956695 -0.11055413 0.046268325 -0.037201837
0.05848573 -0.06339023 -0.026464498 -0.015436395 0.055619273 -0.041225836 0.010030493 0.037819788
-0.022266634 0.017156664 0.11450523 -0.07561126 0.097233884 0.081785224 0.08711458 0.21256723
0.105952874 0.07342568 0.02126553 0.020644378 0.06550674 -0.023091521 0.12677106 -0.021577114
0.105290785 -0.022374516 0.063803166 0.023944348 -0.018881183 -0.11037144 0.15288426 0.081930935
-0.088786826 0.13873892 -0.015844077 -0.038511787 -0.09133364 -0.04844691 -0.10047973 0.10882358
0.13273841 -0.035549507 0.067756824 -0.12261399 0.1222729 0.22886057 0.06377708 -0.10758509
0.00010939391 -0.09449465 -0.039535545 -0.07096289 0.16334067 0.19664536 0.05373515 -0.116312474
0.033352204 0.12868337 -0.1483296 0.19934396 -0.058532912 0.18203403 -0.00578282 0.0886974
0.07829614 0.1398998 0.023083694 0.008232091 0.075482085 0.0458145 -0.033238575 0.07067988

net.2.bias f4 [64]
00000000: 12fd 063e 6b31 463d ff27 273c 23d6 ba3c
00000010: 37cd 08bd 1c99 3c3d 2435 643b 07d5 e93d
00000020: a26d 253c a88d 91bd 1d0a 00be 6832 01be
00000030: 7ad5 1e3e 521b 61bd 74fb f43d 2205 80bd
00000040: 169e 0ebc d012 6c3a 8f9f b1bc 5c94 1ebd
00000050: 0242 8abd 574a 2abd 1879 1d3e 33c7 c63d
00000060: 233a 603c ff7f d4bd 0996 833c 25d0 2fbd
00000070: 8d2e 14bd 858c 02be b422 613d c08a 0e3e
00000080: a4e6 69bd c554 ac3d ba81 ffbd 7c9a 173d
00000090: 1a1c db3d b1fc f0bd f3a4 483d caf5 aa3c
000000a0: ef6b 403e c462 7bbd b4c5 0c3e 97bc 62bd
000000b0: 6ea8 a73d 0387 ba3d 2823 fa3c 7c89 683d
000000c0: 044c 493d 935d 02be 7f0c be3d c240 973d
000000d0: 981c 0ebd cac3 3a3e c747 7e3d a819 b0bd
000000e0: c908 c6bd 8802 be3c 70d7 a53d 5356 7a39
000000f0: 987f 7bbd b63d 3e3d fef8 103c 20ed ddbb
0.13182476 0.048386972 0.010202407 0.022807186 -0.033398833 0.046044454 0.0034821713 0.11417585
0.010096939 -0.07107097 -0.12503858 -0.12616885 0.15511122 -0.054957695 0.119620234 -0.06250979
-0.008704683 0.0009005489 -0.021682529 -0.038715705 -0.06750871 -0.041574802 0.15378225 0.09705963
0.013685736 -0.10375976 0.016062753 -0.04292311 -0.036177207 -0.12748916 0.054964736 0.13920116
-0.05710472 0.08414606 -0.12475915 0.037012562 0.10698719 -0.11766947 0.048985433 0.020869154
0.18791173 -0.061373487 0.13747293 -0.055355635 0.08186422 0.09107783 0.030534342 0.05677174
0.04914476 -0.12731008 0.09279727 0.073853984 -0.034695238 0.1823875 0.06208017 -0.085986435
-0.096696444 0.023194566 0.08097732 0.00023874016 -0.06140098 0.04644557 0.008848427 -0.0067726523

net.4.weight f4 [4, 64]
00000000: ddb7 ff3b 3077 0e3d 6691 37bc dad1 98bd
00000010: 2f9e b73c 807f 92bd bdf6 03bd 5d86 a83d
00000020: 50f8 0abd d458 fbbc ff87 81bd fbd7 21bc
00000030: 120e 0c3d 7022 30bd 41d6 b1bb b271 0bbc
00000040: 4a31 3d3b 2c3e cd3c 269a ad3b f0b0 d3ba
00000050: 4dc0 90bd 33e8 463b f659 ea3c 3a0b 95bb
00000060: 92c6 0e3b 7e0e 64bd 1c32 e0bc 814a 13bc
00000070: e291 0cbd 0729 98bd 829c 373b 492a 743d
00000080: 46d0 62b7 1717 4cbc ec42 9f3b 7c44 0fbd
00000090: 45c8 0d3d fb1f 9abb 8ca3 7ebd 089c 083c
000000a0: fb5d 393d 02f3 013b 0b6a fe3c e9ae 283c
000000b0: cdc3 88bb 8125 4e3c 486c abb9 cdf2 adba
000000c0: ed76 0b3d d564 a1bd 1f9b 373a 0f4c b73b
000000d0: 6c59 69ba 7730 063d 1440 73bc 8cbc 91b9
000000e0: cb30 3bba 099f 83bd af03 42bb 068f 9abd
000000f0: 647f 1eba 338f 49bd 8584 89bb 3616 96ba
00000100: 86c8 bb3c f129 1e3d 0e6a 0bbb e090 87bc
00000110: 375d 3a3d 33d8 13bd 5cc3 15bc 989a 923d
00000120: 0c1a d5bb 2b09 ed3b 3703 d6bc 1b02 63ba
00000130: 43a8 873d 4095 8e3b faa2 713b 5354 c43b
00000140: 0d57 d9b9 44a9 c53c 8a0e 5b3d a61a 1b3b
00000150: 1fcb adbc eee6 613b 964b 313d 0c62 d9ba
00000160: 8395 003b a6a6 a7bc 72da 2e3c f87c 053c
00000170: b4aa 3ebc c45d 93bc c009 1d38 81cc 413d
00000180: 1e38 f839 4350 073b 2e65 cc3b 84e0 1bbb
00000190: 6e14 163d 4b87 253c 1b7c 93bc 8cb5 903b
000001a0: c940 293d c46e 33bb 04dd 533d 6845 e9bb
000001b0: b9f8 dc3a 27b9 313c c0d4 f038 f6f3 9fba
000001c0: 4439 3c3d 643f bfbc b419 3d3b d44b a13c
000001d0: d6f2 b0ba 02fd 2c3d 97e1 863b 5d18 4a3b
000001e0: 83bf 243b 7bc2 6bbc 10da 14bb 2040 bd3b
000001f0: 80c7 16bb e716 11ba 29c8 9b3a 4cac a2ba
00000200: 5040 2abc c19f 15bd b69d 9dbc 48b0 1b3d
00000210: 84fb 0fbd cccb 463d e777 fd3c 3512 b3bd
00000220: ae4b 1a3d db25 cd3c f3a7 293d ef20 eb3b
00000230: 7c22 83bd 3622 ea3c d4b3 633b d1d4 343b
00000240: 5c65 953b 414a 9fbc 080a 8abd 6485 21bb
00000250: 1153 3d3d 6359 153a b795 20bd 6e5d 0ebc
00000260: 028c 473c 27c3 163d d4a8 d43c 6ce7 7d3c
00000270: 4b33 163d bc61 163d bda0 33bb 0f5e 43bd
00000280: 2935 c43b 18ab e3bb c5f0 8f3b 952c 5f3c
00000290: 5da3 1ebd 8b19 5a3c 0d4f 053d a03f 1c3a
000002a0: ae2a 29bd c859 4b3a dea2 15bd 588d 6b3b
000002b0: 149b 583b cded 1a3c 3829 fa3a e086 0f3b
000002c0: 56e4 43bd 68f5 3f3d a589 09bc e957 adbb
000002d0: 542d c63a 1b97 1ebd 05c7 5f3c d9a2 0c3b
000002e0: 2341 a83a a8b5 203d e073 e53a a2ac 8a3c
000002f0: 8009 1c38 bd92 8c3c 23fe 443b 60a4 6839
00000300: 8a3d 8dbc ea08 1fbd 236b 0c3c 8fa5 8d3d
00000310: 8d77 12bd efff 6c3d 80e3 193d e31c d2bd
00000320: 8ac5 223d 047a ec3c c35c 5e3c 7280 933c
00000330: ece4 2ebd 3fd6 233d 7636 bfbb 1822 00bb
00000340: 5f70 13bc cb5a 1abd 08cd 87bd e987 a0ba
00000350: 7e5f 573d d72c 2abc 3c45 15bd 061c a73b
00000360: d5a6 63bc 0e6e 203d 181c e73c ef12 1c3c
00000370: e7fc 223d ea16 8b3d b520 cdba b5db 8bbd
00000380: c5d3 e8bb 24de 223a be2b 58bb 53ed e53c
00000390: 4ad7 2bbd 22f4 5239 38ed 263d 7128 a9bb
000003a0: af61 4bbd 3a35 3bbb 4abe 98bd 505e 4f3a
000003b0: f214 253b cfb3 7dbc f183 f9ba 58f2 ccb9
000003c0: b67b 05bd d761 963d 72dd 8dbb 3282 99bb
000003d0: 1c0f ed3a ed07 19bd d0b1 ae3b 8a66 8d3b
000003e0: 6fac e1bb dee4 7c3d 28bb 41ba 5ef0 823d
000003f0: 3c27 4f3a 559a 103d 61c0 56bb 0084 68b6
0.0078039006 0.034781635 -0.011204099 -0.07461901 0.022414295 -0.07153225 -0.03221773 0.08228753
-0.033928216 -0.030682005 -0.06324767 -0.009878154 0.034193106 -0.043001592 -0.0054271524 -0.008510994
0.002886849 0.02505406 0.005297917 -0.0016150754 -0.070679285 0.0030350804 0.02860735 -0.0045484575
0.0021785838 -0.055677883 -0.027367644 -0.008989931 -0.034318812 -0.074297 0.002801687 0.05961064
-1.3519142e-05 -0.012456677 0.0048602726 -0.03497742 0.03461482 -0.0047035194 -0.06216769 0.008337982
0.045255642 0.0019828682 0.031056425 0.010295608 -0.004173732 0.012582184 -0.00032696337 -0.0013271213
0.034048963 -0.0788056 0.0007004011 0.0055937837 -0.00089015695 0.032761063 -0.01484682 -0.00027797034
-0.00071407546 -0.06426818 -0.0029604246 -0.07546811 -0.00060462044 -0.04920883 -0.0041967058 -0.0011450711
0.022922765 0.038614217 -0.002127293 -0.016548574 0.045499053 -0.036094856 -0.009140816 0.07158393
-0.006503349 0.007233759 -0.02612458 -0.00086596765 0.0662389 0.004351288 0.0036870823 0.0059914975
-0.00041454323 0.024128564 0.053480662 0.0023667007 -0.02121502 0.003446992 0.043284975 -0.0016585006
0.0019620366 -0.020465206 0.010672199 0.008147471 -0.0116373785 -0.017989047 3.7440797e-05 0.04731417
0.00047344057 0.0020647205 0.0062376475 -0.0023784945 0.036640577 0.010103057 -0.018003514 0.0044161733
0.04132155 -0.0027379254 0.05172445 -0.0071188696 0.0016858793 0.010847366 0.000114837196 -0.0012203443
0.04595305 -0.023345657 0.0028854432 0.019689478 -0.0013500105 0.042233475 0.004116248 0.0030837276
0.0025138564 -0.0143896295 -0.0022712983 0.0057754666 -0.0023007095 -0.0005534724 0.0011885214 -0.0012410968
-0.01039131 -0.036529306 -0.019240241 0.03800991 -0.035151973 0.0485342 0.030940963 -0.08743707
0.03766983 0.025042465 0.041419934 0.007175557 -0.06403062 0.028580766 0.0034744637 0.0027592669
0.004559202 -0.019444587 -0.067401946 -0.0024646157 0.046221796 0.00056972186 -0.03920528 -0.008689268
0.012179377 0.036807206 0.02595941 0.01549707 0.03667001 0.0367143 -0.002740904 -0.047697123
0.0059877825 -0.006947886 0.0043927156 0.013621469 -0.038730014 0.013311754 0.03254609 0.00059604086
-0.04130047 0.0007757214 -0.036532275 0.0035942402 0.0033051418 0.00945611 0.001908577 0.002190046
-0.04782518 0.046864897 -0.008394633 -0.0052900207 0.001511971 -0.038718324 0.01365829 0.002145937
0.0012836795 0.03923574 0.0017505847 0.01692802 3.7202146e-05 0.017159814 0.0030058704 0.00022186479
-0.017241258 -0.03882686 0.008570465 0.069163434 -0.035758544 0.057861265 0.037570477 -0.10259416
0.03973917 0.028866775 0.013571921 0.018005583 -0.042698786 0.039999243 -0.0058353497 -0.0019551571
-0.008998959 -0.037684243 -0.066309035 -0.0012247536 0.052581303 -0.010386667 -0.03644298 0.005099776
-0.013894756 0.039167456 0.028211638 0.0095259985 0.039791968 0.0679148 -0.0015650006 -0.06829015
-0.007105323 0.0006212911 -0.0032985057 0.028067267 -0.041953363 0.00020118107 0.040753573 -0.0051622917
-0.049653705 -0.002856566 -0.0745817 0.0007910477 0.0025189486 -0.015484764 -0.0019036514 -0.00039090472
-0.032588683 0.0734288 -0.004329377 -0.00468471 0.0018086168 -0.037361074 0.0053312555 0.004315202
-0.0068870108 0.061741702 -0.0007390254 0.06393503 0.000790227 0.035303432 -0.0032768475 -3.4647528e-06

net.4.bias f4 [4]
00000000: f84c 5c3d c627 8b3d 36d1 99bd 6f37 4cbd
0.05378434 0.067946956 -0.07510607 -0.049857553

net.0.weight f4 [64, 8]
00000000: cb05 f8be 9241 80bd 824d f6bd 83bb e63d
00000010: 2518 76bd a1cb e53c 97d2 1dbe 787c ec3e
00000020: 9b70 a23e f915 503f 5d8c 363f e8e8 fabc
00000030: a1df 833d 1c1a 003f 5033 8e3b 291b eabe
00000040: 36e1 0abe f0e1 683e 58ea 1c3e e3a0 6abe
00000050: 3fbe 6fbe 0629 b0bd 91c8 4bbe b8eb 263d
00000060: 3a9e 063f 6afb b43e 94c0 633f bc34 afbb
00000070: 12b7 c43e c8a7 1b3f 92a5 77be fc9f adbe
00000080: bc73 933e d0d8 3d3e c297 4fbe b610 78be
00000090: 9782 8ebe b8cf 0dbd cc73 783e e423 2fbe
000000a0: 0f02 b23e c3df bb3e 1652 3cbe dd71 143e
000000b0: cd8f 123e 25ae 0fbd abd8 c43e 1071 833d
000000c0: 94b0 d23d b4c9 72bd 8eda 3ebe f2eb 55be
000000d0: d24a 79be 5e16 503e b89e 633e 6038 7f3c
000000e0: 671a e83d 1f09 ddbd 4811 61be e580 6d3d
000000f0: c391 26be fdc2 3fbe 9a09 843e 7b53 6e3e
00000100: e74b 83be 4208 c3be ee1b 253f 809e b53e
00000110: 8966 f23d 632d b43e 7022 adbe 2409 e9bd
00000120: b717 46be a7f6 18be 7a67 fd3e e042 273e
00000130: 0306 713e 3b68 113f 917f 86bd 2326 1f3d
00000140: 86a3 9c3d a246 87be cdbe 483f e611 983e
00000150: d62f 863e 156b ea3d 0b57 b8be e596 b1be
00000160: 0c49 a1bd 15fc 2dbe e377 c23d 251a 453e
00000170: ee3a 9a3e 63f6 88bd c6e2 eebd ed09 2abe
00000180: dde7 da3e 3b76 b93d 72c2 91be f7d0 16bc
00000190: 5b84 873e c1a6 babd 41a2 763e 44d3 3c3d
000001a0: b6c0 1c3d 44d8 e4be 2b8a 9cbd 7174 69be
000001b0: 8bf2 f03e 5914 b7bc 8d6b 34bf fd60 2dbf
000001c0: 4837 213f 6b1c ba3e 7c4f 27be 0ea9 3cbd
000001d0: 38ea e4bc f8e4 ca3c 29cb 403e b34b b43e
000001e0: 638c 3f3f 3075 f03e dd7c 6a3e 0141 8abe
000001f0: 2c50 493d eb3c 3fbf aafe f83c 7116 c83a
00000200: 5403 b33e 70ee 9f3e 8f86 2d3e 4b52 913e
00000210: 8ab0 dc3d e532 ff3e 2f8c 3e3e e684 1ebe
00000220: bc62 323d 0adb b73b acd2 11be 5fd2 f0bd
00000230: c12c 023c d663 26be 0cba 743e 0519 cb3e
00000240: 7336 0fbf 2c31 51be 100f 4dbd 4ebe b83e
00000250: 75ef 3bbd 1f7f 9b3d 9883 48be 337e 543e
00000260: 4fa2 6d3e 7499 693e 255b d1be 31de 4e3d
00000270: d360 283e bf2b 66be 5bed 903e 81fe 6f3e
00000280: 06e6 803f 0cbd 1a3f b211 573e e01e b6bd
00000290: 5e03 d5bd 0096 9b3e 55c0 7fbe 6d6c 22be
000002a0: 9dfb 7c3e 36f0 043f 5fda 463d 57b9 133e
000002b0: 7d9f 3f3e df63 c4bc 8a18 d33c f733 253e
000002c0: acfb 043e 3e9d d6bd f5e1 38be 900f 8abd
000002d0: 9853 50be 784c 14bd 8225 4d3e 6874 233d
000002e0: eae9 a63e 7403 f23e 337d 303f 4267 d7bc
000002f0: cd37 6a3e 9906 1d3f e724 4abe 76d5 dabe
00000300: 5678 583e 8a87 4a3e 6d44 6bbe 7042 04bd
00000310: 7268 22be 30a8 8ebe 9d03 5a3e 07bf 8239
00000320: 0aa5 72be 6c8e 643e ebc0 093f 8f7c 553e
00000330: 57d4 533e fcc7 953e ffbf 96be e4e9 d33d
00000340: e258 5b3f 8c5a 4c3f 1b32 483f 7373 b8bc
00000350: 80ee 803d 9f97 b03e b656 42be ab36 bfbe
00000360: 24ff 0f3e 6889 c3bd 8018 743e bff1 6ebe
00000370: 58d3 7ebd 00e8 2ebe 001c 14bc fdfa 0fbe
00000380: 101b 943d ba2f 493e 004f ad3a e0d1 2dbc
00000390: f30e 85be ec5c 503e f960 39be 86e5 eebd
000003a0: 78f6 453f 2b04 c03e dbc4 073f 84a9 bdbb
000003b0: ea31 803e b5e9 a13e 922f a4be b950 e7be
000003c0: 18b0 1b3f 8eb2 0e3f ee5b e43e cacd e2bc
000003d0: b785 543e 0e7e 503e 79f3 233d 3f1c d5be
000003e0: 25f7 8c3e 1c75 8fbc c197 61bd 1b40 21bc
000003f0: aba9 c33e 3eb7 29be 592a e13d bbd4 5dbe
-0.4844192 -0.062625065 -0.12026502 0.11266234 -0.06008162 0.0280512 -0.15412365 0.46188712
0.31726536 0.8128353 0.7130793 -0.030628636 0.06439138 0.5003984 0.004339613 -0.45723847
-0.13562474 0.22742438 0.1532377 -0.22912936 -0.23412417 -0.086015746 -0.19900729 0.040752143
0.52585185 0.35348064 0.88965726 -0.0053468626 0.38420922 0.6080289 -0.24184254 -0.3391112
0.28799236 0.18539739 -0.20272735 -0.24225125 -0.27834007 -0.034621924 0.24262923 -0.17103535
0.34767196 0.36694154 -0.18390688 0.1449656 0.14312668 -0.035078187 0.38446555 0.06418049
0.10287586 -0.05927439 -0.1863806 -0.20890787 -0.24344948 0.20321032 0.22228515 0.015577406
0.11333161 -0.10792755 -0.21979249 0.05798425 -0.16266541 -0.18726726 0.25788575 0.23274033
-0.25643846 -0.38092238 0.6449574 0.35472488 0.11835963 0.35190877 -0.33815336 -0.113786966
-0.19344984 -0.1493784 0.4949301 0.16334105 0.2353745 0.5679967 -0.065673 0.03885473
0.07648377 -0.26421076 0.7841614 0.29701155 0.2620837 0.114462055 -0.3600391 -0.34685436
-0.07875261 -0.16990693 0.09495523 0.19248255 0.30123085 -0.066876195 -0.11664347 -0.16605349
0.42755023 0.09055754 -0.28468663 -0.009205095 0.26468167 -0.09113837 0.24085332 0.046099916
0.03826972 -0.44696248 -0.07643541 -0.22798325 0.47060046 -0.02234857 -0.7047661 -0.6772612
0.6297498 0.36349806 -0.16338915 -0.04605966 -0.027943715 0.024767384 0.188275 0.35214004
0.7482359 0.46964407 0.22899194 -0.2700272 0.049148723 -0.7470233 0.03039487 0.0015265477
0.34963477 0.312366 0.16945861 0.28383097 0.1077586 0.49843517 0.18608163 -0.15480384
0.04355119 0.0056108283 -0.14240521 -0.11758875 0.0079452405 -0.16249022 0.23899096 0.39667526
-0.5594246 -0.20428914 -0.050063193 0.3608269 -0.04588266 0.07592606 -0.19581449 0.20751266
0.23206447 0.22812444 -0.4088985 0.050504867 0.16443186 -0.22477625 0.28306088 0.2343693
1.0070198 0.6044471 0.21002844 -0.08892608 -0.10401033 0.30387878 -0.24975713 -0.15861674
0.24705358 0.5192903 0.0485481 0.1442617 0.18713184 -0.023973403 0.025768537 0.16133104
0.1298663 -0.1047921 -0.18054946 -0.067412496 -0.20344388 -0.03620574 0.2003384 0.039905936
0.32600337 0.4726826 0.6894104 -0.026294354 0.22872849 0.6133819 -0.1974064 -0.42740983
0.21139655 0.19778267 -0.22975321 -0.032289922 -0.15860155 -0.27862692 0.21290441 0.0002493786
-0.2369577 0.22319955 0.53809994 0.20848297 0.2068647 0.29254138 -0.29443356 0.103473455
0.856825 0.79825664 0.78201455 -0.022515988 0.0629549 0.34490678 -0.1897839 -0.37346396
0.14062172 -0.095476925 0.23837471 -0.23334406 -0.06221327 -0.17080688 -0.009039879 -0.14060588
0.07231724 0.19647112 0.0013222396 -0.01060912 -0.25987968 0.20347947 -0.18103398 -0.11664872
0.77329206 0.3750318 0.5303475 -0.00578803 0.2503808 0.31623617 -0.32067543 -0.45178774
0.6081557 0.557412 0.44601387 -0.027686018 0.20754133 0.20360586 0.040027115 -0.41623113
0.27532306 -0.017511897 -0.055076364 -0.009841944 0.38215384 -0.16573808 0.10994405 -0.21663181

net.0.bias f4 [64]
00000000: f1fe bbbe 2262 883e fd57 903e ac49 5ebe
00000010: b6d2 0c3e 15ed cb3e fd1e 4fbe 9174 8d3e
00000020: 43c7 d03c 890e 35be 7c2f edbe a37b 193f
00000030: abc4 0f3f 59a8 12bf ec1e 513e a478 de3d
00000040: 5982 b93e e027 60be 84c2 0fbe e56b 243d
00000050: d50d 8d3e 82d3 7d3e 50d1 72be e371 733e
00000060: 5126 98be d649 d5be a97c 0b3e acf3 d13d
00000070: c413 e6bd 559e 863e e84f 2dbc 58fc 1c3f
00000080: 9f6c 483e 5839 a9be 2eb1 d53e 1c81 583e
00000090: edb6 883e c8ec 003f 989d d93d b914 e13d
000000a0: 3120 c93e c91b 37bd 0e73 6fbe 241c 89bb
000000b0: 9749 5b3e d8e3 df3e ec99 32be 7835 293f
000000c0: 2b4a c6be b396 6b3e 001a 253f 175f d0bc
000000d0: 8d34 0a3f f27b 00bf 990f ae3e 8ad9 5f3e
000000e0: 6bad a8be 0a81 703e c6b4 ee3e d408 9d3e
000000f0: 0517 80be c52e ed3d e569 f33e c8ed 05bd
-0.36717942 0.2663737 0.2819213 -0.21707791 0.13752255 0.39829317 -0.20226665 0.27627996
0.02548564 -0.17681326 -0.4632529 0.5995428 0.56159467 -0.5728813 0.20421952 0.10862854
0.3623226 -0.21890211 -0.14039046 0.04014196 0.27549616 0.24787715 -0.23712659 0.23773913
-0.29716733 -0.41657895 0.13621773 0.10251555 -0.11234239 0.26292673 -0.010578133 0.61322546
0.19572686 -0.33051562 0.4173674 0.21143001 0.2670206 0.503613 0.10625762 0.10990281
0.39282373 -0.044704232 -0.23383734 -0.004184263 0.21414791 0.43728518 -0.17441529 0.6609721
-0.3872846 0.23006706 0.644928 -0.025435967 0.53986436 -0.50189126 0.33996275 0.21860328
-0.32944807 0.23486724 0.46622294 0.30670798 -0.25017563 0.11581186 0.4754173 -0.03269747

net.2.weight f4 [64, 64]
00000000: fc82 3b3e ac4f c0be 10b7 2cbc c696 3bbf
00000010: dc2c 5abe c81f 293c 361c 9c3d f612 b63e
00000020: 16ab cebe 5b31 5bbe ad36 eebe 7de5 10bf
00000030: 0fef d33d 342e 79bd 9132 023e 2150 0a3f
00000040: 078b 45be cf1b b83e 899f c1bd e52a ae3d
00000050: 8f25 873e 0bcd c63d cb5a 4dbe faab 14bf
00000060: ff14 203d 8ed7 c8be fc5c 07bf c88c 10bd
00000070: 3054 6a3c bc1c e8be 9a4c e2be 8b20 fdbe
00000080: 9e9b ab3e bc04 87bd 0a85 7b3e 618e 553e
00000090: d249 d63e 3b06 d43e 58c5 193f 1b4f 14bf
000000a0: c8a7 0e3f cf1b 433e f926 4d3e 7520 93be
000000b0: 62b0 da3e 813e 853e d90e 243e ff62 7f3e
000000c0: 4a86 b2be bfd1 a3be 7a9e b43d de12 b13e
000000d0: e5d8 ba3e a7ff b0be fdd1 adbd 77e2 38be
000000e0: 4fda 36be 3761 663e a931 983e a7a8 31be
000000f0: bb90 03be 88fa 813c 3b95 7b3e c080 47bc
00000100: 2072 c23d a622 d1be 39af e7bd 1772 21bf
00000110: 52ad babd 988f 913e 2ee4 da3d 42da 88bd
00000120: de06 cc3b dc33 c6bd 5285 3a3e 2f8a 053e
00000130: d2d2 1b3d 5018 85bc 7014 df3e 0851 11bf
00000140: efab 7e3e a440 343e 4622 533e 329d 253e
00000150: a015 f8be 8209 91bd 1ffe 20be 059c 89be
00000160: 4083 ed3b 4dd5 643d ee6c 1fbf d60b 37be
00000170: c6e5 a73d 26b8 0cbf cfb4 1cbf 2597 1c3e
00000180: 14d2 aebe d1c9 143e 204f 843d 2c05 71be
00000190: a14a 163d a87f c63e 4c52 b9bd 1d87 b33c
000001a0: bcd4 76bf d16e eabe a4af 33bd 9f78 f73b
000001b0: ea15 2f3e a0b0 5c3e 1806 973c a326 2c3e
000001c0: 99bf fcbc e071 efbd 2348 83bd b664 26bd
000001d0: 8373 7e3d 7ac0 6c3c e0db 293e f881 b0bc
000001e0: b5e3 173e 392a f2be cb3f 943e cb0a 04be
000001f0: 39f4 89be 20e4 dcbd e5df aabb 24e3 5cbe
00000200: 0d83 4fbd 066d 2c3f fce6 45be 15ba b13e
00000210: 9b87 20be 92dc 4c3e 7665 f53d ba6d cbbd
00000220: 78e5 99b9 f0f4 0c3e 2542 983e 87a6 533e
00000230: a154 8e3e a99d ce3e 835c 72bd 2a98 8f3e
00000240: 13ed 83ba 18a0 85bc d1f3 12be 10dc a23d
00000250: 3f51 ce3e 243d 06bd 7141 1c3e ff8a 013f
00000260: 20cb 4bbe 5b70 d13d 0953 1f3f 0afa 9d3d
00000270: 8ad0 10be 7a12 aa3e 1352 f73e c60c 0a3f
00000280: 8752 81bb fdbd 273e a437 813e 0c47 863e
00000290: cf48 893d dcd6 47be 2f73 e83d 9531 e53d
000002a0: 66ca d0bb c1b3 1c3e 2c0b 02bd 5be3 bc3e
000002b0: 0f5b 9cbd 9a9e 983e 6b16 103e 6978 7e3e
000002c0: 74ed 043e 24a5 ebbd 3701 4cbd aaa8 1bbe
000002d0: 8b3e 993e 0b07 d93d 3a41 6abe 2466 16bd
000002e0: fb06 113e 778d 763d d14c c0bd d965 343f
000002f0: 965e cc3e 31c6 3bbe 9445 fbbd 8fe6 163e
00000300: 5b72 9bbe bae3 203e f3a2 5d3e 8348 b63e
00000310: a08f 13bd 9b41 593e 5bba 243e 4c5a 7ebe
00000320: 91ca 9e3d 6037 87bd c454 953e d106 4c3e
00000330: 010a 7abd f13f 81be 547f 883e 1dea 8a3e
00000340: 06c6 5d3d 4cf6 65be b303 423d 4acb 31bc
00000350: 75c4 d03e fc0b 253e 885a ddbd 0df8 323e
00000360: 4030 0ebc e42a 073e bc32 383e 150c 073e
00000370: 750e 253e 1f9a 9c3e 3e2c 5f3e cfa2 603d
00000380: 7086 04bc e1e0 313e 8a53 91bd 6ec2 66be
00000390: e9d6 373e 3ae7 d53d 1765 f4bd f126 653d
000003a0: 3d8f 4b3e 74ec bf3e 3850 32bd ef11 8b3e
000003b0: c77e bd3d f02f a43e 1763 473e e8ef 9a3e
000003c0: de2b 71bd 5767 0a3e 5ec1 033e 002c 023c
000003d0: 3a01 7d3d 0886 fabd c59c 383e 0c08 633d
000003e0: bafa d4bd 5a5d 243e b4fd 9cbd 64bb eb3e
000003f0: 0abc 173e 15d8 14be b2f1 173e f560 263e
0.18311685 -0.37560785 -0.010541692 -0.73276937 -0.21306175 0.010322519 0.07622568 0.3556134
-0.40364903 -0.21405546 -0.4652609 -0.5660017 0.10348331 -0.06083508 0.12714602 0.54028517
-0.19291316 0.35958716 -0.09454257 0.08504275 0.26395842 0.097070776 -0.20054166 -0.58074915
0.039082523 -0.39226955 -0.5287626 -0.03529051 0.014302298 -0.45334423 -0.44199067 -0.4943889
0.33517164 -0.065927 0.24562469 0.20855094 0.41853195 0.41411003 0.6006675 -0.57933205
0.55724764 0.19053577 0.20034398 -0.287357 0.42712694 0.2602425 0.16021289 0.24940108
-0.3486808 -0.3199596 0.088192895 0.34584707 0.36493602 -0.34570047 -0.08487318 -0.1805514
-0.17856716 0.22498022 0.29725388 -0.17349492 -0.12848179 0.015866533 0.24568646 -0.0121766925
0.09494424 -0.40846747 -0.11312718 -0.6306471 -0.091150895 0.28429866 0.10688053 -0.066822544
0.0062264046 -0.0967786 0.1821492 0.13040994 0.03804285 -0.016246945 0.4357028 -0.5676427
0.24870275 0.17602783 0.20618543 0.16173247 -0.48454 -0.070818916 -0.1572194 -0.26876846
0.0072483122 0.055867482 -0.6227559 -0.17875609 0.08198123 -0.5496849 -0.6121339 0.15292032
-0.34144652 0.14530112 0.064604044 -0.23537129 0.036692265 0.3876927 -0.090489 0.021915013
-0.96418357 -0.4578767 -0.043868676 0.007552221 0.17098203 0.21551752 0.018435523 0.16811614
-0.03085308 -0.11691642 -0.06410243 -0.04062339 0.06212188 0.014450187 0.16587782 -0.021546349
0.14832957 -0.47297838 0.2895492 -0.12894742 -0.2694414 -0.10785699 -0.0052146786 -0.21571022
-0.05066209 0.67353857 -0.19326395 0.34712282 -0.1567673 0.20006016 0.11982243 -0.09933038
-0.00029353402 0.13765311 0.29737964 0.20668994 0.27798942 0.4035466 -0.059170257 0.2804578
-0.001006516 -0.01631169 -0.14350821 0.0795213 0.4029636 -0.032773152 0.15259339 0.50602716
-0.19901705 0.10226508 0.62236077 0.07713707 -0.14142051 0.33217221 0.48304805 0.5392574
-0.0039466056 0.16381069 0.25237763 0.2622608 0.0670334 -0.19515556 0.113500945 0.11191098
-0.006371784 0.15302946 -0.031748936 0.36892208 -0.076345555 0.29808503 0.14071052 0.2485062
0.12981206 -0.115061074 -0.049805846 -0.15201059 0.2993053 0.105970465 -0.22876444 -0.036718503
0.14162819 0.060193505 -0.093896516 0.7046791 0.39915913 -0.18337323 -0.1226913 0.14736389
-0.30360684 0.15711871 0.21644191 0.35602197 -0.036025643 0.21216433 0.16086714 -0.24839133
0.0775348 -0.06602359 0.29166234 0.19924475 -0.061044697 -0.25244096 0.26659644 0.2713174
0.054143928 -0.22457236 0.04736681 -0.010851691 0.40774885 0.16117853 -0.10808283 0.17477436
-0.008678496 0.13199955 0.17988104 0.13188203 0.16118796 0.30586335 0.21794221 0.054842766
-0.008088693 0.1737094 -0.07096012 -0.22535107 0.17953075 0.104444936 -0.11933344 0.05594534
0.1987886 0.37485087 -0.043533534 0.2716212 0.092526965 0.32067823 0.19471394 0.3026116
-0.058879726 0.13515984 0.12866732 0.007945061 0.061768748 -0.12232596 0.18028553 0.055427596
-0.10399385 0.16051236 -0.076655775 0.46041405 0.14817825 -0.14535554 0.14838293 0.16247924

net.2.bias f4 [64]
00000000: a203 613e e252 8c3e 5ce2 0ebd c962 583c
00000010: 73a4 1c3d bbc4 ae3e 9ccd 173e 054b 0d3e
00000020: 2f32 05bd 02cf 313e 82bd cd3d ed72 b6bd
00000030: 857a 23bd f0b0 ff3c 3b2d b83e fd4a debd
00000040: 7350 b2bd def2 fabc 27a0 04bd 3ef6 263e
00000050: 0c6a 463e f383 333c b542 643d 6432 973d
00000060: 40d1 3b3d b4e0 98bc 2946 11bd e691 243d
00000070: 430a 2f3e 4fca b8bd ee36 d13d c7de 853e
00000080: df2c 813d b8e0 6d3e 6f18 9cbd 819d 51be
00000090: 396d 13bc 71dc e1bd 59fa c53e f769 9b3e
000000a0: 6b2c b7be 4a8e 8b3e 223c 3a3e e40b a53e
000000b0: 27ee c33c 6733 60be ca55 5a3d 295f 873e
000000c0: 44db aabd 1392 a93e 3e91 f73e 3ce5 2a3e
000000d0: 1c81 cabd f798 71bd fbf7 a93d a030 1c3e
000000e0: 7c1d ad3d f870 8f3e b0fa ec3c 194e cd3e
000000f0: 1fe2 a33d afe0 d53d fda5 343e f3cd 94bd
0.21974042 0.27406985 -0.034883842 0.013207146 0.03824277 0.34134468 0.14824528 0.13798149
-0.032518562 0.17364123 0.10045911 -0.08908639 -0.039911766 0.0312123 0.35972008 -0.10854147
-0.08706751 -0.030633386 -0.032379296 0.16304871 0.19376391 0.010956752 0.05572768 0.07382658
0.045853853 -0.018661834 -0.0354673 0.040178202 0.17093758 -0.09022962 0.10215555 0.26146528
0.063073866 0.23230255 -0.07621848 -0.20470239 -0.008998209 -0.11028374 0.38667563 0.30354282
-0.35776076 0.27256995 0.18187001 0.32235634 0.02391727 -0.21894608 0.05330447 0.2643979
-0.08342603 0.33119258 0.48352998 0.16689008 -0.09887907 -0.05898377 0.08299252 0.15252924
0.08452889 0.28015876 0.02892813 0.40098646 0.080021136 0.104432456 0.17641445 -0.07265844

net.4.weight f4 [1, 64]
00000000: 4cdd ec3e 5936 aebe a6a0 e03e 506b c03e
00000010: bd92 373f 24d2 07bf 0b99 d3be d522 d63e
00000020: 9744 e3bc fef5 a5be a6f9 113e 7c26 903e
00000030: ba26 c6bd 3702 02bc 8236 bebe 9aaf ed3e
00000040: dfe5 d13e 4d1c 123f 28f5 153f b944 d2be
00000050: 2868 b8be e037 82be 8706 c83e be03 453e
00000060: 563b 88be 610d 953e cfb0 39be 1772 6b3d
00000070: 45e8 bdbe 2728 4e3e 66aa 9f3e 6abd cbbe
00000080: 91c7 05bd 232e b1be 23b4 123f dd5e 81be
00000090: b72f 033e 260c 1bbe 4ebd d7be 8eda e2be
000000a0: bdc8 5dbe 5301 69be 08d9 dfbe 812c b1be
000000b0: 25e4 cd3e b0db 90bd 1997 6e3e 5d5a 05bf
000000c0: ac73 753e 92fe ccbe 9cfd bbbe 9eaa 1a3f
000000d0: f1f7 48be 6b27 103f 5722 73be 09b4 e03e
000000e0: 5a80 933e 3087 f3be f1ad 30be 84ef 9dbe
000000f0: 0986 1c3f eb0a 003c 8771 a53e a5c1 9dbd
0.46262586 -0.3402584 0.43872565 0.37581873 0.7170828 -0.53055024 -0.413277 0.4182345
-0.027742667 -0.3241424 0.1425539 0.2815436 -0.09675355 -0.007935098 -0.3715096 0.46423036
0.4099569 0.57074434 0.58577204 -0.41068056 -0.36016965 -0.25433254 0.3906748 0.19239709
-0.2660777 0.2911177 -0.18133853 0.05748185 -0.3709127 0.20132504 0.3118469 -0.3979295
-0.032661024 -0.34605512 0.57306117 -0.25267687 0.1281117 -0.15141353 -0.42136616 -0.4430737
-0.21658607 -0.22754411 -0.4372027 -0.34604266 0.40213123 -0.07073152 0.23299827 -0.5209101
0.23969907 -0.40037972 -0.36716926 0.6041659 -0.19625832 0.5631015 -0.23743568 0.43887356
0.28808862 -0.47564077 -0.17253853 -0.30846798 0.6114202 0.007815103 0.32313177 -0.077029504

exp_avg f4 [64, 8]
00000000: 803d d6b8 e6fa b9b8 10f9 8438 c64f ef39
00000010: 8503 b13a 15f9 3738 ddf8 52b9 ee6b 83b9
00000020: 1538 4bb8 f703 54b8 e396 34b8 203c 6bb9
00000030: 6e7c 7bba 00ff 57b8 59b6 35b6 f271 a5b6
00000040: ee8f d6b8 1276 dfb8 d130 beb8 0b1e fab9
00000050: d0b9 e6ba 7bf2 e3b8 2892 bcb6 a663 27b7
00000060: edf3 b9ba 2573 c2ba 2724 bab9 d2ea 22bc
00000070: 2863 38bb 6963 41ba ee24 1ebb be4a 98bb
00000080: 03ed 7438 8a1a 5238 0b3a f238 e8ac 043a
00000090: 3a8c 5b3b 0634 8538 38df 8cb8 3c12 d5b8
000000a0: 9319 ad38 0232 b838 f770 8a38 57bb f239
000000b0: 8364 a73a d39e b838 a21d 6937 0af1 cf37
000000c0: 0f76 e63a fcb5 f33a 3e91 5e3a eb26 623c
000000d0: 8ea4 543c 4adc bb3a 28e2 013b db83 723b
000000e0: 7557 c63a e8ae d43a 2241 093a f168 523c
000000f0: d612 8d3b 6e91 953a a550 153b b8dd 943b
00000100: 0000 0000 0000 0000 0000 0000 0000 0000
00000110: 0000 0000 0000 0000 0000 0000 0000 0000
00000120: 0000 0000 0000 0000 0000 0000 0000 0000
00000130: 0000 0000 0000 0000 0000 0000 0000 0000
00000140: 0400 0000 0400 0000 0000 0000 0400 0000
00000150: 0400 0000 0400 0000 0400 0000 0400 0000
00000160: 5e8e c43a cc21 ce3a d271 363a 7cd9 353c
00000170: 8325 183c aa9d 913a dab9 ec3a 8f7c 683b
00000180: 80f9 0738 e771 2538 8fcd 9737 19eb 4e39
00000190: f4fa 053a 08bc 0738 be5b 1538 1246 ae38
000001a0: 7a12 65ba 7305 6dba 3d3d b8b9 97fe bebb
000001b0: 6946 a4bb 8cb0 11ba 396f 91ba 8c3e 0bbb
000001c0: 41c5 503a 4aff 5a3a 148b cc39 3668 d53b
000001d0: b7ea d73b 556e 323a 1960 4b3a 2883 ce3a
000001e0: b824 a6b9 5594 aab9 f279 f4b8 3b03 d8ba
000001f0: 15d2 b6ba 4b0c 55b9 afc2 a3b9 e21b 02ba
00000200: 0000 0000 0000 0000 0000 0000 0000 0000
00000210: 0000 0000 0000 0000 0000 0000 0000 0000
00000220: 4d61 b139 b39f c639 53f1 6439 5117 6e3b
00000230: 3111 5a3b 4fd0 a339 c292 0c3a 6695 a53a
00000240: 77b1 9b3a f304 a43a b08d 113a 8279 0f3c
00000250: cdbb f13b 234b 693a 607e bb3a 9add 373b
00000260: 0000 0000 0000 0000 0000 0000 0000 0000
00000270: 0000 0000 0000 0000 0000 0000 0000 0000
00000280: 571f 87b9 f4db 8bb9 97e2 47b8 f0a1 97ba
00000290: a445 edba bee8 a4b8 04f3 d7b9 6cdc 6dba
000002a0: 0000 0000 0000 0000 0000 0000 0000 0000
000002b0: 0000 0000 0000 0000 0000 0000 0000 0000
000002c0: d949 dd3a 3d0c e83a fd4f 573a c8ed 573c
000002d0: cf72 453c c856 b53a c7fd f53a 74a6 693b
000002e0: 0000 0000 0000 0000 0000 0000 0000 0000
000002f0: 0000 0000 0000 0000 0000 0000 0000 0000
00000300: 0400 0000 0400 0000 0400 0000 0400 0000
00000310: 0400 0000 0400 0000 0400 0000 0400 0000
00000320: 3bb1 4bba 20ef 51ba 6f7a 81b9 2e9c 8bbb
00000330: 521f 33bb dbbc f1b9 e639 7fba e1e3 dfba
00000340: 0000 0000 0000 0000 0000 0000 0000 0000
00000350: 0000 0000 0000 0000 0000 0000 0000 0000
00000360: 11b6 f4ba 2e7f 00bb 80cc 65ba cd15 45bc
00000370: 9603 53bc 59cb afba f894 0cbb 1224 89bb
00000380: 62d7 00ba 1adf 03ba 234e beb8 d2c1 37bb
00000390: 850c 73ba 2903 4db9 91f6 51ba 99e0 c4ba
000003a0: 0000 0000 0000 0000 0000 0000 0000 0000
000003b0: 0000 0000 0000 0000 0000 0000 0000 0000
000003c0: 0400 0000 0400 0000 0000 0000 0400 0000
000003d0: 0400 0000 0000 0000 0400 0000 0400 0000
000003e0: a59b 9a39 f45c 9f39 c09f 9339 43ae e13a
000003f0: 6d71 c23b 4168 9a39 b088 4b36 ba54 0738
-0.000102157705 -8.868221e-05 6.340642e-05 0.00045645068 0.0013505077 4.3862576e-05 -0.0002011987 -0.0002506668
-4.8451202e-05 -5.054843e-05 -4.305587e-05 -0.00022433745 -0.00095934316 -5.149748e-05 -2.7077242e-06 -4.930648e-06
-0.00010231124 -0.00010655461 -9.068999e-05 -0.000477061 -0.0017602984 -0.00010869369 -5.6198514e-06 -9.977177e-06
-0.0014187075 -0.0014835341 -0.0003550362 -0.009943681 -0.0028135274 -0.0007377179 -0.0024130899 -0.004647582
5.8394868e-05 5.0092618e-05 0.000115502706 0.00050611654 0.003350033 6.351624e-05 -6.717298e-05 -0.00010160028
8.2540464e-05 8.7831184e-05 6.601394e-05 0.00046297416 0.0012771044 8.803387e-05 1.3894782e-05 2.4788565e-05
0.0017582792 0.0018593664 0.00084902707 0.013803224 0.012978686 0.0014332619 0.0019818638 0.0037004862
0.0015132265 0.0016226443 0.0005235841 0.012842403 0.004305224 0.0011411139 0.0022783664 0.0045430325
0.0 0.0 0.0 0.0 0.0 0.0 0.0 0.0
0.0 0.0 0.0 0.0 0.0 0.0 0.0 0.0
6e-45 6e-45 0.0 6e-45 6e-45 6e-45 6e-45 6e-45
0.0014996042 0.0015726625 0.00069597096 0.011099216 0.009286287 0.001110961 0.0018060759 0.0035474633
3.2418873e-05 3.9445145e-05 1.8096323e-05 0.00019733272 0.00051109423 3.2361626e-05 3.560981e-05 8.310018e-05
-0.000873841 -0.00090416445 -0.0003514084 -0.0058286893 -0.0050132764 -0.00055576186 -0.0011095769 -0.0021246998
0.00079639634 0.0008354081 0.00039013533 0.006512667 0.0065892595 0.0006806602 0.0007758155 0.001575564
-0.00031689345 -0.00032535443 -0.00011657541 -0.0016480455 -0.0013948107 -0.00020317842 -0.00031234833 -0.00049632613
0.0 0.0 0.0 0.0 0.0 0.0 0.0 0.0
0.00033832566 0.00037884488 0.00021833675 0.0036329816 0.0033274407 0.00031244985 0.0005362445 0.0012633025
0.001187845 0.0012513682 0.0005552424 0.008756997 0.007377124 0.0008899441 0.001430463 0.0028055669
0.0 0.0 0.0 0.0 0.0 0.0 0.0 0.0
-0.00025772557 -0.00026676024 -4.7656325e-05 -0.0011568647 -0.001810242 -7.863481e-05 -0.00041189056 -0.0009073678
0.0 0.0 0.0 0.0 0.0 0.0 0.0 0.0
0.001688297 0.0017703843 0.00082135183 0.01317925 0.012051298 0.0013835067 0.0018767648 0.0035652192
0.0 0.0 0.0 0.0 0.0 0.0 0.0 0.0
6e-45 6e-45 6e-45 6e-45 6e-45 6e-45 6e-45 6e-45
-0.0007770245 -0.00080083497 -0.00024696017 -0.0042605614 -0.00273319 -0.0004610781 -0.00097361056 -0.0017081463
0.0 0.0 0.0 0.0 0.0 0.0 0.0 0.0
-0.0018669983 -0.0019607055 -0.00087661296 -0.0120291235 -0.012879273 -0.0013412043 -0.0021451097 -0.004185208
-0.0004914907 -0.0005030498 -9.07446e-05 -0.002803911 -0.000927158 -0.00019551501 -0.00080094585 -0.0015020549
0.0 0.0 0.0 0.0 0.0 0.0 0.0 0.0
6e-45 6e-45 0.0 6e-45 6e-45 0.0 6e-45 6e-45
0.00029489133 0.000303961 0.00028157048 0.0017218072 0.0059339316 0.00029450844 3.032892e-06 3.2265416e-05
