ppo_model.pt (torch, 42531 bytes, 11 tensors)

layers.0.weight f4 [64, 5]
0.38187423 0.15573142 0.3691445 -0.24849477 -0.33756354 0.30953807 0.14740364 0.60200465
0.09816643 -0.031470228 -0.18774214 0.25567254 1.173708 0.57088065 0.28103063 -0.42819294
-0.099034965 0.066978395 -0.34030443 -0.03614667 0.079509325 0.3855094 0.05380384 0.05099377
0.29442167 0.08115372 -0.32009238 0.6480128 0.6518528 -0.3240909 -0.2123989 -0.1932956
0.36284357 -0.08256352 -0.2405476 0.19847097 -0.036158368 -0.12068278 -0.13602485 0.16341543
0.42377684 -0.29472888 -0.67542475 -0.10429463 -0.016517961 -0.025901094 -0.31379855 1.2947359
0.5626184 -0.015642386 -0.4328156 0.22726193 0.09961994 -0.0010339553 0.21251668 0.38923815
0.2149548 0.873497 0.41202998 -0.26871455 -0.30976707 0.4323451 0.5496597 0.6843492
-0.122426726 0.036737718 0.057911903 0.8407094 0.37557578 -0.15044111 -0.19800606 0.34103614
0.8851165 0.34192398 0.21607661 -0.15338182 0.19488657 -0.16862366 -0.29705566 -0.14714831
-0.34502894 0.25555286 1.158471 0.45990255 0.06058448 -0.1667374 -0.06392693 0.7313485
0.46562168 0.14050949 -0.014670014 -0.12742999 0.2038027 -0.23444796 -0.38802114 0.03770815
-0.052669752 -0.21972339 -0.049751084 -0.19403517 -0.2243931 0.22087711 0.39010805 -0.096564114
-0.30259943 0.04467234 -0.07786219 0.6951255 0.54329264 0.32164797 -0.12561841 0.3557562
0.45121753 0.47211885 -0.06798704 0.3333485 0.20041677 0.91555285 0.4231965 -0.092263594
0.4153331 0.13320172 -0.29619712 -0.24812937 -0.25805426 -0.1288782 -0.24939147 -0.116716
-0.030372629 -0.010202088 0.27660412 0.18324214 0.06251925 -0.4226576 -0.11380717 -0.33160412
0.29287106 0.31097105 -0.13663971 -0.055154603 -0.03513893 0.29229802 1.0936245 0.23248237
-0.24263203 -0.11463031 0.33239925 -0.18255389 -0.022604734 -0.040778905 0.26388645 0.0008034733
0.62321544 0.31773517 -0.07944209 0.071469024 -0.05530046 0.69372946 0.34085464 -0.16772698
-0.10999786 -0.14830238 1.0030373 0.6122367 -0.3645943 0.6227615 -0.2882593 -0.48728964
-0.1616825 0.092514694 0.3847663 -0.33604193 0.5616263 0.15846685 0.17205468 -0.3448215
0.23279963 0.14806159 -0.11270437 0.21313448 -0.2653757 -0.47488633 -0.27688396 -0.43067077
0.39634803 -0.36253703 -0.2709291 0.9344115 0.26324332 0.0197858 -0.09158714 -0.32736972
-0.21107732 -0.19126458 0.10717269 -0.05739353 0.29690015 0.79686016 0.60630286 0.12372091
0.2494376 -0.13622922 0.11880239 -0.25492832 0.20872402 0.18516564 -0.17022762 -0.33391845
-0.31028217 -0.430249 -0.3598887 -0.07922629 0.043563567 0.026421148 -0.016532807 -0.37663436
0.6145662 1.1233367 0.46447906 -0.31234285 0.0887112 0.06767678 0.29382962 -0.39494985
-0.42469594 0.35118508 -0.15547824 -0.26496422 -0.2855157 -0.34914988 -0.29200608 0.16647473
0.347901 -0.33754268 0.23064044 0.12899388 -0.14329417 0.44080904 -0.25452572 0.1320341
0.13260949 -0.29213825 0.9805821 0.3319168 0.20757557 0.11390345 0.43781096 -0.23425962
-0.31841475 0.16790712 0.013919199 0.30632517 1.2707744 0.5335383 -0.19178857 -0.18119158
00000000: 0585 c33e 0f78 1f3e 8200 bd3e 6a75 7ebe
00000010: 21d5 acbe c67b 9e3e fbf0 163e fa1c 1a3f
00000020: 7b0b c93d ede6 00bd 7a3f 40be 83e7 823e
00000030: 103c 963f 3c25 123f 3fe3 8f3e 1b3c dbbe
00000040: d8d2 cabd f82b 893d 623c aebe 880e 14bd
00000050: c9d5 a23d 7d61 c53e 6a61 5c3d d8de 503d
00000060: 70be 963e ec33 a63d 26e3 a3be 2be4 253f
00000070: d3df 263f 3eef a5be 197f 59be 48ef 45be
00000080: a2c6 b93e 1017 a9bd 1c52 76be f93b 4b3e
00000090: cc1a 14bd 8928 f7bd 194a 0bbe 6056 273e
000000a0: 47f9 d83e b4e6 96be a3e8 2cbf 6c98 d5bd
000000b0: ad50 87bc 882e d4bc 34aa a0be e8b9 a53f
000000c0: c207 103f 7624 80bc 029a ddbe 5ab7 683e
000000d0: 8a05 cc3d c885 87ba f99d 593e 394a c73e
000000e0: 1c1d 5c3e 809d 5f3f 98f5 d23e f494 89be
000000f0: ca99 9ebe 565c dd3e 80b6 0c3f 8231 2f3f
00000100: ddba fabd 4a7a 163d 0835 6d3d bb38 573f
00000110: 784b c03e 3c0d 1abe 1ac2 4abe 4a9c ae3e
00000120: ff96 623f a910 af3e 3043 5d3e 2010 1dbe
00000130: 5890 473e aeab 2cbe ae17 98be 0cae 16be
00000140: a2a7 b0be d3d7 823e c748 943f 5978 eb3e
00000150: 6f27 783d 36bd 2abe 1fec 82bd a839 3b3f
00000160: f765 ee3e b8e1 0f3e 805a 70bc 027d 02be
00000170: a8b1 503e 2013 70be b5aa c6be dc73 1a3d
00000180: 3dbc 57bd 2bff 60be cbc7 4bbd 28b1 46be
00000190: 4ec7 65be 9c2d 623e 3ebc c73e 68c3 c5bd
000001a0: 50ee 9abe 58fa 363d 3676 9fbd bff3 313f
000001b0: 3a15 0b3f 0baf a43e 1da2 00be ad25 b63e
000001c0: fc05 e73e 90b9 f13e ca3c 8bbd a8ac aa3e
000001d0: 0e3a 4d3e ac61 6a3f 36ad d83e b2f4 bcbd
000001e0: 8aa6 d43e 0866 083e 26a7 97be a015 7ebe
000001f0: b01f 84be a6f8 03be 7a60 7fbe cc08 efbd
00000200: 05d0 f8bc a926 27bc 0e9f 8d3e d4a3 3b3e
00000210: 180a 803d 9466 d8be bc13 e9bd 04c8 a9be
00000220: 32f3 953e 9937 9f3e 48eb 0bbe cbe9 61bd
00000230: d7ed 0fbd 16a8 953e e3fb 8b3f dc0f 6e3e
00000240: 8874 78be 4cc3 eabd 3c30 aa3e 68ef 3abe
00000250: 902d b9bc c807 27bd 201c 873e 2ea0 523a
00000260: 0c8b 1f3f 2fae a23e 89b2 a2bd 5a5e 923d
00000270: bc82 62bd 4198 313f 8084 ae3e 9fc0 2bbe
00000280: 8f46 e1bd 94dc 17be 8763 803f 8bbb 1c3f
00000290: 1bac babe 4c6d 1f3f b996 93be 077e f9be
000002a0: 1990 25be 5878 bd3d 1700 c53e b00d acbe
000002b0: bec6 0f3f 2245 223e 1a2f 303e 728c b0be
000002c0: 0763 6e3e 759d 173e 8cd1 e6bd ed3f 5a3e
000002d0: 53df 87be 4d24 f3be bcc3 8dbe e180 dcbe
000002e0: 21ee ca3e 749e b9be 38b7 8abe 9835 6f3f
000002f0: d4c7 863e d415 a23c 0a92 bbbd 019d a7be
00000300: a724 58be ddda 43be 5b7d db3d 7a15 6bbd
00000310: 4c03 983e 07ff 4b3f aa36 1b3f 6361 fd3d
00000320: 926c 7f3e ac7f 0bbe ab4e f33d f785 82be
00000330: c0bb 553e 109c 3d3e 2650 2ebe 5cf7 aabe
00000340: 4edd 9ebe 9949 dcbe 5543 b8be 6541 a2bd
00000350: b66f 323d 2a71 d83c cf6f 87bc 38d6 c0be
00000360: 3654 1d3f 7fc9 8f3f 33d0 ed3e 67eb 9fbe
00000370: 38ae b53d 209a 8a3d d670 963e de36 cabe
00000380: bf71 d9be 88ce b33e b035 1fbe 64a9 87be
00000390: 1d2f 92be c6c3 b2be d281 95be 5a78 2a3e
000003a0: 1420 b23e 65d2 acbe 022d 6c3e f916 043e
000003b0: b5bb 12be b9b1 e13e 3251 82be f233 073e
000003c0: c8ca 073e 2593 95be 6e07 7b3f 00f1 a93e
000003d0: b18e 543e 3646 e93d c228 e03e c1e1 6fbe
000003e0: 4207 a3be d8ef 2b3e 5a0d 643c a7d6 9c3e
000003f0: bca8 a23f f795 083f 3964 44be 498a 39be

layers.0.bias f4 [64]
0.26879248 0.030603265 -0.36141562 0.01809293 -0.28861362 0.111316495 -0.30168533 -0.047794957
0.40834466 -0.18356323 -0.020652788 -0.023538787 -0.32674903 0.017019285 0.017531618 -0.001739949
0.08338589 -0.2192968 0.3330313 0.18954705 -0.09788433 0.06431298 0.17121662 -0.31283233
-0.15234283 0.073114984 -0.36427695 0.033908058 -0.00936508 -0.34272477 -0.3019581 0.091433786
0.19372316 0.5726008 -0.3521575 0.11674213 0.126723 -0.13112415 -0.11320678 -0.110270664
-0.025521096 -0.004721254 -0.039050184 0.061496686 0.17600036 -0.3575196 0.35581365 -0.07306119
-0.30371454 0.20884301 -0.17087796 -0.049883455 -0.025382442 0.24634998 0.05667719 -0.19818349
-0.19005492 -0.09654194 -0.2811375 -0.05888849 0.2498145 0.018454643 0.32873854 -0.38392678
00000000: 2b9f 893e b3b3 fa3c 780b b9be a037 943c
00000010: 2ac5 93be e7f9 e33d 8076 9abe a5c4 43bd
00000020: 8d12 d13e 00f8 3bbe 0930 a9bc 6ad4 c0bc
00000030: a64b a7be 076c 8b3c 789e 8f3c 000f e4ba
00000040: 39c6 aa3d 578f 60be 1483 aa3e 9f18 423e
00000050: 9477 c8bd 86b6 833d 6953 2f3e 8f2b a0be
00000060: c2ff 1bbe 4fbd 953d 8282 babe 2de3 0a3d
00000070: fe6f 19bc 9f79 afbe 419a 9abe a341 bb3d
00000080: 5d5f 463e f795 123f fd4d b4be 7f16 ef3d
00000090: adc3 013e 6945 06be f5d8 e7bd 96d5 e1bd
000000a0: 9e11 d1bc c0b4 9abb 16f3 1fbd f3e3 7b3d
000000b0: 7039 343e cf0c b7be 352d b63e 1ba1 95bd
000000c0: 7980 9bbe f1da 553e a2fa 2ebe 9852 4cbd
000000d0: d7ee cfbc 2b43 7c3e 5726 683d 9df0 4abe
000000e0: c29d 42be c8b7 c5bd 41f1 8fbe 0f35 71bd
000000f0: 5fcf 7f3e 312e 973c 6b50 a83e 0d92 c4be

layers.2.weight f4 [64, 64]
-0.121710226 0.12155464 -0.036744446 -0.10101634 0.090323806 -0.093553945 0.04941614 0.002572775
-0.086906046 0.09672718 -0.118153885 -0.014392421 0.040925846 -0.120184824 -0.1130534 -0.09165487
0.027653381 0.0050534606 0.07993209 0.045101598 -0.11920974 -0.09833881 0.017065898 -0.066427246
-0.012920514 0.035438612 -0.0846383 0.008519843 -0.0026447177 0.089638084 0.09009485 0.07883592
-0.024970397 -0.033575386 0.12103608 -0.07607955 0.05731459 -0.09786141 0.035039946 0.0343567
-0.096512094 -0.019301265 -0.10345578 -0.050274625 0.09736444 -0.074994236 -0.09100264 -0.12038326
0.03500995 0.08402626 -0.062705085 0.0076641887 0.018394217 -0.03995122 -0.106570244 -0.12014413
-0.122758195 0.08573331 -0.020475104 0.0500696 0.10018903 0.014018327 0.07621075 0.031269163
-0.09991418 0.11107366 0.089313634 0.040071502 0.03776905 0.05926875 -0.0012836158 -0.012505309
-0.08407561 0.057790756 0.08771096 0.25808814 0.13075472 0.00865374 0.09674284 0.054274634
0.16198614 0.11670439 0.07976265 0.077354126 0.013539046 0.1483251 0.22717027 0.16921645
0.08299367 -0.09875553 -0.11090523 0.047966715 0.2374898 -0.020834029 0.09966412 0.09950752
0.09510513 -0.07490208 0.16815557 -0.016137931 -0.13108331 0.031529933 0.092054926 0.10236509
0.05709935 0.07560068 0.03970006 0.0705568 -0.09714061 -0.05106972 -0.04887497 -0.07541571
0.005532439 -0.13724215 0.026575191 -0.075943515 0.1284679 0.09054596 0.12087595 0.224123
-0.059696134 0.11464986 -0.113366604 0.22944382 0.003883317 0.08237202 0.16682339 0.07022838
0.03565392 -0.045100443 -0.058401324 -0.05644135 0.01378843 -0.0067730807 -0.076438874 -0.10558615
0.022408811 -0.03662304 0.11494603 -0.11994481 0.09278723 0.0072485832 -0.057145447 0.11407232
-0.08435548 -0.008515318 0.024873659 0.05045518 0.06134121 0.105904594 0.08670509 0.049290515
-0.05554992 -0.057183333 0.04309936 0.050587416 0.018411133 0.08902629 -0.015746383 0.027215064
-0.12022983 0.06458906 0.027854059 0.023479765 0.021539683 0.051085178 0.0232552 0.017667344
-0.018471986 0.11392781 0.09282595 -0.10478698 0.09206636 -0.07807152 -0.06606293 -0.08722216
0.035335936 0.093899064 0.07004317 -0.08429666 -0.09243082 -0.013865649 -0.12509966 0.097934745
-0.050398268 -0.032589078 -0.11718969 0.040845472 -0.08245826 -0.08360598 -0.12443748 0.03746382
0.031761486 -0.12525748 -0.0063344594 0.020447135 -0.09613436 -0.062200733 0.06753954 0.10593996
-0.13033503 -0.12515832 0.16660722 0.10606689 -0.046901226 0.035353314 -0.11374704 -0.08725679
0.03190838 0.04970947 0.011064902 0.004008243 0.09325476 -0.06788981 0.06649049 0.05918341
0.047216535 0.06444332 -0.007273987 0.087173566 0.02096786 0.061218947 -0.12262808 -0.10929363
-0.0032164718 0.012464678 -0.061796952 -0.09568623 0.1538474 -0.09701277 0.040457897 -0.044570062
-0.049723107 0.103032395 -0.074815795 0.025875794 -0.122599125 0.08177094 0.047603693 0.0951125
-0.079643264 -0.0640268 -0.100103214 0.050120458 0.06637724 0.08432235 0.09810775 0.010443742
0.007815886 0.017233476 -0.0895253 0.003590397 -0.022662165 0.024863385 -0.06054365 0.1455407
00000000: 3643 f9bd a4f1 f83d 5881 16bd a8e1 cebd
00000010: b0fb b83d 3699 bfbd 9468 4a3d 009c 283b
00000020: ccfb b1bd e618 c63d aafa f1bd 30ce 6bbc
00000030: dca1 273d 7623 f6bd 8a88 e7bd 8cb5 bbbd
00000040: 5889 e23c 8097 a53b 70b3 a33d 74bc 383d
00000050: 3c24 f4bd dc65 c9bd c8cd 8b3c 020b 88bd
00000060: 90b0 53bc 1428 113d d856 adbd d096 0b3c
00000070: 0053 2dbb 2c94 b73d a683 b83d ba74 a13d
00000080: b88e ccbc 5886 09bd c4e1 f73d 98cf 9bbd
00000090: b4c2 6a3d 906b c8bd 0c86 0f3d 9cb9 0c3d
000000a0: 22a8 c5bd b01d 9ebc a0e0 d3bd c4ec 4dbd
000000b0: 0267 c73d 9496 99bd 985f babd 808b f6bd
000000c0: 9866 0f3d f615 ac3d 866b 80bd e023 fb3b
000000d0: 78af 963c e4a3 23bd 8041 dabd 200e f6bd
000000e0: a668 fbbd f294 af3d 68bb a7bc c815 4d3d
000000f0: e82f cd3d 20ad 653c 6214 9c3d 1814 003d
00000100: ce9f ccbd 967a e33d 11ea b63d 0422 243d
00000110: b8b3 1a3d cac3 723d 003f a8ba 11e3 4cbc
00000120: d52f acbd 00b6 6c3d cea1 b33d 2124 843e
00000130: 91e4 053e 6bc8 0d3c 1c21 c63d 144f 5e3d
00000140: b2df 253e b602 ef3d 9a5a a33d d76b 9e3d
00000150: e0d2 5d3c 89e2 173e 539f 683e 1447 2d3e
00000160: 96f8 a93d 5740 cabd 4822 e3bd bf78 443d
00000170: 8730 733e 20ac aabc b41c cc3d 99ca cb3d
00000180: 7ac6 c23d 4366 99bd f930 2c3e b233 84bc
00000190: b43a 06be 8825 013d 4b87 bc3d caa4 d13d
000001a0: 02e1 693d 88d4 9a3d 889c 223d 1580 903d
000001b0: a8f1 c6bd 7c2e 51bd 1f31 48bd 8d73 9abd
000001c0: 7649 b53b 3589 0cbe 37b4 d93c 4688 9bbd
000001d0: 178d 033e 2970 b93d cf8d f73d 8080 653e
000001e0: ef83 74bd 8ccd ea3d c02c e8bd 52f3 6a3e
000001f0: 407f 7e3b a9b2 a83d c0d3 2a3e e6d3 8f3d
00000200: d809 123d 3ebb 38bd 3a36 6fbd 0c2f 67bd
00000210: dee8 613c b8f0 ddbb fc8b 9cbd 8d3d d8bd
00000220: af92 b73c 0a02 16bd d368 eb3d a0a5 f5bd
00000230: 3b07 be3d 8685 ed3b 5811 6abd c09e e93d
00000240: 91c2 acbd d583 0bbc d8c3 cb3c 17aa 4e3d
00000250: ec40 7b3d 82e4 d83d 7092 b13d dae4 493d
00000260: 5088 63bd 1239 6abd f488 303d c034 4f3d
00000270: f2d2 963c 6a53 b63d 8ffe 80bc 20f2 de3c
00000280: 0f3b f6bd 4547 843d 322e e43c a358 c03c
00000290: fd73 b03c b13e 513d b081 be3c 1bbb 903c
000002a0: 9052 97bc fc52 e93d 881b be3d 8e9a d6bd
000002b0: 4a8d bc3d f6e3 9fbd 004c 87bd 88a1 b2bd
000002c0: 6abc 103d 274e c03d cb72 8f3d baa3 acbd
000002d0: 5f4c bdbd bf2c 63bc 201a 00be 0392 c83d
000002e0: 6a6e 4ebd 207c 05bd 2601 f0bd 954d 273d
000002f0: e0df a8bd 9d39 abbd 14d9 febd aa73 193d
00000300: 5518 023d 7f43 00be 4c91 cfbb c080 a73c
00000310: 17e2 c4bd 32c6 7ebd 2c52 8a3d 0df7 d83d
00000320: 8c76 05be 8129 00be 159b 2a3e 9939 d93d
00000330: 801b 40bd a3ce 103d 35f4 e8bd b0b3 b2bd
00000340: 5db2 023d 289c 4b3d 9049 353c 9457 833b
00000350: 5afc be3d d009 8bbd 2b2c 883d 4e6a 723d
00000360: 2066 413d dcfa 833d a05a eebb 0e88 b23d
00000370: cac4 ab3c b8c0 7a3d 6e24 fbbd 57d5 dfbd
00000380: 71cb 52bb a638 4c3c cd1e 7dbd 24f7 c3bd
00000390: 2c8a 1d3e a2ae c6bd 2eb7 253d 198f 36bd
000003a0: 75aa 4bbd a602 d33d 0639 99bd 79f9 d33c
000003b0: 4015 fbbd 8677 a73d 17fc 423d 58ca c23d
000003c0: 021c a3bd 7c20 83bd ea02 cdbd 1c4b 4d3d
000003d0: caf0 873d 32b1 ac3d b7ec c83d 3b1c 2b3c
000003e0: 340e 003c 382d 8d3c 0a59 b7bd de4c 6b3b
000003f0: 01a6 b9bc 4cae cb3c 9efc 77bd 9f08 153e

layers.2.bias f4 [64]
-0.067375556 0.022513362 -0.06267521 -0.03134298 0.10073268 -0.014758754 0.1057263 0.023848835
0.020753272 -0.18845223 -0.07263042 -0.0846737 -0.016767105 0.025113538 0.043948423 -0.078126565
-0.054199353 -0.07646615 0.047399905 0.039742343 -0.20728233 -0.07612223 -0.10897209 0.027505592
0.029177621 -0.0873302 0.0533055 0.058963537 -0.043823212 -0.2636489 0.0023289854 0.07336973
-0.06643522 -0.05545728 0.055165093 -0.100636676 -0.050234675 0.05499475 0.109768644 0.045904912
-0.06388495 -0.10342544 0.009003868 0.07750944 -0.023906574 0.0036454545 -0.06800649 -0.060811482
-0.12224051 -0.13126253 -0.072619975 -0.15861763 0.046448648 0.07465979 -0.10982007 -0.11673916
-0.032243855 0.073447034 0.0316452 -0.038970094 0.026792523 -0.051458087 0.041780774 0.13170554
00000000: 32fc 89bd f16d b83c dc5b 80bd 7f61 00bd
00000010: ef4c ce3d b3ce 71bc 0887 d83d a25e c33c
00000020: c402 aa3c 9ff9 40be 42bf 94bd 6869 adbd
00000030: 2b5b 89bc e8ba cd3c 4303 343d d200 a0bd
00000040: 2400 5ebd 499a 9cbd 6726 423d dec8 223d
00000050: d241 54be f9e5 9bbd c22c dfbd 6853 e13c
00000060: e805 ef3c 2dda b2bd de56 5a3d c083 713d
00000070: f87f 33bd fdfc 86be e4a1 183b de42 963d
00000080: 300f 88bd 2c27 63bd cbf4 613d 9a1a cebd
00000090: e0c2 4dbd 2d42 613d 62ce e03d ca06 3c3d
000000a0: 1dd6 82bd b8d0 d3bd f684 133c 45bd 9e3d
000000b0: b8d7 c3bc 94e8 6e3b fd46 8bbd 7615 79bd
000000c0: 3c59 fabd af69 06be c8b9 94bd a96c 22be
000000d0: f040 3e3d 3be7 983d 58e9 e0bd f114 efbd
000000e0: 2212 04bd 666b 963d 669e 013d 1b9f 1fbd
000000f0: fe7b db3c b7c5 52bd 5122 2b3d d1dd 063e

layers.4.weight f4 [4, 64]
-0.12314455 0.12114776 -0.08527011 0.07972249 -0.099110276 0.08832016 0.11612697 -0.074651614
0.13587944 0.12398024 0.1671626 0.020923005 -0.013787293 0.13071835 -0.04617692 0.056358583
-0.05136289 -0.05447141 0.049500756 -0.03069021 0.2085554 0.033521865 0.00012131297 -0.09151034
-0.067166574 -0.070230655 -0.06292485 0.08777338 0.06404356 0.24460858 0.058212265 -0.06643707
0.020157956 0.100329585 -0.013512907 -0.080977716 0.09923621 -0.07930241 0.15158659 -0.059861902
-0.041196957 0.073415354 -0.12100485 -0.09279357 0.034351304 -0.106427 0.15068439 -0.04323365
-0.12348582 -0.08351615 0.13212745 0.13466628 0.06429152 0.049174324 0.09781486 -0.05298184
-0.16408241 0.07134042 0.071530744 -0.03212441 0.09028069 0.06993432 -0.14293188 0.067681774
-0.10340589 0.043084092 0.049251225 0.025881095 -0.10736855 -0.044026118 0.066006266 0.0634362
-0.045518205 0.01295593 -0.029816067 -0.11460001 0.07287252 0.13605411 0.027224606 0.0072006206
-0.12988985 -0.0071448768 -0.026732514 0.062052224 0.15206224 0.025330378 -0.056556102 0.0037056375
-0.0106367 -0.18216401 0.08519373 -0.0154033005 0.09127633 0.018620899 0.022277646 0.102549836
-0.006631493 0.052345242 0.013117517 -0.097123064 0.01378513 0.009338676 0.09190394 -0.028776897
-0.07170445 -0.004531407 -0.044940203 0.027266597 0.08621289 0.11462413 0.036653075 0.021881383
0.06490111 0.025413187 0.0034835984 0.047761217 0.03346539 -0.07069931 -0.030282766 0.10130045
-0.13331753 -0.0045250766 -0.10167171 0.029518804 -0.013095542 0.07463448 0.094797485 0.24880363
0.0020352006 0.2479638 0.076282114 -0.08668251 -0.032122523 -0.074645825 -0.01576263 0.029490687
-0.014355709 -0.07008018 0.11915469 -0.10981542 0.26969498 -0.16162805 0.024704129 -0.09861908
0.006966798 0.103330486 0.058888786 -0.09624676 -0.0076182904 0.09977104 0.026506139 0.07351292
0.09076354 -0.015934585 0.042909715 0.1195731 -0.0644627 -0.0505314 -0.071288735 0.03835076
0.029694097 0.012538143 -0.019621745 0.069158286 -0.073052146 -0.10458908 -0.033004172 -0.083956786
-0.09545135 0.0037652706 -0.10375483 0.06774629 0.11314422 0.040627107 0.19675969 0.043526225
-0.035626903 0.018360049 -0.13016552 0.14215443 0.022344932 0.018061172 -0.07533394 0.11973791
0.052808944 0.004338543 -0.072387934 -0.06177447 -0.04130029 0.09905845 0.016507978 0.052485432
0.1000911 0.54836094 -0.05169331 0.13168442 0.000418787 -0.099968605 -0.023898343 0.03681664
0.03519806 0.0054926537 -0.0034690062 -0.019116577 0.2371161 0.33372903 0.056264777 0.40880942
0.14966926 -0.06632424 0.050647203 -0.09516389 0.2285666 0.5207898 0.49414977 -0.00029732005
-0.0022903578 0.2562952 0.21591344 0.057991624 0.049348358 0.20914964 -0.044471085 -0.01407469
-0.100221105 0.057553135 -0.09011858 -0.06993976 0.08165713 -0.038823914 0.073862374 -0.042644326
0.005336984 0.046084244 -0.09679116 0.5700555 0.0047142357 0.01712302 0.09477758 -0.044318818
0.05960007 0.32024613 0.69452006 0.08974746 -0.032471836 0.57322496 -0.12183848 -0.11832379
0.21361816 0.63372725 -0.09176051 0.41353753 0.07926291 0.04154596 0.010387315 -0.04243091
00000000: 3633 fcbd 511c f83d 18a2 aebd 8b45 a33d
00000010: 54fa cabd 33e1 b43d fad3 ed3d f2e2 98bd
00000020: fb23 0b3e 5ae9 fd3d ac2c 2b3e b966 ab3c
00000030: 19e4 61bc 08db 053e 0324 3dbd 42d8 663d
00000040: e561 52bd 6a1d 5fbd 4ec1 4a3d 096a fbbc
00000050: 8c8f 553e 394e 093d 6869 fe38 c669 bbbd
00000060: a18e 89bd 17d5 8fbd bede 80bd 88c2 b33d
00000070: 4529 833d ac7a 7a3e fc6f 6e3d 2910 88bd
00000080: 4c22 a53c 9979 cd3d 3d65 5dbc a5d7 a5bd
00000090: 5b3c cb3d 4d69 a2bd 8439 1b3e c131 75bd
000000a0: 24be 28bd ca5a 963d 64d1 f7bd 8e0a bebd
000000b0: f4b3 0c3d 66f6 d9bd 024d 1a3e c515 31bd
000000c0: 22e6 fcbd 840a abbd 6b4c 073e f5e5 093e
000000d0: 46ab 833d 046b 493d 2853 c83d 7c03 59bd
000000e0: 3805 28be ed1a 923d b67e 923d e394 03bd
000000f0: 15e5 b83d ba39 8f3d bc5c 12be be9c 8a3d
00000100: 78c6 d3bd f278 303d a7bb 493d 9704 d43c
00000110: 0be4 dbbd bb54 34bd 4b2e 873d d7ea 813d
00000120: 4c71 3abd 1c45 543c d340 f4bc 69b3 eabd
00000130: 303e 953d c551 0b3e 2306 df3c 2ff3 eb3b
00000140: d801 05be 921f eabb 25fe dabc 792a 7e3d
00000150: 34b6 1b3e a781 cf3c 5fa7 67bd 48da 723b
00000160: 8e45 2ebc 3489 3abe 0d7a ae3d 205e 7cbc
00000170: 16ef ba3d db8a 983c 9c7f b63c a605 d23d
00000180: ff4c d9bb f767 563d dbea 563c 75e8 c6bd
00000190: 07db 613c 3f01 193c 2238 bc3d 87bd ebbc
000001a0: c8d9 92bd 327c 94bb 3813 38bd 335e df3c
000001b0: 6290 b03d 0ec0 ea3d 8921 163d 9640 b33c
000001c0: e0ea 843d 512f d03c 154d 643b 44a1 433d
000001d0: 0113 093d cdca 90bd 9013 f8bc 9c76 cf3d
000001e0: 6484 08be 1847 94bb 4239 d0bd 6bd1 f13c
000001f0: af8e 56bc f6d9 983d 2f25 c23d 61c6 7e3e
00000200: 0061 053b 39ea 7d3e cc39 9c3d 9a86 b1bd
00000210: e892 03bd e9df 98bd a220 81bc 7496 f13c
00000220: 3534 6bbc 3386 8fbd 6007 f43d e8e6 e0bd
00000230: 7615 8a3e d381 25be 5060 ca3c cdf8 c9bd
00000240: bd49 e43b ef9e d33d 5e35 713d 051d c5bd
00000250: daa2 f9bb c254 cc3d 6723 d93c f18d 963d
00000260: 3ce2 b93d 3f89 82bc 19c2 2f3d bee2 f43d
00000270: 0505 84bd 03fa 4ebd d4ff 91bd b015 1d3d
00000280: 0941 f33c c96c 4d3c c8bd a0bc dca2 8d3d
00000290: 5d9c 95bd cd32 d6bd 622f 07bd 89f1 abbd
000002a0: ff7b c3bd c2c2 763b 6a7d d4bd 91be 8a3d
000002b0: 28b8 e73d 9c68 263d 5f7b 493e 8e48 323d
000002c0: 84ed 11bd d067 963c 1c4a 05be ee90 113e
000002d0: b80c b73c 06f5 933c ae48 9abd 2639 f53d
000002e0: 314e 583d 562a 8e3b 2040 94bd 3a07 7dbd
000002f0: 7e2a 29bd 28df ca3d bd3b 873c f7fa 563d
00000300: 90fc cc3d 6261 0c3f 5dbc 53bd 48d8 063e
00000310: a490 db39 57bc ccbd 75c6 c3bc 0ccd 163d
00000320: d72b 103d b8fb b33b 4458 63bb 5e9a 9cbc
00000330: 90ce 723e 88de aa3e e575 663d 784f d13e
00000340: e642 193e 01d5 87bd 7173 4f3d 49e5 c2bd
00000350: 5d0d 6a3e 7b52 053f 3301 fd3e 9fe1 9bb9
00000360: d419 16bb 2039 833e 6a18 5d3e a088 6d3d
00000370: 8121 4a3d 532b 563e 5027 36bd 8799 66bc
00000380: b940 cdbd d6bc 6b3d 1790 b8bd 943c 8fbd
00000390: da3b a73d d305 1fbd 2845 973d d1ab 2ebd
000003a0: dee1 ae3b d5c2 3c3d 723a c6bd 28ef 113f
000003b0: e079 9a3b 9345 8c3c bf1a c23d a687 35bd
000003c0: 341f 743d 4df7 a33e 11cc 313f 84cd b73d
000003d0: 3001 05bd dfbe 123f 7486 f9bd be53 f2bd
000003e0: b8be 5a3e f33b 223f efec bbbd 31bb d33e
000003f0: 9854 a23d 192c 2a3d 8f2f 2a3c 09cc 2dbd

layers.4.bias f4 [4]
0.1259034 0.32826334 0.35473776 0.37857744
00000000: d2ec 003e 2212 a83e 30a0 b53e e7d4 c13e

layers.0.weight f4 [64, 5]
-0.18728712 -0.061463933 1.7351414 -0.28961864 -0.14680006 0.9948854 0.20699564 -1.0844337
-0.12305756 0.577394 -0.37211028 -0.040465854 0.43016145 -0.3708336 0.092818685 1.5092967
0.7832451 -1.4143085 -0.1424689 0.11775339 0.17319599 0.47421905 -1.496953 0.15931933
-0.19677158 -0.0759595 -0.24346584 0.35440534 -0.015988111 -0.40331408 -0.15612188 -0.43286407
-0.438681 -0.2752946 -0.40221602 0.2276076 -0.4427867 -0.42099288 -0.08120088 -0.22533984
0.24615508 -0.24273093 0.074525416 -0.19357657 -0.16189975 2.0228515 0.96187615 -1.4245391
-0.1422741 -0.16557966 0.13418 0.38426808 0.46952245 0.25649235 -0.11670116 0.23798318
0.011247523 0.39969552 -0.38725507 -0.023584101 -0.6670604 -0.48424384 0.8785421 -0.006471889
-0.13354471 0.85767645 0.37786984 -2.1804664 0.10502169 -0.09912484 -0.36509368 0.032105446
0.44060767 -0.23884028 -0.11238909 -0.21180344 -0.2491824 2.3011703 -0.16568148 0.07270854
-0.22794433 -0.29306877 0.76256007 0.26208133 -0.048783753 1.5849591 0.77573985 -1.1706145
-0.026156018 0.103553586 2.623099 1.4044267 -6.398844 0.14603537 0.0670588 1.54767
0.82528317 -3.5735834 0.09231356 0.16580014 -0.35938707 0.39677763 3.132154 -0.2072997
0.25485826 0.23439988 -0.29957572 0.3892156 -0.1741995 -0.37110505 -0.57436514 0.08454446
3.2308686 -0.16074124 0.12365949 -0.15828735 0.2602107 0.15512854 -0.1999066 -0.0874563
-0.4314816 0.17705785 0.42269993 -0.04759933 -0.09539829 -1.7951341 -0.7615948 5.3116846
0.2692535 0.32658768 -0.98902595 -0.30170944 3.1273289 0.14183831 0.22030464 -0.44316202
-0.231818 -0.109478146 -0.041926593 0.02897127 2.8584223 1.7949643 -7.4968896 -0.09879035
-0.13984616 0.034205027 -0.072165504 0.22892633 -0.14825204 -0.18576005 -0.26231384 0.2085895
-0.24727717 -0.35586345 -0.29012805 -0.11369134 -0.2944976 1.7490603 -0.14890186 -0.08038287
-0.30317414 -0.535104 2.0016892 -0.10715308 0.056739762 -0.21759354 0.1998968 0.42494917
-0.31828415 -0.43800682 -0.13272926 -0.35365868 -0.21427996 -0.26522905 -0.11362082 -0.18059877
0.01731655 -0.069437206 -0.041516155 -0.22333954 -0.11885877 -0.040232975 -0.2003132 -0.17114227
0.0062377723 0.38193542 0.25713894 -0.8325866 0.003568207 0.30690444 1.9861256 1.2514583
-5.3246255 -0.058961786 0.46885964 0.22691096 0.1293291 -0.97040445 0.108047046 0.09628897
-0.030031849 0.2668944 0.4824776 -0.027768647 -0.2706824 -0.90933704 0.10306402 4.311623
-0.10535033 -0.15462393 -0.5471434 -0.34771144 1.7316699 -0.11957087 -0.02244013 1.3611982
0.87676805 -3.410647 0.0057041906 0.43989506 0.4736333 0.40735635 0.8072265 -0.15770514
-0.08116035 -1.0510497 -0.13671862 2.6924028 0.17043422 0.03126901 -0.6833356 -0.117654406
3.8955483 -0.1694973 0.05529499 0.13428414 -0.17413607 -0.027778119 -0.031845868 -0.26427016
1.0024261 0.32349592 0.73278236 -0.0036189598 0.16007057 -0.40429702 0.08117843 2.377287
-0.11231934 -0.013493146 -1.4398829 -0.37670124 5.0296593 -0.25406405 0.6756219 -0.22732235
00000000: 32c8 3fbe 9bc1 7bbd 1d19 de3f e548 94be
00000010: c152 16be cfb0 7e3f aaf6 533e b9ce 8abf
00000020: 9a05 fcbd 18d0 133f 3d85 bebe 86bf 25bd
00000030: 1f3e dc3e e7dd bdbe b917 be3d a230 c13f
00000040: c082 483f 1008 b5bf 5ee3 11be b028 f13d
00000050: 4a5a 313e d7cc f23e 289c bfbf 9b24 233e
00000060: 7d7e 49be a890 9bbd 1c4f 79be 9e74 b53e
00000070: 80f9 82bc 2f7f cebe 6ade 1fbe 5ca0 ddbe
00000080: cc9a e0be 6af3 8cbe 42ef cdbe f711 693e
00000090: f0b4 e2be 618c d7be a64c a6bd 7dbf 66be
000000a0: 1410 7c3e 758e 78be c8a0 983d f038 46be
000000b0: 0cc9 25be 6676 0140 843d 763f 4c57 b6bf
000000c0: 4db0 11be b78d 29be 7b66 093e c9be c43e
000000d0: 3f65 f03e f752 833e 0501 efbd ddb1 733e
000000e0: 8847 383c e4a4 cc3e 4c46 c6be 7233 c1bc
000000f0: 78c4 2abf cfee f7be 23e8 603f 2412 d4bb
00000100: f2bf 08be af90 5b3f 2878 c13e c38c 0bc0
00000110: 9d15 d73d f701 cbbd 8fed babe 0081 033d
00000120: 5497 e13e 8c92 74be 402c e6bd 00e3 58be
00000130: ac29 7fbe 6046 1340 68a8 29be 37e8 943d
00000140: 3d6a 69be 1c0d 96be 2337 433f 862f 863e
00000150: 79d1 47bd f1df ca3f e396 463f b2d6 95bf
00000160: 2545 d6bc e713 d43d dbe0 2740 41c4 b33f
00000170: 54c3 ccc0 4c8a 153e 2056 893d 0d1a c63f
00000180: c245 533f 97b5 64c0 e40e bd3d 83c7 293e
00000190: 9501 b8be 7026 cb3e 3675 4840 5f46 54be
000001a0: c87c 823e 8606 703e fd61 99be 4447 c73e
000001b0: 5b61 32be 7b01 bebe 9809 13bf a525 ad3d
000001c0: 8dc6 4e40 5a99 24be 3041 fd3d 1416 22be
000001d0: 563a 853e 04da 1e3e 51b4 4cbe 4a1c b3bd
000001e0: 28eb dcbe a74e 353e 206c d83e 84f7 42bd
000001f0: 2e60 c3bd f4c6 e5bf e0f7 42bf 52f9 a940
00000200: 98db 893e 8036 a73e ce30 7dbf a979 9abe
00000210: 2826 4840 103e 113e 8a97 613e 22e6 e2be
00000220: b361 6dbe 1436 e0bd 38bb 2bbd 2855 ed3c
00000230: 64f0 3640 64c1 e53f 85e6 efc0 9852 cabd
00000240: d533 0fbe 921a 0c3d 82cb 93bd aa6b 6a3e
00000250: 62cf 17be e237 3ebe 004e 86be 7c98 553e
00000260: 3a36 7dbe bc33 b6be aa8b 94be 01d7 e8bd
00000270: 64c8 96be 35e1 df3f bb79 18be c69f a4bd
00000280: a439 9bbe 93fc 08bf ad1b 0040 1373 dbbd
00000290: f467 683d d7d0 5ebe bfb1 4c3e f092 d93e
000002a0: 24f6 a2be 6e42 e0be 2eea 07be c012 b5be
000002b0: 356c 5bbe 1acc 87be 08b2 e8bd e2ee 38be
000002c0: 70db 8d3c 1835 8ebd d80c 2abd 1fb3 64be
000002d0: 3a6c f3bd 55cb 24bd e71e 4dbe eb3f 2fbe
000002e0: 3a66 cc3b 0a8d c33e b7a7 833e 6524 55bf
000002f0: 94d8 693b 9422 9d3e 5d39 fe3f c92f a03f
00000300: 5563 aac0 ea81 71bd 5f0e f03e 595b 683e
00000310: d96e 043e 6d6c 78bf c547 dd3d 2733 c53d
00000320: 5a05 f6bc 62a6 883e 4e07 f73e 137b e3bc
00000330: e296 8abe 50ca 68bf 3b13 d33d d1f8 8940
00000340: eac1 d7bd bc55 1ebe 9711 0cbf 3c07 b2be
00000350: 5ca7 dd3f 93e1 f4bd 5dd4 b7bc be3b ae3f
00000360: df73 603f 0a48 5ac0 38ea ba3b ed39 e13e
00000370: 1080 f23e 0391 d03e 65a6 4e3f 757d 21be
00000380: 6637 a6bd cc88 86bf f7ff 0bbe 5450 2c40
00000390: 4f86 2e3e ef13 003d 15ef 2ebf cbf4 f0bd
000003a0: aa50 7940 b390 2dbe 007d 623d c881 093e
000003b0: ba50 32be f08e e3bc d070 02bd 6b4e 87be
000003c0: 804f 803f 42a1 a53e a097 3b3f 122c 6dbb
000003d0: 8ae9 233e 0500 cfbe e040 a63d 7825 1840
000003e0: af07 e6bd 5b12 5dbc 154e b8bf fcde c0be
000003f0: f8f2 a040 af14 82be 8ff5 2c3f 31c7 68be

layers.0.bias f4 [64]
0.20377603 0.003812302 -0.27502665 0.011230147 0.43291417 -0.26117736 -0.2801314 0.29502806
0.010777563 0.18160582 -0.04045471 0.35478714 0.31908754 0.34578505 -0.21696258 0.36892593
0.58151144 0.0028240378 -0.17278604 -0.3181066 0.4001072 0.337221 0.40423152 0.42042196
0.20414028 0.67611575 -0.099422224 -0.3914549 -0.4891016 0.41416955 0.4471857 0.04079578
0.514693 0.3874836 -0.35753158 -0.35952473 -0.18938789 0.16661708 -0.3991972 -0.044728335
-0.044497535 0.6299762 -0.04642104 -0.46518788 -0.21263002 0.22951917 0.46945933 -0.081982136
0.32012737 0.39501053 0.4548968 0.36071476 -0.3957885 -0.0032315864 -0.3118636 -0.15707336
-0.20317388 0.056443606 0.749387 0.93695104 0.41654152 -0.36033058 0.6130116 0.29626593
00000000: aaaa 503e d0d7 793b 4bd0 8cbe a7fe 373c
00000010: eda6 dd3e 0ab9 85be 626d 8fbe eb0d 973e
00000020: 6094 303c e0f6 393e d7b3 25bd a9a6 b53e
00000030: 715f a33e bd0a b13e 702b 5ebe dce3 bc3e
00000040: efdd 143f 7e13 393b d3ee 30be dede a2be
00000050: dada cc3e 3ba8 ac3e 6ff7 ce3e 8c41 d73e
00000060: 260a 513e ec15 2d3f e19d cbbd c76c c8be
00000070: 866b fabe 080e d43e 86f5 e43e 7a19 273d
00000080: ecc2 033f 4064 c63e 610e b7be a013 b8be
00000090: e6ee 41be ab9d 2a3e 9363 ccbe 0f35 37bd
000000a0: 0c43 36bd 1f46 213f fd23 3ebd 1b2d eebe
000000b0: afbb 59be 1307 6b3e f95c f03e 40e6 a7bd
000000c0: bce7 a33e d23e ca3e 3ce8 e83e 9baf b83e
000000d0: caa4 cabe 06c9 53bb 96ac 9fbe d7d7 20be
000000e0: d00c 50be 6931 673d d4d7 3f3f 06dc 6f3f
000000f0: ee44 d53e 407d b8be 54ee 1c3f 2bb0 973e

layers.2.weight f4 [64, 64]
-0.016215572 -0.14100067 0.013160027 -0.20390642 -0.11049592 0.068419605 -0.07506876 0.0014102871
-0.10294968 -0.055607293 0.0511204 0.031538468 0.075817004 -0.1281872 -0.11877923 0.060473554
-0.053035457 -0.05090185 0.009381089 -0.041543953 -0.107857995 -0.10191962 0.0047035716 -0.017796343
-0.03455405 -0.119102955 -0.116520174 -0.056662213 0.037433 0.078491546 0.016262263 -0.03854511
0.031033903 0.038008705 -0.02961868 -0.013000742 -0.006247498 0.17372732 0.074028395 -0.117420755
0.053413596 0.084707126 0.14680909 0.0017656819 -0.14174704 -0.20434599 -0.13887714 -0.053463638
-0.08296718 -0.054367486 0.035587117 0.15696295 0.058994204 0.114926375 -0.015328303 -0.0753499
0.10087308 -0.023339448 -0.06895551 -0.05869742 0.028823668 -0.10434988 -0.115237765 0.061580922
-0.095899045 0.07852336 -0.05870147 0.09570693 0.04277844 -0.06784749 0.03248188 -0.07865113
-0.041922167 -0.074200206 0.027333155 0.100793324 0.085528806 -0.015950268 -0.014403626 0.02188398
-0.058197476 -0.07988564 -0.12271926 0.098149315 -0.12387897 0.041974753 0.014927471 -0.071968004
-0.094852194 0.0027733743 -0.11076381 -0.07514636 0.031698804 0.081384405 0.12281199 0.079221904
-0.10101496 0.009173527 -0.083186984 -0.11055131 0.02190327 -0.11891697 -0.094612926 -0.056605373
0.022755692 0.11284211 -0.08685173 -0.060885537 -0.010041524 -0.07663357 -0.073461816 -0.030497372
0.058312695 0.111140296 0.0343425 0.066392176 -0.110018715 -0.07107854 -0.025183052 0.10169436
-0.04412897 0.00084722677 0.024684884 -0.09928953 0.07649322 0.1110867 0.025480444 -0.033779576
0.024475621 0.013356085 -0.12136486 0.062800765 -0.10329175 -0.078748375 0.00089880824 -0.10873524
0.035708666 0.045826472 -0.30236718 0.043078963 -0.28781042 -0.01624305 -0.0055581033 -0.036565613
-0.14175896 -0.10370328 0.016163545 -0.020197572 0.10480655 -0.040121887 0.122241035 -0.09913465
0.07219444 -0.03286441 -0.06731015 0.058575116 -0.09475785 0.07260882 0.07999566 -0.021148734
0.16668642 0.012058116 0.058436573 -0.057986856 -0.045408215 -0.06012068 -0.1501376 -0.1763678
-0.0043117017 0.07887181 -0.116439596 0.0072688395 0.09398433 0.03397568 0.19830364 -0.014525712
-0.12415618 0.16255207 0.04944355 -0.09789884 -0.10604866 -0.059382215 -0.08624527 -0.097050905
-0.08867435 -0.043241642 -0.059401765 -0.0036315399 0.0908286 -0.022618175 -0.0036117516 0.040189818
-0.033500258 0.035790477 -0.10296463 -0.035731982 -0.06384264 0.0685648 -0.103835225 -0.071417205
-0.06384489 -0.087867826 -0.0801233 0.016910633 0.089999124 0.025511255 -0.016351908 0.005245718
-0.119511165 0.011074593 -0.06172473 -0.2570342 -0.08399067 -0.058621585 0.09314035 0.025567606
0.11761016 -0.052119266 -0.023524985 -0.045469638 -0.0062922053 -0.12840813 0.03777702 0.014658171
0.1281836 -0.10388565 -0.116556734 -0.02062495 -0.0791171 -0.06478376 -0.066768736 -0.02658665
-0.15389872 -0.053314082 -0.020081328 0.09009543 -0.09117591 -0.0155666135 -0.13739671 -0.007473439
-0.07965719 -0.10044534 0.008185547 0.06057849 0.03039682 0.11676719 -0.059288442 0.117238015
0.082962334 0.0045574545 -0.020071039 0.10714152 -0.0037916927 0.04162647 -0.12838668 0.056325234
00000000: 85d6 84bc 7b62 10be 279d 573c d8cc 50be
00000010: af4b e2bd 941f 8c3d a6bd 99bd 62d9 b83a
00000020: 48d7 d2bd 79c4 63bd a063 513d 7b2e 013d
00000030: f245 9b3d 8143 03be 8642 f3bd 1eb3 773d
00000040: b53b 59bd 757e 50bd 24b3 193c fe29 2abd
00000050: a7e4 dcbd 3cbb d0bd 6b20 9a3b a3c9 91bc
00000060: 8c88 0dbd 40ec f3bd 21a2 eebd a316 68bd
00000070: 5853 193d 2dc0 a03d 7038 853c 7ae1 1dbd
00000080: d03a fe3c 04af 1b3d e0a2 f2bc 1001 55bc
00000090: d0b7 ccbb 93e5 313e 339c 973d 4b7a f0bd
000000a0: 37c8 5a3d ee7a ad3d 1f55 163e 746e e73a
000000b0: 2326 11be 1340 51be cf35 0ebe b0fc 5abd
000000c0: b2ea a9bd 71b0 5ebd ccc3 113d e5ba 203e
000000d0: e8a3 713d 855e eb3d 9023 7bbc 0c51 9abd
000000e0: 8c96 ce3d 5f32 bfbc 8c38 8dbd b56c 70bd
000000f0: 9d1f ec3c 64b5 d5bd c701 ecbd 473c 7c3d
00000100: b866 c4bd dbd0 a03d f470 70bd ff01 c43d
00000110: 7238 2f3d a0f3 8abd b80b 053d d813 a1bd
00000120: 94b6 2bbd 47f6 97bd c8e9 df3c bb6c ce3d
00000130: ba29 af3d 23aa 82bc 30fd 6bbc 0846 b33c
00000140: 7a60 6ebd 159b a3bd 3c54 fbbd 8202 c93d
00000150: 42b4 fdbd b8ed 2b3d 5a92 743c f663 93bd
00000160: de41 c2bd 80c1 353b 23d8 e2bd 56e6 99bd
00000170: 9bd6 013d deac a63d da84 fb3d 183f a23d
00000180: eee0 cebd 904c 163c f05d aabd ba68 e2bd
00000190: 7d6e b33c be8a f3bd 6cc4 c1bd 09db 67bd
000001a0: 256a ba3c c419 e73d 52df b1bd 1d63 79bd
000001b0: 3485 24bc 10f2 9cbd 2673 96bd a0d5 f9bc
000001c0: 4bd9 6e3d 869d e33d b9aa 0c3d 9ff8 873d
000001d0: 7e51 e1bd a091 91bd b04c cebc 2245 d03d
000001e0: 94c0 34bd 6d18 5e3a f437 ca3c 4f58 cbbd
000001f0: 7aa8 9c3d 6c81 e33d 5dbc d03c 745c 0abd
00000200: 1981 c83c 7bd3 5a3c 248e f8bd b09d 803d
00000210: a08a d3bd d446 a1bd 009e 6b3a 95b0 debd
00000220: 4043 123d 8ab4 3b3d dfcf 9abe 9173 303d
00000230: e35b 93be 2510 85bc c020 b6bb d3c5 15bd
00000240: 4329 11be 6362 d4bd 6969 843c 6175 a5bc
00000250: d1a4 d63d d956 24bd 8259 fa3d 1b07 cbbd
00000260: aeda 933d d59c 06bd e7d9 89bd 76ec 6f3d
00000270: 6710 c2bd efb3 943d c4d4 a33d 1c40 adbc
00000280: d8af 2a3e 678f 453c 305b 6f3d a083 6dbd
00000290: f7fd 39bd 1a41 76bd acbd 19be c399 34be
000002a0: 2d49 8dbb 8b87 a13d e277 eebd 722f ee3b
000002b0: db7a c03d 152a 0b3d 1c10 4b3e 40fd 6dbc
000002c0: 9845 febd 0d74 263e 5285 4a3d 307f c8bd
000002d0: 0a30 d9bd c43a 73bd 5ca1 b0bd a0c2 c6bd
000002e0: e69a b5bd 261e 31bd 444f 73bd 21ff 6dbb
000002f0: 5804 ba3d c049 b9bc 23b3 6cbb 149e 243d
00000300: 9137 09bd 0999 123d 1fdf d2bd b35b 12bd
00000310: eebf 82bd b46b 8c3d 90a7 d4bd 2f43 92bd
00000320: 1cc1 82bd 0cf4 b3bd af17 a4bd 2b88 8a3c
00000330: 7651 b83d fbfc d03c 70f4 85bc 46e4 ab3b
00000340: 45c2 f4bd 3672 353c 12d3 7cbd fd99 83be
00000350: 4d03 acbd 301d 70bd 5ec0 be3d 2873 d13c
00000360: 98dd f03d 037b 55bd 78b7 c0bc 5f3e 3abd
00000370: d82e cebb 6c7d 03be 14bc 1a3d d328 703c
00000380: 9042 033e 00c2 d4bd 4cb5 eebd a8f5 a8bc
00000390: 2508 a2bd 59ad 84bd 0cbe 88bd 3fcc d9bc
000003a0: a097 1dbe de5f 5abd 9981 a4bc f483 b83d
000003b0: 6fba babd 1c0b 7fbc b9b1 0cbe c0e3 f4bb
000003c0: 4f23 a3bd 49b6 cdbd ac1c 063c 2721 783d
000003d0: c002 f93c a323 ef3d 70d8 72bd 7c1a f03d
000003e0: 28e8 a93d b356 953b 056c a4bc 036d db3d
000003f0: 0c7e 78bb 8480 2a3d cc77 03be 4ab5 663d

layers.2.bias f4 [64]
0.18331291 -0.12002203 0.13233724 -0.09381153 -0.13132307 0.18503167 -0.0054135057 -0.13533545
0.17387445 0.12718618 0.02324029 -0.0003086375 -0.08977154 -0.061670907 0.16128546 0.10232807
-0.057112545 -0.016609685 -0.01062572 -0.050737787 0.09252096 -0.01640198 0.072754994 0.03443516
0.073083006 -0.3041111 -0.18104334 -0.30025548 0.04622766 0.22321147 -0.09697332 -0.02377212
-0.104190364 0.380876 0.42277336 0.051966563 0.11764902 0.21510683 -0.10870744 0.09350563
-0.08321816 0.0896919 -0.12434017 0.04946631 0.061494116 -0.10934178 0.091411225 0.41462392
-0.1399698 0.050933626 -0.07811787 -0.07007992 -0.15357415 -0.13582489 -0.056526303 -0.019916646
0.051354297 -0.30536225 -0.06556592 0.030372381 0.022370089 -0.020232975 -0.022369284 0.05722773
00000000: 61b6 3b3e 1cce f5bd 6a83 073e 4220 c0bd
00000010: 8e79 06be f178 3d3e c763 b1bb 6095 0abe
00000020: 250c 323e 183d 023e 6c62 be3c a0d0 a1b9
00000030: 24da b7bd a29a 7cbd 0428 253e 6191 d13d
00000040: d8ee 69bd 0911 88bc 8017 2ebc 6dd2 4fbd
00000050: a17b bd3d 725d 86bc 9200 953d e20b 0d3d
00000060: 8bac 953d 73b4 9bbe 6d63 39be 16bb 99be
00000070: 3759 3d3d 8c91 643e f399 c6bd c0bd c2bc
00000080: c261 d5bd 2e02 c33e c075 d83e e4da 543d
00000090: f8f1 f03d f744 5c3e 02a2 debd e17f bf3d
000000a0: 486e aabd 63b0 b73d 0fa6 febd 2f9d 4a3d
000000b0: 41e1 7b3d 95ee dfbd cf35 bb3d 9649 d43e
000000c0: 3e54 0fbe c79f 503d 43fc 9fbd 1086 8fbd
000000d0: 8b42 1dbe ae15 0bbe 2088 67bd 3c28 a3bc
000000e0: e258 523d 7158 9cbe 6d47 86bd 80cf f83c
000000f0: 7a41 b73c a0bf a5bc ca3f b7bc a067 6a3d

layers.4.weight f4 [1, 64]
-0.0028702796 0.044409152 -0.005796636 -0.0021617394 -0.0038251074 0.15446542 -0.008302886 -0.08492756
-0.026911492 0.06462086 0.08979124 -0.09001166 -0.00016867608 -0.013513916 -0.04906943 -0.0010952639
-0.0016304229 -0.0031371946 -0.05417428 -0.061394494 0.05371114 0.08588516 -0.09423736 -0.002777074
0.07335991 -0.3830944 0.0011999534 -0.09833395 0.16918142 -0.16536064 -0.09515145 -0.004272476
-0.006890703 0.2978407 0.07876575 0.08516419 -0.065189674 -0.0023790793 -0.102383345 -0.09167616
0.0697663 -0.027849838 -0.05225525 -0.03357717 -0.041981462 0.000344077 -0.07470156 0.22484043
-0.023815298 -0.048648737 -0.008142457 -0.024647132 -0.0949329 -0.019188985 -0.012151122 -0.006584603
0.0672542 -0.027810782 -0.094832875 -0.10784796 -0.00400381 0.059152145 0.05063995 0.08994283
00000000: 4d1b 3cbb 5fe6 353d b5f1 bdbb f8ab 0dbb
00000010: a7ae 7abb 2f2c 1e3e d408 08bc 80ee adbd
00000020: 7d75 dcbc f157 843d 78e4 b73d 0858 b8bd
00000030: a4de 30b9 7969 5dbc 07fd 48bd f58e 8fba
00000040: eab3 d5ba 6499 4dbb dae5 5dbd cb78 7bbd
00000050: 3600 5c3d 8fe4 af3d 84ff c0bd 92ff 35bb
00000060: b83d 963d f324 c4be c147 9d3a 4f63 c9bd
00000070: e53d 2d3e 4d54 29be c3de c2bd 2000 8cbb
00000080: 68cb e1bb 947e 983e f04f a13d 906a ae3d
00000090: 2a82 85bd 54ea 1bbb 5cae d1bd b6c0 bbbd
000000a0: a2e1 8e3d 5825 e4bc 9a09 56bd 3788 09bd
000000b0: c1f4 2bbd 3c65 b439 22fd 98bd 923c 663e
000000c0: 4d18 c3bc e643 47bd f167 05bc c8e8 c9bc
000000d0: 2e6c c2bd 3832 9dbc 8015 47bc a7c3 d7bb
000000e0: 92bc 893d 70d3 e3bc bd37 c2bd 64df dcbd
000000f0: 6532 83bb 8549 723d d66b 4f3d f233 b83d
