ppo_model_final.pt (torch, 132483 bytes, 33 tensors)

net.0.weight f4 [64, 8]
000000 1d 5d 49 be d0 8b bc be 20 c9 05 3e 21 f2 5d 3d
       -0.19664426 -0.36825418 0.13065004 0.05418599
000010 7c d4 88 3e d1 23 a5 bd 8c b9 08 be 61 e4 58 3e
       0.26724613 -0.08063472 -0.1335203 0.2118087
000020 db 28 b0 3e 10 42 ca bd 20 ff b1 bd e7 02 1c be
       0.3440617 -0.09875882 -0.08691239 -0.15235482
000030 c8 e8 92 be 83 c1 40 be 5d 66 96 3e 36 3d 39 be
       -0.28693223 -0.18823819 0.29374972 -0.18089756
000040 87 03 2a 3f 89 47 0e 3f c8 e9 e0 3e bc ee 12 bd
       0.6641163 0.55577904 0.4392836 -0.035872206
000050 27 96 20 3a 2e a8 18 3e 1a 90 23 3e ca f6 5b be
       0.000612589 0.14907905 0.15972939 -0.21480861
000060 93 fe db 3e a3 89 07 3f ab 17 a2 3d 64 fe e8 3b
       0.42967662 0.5294439 0.079146706 0.007110404
000070 99 69 11 3d f8 85 cf be 3f 07 f6 be 5b 56 5b be
       0.035501096 -0.40531898 -0.48052403 -0.21419661
000080 89 8a 7b be 46 ae d2 3c 90 6c 95 be 4c f5 cd bd
       -0.24564566 0.025717866 -0.2918439 -0.10056552
000090 fb 6a 98 3e ce 42 23 3e 2d a7 53 be 38 ff 82 be
       0.2976912 0.15943453 -0.20669241 -0.2558534
0000a0 35 fd 2a be 2d b4 80 3d 59 98 3d bf 3f 1f 11 3d
       -0.16698153 0.06284366 -0.7406059 0.03543019
0000b0 b4 17 e1 3d 20 19 74 3e b2 1e bb bd da 28 b6 3e
       0.10990849 0.2383771 -0.09136714 0.35578042
0000c0 d5 c7 81 bb 91 7d 95 3e ef 93 9b be 76 5b 95 bd
       -0.0039605894 0.29197362 -0.30386302 -0.072928354
0000d0 f1 21 a6 bd 12 61 94 be 4f a1 a7 3e a5 aa a7 3e
       -0.081119426 -0.2898031 0.32740256 0.3274738
0000e0 63 59 0f 3e b6 9f 79 3e 9e 57 1e be 5e 72 1b 3e
       0.13998942 0.24377331 -0.15463111 0.15180346
0000f0 c5 c1 a4 be cd 4a e1 be 67 df bd 3e 18 79 1b 3e
       -0.32179084 -0.4400238 0.37084505 0.15182912
000100 c0 5e 1b bd fb 27 68 be f6 7f 71 3e e1 a8 96 be
       -0.037932158 -0.22671501 0.2358397 -0.2942572
000110 a8 63 0f be 20 d3 4c bc 13 d6 8a 3e 70 03 5b bd
       -0.1400286 -0.012501508 0.2711645 -0.053470075
000120 77 8d 4f 3e 7e ae 21 3e a4 11 37 3f 83 46 b9 3d
       0.20268808 0.1578922 0.7151129 0.09046652
000130 9b af 16 3e 4c f3 b4 bc 5c 45 79 be 14 04 16 be
       0.14715426 -0.02208867 -0.24342865 -0.14649993
000140 8a ef b6 bc 5b eb 21 3e f9 ae d7 bd 92 56 22 bd
       -0.022331018 0.15812437 -0.1053142 -0.03963334
000150 68 51 c5 bd 95 bf 43 be b5 b5 a4 be 94 61 fc 3d
       -0.09634668 -0.19116051 -0.3216988 0.12323299
000160 c0 f3 53 be 39 97 a3 be f1 71 8f 3e 08 f1 93 be
       -0.20698452 -0.3195131 0.28016618 -0.2889483
000170 7e 21 ad be 14 28 85 bd c1 76 83 3e 02 f7 81 be
       -0.33814615 -0.06501785 0.2567654 -0.25383765
000180 ab f3 b3 3d 3d 26 21 3e e6 f1 f0 bd 67 a6 9f be
       0.0878671 0.15737243 -0.117648885 -0.31181642
000190 88 d3 9f be 8d 5b 48 be b5 83 49 be 3b 26 4e 3e
       -0.31216073 -0.19566174 -0.19679148 0.20131771
0001a0 e7 31 ea be a4 45 17 be 38 86 94 3e d5 07 69 3e
       -0.45741197 -0.1477266 0.2900865 0.22756894
0001b0 31 1b 8b 3e b3 68 a1 3e b4 47 22 be a9 c6 8e 3d
       0.27169183 0.31525192 -0.15847665 0.06971485
0001c0 27 06 8a be f0 10 af bd 08 5c 2f bd a8 f7 aa bd
       -0.2695782 -0.085481524 -0.042812377 -0.08348018
0001d0 d6 14 df bd 1a ff 1d 3e 75 eb af 3e cb 00 51 be
       -0.10892646 0.15429345 0.34359327 -0.20410459
0001e0 94 fc 95 3d 3c c6 ac bd b2 3b 62 3e c8 1e 15 bd
       0.07323566 -0.08436248 0.22093084 -0.03640631
0001f0 73 4d 0f be 82 01 20 3e a0 8f f9 bc f4 30 99 bd
       -0.13994388 0.15625575 -0.030463994 -0.0748004
000200 5f 48 95 be 84 61 ad be dc dc 8f be 7e ca 4f be
       -0.29156777 -0.3386346 -0.2809819 -0.20292088
000210 d1 cc 86 be d1 ed 9a be de 84 91 be cc 3d 92 3d
       -0.26328138 -0.30259565 -0.28421682 0.07140693
000220 2d ab d0 3e f1 d6 94 3e 3c f7 ec 3e 4a 86 43 be
       0.40755597 0.29070237 0.46282375 -0.19094196
000230 df 3d 90 bd cf 00 e6 bb 53 1d 2f 3e 94 cb bf 3e
       -0.07043051 -0.0070191394 0.1710103 0.37460005
000240 49 16 9a 3e 46 d2 db bd 72 25 e6 3d 32 5c 24 be
       0.30095127 -0.10733466 0.11237611 -0.16050795
000250 ca 2c 2f 3e 34 dd 9f be 1f 4a 77 3e 22 21 92 3e
       0.1710693 -0.31223452 0.24149369 0.28540903
000260 0e 41 d1 bd da c5 2d be 89 a8 56 3d f6 e0 0b be
       -0.10217486 -0.16970006 0.05240682 -0.13660035
000270 ae 78 87 3e 22 c2 44 be 68 d1 15 be e8 72 fc 3d
       0.2645926 -0.19214681 -0.14630663 0.12326604
000280 20 9f 0e bc a8 74 0a bc 39 41 87 bd 8c 30 a3 3d
       -0.008704931 -0.008450665 -0.06604237 0.07968244
000290 b4 80 01 be d6 4b 52 be 0e 1a 0b 3e 3d 69 c4 3e
       -0.12646753 -0.20536742 0.13584158 0.3836154
0002a0 a8 ba ac be 93 d9 a7 be 2f 64 33 be 28 07 12 3e
       -0.33736157 -0.32783183 -0.17518686 0.14260542
0002b0 b8 7b 63 3d 72 5b 94 3d 3f 3b 94 3e a5 59 d6 ba
       0.05553791 0.07244004 0.2895145 -0.001635362
0002c0 28 c7 cd be 1c 17 e6 be 8b 3c 12 bf f0 91 83 3e
       -0.40191007 -0.44939506 -0.5712363 0.2569728
0002d0 fc 63 47 be ad 95 b2 3e ea bc 77 3e f8 97 12 3e
       -0.19471735 0.3487982 0.24193159 0.14315784
0002e0 91 32 97 3b 52 47 cb 3e df 27 58 be 65 fe 22 be
       0.0046141823 0.3970285 -0.2110896 -0.15917356
0002f0 90 60 79 3d 2b a7 dd be 1a f3 a9 3d 8e cc 9c 3e
       0.060883105 -0.43291602 0.08298321 0.30624813
000300 91 9e ab 3e d2 0b 97 be 0d 53 95 3e 96 8a 8f be
       0.33519414 -0.29501206 0.29164925 -0.2803542
000310 cc 15 8c be 89 fd 81 3e d8 bb 1f 3d 5d b5 4e be
       -0.2736038 0.25388744 0.0389975 -0.20186372
000320 7d 70 d8 3d 0d 7e 8b 3e d1 cf 13 3f 6d 45 9a 3d
       0.105683304 0.27244607 0.5773898 0.07532773
000330 c3 76 df bd fa 41 5e be 97 f1 b4 be 69 86 8c be
       -0.10911324 -0.21704856 -0.35340568 -0.27446297
000340 cb c1 8b 3e 9d 08 33 3d 88 ce 10 3f fc f3 30 3e
       0.2729629 0.043709386 0.5656514 0.17280573
000350 f1 05 52 bd d5 4d 11 bd 65 1a a6 be da a1 d7 be
       -0.051275197 -0.035474617 -0.32442012 -0.4211567
000360 ff 9b 41 3f c1 55 29 3f 75 6f 58 3f 6c 81 ae 3c
       0.75628656 0.66146475 0.8454507 0.021301948
000370 30 cb 50 3e 93 1b 22 bd cf 9e 0a 3b 11 8d 2e be
       0.2039001 -0.039577078 0.0021151786 -0.17046
000380 d9 b8 5e be e7 e7 0c be 25 01 2c 3e c0 07 43 be
       -0.21750201 -0.13760339 0.16797312 -0.19045925
000390 98 fb 27 3d de 58 55 3c dd da 2f be 2d b6 41 3d
       0.041011423 0.013021676 -0.17173333 0.047292877
0003a0 9a 71 d2 bc 6a 60 10 bf ba 80 18 be 3d 73 81 3e
       -0.025688935 -0.56397116 -0.14892855 0.25283232
0003b0 3a 7f 19 be de 3d 1d be df c6 2e be 1c 9f 19 3e
       -0.1498994 -0.15355632 -0.17068051 0.15002102
0003c0 16 ec 98 3e e8 e2 90 3c 24 c1 03 3e e1 df c0 3d
       0.2986762 0.017686322 0.12866646 0.094177015
0003d0 8b 2b 66 3e 61 81 ba bd 43 7d bb be f7 75 fd be
       0.22477548 -0.09106708 -0.36619005 -0.49504063
0003e0 c0 b2 cb 3c 92 3a 25 3e e1 77 59 3f a0 17 81 3e
       0.024865508 0.16135624 0.84948546 0.25213337
0003f0 85 09 0b 3d 72 2c c1 3e 28 3d be be 8a 54 d6 be
       0.033944625 0.37729222 -0.37156034 -0.41861373

net.0.bias f4 [64]
000000 aa 68 c1 be 48 91 1e bd a5 81 86 bd 13 a1 cd 3b
       -0.37775165 -0.03871277 -0.065676965 0.006275305
000010 2c d9 32 be bb d0 5c be 3d 1b cc 3e 89 81 07 3e
       -0.17465657 -0.21564 0.3986453 0.13233007
000020 6f ec 77 be d2 58 d0 3e cc dd 77 bd 54 c7 63 be
       -0.24211286 0.40692765 -0.060514256 -0.22244006
000030 3c 38 49 be 58 1f a2 be 20 b1 0e bd 40 9f fc 3b
       -0.19650358 -0.31664538 -0.03483689 0.0077094138
000040 a8 54 8b 3d 8d 7b 02 3e 8c 46 25 3e fb ec 85 3e
       0.06803256 0.12742443 0.16140193 0.26157364
000050 6d 9c b2 be 6a e6 06 be 4d 89 12 3b 99 cd dd 3e
       -0.34884968 -0.13173833 0.002235967 0.4332092
000060 90 9b 61 3d 56 22 31 bd 52 84 5d be 31 60 d0 3e
       0.055079997 -0.043245636 -0.21632507 0.40698388
000070 bc 11 95 3e 96 e1 8f bd 06 93 ce bc 7c 4b 12 bd
       0.29115093 -0.07025449 -0.02521659 -0.03571652
000080 af f1 a6 3e 21 25 db 3b 69 21 28 3e fa 02 61 be
       0.32606265 0.0066877757 0.16418995 -0.21973792
000090 f8 1a 20 bd 19 12 1a 3d c9 15 ec 3e 47 49 96 be
       -0.03908822 0.037614916 0.4611037 -0.2935278
0000a0 d0 f6 de be e5 12 27 be 48 af 13 be d0 f6 26 3e
       -0.43547678 -0.16315801 -0.14422333 0.16305089
0000b0 c9 d2 88 3e eb 17 5d be 1c 61 15 3e a9 72 95 be
       0.26723316 -0.21591155 0.14587826 -0.2918904
0000c0 71 99 95 3d 59 96 8d bd 2b e0 2c be 2d 90 8d be
       0.07304657 -0.06913442 -0.16882388 -0.2764906
0000d0 d6 8d 50 3e 89 02 d8 bd 7d 0a c4 be 78 02 ac 3e
       0.20366606 -0.105473585 -0.38289252 0.33595634
0000e0 af f6 df bd 94 41 1a be 6a 39 8c be f9 d6 9f be
       -0.10935723 -0.15064079 -0.27387553 -0.312187
0000f0 71 a7 5d 3e 4f 38 91 3e 6a 2f 86 3c c6 eb 0f 3e
       0.21645905 0.28363273 0.01638003 0.14054784

net.2.weight f4 [64, 64]
000000 b7 ee c4 bd a0 39 7e 3c 65 15 e3 3b bc ad ee bd
       -0.09615844 0.015516669 0.0069300407 -0.11654231
000010 ca bc 44 3c 94 c2 5c 3d cb 97 f3 bb 6e d3 5a bd
       0.012007901 0.0538965 -0.0074338666 -0.05342429
000020 7c b2 d5 bd 69 dc 17 be f5 0a 2f 3e d0 84 63 3c
       -0.10434434 -0.14830174 0.17094024 0.013886645
000030 44 5b ef bd d0 b0 26 be a4 b1 18 3d d2 a2 fa 3d
       -0.116873294 -0.16278386 0.037278786 0.12238087
000040 c0 bc b2 bc 3b 1c 71 3d b5 79 8d bd cf 31 7b bd
       -0.021818519 0.058864813 -0.069079794 -0.061326798
000050 54 98 98 3c 3d 56 39 3d 72 a6 d9 bd ef e5 ad 3d
       0.018627323 0.04524826 -0.1062745 0.08491122
000060 f8 c2 b0 bc 97 8c 4e be 5c 51 f0 bb 2b e9 d3 bd
       -0.021577343 -0.20170818 -0.0073339175 -0.10347208
000070 7e 79 62 3c d7 8a 02 bc 2f 66 6a 3d 34 54 b5 bd
       0.013822911 -0.007967672 0.057226356 -0.08853951
000080 0a 51 b0 bd f2 93 81 3c 46 95 0c be 0b a6 a9 bd
       -0.08609207 0.015817616 -0.13728818 -0.08283623
000090 fa 16 c5 bc 27 73 91 3c 57 c5 04 3d 30 c0 65 3d
       -0.024058808 0.017755104 0.03241476 0.056091487
0000a0 4c 00 35 be c1 2b 82 3c 13 36 aa bd 32 8f 93 3c
       -0.17675894 0.015890004 -0.08311095 0.018012617
0000b0 0c 82 70 bc d2 7f 85 bd 24 94 72 3d 51 9f eb bd
       -0.014679443 -0.065185204 0.05922331 -0.115049966
0000c0 dc da 43 3d 22 18 06 be 8c 33 fd bd b7 b7 99 3c
       0.047816142 -0.13095143 -0.123633474 0.01876436
0000d0 c8 af d0 bc fb ea 3a bc 4f a3 83 bd e3 9d 82 bc
       -0.025474444 -0.011408563 -0.06427633 -0.015944427
0000e0 46 b0 26 be d7 44 f6 bc 13 5d f9 bb c5 84 18 3d
       -0.1627818 -0.030062122 -0.0076099723 0.037235994
0000f0 73 12 90 bd 14 d7 80 3d c2 05 f2 3d 10 30 c9 bb
       -0.07034769 0.06291023 0.118175045 -0.0061397627
000100 62 04 83 bd d4 60 a3 bd cb 94 bd bd e8 a6 c1 3c
       -0.0639732 -0.07977453 -0.09256896 0.023639157
000110 a7 6f 49 3d 72 e4 ed bd 68 1c d1 bd 36 c0 e8 bd
       0.049178746 -0.11615838 -0.10210496 -0.11364786
000120 70 47 84 bd d4 06 0c be a2 d8 2f 3c aa 1d d1 3d
       -0.06458938 -0.1367448 0.010732802 0.10210736
000130 dc 31 c6 3d 64 bd 4d bb d0 de a8 3c b8 51 a6 3d
       0.09677479 -0.0031393403 0.020614058 0.08121055
000140 16 8d aa 3d 1e 39 b7 3d 1f 54 02 be 04 55 0f 3d
       0.08327691 0.08946441 -0.12727402 0.034993187
000150 d9 4c c8 bc bf 95 df 3d c9 81 e4 bd 61 3a db bc
       -0.024450706 0.10917234 -0.11157567 -0.026761236
000160 3e 35 99 bd 77 50 94 ba 0e 10 c3 bc b7 f7 31 3d
       -0.07480858 -0.0011315484 -0.023811366 0.04344913
000170 5e 7c b8 bc 49 a7 cf bd 38 26 8b ba 49 6c a5 3d
       -0.02252024 -0.10139329 -0.0010616248 0.080772944
000180 90 24 e5 bd 27 4b a1 bd ba e5 d4 3d ea c6 2a bd
       -0.11188614 -0.07875662 0.10395379 -0.041693605
000190 31 25 f1 bb 4c cd 29 3d 16 06 ec bd e2 1e c6 bd
       -0.00735917 0.041455552 -0.11524598 -0.09673859
0001a0 1c 11 38 3c e1 67 30 bd 71 be de bc f5 99 7c bd
       0.011234548 -0.043067817 -0.027190419 -0.061670262
0001b0 63 81 4a bc 02 c5 dd 3d 88 94 2d bd 30 d2 77 3d
       -0.01235995 0.10828592 -0.04237798 0.060503185
0001c0 d8 07 2a bd 82 9d cf 3d 3c df c5 3d 15 61 a1 bd
       -0.041511387 0.10137464 0.09661719 -0.07879845
0001d0 42 47 a6 3c a3 d7 0b be 77 78 fe bb f5 cc a9 3d
       0.02029765 -0.13656478 -0.0077658254 0.082910456
0001e0 56 03 1e bd 13 71 c7 bd 29 e8 06 3d cf 73 b0 3d
       -0.0385774 -0.09738364 0.03293625 0.08615839
0001f0 57 48 82 bd 00 22 e2 bd 0f 3c 75 3d dd 5c 59 bd
       -0.06361454 -0.11041641 0.05987173 -0.053067077
000200 74 7d 23 be 5c 7a 29 bd ff 91 23 3c b1 96 39 bd
       -0.15965825 -0.041376457 0.009983539 -0.045309726
000210 2b 20 9a bd ad 3a 94 bd 55 ee c3 3d a5 a1 3f bd
       -0.07525667 -0.07237754 0.095669426 -0.046785016
000220 98 a6 28 bd 33 7a ad bc 06 e8 17 be 98 5d a8 3c
       -0.0411745 -0.021176433 -0.14834604 0.020552441
000230 ee 4b b8 bd 4d e0 ec bc 7c 8b 5a bd 54 c8 41 3d
       -0.089988574 -0.028915549 -0.05335568 0.04731019
000240 30 bd b1 bc 06 b2 69 bd 4d 23 52 3d 10 37 38 3d
       -0.021696657 -0.057054542 0.051303197 0.044974387
000250 3a 85 ad bb d7 db e0 bd a8 79 7f bd 5c 46 a5 bd
       -0.005295423 -0.10979431 -0.06237188 -0.080700606
000260 7a 00 d9 bd 0f 2f 35 be b6 78 ef 3c 2d 5e 99 bd
       -0.10595794 -0.17693733 0.029232364 -0.07488666
000270 68 17 28 3d 73 5a 08 3d ca 06 1f 3c e9 f0 26 be
       0.041037947 0.033289384 0.0097062085 -0.16302837
000280 f0 f3 8b bc 70 43 03 3c dd b2 1e bd 67 d3 c0 3d
       -0.017084092 0.008011684 -0.038744796 0.09415322
000290 cf ab 0d 3d a3 46 b8 3d 88 05 d0 3d 96 12 c0 3d
       0.034587678 0.08997848 0.10157305 0.09378545
0002a0 2f 65 2b bd 32 a4 8c bc d8 8f d9 3c a6 11 bf 3a
       -0.041844543 -0.017168138 0.026557848 0.0014577403
0002b0 f7 06 a6 3d 72 0e f8 bd d0 68 c6 bc 4c 7c 97 bd
       0.08106797 -0.1211213 -0.0242199 -0.073967546
0002c0 ca 91 67 bd 59 ae 57 bd 80 0f a6 3b 6e 3e 14 bc
       -0.05653552 -0.052656505 0.0050677657 -0.0090480875
0002d0 56 c6 8b bd 05 d2 bc bc 39 0d 12 3d 1c c1 11 be
       -0.06824939 -0.023049364 0.03565714 -0.14233822
0002e0 d0 85 77 3d ce 67 b2 ba 2c 13 e5 bc 3d a9 64 3c
       0.060430348 -0.0013611258 -0.027963243 0.013956365
0002f0 f4 21 c1 bd c2 a0 6b bd 3f fa b6 bc 03 c7 12 bc
       -0.09430304 -0.057526357 -0.022336124 -0.008958581
000300 65 46 ac bd 0a 01 dc bd e3 0c 3f 3e 17 33 46 3e
       -0.08411864 -0.10742386 0.1865726 0.19355427
000310 26 d0 89 be d9 b7 e3 bd 43 f1 d4 be e3 fb c7 bd
       -0.26916617 -0.111190505 -0.41590318 -0.097648405
000320 0e 31 bc 3d eb 6b d8 3b 4b 9c 0d 3e c4 9e 5f 3d
       0.09189044 0.0066046617 0.13829152 0.05459477
000330 8a f9 f1 3d 8a 68 c2 bb 8a 5f f8 3d f0 48 d2 bd
       0.11815174 -0.005932872 0.12127598 -0.10267818
000340 e8 bd ea 3d 69 e5 96 3c c1 98 1e 3d 40 e7 01 be
       0.11462003 0.018419938 0.038719896 -0.12685871
000350 25 92 bc bd 5a de f5 bd dc d0 92 bd 22 06 67 3d
       -0.09207562 -0.12005301 -0.07168743 0.056402333
000360 d4 79 2b 3d 4a 17 e6 3d 45 89 c8 3d 3d c5 31 3e
       0.04186423 0.11234911 0.09791807 0.17360397
000370 7c 00 c9 3d d9 9c 19 be a3 79 38 bc 0a 7a cb 3d
       0.098145455 -0.15001239 -0.011259469 0.099353865
000380 c8 d0 2b bd 4f f9 4f 3d 08 34 ea bd d6 8c 84 bc
       -0.041947156 0.05077487 -0.114357054 -0.016180437
000390 aa a4 db 3e b0 2d 60 bc aa 18 73 be c0 94 d2 3c
       0.42899066 -0.013682768 -0.23739877 0.025705695
0003a0 04 9d 44 3c 18 02 84 3e 9b e0 17 3e 0b 43 bc bc
       0.012000326 0.25782847 0.14831774 -0.022981187
0003b0 64 2a 5a be a8 93 b1 bd 50 7b 2e bc d0 e5 af 3c
       -0.21305233 -0.08670741 -0.010649517 0.021471888
0003c0 b0 fe 39 3c 6d 78 d0 3d 30 aa ac bd ec 4a 3b bd
       0.011352226 0.101792194 -0.08430898 -0.045725748
0003d0 be 83 1b 3e 8f 60 a7 be 8e 6a c5 bd 8e c3 d2 3c
       0.15186974 -0.32690856 -0.09639464 0.025728013
0003e0 db 37 b3 3d a9 f3 00 3e 8d fe 54 be 93 5a 8b 3d
       0.08750888 0.12592949 -0.20800228 0.06804385
0003f0 6c 00 ea bd 5d 96 35 be 29 9d 2e be d3 01 29 3d
       -0.11425862 -0.1773314 -0.1705214 0.041261505

net.2.bias f4 [64]
000000 7c e4 43 bd 2d 36 15 be 57 07 8b 3d b8 eb f4 bd
       -0.04782532 -0.14571448 0.06788509 -0.11959022
000010 0e 85 e2 bd 24 b2 0a 3e 7f c9 36 bd ef 44 e1 bc
       -0.110605344 0.13544518 -0.044625755 -0.02749869
000020 5c 80 2a bd 1b 2c d8 bd 50 bf e0 bd b6 7d f7 bd
       -0.04162632 -0.105552875 -0.1097399 -0.12084524
000030 bb 66 23 3d 04 e6 c3 3d de 6e 33 bd 75 9b 9e 3d
       0.039892893 0.095653564 -0.043806903 0.07744495
000040 70 87 41 bc 68 74 bd bd 8e 5c 99 3d 30 79 50 3e
       -0.011812076 -0.09250718 0.074883565 0.2035873
000050 77 ba cb bc 0f bf e6 bd 4d ff 0e bd 5e b9 06 be
       -0.024869187 -0.1126691 -0.034911443 -0.1315665
000060 ce 2d f8 3c e4 26 80 bd 2d 61 20 3d ff 32 91 3d
       0.030295279 -0.06257418 0.039155174 0.07089805
000070 6b 87 60 3e 55 a9 8e bd 0b 62 8d 3d 92 49 89 3e
       0.21926658 -0.06965891 0.06903466 0.26813942
000080 5f a3 e3 3c 12 3c 73 3d e4 f0 31 3d 05 a3 ad bd
       0.027787862 0.05938346 0.04344262 -0.08478359
000090 c9 f0 1f be 2b 98 48 bd c5 d6 da bd ad 55 3b 3c
       -0.15619196 -0.048973244 -0.10685495 0.011434001
0000a0 8c a3 e2 bc 81 b0 bd 3d 34 7b bc bd ef a1 84 3d
       -0.027665876 0.09262181 -0.09203187 0.06476199
0000b0 c0 42 b1 bc ca 90 af bd 31 f0 da bd 8c ed 9f bc
       -0.021638274 -0.08572538 -0.10690344 -0.01952245
0000c0 55 73 5e 3e 6c d9 99 3d 7f 1f b4 3d 3c e7 3e bd
       0.21723683 0.07512173 0.0879507 -0.04660724
0000d0 6f 34 7a 3d b9 3d 83 3e 4a 4b d2 bd 92 1d d7 3d
       0.06108516 0.25633028 -0.102682665 0.10503687
0000e0 29 1b 48 3d 25 be b5 3b d3 ee 71 3d 7a 1f 20 3d
       0.048854027 0.0055463486 0.05906565 0.03909252
0000f0 19 a8 03 bc 20 42 27 be 0a 3d c1 3d 04 be 9b bb
       -0.008035683 -0.16333818 0.094354704 -0.0047528762

net.4.weight f4 [4, 64]
000000 56 a7 49 bd eb 1b 3c 3d 54 33 95 ba e0 c6 17 be
       -0.04923185 0.045925062 -0.0011383095 -0.14821959
000010 c3 a0 5a 3c a6 d8 92 3d 4d 2d 0d be 79 fb 07 bd
       0.013343993 0.07170229 -0.13786812 -0.033198807
000020 82 15 c5 ba 4d 08 91 3c 71 6f 9d 3c f4 25 91 bd
       -0.0015036317 0.017704153 0.019218178 -0.07087317
000030 ba c3 0f bd 8b 32 8b 3d 9b cf 0d bc df 8f fa 3c
       -0.03509877 0.0679675 -0.008655454 0.030586181
000040 bd aa 7a 3d e5 ed 3f 3d b0 4f 81 3c f8 ac 18 3e
       0.061197985 0.046857733 0.015785068 0.14909732
000050 ad d8 3c be d1 bf fd bd 4f b0 8e ba fa 8b e6 bd
       -0.1844203 -0.12390102 -0.0010886284 -0.11257167
000060 34 37 b0 bc 9f f8 fe 39 e0 f6 87 bc d3 10 46 3d
       -0.021510698 0.00048631892 -0.016597211 0.04835589
000070 6b e3 1a 3e cf 33 4f 3d 75 ba 4a b9 45 e9 58 3d
       0.15125816 0.050586518 -0.00019333682 0.05295684
000080 70 70 5f 3c e1 3f 8a bc 94 f5 9a 3a 95 57 3b 3b
       0.013637647 -0.016876163 0.0011822456 0.0028586139
000090 9c 8d 02 bd d7 d4 d6 bd 36 cb 06 3c b9 4d 5a be
       -0.03187333 -0.10489815 0.00822716 -0.21318711
0000a0 b9 43 37 bd 04 74 ad bb 36 7b fd 3a 8a 18 3e bb
       -0.04474232 -0.005293371 0.0019339088 -0.0029006326
0000b0 d0 c3 63 3a 63 97 64 3b 68 f7 42 3d f3 e4 dc bc
       0.0008688541 0.0034880273 0.047599226 -0.02696464
0000c0 ed 11 1c 3e 29 bb 98 bc f1 df cb bb dd 1b 60 3d
       0.15241213 -0.018643932 -0.0062217643 0.054714072
0000d0 0b 4b a0 3c b9 20 0d 3e f4 f2 b6 3a 73 93 3e be
       0.019567033 0.13782014 0.0013957904 -0.18610935
0000e0 33 22 80 3d 0f 79 fb 3c 39 f9 d9 bc 7f a3 e8 3b
       0.06256523 0.030697374 -0.026608096 0.0070995684
0000f0 70 98 7b 3d 4d 5e 14 3d 43 58 89 3d f9 7d da 3a
       0.061424673 0.036222745 0.06706288 0.0016669623
000100 dd c2 ee 3c 9d b7 8e 3c 90 c2 88 bb 27 17 cf bd
       0.029145652 0.017421538 -0.0041735843 -0.10111838
000110 6b a7 e8 3c 97 c0 dc 3c 20 57 5f be 5e 1b f3 bb
       0.028400144 0.026947303 -0.2181058 -0.007419034
000120 20 e9 f6 3a ce 51 91 3c b6 86 15 bc da 5b fb 3c
       0.0018837787 0.017739203 -0.009126356 0.030683447
000130 39 4e 7d bc 89 e3 4d 3d f6 61 d9 3b ed f7 73 3d
       -0.015460544 0.050265823 0.0066339923 0.059562612
000140 eb 45 b0 bd 5b 20 0d 3d 0b 1a b3 3b 17 a9 34 3e
       -0.08607086 0.034454685 0.005465751 0.17642628
000150 85 24 54 be 5d 63 6a be 45 a2 87 bb 85 f0 2c 3d
       -0.20717056 -0.22889467 -0.004139217 0.042221565
000160 1b 64 35 3e 53 6f 6f 3c e1 eb d0 bd da 0b 0e bb
       0.17713968 0.014613944 -0.1020124 -0.0021674545
000170 ca c5 65 3e 73 c6 0f 3d 61 1d 53 bb 0e 25 4f 3e
       0.22438732 0.035101365 -0.0032213556 0.20228979
000180 ca 27 2b bb be 4a ca 3c 80 c4 23 3b a1 24 80 bb
       -0.0026116245 0.024693843 0.002498895 -0.0039106165
000190 89 a9 8f bc 3f 61 39 be 04 31 b8 3c ab 58 30 be
       -0.017536895 -0.18103503 0.02248431 -0.17221324
0001a0 ac 6b a5 3c 5f 6b 69 3d 31 1b ea ba a2 05 80 3c
       0.020192944 0.056987163 -0.0017860887 0.015627686
0001b0 f7 81 f5 ba cd 96 02 3d 20 de f8 3c 35 c7 c5 3b
       -0.0018730749 0.031882096 0.030379355 0.00603571
0001c0 ec 68 5c 3e ed 94 aa 3c 7c 04 a5 3b 52 25 c7 3c
       0.215244 0.020822966 0.005035935 0.024309788
0001d0 27 90 7c bc 27 8b 0e 3e 26 84 9e ba a4 cf e7 bd
       -0.015415228 0.1392027 -0.0012093827 -0.11318901
0001e0 28 32 0b 3e 47 e2 35 bd 95 8d 6d bd 55 48 a8 3d
       0.13593352 -0.044405248 -0.05799635 0.08216921
0001f0 6b d0 55 3d ea 06 88 3c ec 72 c6 3b 4c 86 4f bb
       0.052200716 0.01660486 0.00605618 -0.003166574
000200 42 b0 9a 3d 34 0b d8 3c 15 50 ef 3a 83 02 01 3e
       0.0755315 0.02637253 0.0018258119 0.12598614
000210 6a 56 c1 3b 1b e3 47 bd 87 1c 0d 3e 52 3a a7 3b
       0.005900194 -0.04880057 0.13780414 0.005103388
000220 a0 9a d1 38 fd 21 ab ba 86 aa bd 3b f7 7c 62 3b
       9.994698e-05 -0.0013056394 0.0057881502 0.0034559348
000230 0c bb 55 3c fb 61 c2 3b 31 7d 6e 3b f8 95 a3 bc
       0.013045084 0.0059320903 0.0036390538 -0.019968972
000240 87 ff fb 3c 5f 9e 7e 39 34 81 1f bb 73 69 ec bc
       0.030761493 0.00024282325 -0.0024338486 -0.028858876
000250 58 ec 31 3e 9e 4d 09 3e e6 e6 26 3b a4 47 ed 3d
       0.17375314 0.13408515 0.0025467216 0.1158593
000260 ee d4 fb bd 5d 84 26 3c 28 76 a7 3d 04 1a ab bc
       -0.122964725 0.010163394 0.081768334 -0.020886429
000270 bc 3e 8b be 91 41 90 bc c7 63 bb 3b 9c 6e 1c bd
       -0.271963 -0.01760939 0.0057186815 -0.038191423
000280 2e 44 cb 3c 13 ab 8d bc a4 07 81 3a eb e3 b9 3b
       0.024812784 -0.017293489 0.0009844196 0.005672922
000290 fa 6a 25 bc c0 75 eb 3d 1f 46 56 bc 99 4c f1 3d
       -0.010096306 0.114970684 -0.013078242 0.11782188
0002a0 61 22 03 3c b2 81 91 3d b1 df 91 3a 7d 48 30 3c
       0.008003802 0.071048155 0.0011129287 0.01075947
0002b0 20 1e cc 3a 04 74 42 3c 30 70 aa 3c b0 5d 88 3d
       0.0015572943 0.011868481 0.020805448 0.066584945
0002c0 95 53 17 be a3 e1 b5 3c c7 41 db bc 81 64 aa bc
       -0.14777978 0.022202319 -0.026764764 -0.020799877
0002d0 18 92 7d 3c 6e 78 52 bd 4c 73 07 3c 11 02 8a 3d
       0.015476726 -0.051384382 0.008267235 0.067386754
0002e0 a3 02 a1 39 82 20 05 3c 50 0c 4f 3d eb da 4b 3d
       0.00030710277 0.008125426 0.05054885 0.049769323
0002f0 90 15 10 bd fe 66 c6 3c e4 46 b3 bc 37 fd ce bb
       -0.035176814 0.024219032 -0.02188439 -0.0063168067
000300 db 51 46 3d 83 cc a2 3c 2f 06 30 3c d1 2c 06 3e
       0.048417907 0.01987291 0.010743662 0.13103034
000310 a2 30 fe 38 c0 93 08 bd f7 77 03 3e 99 f7 74 3d
       0.000121207224 -0.03334403 0.12838732 0.05980644
000320 70 0a c7 b9 d6 59 ab ba 23 2c ef 3c 14 69 a9 3b
       -0.00037964014 -0.0013073038 0.02919585 0.005169997
000330 ef 2a 33 bc b6 2d 5b bd fe a6 74 bc d6 47 fb 3c
       -0.010935529 -0.05351039 -0.014932392 0.030673902
000340 b3 2f 5b 3d 0a 5a 5d bd d1 6f 1d ba 74 f7 d7 bd
       0.053512286 -0.054040946 -0.00060057366 -0.10545245
000350 3d 13 21 3e 5b d6 fd 3d 9d 70 01 bc b1 e8 b4 3d
       0.15729995 0.12394401 -0.007900384 0.08833445
000360 41 f0 1b be 49 9f 08 bc 45 87 03 3e 86 91 e0 3b
       -0.15228368 -0.008338758 0.1284457 0.0068532852
000370 4d 7d 95 be b5 39 84 bc 13 e7 0a 3b b8 bf 4d be
       -0.2919716 -0.016140798 0.002119486 -0.20092666
000380 9b d9 26 bd 79 82 a0 3b 7d e2 31 bb 66 14 25 ba
       -0.04073487 0.004898366 -0.0027143054 -0.000629729
000390 c9 11 c1 3c 52 8e f7 3d bf cc 1b 3b 5c 8e 17 3e
       0.023568051 0.12087692 0.0023773161 0.148004
0003a0 fe 70 63 3b d2 d1 ca 3d 71 0d ce b8 95 38 62 3c
       0.00347048 0.09903301 -9.825349e-05 0.0138074355
0003b0 d2 86 ed ba cf e7 ee 3c 82 b0 53 bc c1 4f 34 3c
       -0.0018121845 0.02916327 -0.012920501 0.011005343
0003c0 0e d3 87 be da 84 e6 3c 14 74 c1 3c 2a dd b4 bc
       -0.2652821 0.02813952 0.02361492 -0.022078115
0003d0 bf d3 9e 3c 3f 22 7f be 9b b9 c0 3b 55 4c bd 3d
       0.019388078 -0.24915408 0.005881501 0.09243075
0003e0 45 f0 45 bc 80 51 84 3d 5c 10 a5 3d f6 8e ca b9
       -0.0120812105 0.064608574 0.08059761 -0.00038634957
0003f0 16 35 1e bd 25 71 3c bc 1b 7e 25 bc 21 04 ef 3b
       -0.038624845 -0.011501585 -0.010100867 0.0072941934

net.4.bias f4 [4]
000000 1d 2a 5d 3e ea 93 93 3d 1e 94 50 bd d4 76 48 be
       0.21598096 0.07205947 -0.050922506 -0.1957658

net.0.weight f4 [64, 8]
000000 4f 88 77 bd 99 18 ac 3e c6 7d 9e be 83 74 8b be
       -0.06043273 0.33612517 -0.30955333 -0.2723733
000010 e3 05 bf be 1c c7 31 be 97 fc 19 be b5 41 9d 3d
       -0.3730918 -0.1736111 -0.15037762 0.07678548
000020 e7 34 69 3f 44 f0 b6 3f 92 69 49 3f e1 3b 7c be
       0.9109635 1.4292073 0.7867671 -0.24632217
000030 91 14 4d bd a7 41 9a 3f 93 51 b2 be c2 62 40 be
       -0.05006844 1.2051286 -0.3482786 -0.18787673
000040 a4 b8 84 3e fc 39 a9 3e 3d 41 3b 3e d9 f5 d9 be
       0.2592212 0.3305205 0.18286605 -0.4257038
000050 94 b9 94 be 39 26 eb 3d 20 e7 24 bd 63 7e 42 3e
       -0.29047835 0.114819 -0.04025948 0.18993525
000060 74 77 58 bd f4 7b 81 3d 6c 23 73 3e 88 34 0e be
       -0.052848294 0.0632247 0.23743981 -0.13887227
000070 0e ad f8 bd 1e 89 f8 bd c0 d9 3c bc ca c2 93 be
       -0.121423826 -0.12135528 -0.011526525 -0.2885955
000080 51 01 a7 3e 6c 50 5d 3f d6 00 47 3d 72 4d dc be
       0.32618192 0.8645084 0.04858478 -0.43027836
000090 b4 85 b6 be 2c 97 11 3e df ca 90 be 3f 97 63 be
       -0.35648882 0.14217824 -0.28279778 -0.22225665
0000a0 90 2e 3f bf a9 35 6f bf dd 6e 11 bf a8 76 cb 3b
       -0.74680424 -0.93441254 -0.5680979 0.0062092133
0000b0 74 e2 2d be 4a 28 15 bf a3 02 ae 3e c7 28 14 3e
       -0.16980916 -0.582646 0.33986387 0.1446868
0000c0 03 18 53 be 3d d3 1f be dc a7 f6 bd 9d 07 d7 bd
       -0.20614628 -0.15607925 -0.120437354 -0.10499499
0000d0 f1 fa 96 3e f8 5f cd 3e f0 a9 64 be 68 2a 3f 3e
       0.29488328 0.4011228 -0.22330451 0.1866852
0000e0 8b 1f 88 3f 20 e0 3e 3f 92 34 e7 3f 91 6b 7e 3d
       1.0634626 0.7456074 1.8062918 0.062114302
0000f0 7a 24 15 3e ee 02 84 3f 37 49 d8 bf 23 fd 01 c0
       0.14564696 1.0313394 -1.6897343 -2.0310752
000100 6d 38 80 3f 4e ce 3d 3f 5f 09 1e 3f b9 16 af be
       1.001722 0.7414292 0.6173305 -0.34197024
000110 1e c4 35 be 55 7e 42 bf 3f 85 d0 be 3c ba b1 bd
       -0.17750594 -0.7597402 -0.4072666 -0.086780995
000120 aa f5 a9 3f 81 5f d2 3f 62 ce 99 3f bc 9d 14 bd
       1.3278096 1.6435395 1.2016108 -0.03628324
000130 54 28 f4 bd 7a b3 8a 3f 24 6f aa be 59 86 58 3c
       -0.119217545 1.0836022 -0.3328792 0.013215625
000140 d2 cd 71 3f 87 8a dd 3f dc 99 3d 3f 8d ff d6 3c
       0.9445468 1.73079 0.74062896 0.026244903
000150 58 f6 19 3e c2 3a b8 3f 71 05 09 bf bf 4d 01 bf
       0.15035379 1.4392931 -0.5352393 -0.50509256
000160 b6 3c 4c bf cc 25 7f bf 98 18 6b bf c8 85 80 3c
       -0.7978014 -0.9966705 -0.918344 0.015688792
000170 7c 16 fa be 51 44 a0 bf 22 73 17 3f a7 d4 9d 3e
       -0.4884528 -1.2520849 0.59160054 0.30826303
000180 de e9 2d 3f c3 07 96 3f a3 05 1d 3f 8c 2b 09 be
       0.6793498 1.1721119 0.61336726 -0.13395518
000190 04 a0 35 be c7 8f f4 3e 6d b7 52 be 99 27 14 bf
       -0.17736822 0.47765943 -0.20577784 -0.5787292
0001a0 0c 40 2a 3f c2 08 94 3d 66 bf c7 3e 7e 9e fb bd
       0.6650398 0.07228233 0.39013213 -0.12286089
0001b0 e2 7f 7a be b2 9b 22 c1 09 94 54 3d ff aa 17 3d
       -0.24462846 -10.163012 0.05189899 0.03702831
0001c0 41 82 76 bf 18 5d 86 bf 57 b8 2f bf d1 66 26 3c
       -0.962925 -1.049716 -0.68640655 0.010156349
0001d0 f6 b2 4f 3d 79 d7 4f be 3b 89 22 3f 4e 35 30 be
       0.05070778 -0.2029704 0.6349065 -0.17207834
0001e0 fc ad 4d be 6d c4 84 be fe d8 ff bd 16 b9 72 be
       -0.20085901 -0.2593111 -0.1249256 -0.23703417
0001f0 f0 1e 29 be ae 86 5d be 88 ff 60 be 4c 5a 95 bd
       -0.16515708 -0.21633407 -0.21972477 -0.072926134
000200 c3 f2 ce bf 71 41 ca bf ba a9 31 be 4f 33 fe 3d
       -1.6167835 -1.5801221 -0.17349902 0.1241213
000210 d8 4f c1 3e b7 7a 8b 3f c7 9d 64 be be 90 d7 3d
       0.37756228 1.0896825 -0.22325812 0.10525654
000220 bf d8 42 3f 7f 80 8b 3f b0 a6 03 3e 1e dd 73 be
       0.7611198 1.0898589 0.12856555 -0.23814818
000230 7c 1a 6a be 43 59 ea 3e 28 b8 0d bf ed f8 ef bd
       -0.22861665 0.45771226 -0.55359125 -0.11717401
000240 93 38 8f 3d 88 73 85 be 42 ba 12 3e 36 6b 47 bc
       0.069932126 -0.26064706 0.14328864 -0.012171557
000250 06 8e fc bb 42 81 17 3e 35 4d 79 be ff 48 01 3d
       -0.00770736 0.14795402 -0.24345858 0.031563755
000260 dc 20 0f 3f fe 9d 90 3f c8 49 18 bf 7d b9 63 be
       0.55909514 1.1298215 -0.5948758 -0.22238727
000270 70 26 94 be fe 8d 8b 3f c5 af b4 bd 16 f1 cc bc
       -0.28935575 1.0902708 -0.08822588 -0.025017302
000280 47 a2 9d 3e 1f 34 24 3e f6 fc de 3d 7d 9a e1 be
       0.3078787 0.16035508 0.10888092 -0.44063178
000290 0b fc 51 be 9e e1 f6 be 23 47 34 be 95 ee 31 3d
       -0.20506303 -0.48219007 -0.17605262 0.04344042
0002a0 ee 7b a7 3f 03 dc 86 3f f9 7f d6 3f fd 00 6a 3d
       1.3084695 1.0535892 1.6757804 0.05712985
0002b0 90 fc 31 3d 5f 1d 96 3f ce 14 70 bf f4 ca b9 bf
       0.043453753 1.1727713 -0.93781745 -1.4515061
0002c0 f4 bc ab 3e 61 c4 36 3f 03 2d 52 3f f6 fb b3 be
       0.33542597 0.713934 0.8209993 -0.35153168
0002d0 ce f5 22 be 3e 61 a7 be dd 6c 93 3c 13 f1 b7 be
       -0.1591408 -0.32691377 0.017996246 -0.35926113
0002e0 ad 4e 25 3f fb d9 24 3f 5d 19 83 3f b9 43 90 be
       0.64573175 0.6439511 1.0242115 -0.28176668
0002f0 4c 68 b3 be 52 c5 06 3e 19 24 0b bf 00 96 2b bf
       -0.3504051 0.13161209 -0.54351956 -0.67025757
000300 22 2b 55 3f ff 69 96 3f 2d f1 46 3f 4c 36 23 be
       0.8326894 1.1751097 0.77711755 -0.15938681
000310 be 09 97 be 95 c8 ae 3e 3f b4 56 bc b5 40 90 be
       -0.2949962 0.34137407 -0.013104497 -0.28174368
000320 a3 bc 6b be f2 c9 d6 be a0 7e 97 be 39 15 92 bd
       -0.23021178 -0.41950947 -0.29588795 -0.07132954
000330 34 76 50 3e 59 2f a2 be 5e b6 5d be 7c 77 94 be
       0.20357591 -0.31676748 -0.21651599 -0.2899741
000340 e2 22 95 3e 05 e0 d5 3e a3 4b e5 3c 69 fb 11 be
       0.29128176 0.41772476 0.027990168 -0.14256062
000350 85 8c ed be 8b 7c af 3d d8 40 03 3d 4d 82 80 be
       -0.4639627 0.085686766 0.03204426 -0.25099412
000360 21 5d 82 be 96 8e ff bd 4a ce 27 be e0 15 70 be
       -0.25461677 -0.12478368 -0.16387287 -0.23445845
000370 00 a8 bb 39 80 59 e7 3b f0 03 20 3e e9 db 03 be
       0.0003579259 0.00706023 0.15626502 -0.12876858
000380 14 6d e3 be 7d 0f 2b bf 8b bd 90 bf 09 4d 39 be
       -0.44419158 -0.6682051 -1.1307844 -0.18095793
000390 9b 1b 19 bf b0 2e 18 bf cf 1d d2 3e 3e b0 42 3d
       -0.5980775 -0.5944624 0.41038367 0.04753136
0003a0 ed b2 9e 3f c7 96 b7 3f 80 cf 3d 3f 57 b6 a2 bd
       1.2398354 1.4342889 0.74144745 -0.07944935
0003b0 7b ec 3b 3d 55 56 64 3f 2e e3 7a be f6 22 c2 bd
       0.045879822 0.8919423 -0.24500725 -0.094793245
0003c0 d8 91 96 bf 00 e7 97 bf 1e 6a 81 bf a5 fb 89 be
       -1.1763258 -1.1867371 -1.0110509 -0.26949802
0003d0 77 c6 5c 3e 00 23 56 bf 4e 8b d0 be c7 11 d5 be
       0.21560083 -0.83647156 -0.4073128 -0.41615126
0003e0 7d 57 20 3f e6 51 e1 3e 49 b9 06 3f 91 95 6e bd
       0.62633497 0.44007796 0.5262647 -0.058248106
0003f0 10 b7 aa bd 28 6e 39 3f e9 1f 21 3c 30 42 52 bf
       -0.08335698 0.7243371 0.009834268 -0.82132244

net.0.bias f4 [64]
000000 f7 ac 1d 3e e9 aa 2b be cb 69 1e 3d b4 f8 3b be
       0.15398012 -0.16764416 0.03867511 -0.18356591
000010 b3 d0 7e 3c 33 e2 69 3f 21 2b de bd e8 68 17 bf
       0.015552687 0.9136078 -0.1084807 -0.5914445
000020 d6 60 93 be 88 62 6e 3e a7 b6 37 bf 6c 29 63 3f
       -0.28784817 0.23279774 -0.7176308 0.8873508
000030 8f 3e 32 3c c9 0c dd 3e 78 57 90 3f 56 9f 7e be
       0.010879173 0.43173817 1.1276693 -0.2486547
000040 f7 84 6c bf a8 2d 7e be d8 15 ca bd 6e 1f a4 bd
       -0.9239039 -0.24822104 -0.098674476 -0.08013807
000050 9d 4e 8e 3e bb 79 19 bf bb e8 39 3e 2f 7d 6a bd
       0.27794352 -0.5995137 0.18155186 -0.05724829
000060 10 d9 e4 be 80 f9 0e 3f 10 0f 0a 3d 8e 38 64 be
       -0.44696856 0.55849457 0.03370577 -0.22287199
000070 ba 27 e6 3e 9b 80 6f bf f4 85 fd be e7 03 19 3f
       0.44952184 -0.9355561 -0.4951626 0.5977158
000080 46 b1 8b 3f a1 cf b7 be 99 3c 4d be 7e 80 46 bf
       1.0913475 -0.35900596 -0.20042647 -0.77539814
000090 e1 19 5c 3f 2c 98 85 bf 34 46 ff be 5e 07 05 3e
       0.8597699 -1.0437064 -0.49858248 0.12991092
0000a0 b7 27 27 3d a3 6b 88 be a3 9a 21 bf 98 66 ba bd
       0.04080936 -0.2664462 -0.6312658 -0.091015995
0000b0 d6 23 18 3f 30 71 32 3f 0f d5 04 bf 1c 89 80 3f
       0.5942968 0.6970396 -0.518876 1.0041842
0000c0 e9 df f2 be 1c 86 0f 3f b2 5b d5 3e 05 fe 82 3d
       -0.47436455 0.5606401 0.4167152 0.06396107
0000d0 1a 58 85 be 4c b3 96 be 07 29 57 3d 1a ae dd 3d
       -0.2604378 -0.29433668 0.05252936 0.10824223
0000e0 da 42 90 3e fb 3f 76 3f e6 5a 31 3d 11 4a 00 3e
       0.28176004 0.96191376 0.043299578 0.12528254
0000f0 be 54 b1 3e 02 99 d9 3e 03 38 15 be d2 77 94 3e
       0.34634966 0.42499548 -0.14572148 0.28997666

net.2.weight f4 [64, 64]
000000 7a 66 aa 3c ef 4b 14 3e 9f 05 66 3d f0 1b 4c bd
       0.020800818 0.14482091 0.056157704 -0.04983133
000010 8d 3c d7 be 24 5e 2e 3d 83 e3 60 3d 6b 32 90 bf
       -0.42038384 0.04257025 0.054904472 -1.1265386
000020 16 38 9e be 20 6f ad 3e 7c 1e a7 bf 43 bb 1f bb
       -0.30902165 0.33873844 -1.3056178 -0.0024373091
000030 18 ef df be be f1 da bf 23 c4 67 3e 8e 1f b0 bd
       -0.43737102 -1.7105024 0.22633414 -0.085997686
000040 fc 63 2e 3e 5e 37 a1 bf 32 4f ee 3c 3d 30 21 3e
       0.17030329 -1.2595022 0.029090498 0.15741058
000050 0b b2 3d 3e 7e 42 8f bf c8 96 86 be bf a0 14 bf
       0.18524949 -1.1192167 -0.26286912 -0.5805778
000060 76 2c c4 be 02 7d b0 3d ff 15 49 3c e2 ac 9f 3d
       -0.3831517 0.08617593 0.012273311 0.07796647
000070 5a f7 fe bb cf 23 31 c0 d3 3f f3 3d d4 27 89 3e
       -0.0077809514 -2.7678106 0.11877408 0.267882
000080 f2 f4 ba 3d ea f2 8c bc b5 87 49 3e e1 6e fd bf
       0.09128751 -0.017205674 0.19680674 -1.9799463
000090 0c cf 1d be 9f 9e 2e c0 1d 4a 2a bf c0 68 43 3b
       -0.15411013 -2.7284315 -0.6651934 0.0029817075
0000a0 c4 50 78 3e b4 ab e6 bd 33 52 4e be 8f b9 36 bf
       0.2424956 -0.112632185 -0.20148544 -0.7137689
0000b0 ce 62 eb bc 73 76 84 be 80 68 b9 bc a2 2c 06 3e
       -0.028733637 -0.2587162 -0.022632837 0.13102964
0000c0 69 b3 d1 bd ba 4e 03 3f e3 4d 1e bf 00 09 d7 be
       -0.10239298 0.51292 -0.61837596 -0.41999054
0000d0 34 f4 33 be 8f 37 38 be e9 41 85 bd 00 0c 11 be
       -0.17573625 -0.17989944 -0.06506712 -0.14164734
0000e0 49 68 1c be 43 1d 7c 3e 87 39 98 bf 03 ca 01 be
       -0.15274157 0.24620537 -1.1892556 -0.12674718
0000f0 cf 59 3d bc 8c ac 2b 3e 6f 96 bf bd c5 32 c2 3d
       -0.011557057 0.1676504 -0.09354865 0.0948234
000100 01 6e 83 be 08 01 28 be 56 7c 4f be d1 bd 1a 3e
       -0.25669864 -0.16406643 -0.20262274 0.15111472
000110 df 57 89 3c f2 1b cb bd 54 6a 1b be 46 9f af 3d
       0.016765533 -0.099174395 -0.1517728 0.08575301
000120 9c a8 0a bd 49 1f d3 3d b8 91 42 bd 10 c4 97 bd
       -0.033852205 0.103087015 -0.04750225 -0.07410443
000130 e8 1b 16 3e b5 5e 72 be 92 60 28 3d e1 41 e5 bd
       0.14659083 -0.2366894 0.04110772 -0.11194206
000140 77 9d 82 be 43 66 db bc a2 01 2f be c6 50 36 bd
       -0.2551076 -0.02678216 -0.17090467 -0.044510625
000150 90 c0 6a 3c d3 56 60 bc 9f 3e 6c 3e 89 8f b9 bd
       0.014328137 -0.0136925755 0.23070763 -0.0906058
000160 72 90 b0 bd 4a d6 99 3d c3 66 95 bd 82 13 b5 bd
       -0.08621301 0.075115755 -0.07294991 -0.088416114
000170 27 55 8b bc ad a3 0c be 14 4d 12 be e9 ad 12 3e
       -0.017008377 -0.13734312 -0.14287215 0.14324154
000180 7a 4d 39 be 84 b1 c5 3d 8e 85 ca 3d 10 d4 00 be
       -0.18095961 0.09652999 0.09888755 -0.12580895
000190 21 b1 d5 3d 30 ac be bd a0 af 89 3d a7 9b 24 be
       0.10434175 -0.09310186 0.06722951 -0.16075002
0001a0 69 d6 81 bd 9e 8e e4 3d 45 4f a0 bd a5 73 8e bd
       -0.063397236 0.111600146 -0.078276195 -0.06955651
0001b0 1d 0e 7d be ea 30 0a be f0 12 29 be 81 80 b6 bb
       -0.24712415 -0.13495222 -0.1651113 -0.005569518
0001c0 b2 dd 28 3e ad f4 3d bd 77 34 a5 3d 6f d3 79 3e
       0.1649082 -0.04637592 0.080666475 0.24397062
0001d0 c8 a4 68 bd 12 24 31 be 84 31 3c be 33 95 10 3e
       -0.056797773 -0.17298916 -0.18378264 0.14119415
0001e0 ca 6c f8 bd a4 6c 5b be f8 57 a0 bd 35 10 40 be
       -0.12130125 -0.21428162 -0.07829279 -0.18756182
0001f0 98 a3 65 be 88 b4 d6 bd 89 48 a1 bd 03 74 b6 3d
       -0.22425687 -0.10483652 -0.07875163 0.08908846
000200 9c 09 8d 3d 07 63 c8 3e e9 81 23 be f6 a2 ca bd
       0.068865985 0.39138052 -0.15967526 -0.098943636
000210 76 32 e7 bc 38 f8 80 bf b2 85 a6 bd 91 ec 23 be
       -0.028222304 -1.007575 -0.08130969 -0.16008212
000220 27 a7 5b 3c 18 b5 e7 3e b2 16 ce 3e ab 97 c8 bf
       0.013406551 0.4525535 0.4025169 -1.5671285
000230 90 43 0e be c9 62 84 3c 57 9b c1 bf 0d 3b 00 3e
       -0.1389296 0.016160386 -1.5125531 0.12522526
000240 bb 74 6c be a0 84 fe 3c 25 b2 d3 3d 78 2b 5e 3e
       -0.23091404 0.0310691 0.10336713 0.2169627
000250 47 31 6c 3e 7a 05 8c 3e 4e c6 17 3e 96 93 af be
       0.23065673 0.27347928 0.14821741 -0.34292287
000260 e2 23 5f bd 50 f7 e8 bd a5 3c a0 3d c1 76 57 3e
       -0.05447758 -0.11375296 0.07824067 0.21041395
000270 b3 0b 4a bf d5 3b f1 3e d7 da 81 be 4e 41 09 bd
       -0.789241 0.4711596 -0.25362274 -0.033509545
000280 80 a0 fd bf e0 51 c0 bc 48 77 09 be 51 4e fe 3e
       -1.9814606 -0.023476541 -0.13424408 0.49669126
000290 3d f9 b2 bf e2 0a 9f 3e 18 17 03 bc d8 12 85 bd
       -1.3982311 0.3106299 -0.008001111 -0.06497735
0002a0 83 65 b1 3e bb 97 87 3d 91 41 a6 bc 92 b3 11 3e
       0.3464776 0.06620737 -0.020294936 0.14228657
0002b0 7f 78 b7 bc 61 a5 2b be 27 02 67 be e3 66 ca bf
       -0.022396324 -0.16762306 -0.22559415 -1.5812649
0002c0 30 cc 78 bd bf 6a 34 3f 2e 41 f1 be 4a cf 7b be
       -0.060741603 0.7047538 -0.4712004 -0.24590793
0002d0 88 ee b7 be cc 8f 0b 3f 90 bc 6d bc 41 83 2c 3d
       -0.35924172 0.5451629 -0.014510289 0.04211736
0002e0 b4 83 ec bc c1 44 1f bf 1e dd 84 3e 70 e1 c7 3d
       -0.028871395 -0.62214285 0.2594995 0.09759796
0002f0 57 e9 b0 bc a4 39 26 bd 3b 96 30 3e 66 3e 8f 3e
       -0.02159564 -0.040582314 0.17244808 0.27977294
000300 9e a3 08 3e 4b 58 8c be 66 ed 54 be 43 5f 2f 3e
       0.13343665 -0.27411112 -0.20793685 0.17126183
000310 37 42 c1 bc 44 f2 42 be 1e 49 fe bb 59 f4 f0 bd
       -0.023591144 -0.1903773 -0.007760181 -0.117653556
000320 d7 c7 6b bc 01 b1 d5 bd 9d 23 a3 bd f4 eb 3c be
       -0.014390907 -0.104341514 -0.07965777 -0.18449384
000330 3b 9b 9f 3c 8e a0 47 3e 02 4d 53 3d 28 5c d2 3c
       0.0194832 0.1949484 0.051587112 0.02567871
000340 de d1 82 be c3 bc 63 3d 6e f0 b6 3c be 2a 0f be
       -0.2555074 0.05559994 0.022331443 -0.13981149
000350 a4 27 21 bd 40 89 7f be 43 fc 31 be 60 df ff 3c
       -0.039344445 -0.249547 -0.17381386 0.031234443
000360 91 b1 9c 3b 2c 23 86 bd 69 68 c2 3d a7 34 3f 3e
       0.0047819098 -0.06549677 0.09492571 0.18672429
000370 71 18 70 be fa 32 d1 3b b6 b3 d2 3d ab 85 9f bc
       -0.23446824 0.0063842507 0.102881834 -0.019472918
000380 77 00 f0 3d c7 8f 4d be 9e ff 31 be 3c 26 7c bd
       0.11718839 -0.20074378 -0.17382666 -0.0615599
000390 82 3c 49 be 64 18 9c bd 8c d5 c6 bd 34 98 4f 3d
       -0.19651988 -0.0762184 -0.097086996 0.05068226
0003a0 b6 03 1e be af 8a 55 be a3 b0 1b bd 4d 99 67 3e
       -0.15431103 -0.20853685 -0.03801025 0.22617073
0003b0 25 ce ec bd 60 cc 84 be 29 7f bc 3d 53 b1 40 3d
       -0.115627564 -0.25937176 0.092039414 0.04704411
0003c0 17 e2 ab bd c3 cc ae 3d ba fb a1 bd 5d 6e 70 3d
       -0.083927326 0.08535149 -0.07909341 0.058699
0003d0 00 28 4e 3e cd 3e a5 bd 78 1f 1e bd dc 17 28 3d
       0.20132446 -0.08068619 -0.03860423 0.04103838
0003e0 e6 73 49 be 05 7b b9 bd c1 44 32 3e 0d 00 ed bc
       -0.19673118 -0.09056667 0.1740904 -0.028930688
0003f0 5c 15 e7 bd ae 0b 12 3e 88 f1 2b bd 2a 01 0f be
       -0.11283371 0.14262268 -0.04197839 -0.13965288

net.2.bias f4 [64]
000000 aa cf 41 3f 28 d3 5d be 95 d0 72 be c1 04 c3 bd
       0.75707495 -0.21662581 -0.2371238 -0.09522391
000010 c2 ce e9 bd d4 80 e1 bd 40 64 10 be 65 53 06 be
       -0.11416389 -0.110109 -0.14100742 -0.1311775
000020 1b f7 4e 3e 52 09 a2 3d 44 9a ad 3d d1 3c f9 bd
       0.20211451 0.07911934 0.084766895 -0.12169803
000030 e1 e6 57 3f c1 82 e1 bc f1 a5 97 bd cb 96 17 bd
       0.8433667 -0.027528169 -0.07404698 -0.03700904
000040 a1 e9 9b be 3e eb 3a 3f 66 ac 9d 3d e7 3b 62 be
       -0.30451682 0.730152 0.07698898 -0.22093163
000050 78 39 2a 3f ef 0d eb be 3f d2 0e be f7 34 1f 3e
       0.6649394 -0.45909068 -0.1394739 0.15547548
000060 ad 62 29 bd f7 03 a0 bd 47 a3 ab bd fe e9 d0 39
       -0.04135387 -0.07813256 -0.08380752 0.0003984719
000070 65 3b 3a 3f fb 8e 29 be fa 9f 96 bd 8f 94 00 3d
       0.7274688 -0.16558449 -0.07354732 0.031391677
000080 80 8c 56 bd 87 15 58 3f ea 95 c6 bd 4e 32 32 3f
       -0.052380085 0.8440785 -0.096965626 0.6960801
000090 ef 03 02 be 84 4f 9b bf 9d 62 50 3f 51 49 b9 3d
       -0.12696813 -1.2133641 0.8140047 0.09047187
0000a0 d4 a4 d9 bd 49 eb 19 3e 72 7f d9 bd 61 3d 5f bf
       -0.106271416 0.1503116 -0.106200114 -0.8720303
0000b0 31 2b 3f 3f 6f ee 0f be a7 d7 09 bd 4c 70 d9 bd
       0.7467528 -0.14055799 -0.033652928 -0.10617122
0000c0 00 6c 53 3f c4 c8 24 be ce 64 60 bd 17 a2 17 3f
       0.8258667 -0.16092211 -0.054783635 0.59231704
0000d0 36 48 c9 bb 46 f2 1b be 7b 73 24 3f c3 a7 78 3d
       -0.0061426414 -0.15229139 0.6423871 0.060706865
0000e0 a7 60 1c 3f 71 16 20 3f 16 da 95 3a 00 59 8f 3d
       0.6108498 0.6253424 0.0011432793 0.06999397
0000f0 21 a8 a0 be b7 7d b5 3c e8 c3 ef bd 75 bc 33 3f
       -0.31378272 0.022154672 -0.11707288 0.7020944

net.4.weight f4 [1, 64]
000000 a3 61 fe be 3f 90 0a be 11 bc 48 3f ab 1b 16 bb
       -0.49683866 -0.13531588 0.78411967 -0.0022904675
000010 d2 55 ac 3e 6e e7 00 3f 92 86 26 bd cd 4f 27 3f
       0.33659226 0.50353134 -0.04065568 0.6535614
000020 6d 5e 77 3f 6a 18 40 3f fd 32 27 3e ba 0d df 3f
       0.9662846 0.7503725 0.16328044 1.7426064
000030 85 39 0b bf 0f 13 55 3f 43 7d 9e bd ac 4e a4 bd
       -0.5438464 0.83232206 -0.077387355 -0.08022818
000040 f1 f8 bb bd cc 8c fc be 4f 9b 07 3f ec d3 05 3f
       -0.09178341 -0.4932617 0.5297136 0.5227649
000050 7c cc 0b bf c5 fa 8d bf bd 25 dd bc 38 80 15 3f
       -0.54608893 -1.1092154 -0.026995534 0.5839877
000060 ed 3f 7f bd b6 fa 28 3e 5e f4 80 3e b7 03 82 3f
       -0.062316824 0.16501889 0.25186437 1.0157384
000070 df 80 be be 1e f0 2f be 36 8f 19 3e 9a e7 57 3c
       -0.37207696 -0.17181441 0.14996037 0.013177777
000080 e4 45 54 3f 0c 5d 06 bf d3 82 3e 3f 28 67 cc be
       0.82919145 -0.5248573 0.7441837 -0.39922452
000090 dc 15 0c 3f 68 a4 0d bf b0 55 17 bf 68 25 44 3f
       0.54720855 -0.5532899 -0.59115124 0.7661958
0000a0 c0 08 64 3f da 22 1b 3f af 12 89 3f 45 80 d6 be
       0.8907585 0.60600054 1.0708827 -0.41894737
0000b0 88 91 c0 be aa 79 cd 3f 35 64 0e 3c 5e ac b8 3f
       -0.37611032 1.6052754 0.008690883 1.4427602
0000c0 a0 1f 1f bf 7e 2d 71 3c cd a5 c1 3f e2 49 f8 be
       -0.6215763 0.014720319 1.5128723 -0.48493868
0000d0 6a 09 db 3c 64 7e 2e 3f a6 24 e3 be 61 ae 05 3f
       0.026737887 0.68161607 -0.44363898 0.52219206
0000e0 f9 6b a8 bf b2 3a ba be 5c ef b8 3f 7c 6b 8e bc
       -1.3157951 -0.36372906 1.4448047 -0.017385237
0000f0 d3 6e 23 be 72 bf 14 3e 3f 68 3c 3f 1b d8 16 bf
       -0.15960245 0.14526156 0.73596567 -0.589235
