ppo_model_final.pt (torch, 132483 bytes, 33 tensors)

net.0.weight f4 [64, 8]
0	0x3e980e18	0.29698253
1	0x3eba560e	0.3639378
2	0x3ed423e5	0.41433635
3	0x3d9eb86f	0.07750022
4	0xbe861225	-0.26185718
5	0x3eaf9958	0.3429668
6	0x3eb6becd	0.35692444
7	0xbdfec4e1	-0.124398954
8	0xbe4689dd	-0.19388528
9	0x3e2b7e08	0.16747296
10	0x3ec7ba50	0.39009333
11	0x3e786e44	0.24260813
12	0xbeb7dc97	-0.35910484
13	0xbed98dbd	-0.4249095
14	0x3dea6588	0.11445147
15	0xbec5d354	-0.38637793
16	0xbe39a69c	-0.18129963
17	0x3e59feb9	0.21288575
18	0xbe52dc8b	-0.20591943
19	0xbe134fe6	-0.14385948
20	0xbe92dcdc	-0.28684127
21	0x3d3e0827	0.046394493
22	0xbe50973c	-0.20370191
23	0x3e0e4613	0.13893919
24	0xbea8b365	-0.32949367
25	0xbe38c061	-0.18042137
26	0x3da1b925	0.07896642
27	0xbc3f7096	-0.011684557
28	0xbd01b7eb	-0.03166954
29	0x3e8479a7	0.25874063
30	0x3e6d4723	0.23171668
31	0x3eba0c77	0.36337635
32	0xbe9e49f0	-0.30915785
33	0x3e7b09b1	0.24515416
34	0x3e7976db	0.24361746
35	0x3db3474b	0.087538324
36	0xbeaa324f	-0.33241507
37	0xbe377f47	-0.17919646
38	0x3eb4eba2	0.35336024
39	0x3d3201ab	0.043458622
40	0xbd85e02d	-0.06536899
41	0x3eacc29f	0.33742234
42	0xbef2b584	-0.4740411
43	0x3e0ac0eb	0.13550155
44	0xbe14db98	-0.14536893
45	0x3dde4610	0.10853207
46	0x3ef9daeb	0.48799834
47	0x3e8f5290	0.27992678
48	0x3eaba9cf	0.3352799
49	0xbe80b68d	-0.25139275
50	0xbc469792	-0.012121098
51	0x3dad3fa1	0.08459402
52	0xbe582707	-0.21108638
53	0xbe6fdc03	-0.23423772
54	0x3d694dfe	0.056959145
55	0xbeb99a45	-0.3625051
56	0x3d32c03d	0.043640364
57	0xbd1321c0	-0.03592086
58	0xbd4bcd93	-0.049756598
59	0x3e88d8de	0.26727957
60	0xbe05f997	-0.13083492
61	0xbdec8df2	-0.115505114
62	0x3e96632b	0.29372534
63	0xbd89a35a	-0.0672061
64	0x3e26a57e	0.16274068
65	0x3e3e41d0	0.18579793
66	0xbe3f4969	-0.18680348
67	0x3e3e2593	0.18569021
68	0xbe2453c2	-0.16047576
69	0xbddf973d	-0.10917518
70	0x3e3eb0b3	0.18622093
71	0xbd73a72d	-0.059485603
72	0x3ea1424d	0.31495896
73	0x3e36b687	0.17843066
74	0x3c6786b8	0.014131241
75	0xbca85669	-0.020549016
76	0x3ec162e9	0.37770775
77	0xbe6a2133	-0.22864227
78	0xbe5a80ad	-0.21338148
79	0x3e2efeb1	0.17089345
80	0xbe90b5fb	-0.2826384
81	0x3dc6b98d	0.0970336
82	0x3e249031	0.1607063
83	0xbdd2491f	-0.10267853
84	0xbe1e416e	-0.15454647
85	0xbeb7ed42	-0.359232
86	0x3e07bde8	0.13256037
87	0x3e093f56	0.13403067
88	0x3e0debde	0.13859507
89	0xbe51bab7	-0.20481382
90	0xbe840d9f	-0.25791642
91	0xbe58aa4b	-0.21158712
92	0xbe1f4aa3	-0.15555815
93	0xbe960602	-0.2930146
94	0xbc8229e0	-0.015889108
95	0xbd396048	-0.045257837
96	0xbe9b7dca	-0.30369407
97	0x3def13e0	0.11673713
98	0x3de6e32c	0.11273798
99	0xbc65d280	-0.014027238
100	0xbe354935	-0.17703708
101	0xbea6075f	-0.324275
102	0xbe5ed053	-0.21759157
103	0x3c6bfdc0	0.01440376
104	0xbcbe9463	-0.023264116
105	0x3e7bbaab	0.24582927
106	0x3ed66843	0.4187642
107	0x3e1946c4	0.14968401
108	0x3da3db47	0.08000808
109	0xbe46134b	-0.19343297
110	0xbe716ca1	-0.23576595
111	0xbea3b3fc	-0.31973255
112	0xbdc42f01	-0.09579278
113	0xbdee50db	-0.11636516
114	0xbe40ddc8	-0.18834603
115	0x3e70d95d	0.23520418
116	0xbe7eecb2	-0.2489498
117	0x3ccff463	0.025385087
118	0x3e28b2e4	0.16474491
119	0xbd1fa8a7	-0.0389792
120	0xbe0c023d	-0.13672729
121	0xbe758351	-0.23975874
122	0xbeda2010	-0.42602587
123	0xbc0ebcd8	-0.008712016
124	0x3e1c2146	0.15247068
125	0xbe5bb3fd	-0.21455379
126	0x3ee9d252	0.45668274
127	0x3ea87dcc	0.32908475
128	0xbe6aad4d	-0.22917672
129	0x3edf22d8	0.4358127
130	0x3e2cbb4c	0.16868323
131	0xbd4d5fb0	-0.050140083
132	0xbcf15afc	-0.02946233
133	0x3e9e0673	0.30864295
134	0x3ca2c749	0.019870417
135	0x3e9c582e	0.30536026
136	0xbe0d5861	-0.13803245
137	0xbe718f6b	-0.23589866
138	0x3e55db4b	0.20884435
139	0x3e54e657	0.20790993
140	0x3d005cc1	0.031338457
141	0xbd099900	-0.033593178
142	0x3e4f4f74	0.20245153
143	0xbe533c4f	-0.20628475
144	0x3ea8ca59	0.3296688
145	0x3e84dc8c	0.25949514
146	0x3e885ce9	0.26633385
147	0xbec7404a	-0.38916236
148	0xbdd54bab	-0.10414823
149	0xbcbf9333	-0.02338562
150	0x3e77925c	0.24176925
151	0x3e51a991	0.2047484
152	0xbec9eec8	-0.39439988
153	0x3e4d71e9	0.20062985
154	0xbdb35b4b	-0.08757647
155	0xbe3fe4b6	-0.1873959
156	0x3d228595	0.039678175
157	0xbe60a3cb	-0.21937482
158	0xbec08d35	-0.37607732
159	0x3d65a73b	0.056067687
160	0x3e8bbaf7	0.2729108
161	0x3eb3b913	0.35102138
162	0x3eab4269	0.33449104
163	0x3e24bc50	0.1608746
164	0x3eb71b8c	0.35763204
165	0xbd6fb5a8	-0.05852285
166	0xbe01bcbe	-0.12669656
167	0xbd6b3b93	-0.05742986
168	0xbe8c464c	-0.27397382
169	0xbe590a97	-0.21195446
170	0x3dc592d6	0.09647147
171	0xbe1d267a	-0.15346709
172	0x3e998c64	0.29989922
173	0xbdf7d99e	-0.12102054
174	0x3e7e85e1	0.24855758
175	0xbdcbd3f9	-0.0995254
176	0xbe9f31df	-0.31092736
177	0xbdcc180e	-0.099655256
178	0xbe8fe9df	-0.28108117
179	0x3e128c8f	0.14311431
180	0x3d381e9b	0.044951063
181	0x3d724976	0.05915209
182	0xbcdf60ee	-0.0272679
183	0x3ebd9004	0.37023938
184	0x3ed72a77	0.42024586
185	0x3eab8c9a	0.33505708
186	0x3baec87a	0.0053339573
187	0xbca53708	-0.020167843
188	0x3dde259c	0.10847017
189	0x3e9d2f35	0.3070008
190	0x3e39d335	0.18146975
191	0xbdb86a0e	-0.09004603
192	0x3bd93aa2	0.006629304
193	0xbd905a64	-0.07048491
194	0xbdc9930c	-0.098425
195	0x3dd4c985	0.10389999
196	0x3da92a18	0.08259982
197	0x3da62bfa	0.081138566
198	0x3d676b76	0.056498967
199	0x3d85554e	0.06510411
200	0xbe9bdffe	-0.3044433
201	0xbe83a441	-0.25711253
202	0xbdfb87d3	-0.12281766
203	0x3dbdf55c	0.09275314
204	0xbe7c2483	-0.24623303
205	0x3db19339	0.086706586
206	0xbec9c0ef	-0.3940501
207	0x3e4cf94f	0.20016979
208	0x3d646768	0.05576268
209	0xbe9d3fc1	-0.30712703
210	0xbd79cb20	-0.06098473
211	0xbe923326	-0.28554648
212	0xbd1a6d10	-0.037701666
213	0xbe44407d	-0.19165225
214	0x3e26fb32	0.16306761
215	0xbe96b27b	-0.29433045
216	0xbe16fc84	-0.14744765
217	0xbce054d7	-0.027384205
218	0x3e1d63c7	0.15370093
219	0x3e58e170	0.21179748
220	0x3c62d8ad	0.013845605
221	0xbdc676b0	-0.096906066
222	0x3e95c607	0.29252645
223	0x3e9e5f83	0.30932245
224	0xbd698b60	-0.057017684
225	0x3e493096	0.1964744
226	0x3e5e1b30	0.21690059
227	0xbc5880e2	-0.013214322
228	0xbcfbf205	-0.030755052
229	0x3d247bc5	0.0401571
230	0x3e33b039	0.17547692
231	0x3e8c1066	0.2735626
232	0x3e023960	0.127172
233	0xbd94f677	-0.07273572
234	0x3cb98a08	0.022648826
235	0xbe92e9e1	-0.2869406
236	0xbe2c5b57	-0.16831718
237	0xbebac946	-0.36481684
238	0x3ebfa639	0.37431505
239	0x3e7b344e	0.24531671
240	0xbe8b3027	-0.27185175
241	0x3db82974	0.089922816
242	0x3e90e1f2	0.28297383
243	0xbebe36a9	-0.37151077
244	0x3db07582	0.08616163
245	0x3e7698cc	0.24081725
246	0x3e846095	0.25854936
247	0x3e0e6f50	0.1390965
248	0xbe250345	-0.16114528
249	0xbdd1b57e	-0.10239695
250	0x3e4a5b92	0.19761494
251	0x3d86fda4	0.06591347
252	0x3e4da01e	0.20080611
253	0xbd1e5085	-0.03865101
254	0xbc7b685c	-0.015344705
255	0xbe0b5f8b	-0.13610666

net.0.bias f4 [64]
0	0x3e6aca21	0.22928669
1	0xbe9be87b	-0.30450806
2	0x3e5eb33f	0.21748064
3	0x3e960c99	0.29306486
4	0xbe0004a6	-0.12501773
5	0x3e00bda4	0.12572342
6	0x3e48e3e9	0.19618191
7	0xbe297ee7	-0.16552316
8	0x3c9fed83	0.019522434
9	0xbdc70d2e	-0.09719311
10	0xbe9ca67d	-0.3059577
11	0x3e3f4e0e	0.18682119
12	0xbea84960	-0.3286848
13	0xbefb6dc2	-0.49107176
14	0x3e35ee98	0.17766798
15	0x3ea08500	0.3135147
16	0x3ef4c1eb	0.47804198
17	0x3e1a37dc	0.15060371
18	0xbeb17d3f	-0.34665868
19	0x3db84847	0.08998161
20	0xbe0de413	-0.13856535
21	0xbdab1af0	-0.08354747
22	0x3e928845	0.2861959
23	0x3ef59a41	0.4796925
24	0x3dc4396e	0.09581266
25	0xbe82e1cc	-0.25562894
26	0xbe103233	-0.1408165
27	0x3e34d97d	0.1766109
28	0x3ece093f	0.4024143
29	0x3d91b208	0.07114035
30	0xbd05c7f8	-0.03266141
31	0xbd9e2342	-0.07721569
32	0x3e9998cd	0.2999939
33	0x3dbe37b4	0.09287968
34	0xbe810a22	-0.25203043
35	0xbea200ca	-0.31641227
36	0x3e4a22f7	0.197399
37	0x3e9bb094	0.30408156
38	0xbe106376	-0.14100441
39	0xbeae7273	-0.34071693
40	0xbd4b898e	-0.04969173
41	0xbe85149a	-0.2599228
42	0xbe6676bf	-0.22506236
43	0x3c6b56e0	0.014363974
44	0xbe40d4b7	-0.18831144
45	0x3d49d360	0.04927385
46	0x3e581906	0.21103296
47	0xbe35b71b	-0.1774563
48	0xbeb1854a	-0.34672004
49	0xbea72191	-0.32642797
50	0xbe3d8c7e	-0.18510625
51	0xbddb90ed	-0.10721002
52	0x3e61cb79	0.22050275
53	0xbe762bc4	-0.24040133
54	0x3ea0ac09	0.31381252
55	0xbe2160e2	-0.15759614
56	0xbe22d828	-0.1590277
57	0xbeb5e2ae	-0.35524505
58	0x3ea871d5	0.32899347
59	0xbdc7b780	-0.09751797
60	0x3d05fcfb	0.032711964
61	0x3e7e3a9e	0.24827048
62	0x3e70f05d	0.23529191
63	0xbe83e6a8	-0.25761914

net.2.weight f4 [64, 64]
0	0xbdb534bc	-0.08847949
1	0xbd77f6b6	-0.060538016
2	0x3d52ee44	0.05149676
3	0xbbe0e3ec	-0.006863108
4	0x3d880214	0.06641021
5	0xbdc166f8	-0.09443468
6	0xbc7294c4	-0.014805976
7	0xbc99b63d	-0.018763656
8	0x3d9fa837	0.07795756
9	0xbc06e047	-0.008232183
10	0x3dad892a	0.084734276
11	0xbd6e0324	-0.058108464
12	0xbd5f9340	-0.054583788
13	0xbe0ed5c5	-0.13948734
14	0xbcc86f93	-0.024467265
15	0xbdaf282f	-0.08552586
16	0xbdbf3cb4	-0.0933775
17	0xbcd177d4	-0.025569834
18	0x3c5457f0	0.012960419
19	0x3c04d711	0.008107916
20	0xbc523d5e	-0.012832014
21	0xbd5c240d	-0.05374532
22	0x3c8bd2e2	0.01706833
23	0xbc993099	-0.018699931
24	0x3d223878	0.039604634
25	0x3bb4f319	0.0055221436
26	0x3de38df4	0.1111106
27	0xbd9a715a	-0.07541151
28	0xbddb74c8	-0.10715634
29	0x3d9304f2	0.071786776
30	0xbd44f8dd	-0.048088897
31	0x3dd3bf65	0.1033924
32	0xbd4660df	-0.048432227
33	0xbca9e236	-0.020737749
34	0x3da02892	0.07820238
35	0xbd96b1bf	-0.07358121
36	0x3dc3f4a6	0.09568147
37	0xbd601fca	-0.054717816
38	0x3d77e3c7	0.06051996
39	0xbd12aae6	-0.035807513
40	0xbdf80097	-0.121094875
41	0xbcbbad60	-0.02290982
42	0xbcbc9948	-0.023022309
43	0xbd460314	-0.04834278
44	0x3ddb60f9	0.107118554
45	0x3d2886d0	0.041144192
46	0xbde6136f	-0.112341754
47	0xbd81eca8	-0.06343967
48	0xbdbef74c	-0.09324512
49	0x3cab9c50	0.020948559
50	0x3d9c7205	0.07638935
51	0x3d965096	0.07339589
52	0xbd44960b	-0.047994655
53	0x3dee57be	0.11637829
54	0xbdd5316c	-0.10409817
55	0x3d1f6f93	0.038924765
56	0xbde45cf1	-0.1115054
57	0x3d886452	0.066597596
58	0xbcefc4b3	-0.029268598
59	0x3c615849	0.013753959
60	0xbdee8ef1	-0.11648358
61	0x3c7955b4	0.015218187
62	0x3bfc22e1	0.0076945876
63	0x3dc35b68	0.09538919
64	0x3bf8656a	0.007580449
65	0xbdac6bca	-0.08418997
66	0xbd953b35	-0.072866835
67	0x3d600f1b	0.054701906
68	0xbe203a04	-0.15647131
69	0x3d515dc5	0.051114816
70	0xbdf768a6	-0.12080507
71	0xbe4f902a	-0.20269838
72	0xbdc511ea	-0.096225575
73	0x3cca22c2	0.024674777
74	0xbd40f0fd	-0.047104824
75	0x3dda4f02	0.10659601
76	0xbd7d7b24	-0.061885014
77	0x3d8d4588	0.06898028
78	0xbe2c3061	-0.1681533
79	0xbcec2b4e	-0.028829243
80	0xbe2d19eb	-0.16904418
81	0x3b260145	0.0025330347
82	0xbd583719	-0.05278692
83	0xbc0c805f	-0.008575528
84	0xbcd3d864	-0.025860019
85	0x3d6fc346	0.058535837
86	0x3cd72970	0.026264876
87	0x3db1d897	0.08683889
88	0xbe0aa74c	-0.13540381
89	0xbccb3281	-0.024804356
90	0xbdac3178	-0.08407873
91	0xbe090226	-0.13379726
92	0x3d5e8595	0.054326613
93	0xba091b09	-0.0005230164
94	0x3ce282e1	0.027650299
95	0x3daa94b5	0.08329145
96	0xbda99994	-0.08281246
97	0xbca50790	-0.020145208
98	0xbb7941c0	-0.0038033575
99	0x3db56de7	0.08858853
100	0x3d733324	0.059374943
101	0x3d538c9b	0.051647764
102	0x3d64db0c	0.055872962
103	0x3c61588f	0.013754024
104	0xbc1c50c7	-0.009540743
105	0xbd0a7087	-0.03379872
106	0x3c3f3d20	0.011672288
107	0xbd730520	-0.05933106
108	0xbe1c304e	-0.15252802
109	0xbbb0d160	-0.005396053
110	0xbababc38	-0.0014246767
111	0x3e012155	0.12610371
112	0x3e1088c7	0.14114676
113	0xbe15e22e	-0.14637062
114	0x3dac0f99	0.084014125
115	0x3cb8289b	0.0224803
116	0x3dcd4845	0.1002355
117	0xbc9a3a70	-0.018826693
118	0x3cc5b750	0.024135262
119	0x3d65d0d9	0.056107376
120	0x3da959f8	0.08269113
121	0xbe100094	-0.1406272
122	0x3d821b02	0.063528076
123	0xbdab75b7	-0.08372062
124	0x3cfdaca3	0.030966109
125	0x3e099ee3	0.13439517
126	0xbc0b2410	-0.008492485
127	0xbd08db00	-0.03341198
128	0xbba53338	-0.005041506
129	0x3b5ff449	0.0034172705
130	0x3baefd20	0.0053402334
131	0xbdbfd700	-0.0936718
132	0x3d488f6d	0.048964906
133	0xbc9017a4	-0.017589398
134	0x3d7c3b48	0.061579973
135	0xbd19f122	-0.037583478
136	0xbd67e784	-0.056617275
137	0x3c63db2b	0.013907234
138	0x3d81b5a9	0.06333477
139	0x3df51c42	0.119682804
140	0x3dc5f022	0.09664942
141	0x3d902b5c	0.0703952
142	0xbde685df	-0.11256003
143	0x3d465b0b	0.04842667
144	0x3dd108ce	0.102067575
145	0x3d2c54a2	0.0420729
146	0xbda2701e	-0.07931541
147	0xbccf57c5	-0.025310406
148	0xbe0b0e57	-0.13579689
149	0xbd89312e	-0.066988334
150	0xbc3c9831	-0.011510895
151	0x3d94a252	0.07257523
152	0xbde73df6	-0.11291115
153	0xbcd5abff	-0.02608299
154	0xbdcd077a	-0.10011192
155	0x3d807864	0.06272963
156	0xbcb30178	-0.021851286
157	0xbdec9cf6	-0.115533754
158	0x3abb539b	0.0014291884
159	0x3dca17bf	0.098678105
160	0xbcef9bb0	-0.029249042
161	0xbce48498	-0.027895257
162	0xbd152bbc	-0.03641866
163	0x3dfdb102	0.12387277
164	0xbd7f3adb	-0.06231199
165	0x3a89a386	0.0010501004
166	0x3c6ac209	0.014328488
167	0x3da3c114	0.07995811
168	0xbdbda0a9	-0.09259159
169	0x3cb56b88	0.022146001
170	0x3dc6b652	0.097027436
171	0xbd88fa2a	-0.0668834
172	0xbdc78dca	-0.09743841
173	0xbdceaa3e	-0.10091065
174	0x3cf87d52	0.030333195
175	0xbd0b06c4	-0.033942
176	0x3d578565	0.05261745
177	0xbdd2dbdf	-0.10295843
178	0x3de796e7	0.11308079
179	0xbe42bb1e	-0.19016692
180	0xbd0fb1c9	-0.03508166
181	0xbd0d6cd8	-0.03452763
182	0xbdbb8d32	-0.0915779
183	0xbe08cfde	-0.13360545
184	0x3d19f992	0.037591524
185	0x3d067d9c	0.032834634
186	0x3d297dc2	0.041379698
187	0xbc22a6c9	-0.00992746
188	0x3d9f14be	0.07767628
189	0x3df27b12	0.1183988
190	0xbde363c8	-0.11103016
191	0xbdcf8dae	-0.10134445
192	0x3da0e81b	0.078567706
193	0xbdb9898b	-0.09059437
194	0xbdd1db8e	-0.10246955
195	0xbdefee1a	-0.11715336
196	0xbe097d6b	-0.1342675
197	0xbddebe96	-0.10876195
198	0xbdbc9f15	-0.0921003
199	0x3d958695	0.0730106
200	0x3dafb7c1	0.0857997
201	0x3c6a7be2	0.0143117625
202	0xbcacecc7	-0.021108998
203	0x3c04c140	0.008102715
204	0xbd487130	-0.04893607
205	0x3cdb6a44	0.02678407
206	0xbd70c875	-0.05878492
207	0xbe10475e	-0.14089724
208	0xbe26e6df	-0.16299008
209	0x3da97939	0.082750745
210	0xbd3a10b8	-0.0454261
211	0xbce329d5	-0.027729908
212	0x3df94ebe	0.12173222
213	0xbd2cf0ed	-0.042221952
214	0xbc5cdb0f	-0.013479962
215	0x3dc73c5b	0.09728309
216	0xbcace8dc	-0.02110713
217	0x3c46a5f6	0.012124529
218	0x3d9de26e	0.07709204
219	0xbd520f72	-0.05128426
220	0x3c9ca81f	0.019123135
221	0xbd632a18	-0.055460066
222	0x3dcb5e30	0.09930074
223	0x3e140150	0.14453626
224	0x3e15c55d	0.1462607
225	0x3bcc6d2a	0.0062385993
226	0x3db4d1f6	0.08829109
227	0xbd3c4160	-0.045960784
228	0x3db16039	0.08660931
229	0x3dad8d7b	0.08474251
230	0x3d2bc165	0.041932482
231	0x3d4732d8	0.048632473
232	0xbbcd8de9	-0.0062730205
233	0xbdf54874	-0.1197671
234	0x3d4062b4	0.04696913
235	0xbdba8b18	-0.09108561
236	0x3e35f71e	0.17770049
237	0x3cc59ff0	0.024124116
238	0x3d487dd1	0.048948113
239	0x3e1512b5	0.14557917
240	0xbcd1edde	-0.02562612
241	0xbbce4ead	-0.006296
242	0x3deb6e8d	0.11495695
243	0xbd28ca09	-0.0412083
244	0xbde62a59	-0.11238546
245	0x3b934da0	0.0044953376
246	0x3df8e2a2	0.12152602
247	0x3d9c0eb9	0.076199956
248	0xbc8c0b98	-0.017095372
249	0x3e01933b	0.1265382
250	0x3e172e49	0.1476375
251	0xbd7fc9a1	-0.062448148
252	0xbdce5f4e	-0.10076772
253	0xbd65135e	-0.055926673
254	0x3dfa60e0	0.12225509
255	0x3daad78e	0.08341895

net.2.bias f4 [64]
0	0xbdfb0f43	-0.1225877
1	0xbd739c4c	-0.05947523
2	0xbd2e9922	-0.042626508
3	0x3df1048a	0.11768444
4	0xbba5589f	-0.005045965
5	0xbd3b90c8	-0.04579237
6	0xbdcc3f12	-0.09972967
7	0xbaf08c11	-0.001835229
8	0x3e4c1780	0.1993084
9	0x3dff42b6	0.12463896
10	0xbd3352bf	-0.043780085
11	0xbd23df5d	-0.040007938
12	0xbcfb3b00	-0.030667782
13	0x3d7ccb52	0.06171734
14	0x3daca787	0.08430391
15	0xbacd72b9	-0.0015674449
16	0xbb09c81e	-0.002102382
17	0x3d772f5b	0.060347896
18	0xbdde2cea	-0.108484104
19	0x3d3056ac	0.043051407
20	0x3e3b8bf8	0.18315113
21	0x3dcdaba3	0.10042503
22	0xbd8d7347	-0.06906753
23	0x3d3f43ff	0.046695706
24	0x3be3f71d	0.0069569484
25	0xbd2a9583	-0.04164649
26	0x3d96719e	0.073458895
27	0x3d1413bc	0.036151633
28	0xbc97a715	-0.018512288
29	0x3c6e56fb	0.014547105
30	0x3d83939d	0.064246394
31	0xbcd40fe2	-0.02588648
32	0x3dc57a62	0.09642483
33	0xbdd24c0a	-0.102684096
34	0xbd60e0d3	-0.05490191
35	0x3e1a037a	0.15040389
36	0xbd453204	-0.0481434
37	0xbd91d747	-0.07121139
38	0xbcdfd47f	-0.027323006
39	0xbc038422	-0.008027108
40	0x3d07e976	0.03318163
41	0x3dc06977	0.09395116
42	0x3e3c0200	0.18360138
43	0x3e065b2a	0.13120714
44	0x3c7013f2	0.014653193
45	0xbd95264c	-0.07282695
46	0xbdaae23f	-0.08343934
47	0x3d9bfc13	0.07616439
48	0x3dde58a1	0.10856748
49	0xbdfa7fe6	-0.12231426
50	0x3d7913dc	0.060809955
51	0xbdc56c52	-0.09639801
52	0x3caf8558	0.021425888
53	0xbc6595a3	-0.014012727
54	0x3d4c215c	0.0498365
55	0xbdee3c8d	-0.11632643
56	0x3c9fceff	0.019507883
57	0x3e24977e	0.16073415
58	0xbdc57460	-0.096413374
59	0x3d736dda	0.059430934
60	0xbd57195d	-0.052514423
61	0xbd878592	-0.066172734
62	0x3d67ca64	0.0565895
63	0xbd554e90	-0.052076876

net.4.weight f4 [4, 64]
0	0xbb934366	-0.0044941185
1	0xbb79cab8	-0.0038115215
2	0x3d06e0ec	0.032929346
3	0x3d9b30d4	0.075776726
4	0x3bc787cd	0.0060891868
5	0xbc0416d1	-0.0080620805
6	0x3a1dbcab	0.00060171884
7	0x3c8eeb80	0.01744628
8	0x3c5a00c8	0.01330585
9	0x3d04c4a6	0.0324141
10	0xbb822a01	-0.0039722924
11	0xbb96a6ff	-0.004597544
12	0x3a82da20	0.0009983219
13	0xbd0b772a	-0.03404919
14	0x3d172754	0.03690274
15	0x3cf94886	0.03043009
16	0x3db9cb16	0.09071939
17	0x3cf7d5c7	0.030253304
18	0x3b3f39de	0.0029178779
19	0x3d21f820	0.03954327
20	0x3d953522	0.07285525
21	0xbb7a7064	-0.0038213963
22	0xbb8158a9	-0.0039473367
23	0xbcc50af6	-0.024053078
24	0xbab574ac	-0.0013843975
25	0x3d2fdfd4	0.04293807
26	0x3bdbfdd5	0.0067136087
27	0xb9995658	-0.00029246765
28	0x3c61face	0.013792707
29	0x3c27bba7	0.010237611
30	0x3c0d0d04	0.00860906
31	0xbc099f62	-0.008399816
32	0x3a35dae4	0.00069372193
33	0xbb9014d0	-0.0043970123
34	0x3d08a992	0.03336484
35	0x3df216cb	0.11820754
36	0x3d39c3d5	0.045352776
37	0x3b7132b7	0.003680391
38	0x3da65632	0.08121909
39	0xba0362b3	-0.0005011961
40	0x3c90c93f	0.017674087
41	0x3cf9276d	0.030414307
42	0x3dfb539c	0.122718066
43	0x3d80927f	0.06277942
44	0x3bfdef31	0.007749461
45	0x38345180	4.2991247e-05
46	0x3d72272e	0.059119396
47	0x3c91e520	0.01780945
48	0x3ca1048a	0.019655485
49	0x3c2d8f30	0.010593221
50	0x3b0bbef2	0.002132353
51	0xbb3d974b	-0.002892929
52	0x3cbdb580	0.023157835
53	0x3b96a889	0.0045977277
54	0xbc0c5c03	-0.008566859
55	0x3b877c3f	0.0041346843
56	0x3ba3d37f	0.0049995775
57	0x3d8f661b	0.07001897
58	0x3a991339	0.0011678702
59	0x3cfd8cc1	0.030950906
60	0xbc1aedd6	-0.009456119
61	0xbc2f0a0b	-0.010683547
62	0xbad7dd7d	-0.0016469207
63	0xbb20afe3	-0.00245189
64	0x3c2c23e9	0.0105066085
65	0xbd5152cb	-0.05110435
66	0x3c80546c	0.015665255
67	0xbda83765	-0.08213691
68	0xbc9f2738	-0.01942788
69	0xbb0f9418	-0.002190834
70	0xbc954f50	-0.018226296
71	0xbc0a7a89	-0.008452066
72	0x3df20199	0.11816711
73	0x3cb5ac28	0.022176817
74	0x3aabf51b	0.0013119312
75	0x3cc19e55	0.023635069
76	0x3b189ec4	0.002328799
77	0x3cdb053f	0.0267359
78	0xba236182	-0.00062324863
79	0xbbf190cc	-0.0073719975
80	0xbb13a95f	-0.0022531373
81	0xbc5bb722	-0.0134103615
82	0x3b3b3e54	0.0028571086
83	0x3dc43dc9	0.09582097
84	0xbd24a8bc	-0.04019998
85	0xbb63c4d0	-0.003475476
86	0xbabab21c	-0.0014243755
87	0xbb67fc1e	-0.0035398076
88	0x3cc3aaa6	0.023885082
89	0xbbb5c196	-0.005546759
90	0x3be9e190	0.007137485
91	0xbab89624	-0.0014082831
92	0xbc1cfa3b	-0.009581144
93	0xbb1d2774	-0.0023979815
94	0xbc8ae90f	-0.016956834
95	0x3c7e4b1f	0.01552084
96	0x39b12108	0.0003378468
97	0x3c9ff4fa	0.019525994
98	0x3d5b0abd	0.053477038
99	0xbdc59315	-0.09647194
100	0xbd93217f	-0.07184123
101	0x3cdbc2b9	0.02682625
102	0xbcc282de	-0.023744043
103	0x3b80fae3	0.003936158
104	0xbbbdf3b5	-0.0057968744
105	0x3dc6b2fa	0.09702106
106	0x3cbe1815	0.023204843
107	0xbcec4073	-0.028839326
108	0xba81daea	-0.000990716
109	0xb8edd340	-0.00011340389
110	0x3b027abd	0.0019909583
111	0xbc5cfed2	-0.013488488
112	0x3caada8b	0.020856163
113	0x3b8383d5	0.0040135183
114	0x3b220904	0.0024724612
115	0x3c313d9c	0.0108179115
116	0x3c3d3bc5	0.011549895
117	0xb8ad85ee	-8.274229e-05
118	0x3c85d3b7	0.016336305
119	0x3c9bc1ec	0.019013368
120	0xbb7f32e8	-0.0038940255
121	0x3dffacd2	0.12484135
122	0x3c601de0	0.013678998
123	0x3c263826	0.010145223
124	0xbbc591e7	-0.006029356
125	0xb983bfd4	-0.0002512919
126	0xbb151764	-0.0022749538
127	0xbaf5b5f3	-0.0018746242
128	0x3b964909	0.004586343
129	0x3db0a44e	0.08625089
130	0xbd936e96	-0.07198827
131	0x3b9bbbc0	0.004752606
132	0xbca36583	-0.019945865
133	0x3c4b252a	0.012398997
134	0xbc444b05	-0.011980777
135	0xbc104703	-0.008805993
136	0xbdbd89ed	-0.09254823
137	0xbd1400d7	-0.036133613
138	0x3bfc7c6c	0.007705262
139	0x3c455af7	0.0120456135
140	0xba99b41c	-0.001172665
141	0xbda3c76f	-0.07997023
142	0xbd5ef8e2	-0.054436572
143	0xbc4c28ed	-0.012460929
144	0xbce04868	-0.027378276
145	0xbc9a555e	-0.018839534
146	0xbad82326	-0.0016489967
147	0xbdc139f9	-0.094348855
148	0xbe40bb37	-0.18821417
149	0x3c6a0e5d	0.014285651
150	0xbaf3ce53	-0.0018600918
151	0xb9e5aeef	-0.0004380862
152	0x3c54252d	0.0129483165
153	0x3b91b1b2	0.0044462318
154	0xbcf4af28	-0.029868677
155	0xba7e5c20	-0.0009703059
156	0xbc0c7d8d	-0.0085748555
157	0xbca7d968	-0.02048941
158	0xbb154f52	-0.0022782874
159	0x3c648684	0.013948087
160	0xbad01e02	-0.0015878084
161	0x3cad1fde	0.02113336
162	0x3daeeca0	0.085412264
163	0xbcbb6412	-0.022874866
164	0xbc340495	-0.010987421
165	0xbce51523	-0.02796418
166	0xbcc7567f	-0.024333237
167	0x3b265fc5	0.0025386673
168	0x3b81231d	0.0039409534
169	0xbd8a8e47	-0.067654185
170	0xbccef665	-0.025263974
171	0xbe2d67d8	-0.16934144
172	0xbb07953c	-0.0020688316
173	0xbaf141cb	-0.0018406449
174	0xbddf6d1b	-0.10909482
175	0xbdad4571	-0.084605105
176	0xbb34b012	-0.0027570766
177	0x3c1139d6	0.008863887
178	0xb94bea80	-0.00019446947
179	0xbc59db6a	-0.013296941
180	0xbcc8b2fe	-0.024499413
181	0x3bd04b36	0.006356622
182	0x3c7ca0ad	0.0154191675
183	0xbad73339	-0.0016418464
184	0x3b2bbd56	0.0026205382
185	0xbe0cc474	-0.13746816
186	0x3c449372	0.011998044
187	0xbd709467	-0.058735278
188	0xbc5e0c2d	-0.013552708
189	0x3b8c4c55	0.0042815604
190	0x3ae94d98	0.0017799614
191	0x394657a0	0.00018915394
192	0x3c71c6ea	0.014756897
193	0x3d0826e2	0.033240207
194	0xbd5f2b4c	-0.05448465
195	0x3e01e90c	0.12686557
196	0x3a3a24e6	0.0007100835
197	0xba7f8fa3	-0.00097488816
198	0x3d281d26	0.041043423
199	0xbc8e4fcc	-0.017372034
200	0xbd9b7c71	-0.07592095
201	0x3d20e357	0.03927931
202	0xba98aa42	-0.001164742
203	0xba6df038	-0.0009076628
204	0xba98001d	-0.0011596713
205	0x3d845919	0.064623065
206	0x3cfded61	0.03099698
207	0x3bc4c0d4	0.006004432
208	0x3d14f269	0.036363993
209	0x3c85d94c	0.016338967
210	0x3ab352cc	0.0013681292
211	0xbd49e343	-0.049289
212	0x3dab5da9	0.08367474
213	0x3b019354	0.0019771652
214	0x3bee46bd	0.0072716163
215	0x3ce881f0	0.028382272
216	0x3c22ceac	0.00993697
217	0x3bac536c	0.005258968
218	0x3c8892eb	0.016671618
219	0xba986f51	-0.0011629855
220	0xbb816ae2	-0.003949509
221	0x39fe5724	0.0004851158
222	0x3c160766	0.009157037
223	0x3aa1f4c0	0.0012356266
224	0x3b100ffe	0.0021982188
225	0x3cf1ac3e	0.029501077
226	0x3d39f560	0.045400023
227	0x3b38fd38	0.0028227102
228	0x3c9d1e15	0.019179383
229	0xbd296190	-0.04135281
230	0x3caed083	0.02133966
231	0x3aedb87f	0.0018136649
232	0x3c65161e	0.013982324
233	0xbd144165	-0.036195178
234	0xbe0de970	-0.1385858
235	0x3da40fc2	0.08010818
236	0x3a6bc9f3	0.00089946314
237	0xb9b09e30	-0.00033687195
238	0x3d3b037f	0.04565763
239	0x3d0e881e	0.03479778
240	0xbc96d73e	-0.018413182
241	0xbc187294	-0.009304661
242	0xbb22a757	-0.002481898
243	0xbaef238a	-0.0018244844
244	0x3c6444f9	0.01393246
245	0xba71f2c3	-0.0009229595
246	0xbbe440eb	-0.0069657466
247	0x3cc22864	0.0237009
248	0x3ae8f996	0.0017774578
249	0xbd774ef2	-0.060378022
250	0xba08311a	-0.0005195305
251	0x3d15abdb	0.036540847
252	0x3af9702c	0.0019030622
253	0x3b0f5399	0.0021869896
254	0xbaa53fd4	-0.0012607523
255	0xba824ce4	-0.0009941128

net.4.bias f4 [4]
0	0x3e35f3d2	0.17768791
1	0xbdc607f1	-0.096694835
2	0xbc4df674	-0.012570966
3	0xbd7e997e	-0.0621581

net.0.weight f4 [64, 8]
0	0x3dcd3116	0.10019128
1	0x3ec348f8	0.38141608
2	0xbecf72f4	-0.4051739
3	0xbd600f6d	-0.05470221
4	0xbee3e4bb	-0.44510445
5	0xbeaba988	-0.3352778
6	0x3ea96e84	0.3309213
7	0x3c82d056	0.015968483
8	0x3ebedef8	0.37279487
9	0x3e9dbb3c	0.3080691
10	0x3ee079d9	0.43842962
11	0xbeb9ad36	-0.36264962
12	0xbd939bc5	-0.07207445
13	0xbfb68bc7	-1.4261407
14	0x3e27e7ed	0.16397066
15	0x3dc0cf54	0.09414545
16	0xbefd9ccc	-0.4953369
17	0xbf41fc49	-0.7577558
18	0xbf86a1fe	-1.0518186
19	0xbde690d7	-0.11258095
20	0x3e82fff7	0.2558591
21	0xbe509003	-0.20367436
22	0x3e37971c	0.17928737
23	0x3d8b9f24	0.06817463
24	0x3e841254	0.25795233
25	0x3ebebf0f	0.3725514
26	0x3e5c8419	0.21534766
27	0xbeb6ac68	-0.3567841
28	0xbe23f94d	-0.1601307
29	0xc0157d60	-2.3357773
30	0x3ed17648	0.40910554
31	0x3eb70def	0.35752818
32	0x3faab273	1.3335708
33	0x3fb2254b	1.3917631
34	0x3d79a948	0.060952455
35	0xbe33941d	-0.1753697
36	0xbe5212dc	-0.20515007
37	0x3e4f710f	0.20257972
38	0x3e8520ec	0.2600168
39	0x3e9608fd	0.29303733
40	0x3eb7c95b	0.3589581
41	0x3ec85e89	0.39134625
42	0x3ea95e45	0.33079734
43	0xbeef0e85	-0.46690765
44	0x3ea8173e	0.32830232
45	0xbf7e5381	-0.99346167
46	0x3f072645	0.5279277
47	0x3e7c597f	0.24643515
48	0x3ea4f256	0.32216138
49	0x3e8e1b3a	0.27755147
50	0x3e71cfd4	0.23614436
51	0xbed53450	-0.41641474
52	0xbe6f4821	-0.23367359
53	0xbfe45cfe	-1.7840879
54	0x3e19d026	0.15020809
55	0x3d85dd49	0.065363474
56	0x400954e3	2.145806
57	0x40028636	2.0394416
58	0x3f2bbdcf	0.670865
59	0x3c7ed5e3	0.015553924
60	0xbe6174f9	-0.22017278
61	0x3f418b8d	0.7560356
62	0x3e6c866a	0.2309815
63	0xbe9af82a	-0.3026746
64	0x3f1d5cc5	0.6146968
65	0x3e65b99c	0.22434086
66	0xbfc283b1	-1.5196439
67	0x3cdc97c5	0.026927838
68	0xbe04a9fa	-0.12955466
69	0x3e9a0b5d	0.30086794
70	0x3e9f04e3	0.31058416
71	0x3deb66d4	0.11494222
72	0x3e887090	0.26648378
73	0xbe87edd5	-0.2654864
74	0xbdb3105e	-0.08743356
75	0xbe5d3c32	-0.21604994
76	0xbe8d2911	-0.27570394
77	0x3d313318	0.043261617
78	0xbe8f5bcb	-0.2799972
79	0xbe114e43	-0.1419001
80	0x4021fa86	2.5309157
81	0x4003ea60	2.06118
82	0x3f3f3143	0.7468454
83	0x3ca26570	0.01982376
84	0xbe733ced	-0.2375371
85	0x3f7db0d7	0.9909796
86	0x3d644876	0.055733167
87	0xbe411d3a	-0.18858805
88	0xbde43be9	-0.111442395
89	0xbe73759e	-0.23775336
90	0xbf04badf	-0.5184764
91	0xbdaba1b2	-0.0838045
92	0x3ee68ca8	0.45029187
93	0x3edbce5b	0.42930874
94	0xbe0f606e	-0.14001629
95	0xbd62b554	-0.05534871
96	0xbc8df3cf	-0.017328171
97	0xbe67931b	-0.2261471
98	0xbe148270	-0.14502883
99	0xbca15738	-0.01969491
100	0x3f00053a	0.50007975
101	0x3ee43181	0.44569018
102	0xbe53ec5a	-0.2069563
103	0xbea0100d	-0.31262246
104	0x3be31d5d	0.0069309906
105	0xbe9668b1	-0.29376748
106	0xbdcc219d	-0.09967349
107	0xbe2dbe5c	-0.16967148
108	0x3eb5201d	0.35376063
109	0xbe43562a	-0.19075838
110	0x3dc07ea3	0.09399154
111	0xbd7ab4cd	-0.06120758
112	0x3ef0cdf0	0.47032118
113	0x3ee2d342	0.44301802
114	0xbf89f9fa	-1.0779412
115	0x3968002c	0.00022125308
116	0x3d2982d7	0.041384544
117	0xbdb18536	-0.08667986
118	0x3e48ed80	0.19621849
119	0x3e4c0e0b	0.19927232
120	0xbe359099	-0.17730941
121	0xbe5394ee	-0.20662281
122	0xbe10e082	-0.14148143
123	0xbe79873d	-0.24367996
124	0xbcda03c7	-0.02661313
125	0x3dbcff53	0.09228387
126	0x3e297ca5	0.16551454
127	0x3dd423e1	0.10358406
128	0x3e108367	0.14112626
129	0xbd4f78a0	-0.050652146
130	0xbf320e63	-0.695532
131	0xbe4d346f	-0.20039533
132	0x3d924637	0.07142299
133	0x3d353d45	0.044247884
134	0x3ebc06ef	0.3672404
135	0xbd69a22f	-0.057039436
136	0xbf977565	-1.1832701
137	0xbf54fd85	-0.8319934
138	0xbeded109	-0.43518856
139	0x3d459dc3	0.048246156
140	0xbd9ab0c9	-0.0755325
141	0xbedd674d	-0.43242875
142	0x3dcce04a	0.10003717
143	0x3ede471e	0.43413633
144	0x3f16985f	0.5882625
145	0x3f0c014b	0.5468947
146	0xbe349bca	-0.17637554
147	0xbe19b726	-0.15011272
148	0xbe05f0a8	-0.13080084
149	0xbedc27a6	-0.42999
150	0x3db3cd57	0.087794
151	0xbdd04551	-0.10169471
152	0xbfa32c50	-1.2747898
153	0xbf520673	-0.8204109
154	0xbed9cd90	-0.42539644
155	0x3e2ea791	0.17056109
156	0x3f1895ed	0.5960377
157	0xbf2e90e7	-0.68189853
158	0x3e2ab125	0.16669138
159	0x3e34fb0d	0.17673893
160	0xbe448485	-0.19191177
161	0x3bc4c2d5	0.006004671
162	0x3f0425a7	0.5161995
163	0x3e26e403	0.16297917
164	0x3c30f7a6	0.0108012315
165	0x3eadd93c	0.339548
166	0x3e3e4df4	0.18584424
167	0x3dad73a7	0.084693246
168	0x3ee5a7ec	0.44854677
169	0x3f0f6125	0.56007606
170	0x3e74faaf	0.23923753
171	0xbe2a94d3	-0.16658334
172	0x3d7893fb	0.060688
173	0xc00970ce	-2.14751
174	0x3ebfba94	0.37447035
175	0x3e1f9a93	0.15586309
176	0x3ed4bdbf	0.41551015
177	0x3ce1c109	0.027557867
178	0xbf82af1f	-1.0209693
179	0xbdcf3b6e	-0.10118757
180	0x3e2d845d	0.16945024
181	0x3d4bdca4	0.049770966
182	0x3f0ac7d0	0.5421114
183	0x3b99d8b7	0.004695024
184	0xbd8db8e4	-0.06920031
185	0xbe82f00c	-0.25573766
186	0xbdd4fea2	-0.1040013
187	0xbd0cd9d0	-0.03438741
188	0xbe8a701c	-0.27038658
189	0x3e0c1cd0	0.13682866
190	0x3d28bcd8	0.04119572
191	0xbd895c26	-0.06707029
192	0x3e964629	0.29350403
193	0x3db7fefe	0.08984183
194	0xbf36e384	-0.7144091
195	0xbdd8324b	-0.105564676
196	0x3e8b81c9	0.27247456
197	0x3ed5d278	0.41762137
198	0x3e7c3f1a	0.24633446
199	0xbd8117bd	-0.06303356
200	0x3e2e14e2	0.17000154
201	0x3f123f75	0.5712808
202	0x3e97824e	0.29591602
203	0xbecffccc	-0.40622556
204	0x3e99c09a	0.30029756
205	0xbf42eebe	-0.7614554
206	0x3eac8ede	0.3370275
207	0x3e60cb95	0.2195266
208	0x3e85f3f0	0.26162672
209	0xbe7897e0	-0.24276686
210	0xbe8f59b1	-0.27998117
211	0xbe8202ec	-0.25392854
212	0xbdbd3b1e	-0.09239791
213	0x3e7315dc	0.23738807
214	0xbe490d4a	-0.19633976
215	0xbc0e5240	-0.008686602
216	0xbe76ce3b	-0.24102108
217	0xbe990b51	-0.29891446
218	0xbeb9f28f	-0.3631787
219	0xbde8e77a	-0.11372276
220	0x3e40506a	0.18780676
221	0x3e9d0a0f	0.30671737
222	0x3df75872	0.120774165
223	0x3e2a5a5a	0.16636029
224	0x401fd48a	2.4973474
225	0x4006c69e	2.1058726
226	0x3ebbb0eb	0.36658415
227	0x3d0b5509	0.034016643
228	0xbeb5042b	-0.35354742
229	0x3f3602bf	0.7109794
230	0x3e61a944	0.22037226
231	0xbeb6bdba	-0.35691625
232	0xbe531377	-0.20612894
233	0x3e184d70	0.1487329
234	0x3c50f960	0.012754768
235	0xbe227e6e	-0.15868542
236	0xbd8067de	-0.06269811
237	0x3e05ebc0	0.13078213
238	0xbd0ca558	-0.03433737
239	0xbe8f32ad	-0.2796835
240	0xbe1e722e	-0.15473244
241	0xbdb225da	-0.08698626
242	0xbe4cec72	-0.20012072
243	0xbe2da1f4	-0.16956311
244	0xbe4eb210	-0.20185113
245	0xbdf26852	-0.11836304
246	0x3e484566	0.19557723
247	0x3daa7465	0.08322982
248	0x3cd377f3	0.025814032
249	0x3e560190	0.20899034
250	0x3f09202c	0.53564715
251	0xbd904c63	-0.070458196
252	0xbe7c97c0	-0.24667263
253	0x3e7b598f	0.24545883
254	0xbe5e17cb	-0.21688764
255	0xbc9b6af8	-0.018971905

net.0.bias f4 [64]
0	0xbd8622ed	-0.0654963
1	0x3dcc5275	0.09976665
2	0x3bf3a753	0.007435718
3	0x3f163269	0.5867067
4	0x3dc67413	0.09690108
5	0x3f2efc4c	0.68353724
6	0x3e84331a	0.25820237
7	0x3edaf6e8	0.427665
8	0x3f3441a9	0.7041269
9	0x3d98b650	0.07456648
10	0x3e5edebc	0.21764654
11	0xbdb2158d	-0.08695517
12	0x3e710ba9	0.23539604
13	0x3e5987cd	0.2124321
14	0x3f2c1fd1	0.6723605
15	0xbebde382	-0.37087637
16	0x3e85e3c1	0.26150325
17	0xbf0a9dbb	-0.5414693
18	0xbc5ea708	-0.013589628
19	0xbee811cf	-0.45326087
20	0xbd86749a	-0.06565209
21	0x3ed00a7f	0.40633008
22	0x3eaf6b4f	0.34261557
23	0xbe7b5318	-0.24543417
24	0x3f24e05b	0.6440484
25	0x3e0e215d	0.13879915
26	0x3e25b9be	0.16184136
27	0xbd55d573	-0.052205514
28	0x3ea35617	0.3190162
29	0xbe4223a4	-0.18958908
30	0xbcc2bd8f	-0.02377203
31	0x3ca49589	0.020090835
32	0x3e38b886	0.1803914
33	0xbd7c9eb3	-0.061674785
34	0x3e30ec17	0.17277561
35	0x3ef51d86	0.47874087
36	0xbd87dfc4	-0.06634477
37	0x3e38a89d	0.18033071
38	0xbd8fb913	-0.07017722
39	0x3f2a19f5	0.6644586
40	0xbcad1320	-0.021127284
41	0x3f1a38cf	0.60242933
42	0xbeae122f	-0.33998248
43	0x3e677931	0.22604825
44	0x3e16fc5b	0.14744703
45	0x3f60145e	0.8753108
46	0xbd09163b	-0.033468466
47	0x3e5382ba	0.20655337
48	0x3f06e00b	0.5268561
49	0x3cf5ece0	0.030020177
50	0x3ed415c9	0.4142287
51	0xbe445f64	-0.19177014
52	0x3e7b5bd2	0.24546745
53	0xbe54d3e6	-0.20783958
54	0xbe7d393f	-0.24728869
55	0x3e57dffe	0.2108154
56	0x3e1085e0	0.1411357
57	0x3bf32a76	0.007420833
58	0xbefe3276	-0.49647874
59	0xbedf1b33	-0.4357544
60	0x3f835aca	1.0262082
61	0x3c7f7805	0.01559258
62	0xbd83a1f1	-0.06427372
63	0xbf18d1e4	-0.5969527

net.2.weight f4 [64, 64]
0	0x3ea01bb8	0.31271148
1	0x3e713380	0.23554802
2	0xbe46d501	-0.19417192
3	0x3ed80d7f	0.42197797
4	0xbe4d50fb	-0.20050423
5	0x3ed53411	0.41641286
6	0x3da75038	0.081695974
7	0xbea37ca0	-0.3193102
8	0xbe80a986	-0.25129336
9	0x3e316acf	0.173259
10	0xbeb418be	-0.35175127
11	0xbf13ad81	-0.5768662
12	0xbde4dff0	-0.11175525
13	0xbba45ec3	-0.0050161793
14	0xbb3eac73	-0.0029094487
15	0x3e6c4c7a	0.23076048
16	0x3debe21e	0.11517738
17	0xbe0fd6fa	-0.14046851
18	0x3e6cdcd7	0.23131119
19	0xbe3619ce	-0.17783281
20	0xbe0e4c90	-0.13896394
21	0x3ece1e8c	0.4025768
22	0xbd963868	-0.073349774
23	0x3dbafe46	0.0913053
24	0xbea36e03	-0.3191987
25	0x3e0cabaf	0.13737367
26	0xbd9d4c34	-0.0768055
27	0xbe882df1	-0.2659755
28	0xbeb3f11f	-0.35144898
29	0xbd07e7c8	-0.03318003
30	0x3e0ea87a	0.13931456
31	0xbe75c45a	-0.24000683
32	0xbdfa11d4	-0.12210432
33	0xbe7b6589	-0.24550451
34	0x3ee02884	0.4378091
35	0xbef40f86	-0.47668093
36	0xbc7dfd32	-0.015502261
37	0x3e3b3d38	0.18285072
38	0xbe96d5f4	-0.29460108
39	0xbe4eb3c6	-0.20185766
40	0x3ce56638	0.028002843
41	0x3f0dd27d	0.55399305
42	0x3cbead08	0.023275867
43	0x3c2e9cc7	0.010657496
44	0xbe4e4e30	-0.20147014
45	0xbe6135a0	-0.21993113
46	0xbe9bdcce	-0.30441898
47	0xbe29e644	-0.16591746
48	0x3f218753	0.63097113
49	0x3d8b8d5a	0.0681407
50	0xbe22bc5f	-0.1589217
51	0xbe6f822e	-0.23389503
52	0xbdb4fe38	-0.08837551
53	0xbeac23de	-0.33621114
54	0xbcdb88a0	-0.026798546
55	0x3dc99f96	0.09844892
56	0xbe0d28d3	-0.13785104
57	0xbe6b370d	-0.22970219
58	0xbe066600	-0.13124847
59	0xbe4f25eb	-0.20229308
60	0xbcf0681e	-0.029346522
61	0xbe8bf158	-0.27332568
62	0x3c101f7a	0.008796567
63	0xbf020654	-0.50790906
64	0x3d92fe32	0.0717739
65	0xbded74f6	-0.11594574
66	0xbe109138	-0.14117897
67	0xbf384791	-0.719842
68	0x3d7279fc	0.059198365
69	0xbf11ab88	-0.5690236
70	0xbe488247	-0.19580947
71	0xbf47ad1b	-0.77998513
72	0x3e0dcd42	0.13847831
73	0x3e090ee1	0.13384582
74	0xbf2209fe	-0.63296497
75	0xbb9b09d5	-0.0047313967
76	0xbec224ba	-0.37918645
77	0xbe2b22ca	-0.1671249
78	0x3e93bc1a	0.28854448
79	0xbe7eeb09	-0.24894346
80	0xbd5236e0	-0.051321864
81	0x3e7bb345	0.24580105
82	0x3d99612f	0.074892394
83	0x3e58e54b	0.21181218
84	0x3cfc1e81	0.030776264
85	0xbf12ed52	-0.5739337
86	0x3e0bb8fa	0.13644782
87	0xbd4b97d8	-0.049705356
88	0x3cd24362	0.025666896
89	0xbe865b86	-0.26241702
90	0xbe4af030	-0.19818187
91	0x3e19f776	0.15035805
92	0xbf4b227d	-0.793495
93	0x3ceebf50	0.02914396
94	0x3d850bd2	0.06496395
95	0xbb53430e	-0.0032236013
96	0xbe5c46a8	-0.21511328
97	0x3e1207c9	0.14260782
98	0xbe1d5fe4	-0.1536861
99	0x3bc96145	0.0061456286
100	0xbe5c069b	-0.21486895
101	0xbcecdaea	-0.02891298
102	0x3e0afd4e	0.1357319
103	0x3f03ec88	0.51532793
104	0xbe518253	-0.20459871
105	0xbf3419dd	-0.70351964
106	0xbe25b826	-0.16183528
107	0x3ea928de	0.33038992
108	0x3dc6a33b	0.096991025
109	0x3e812417	0.25222847
110	0x3e262a16	0.16226992
111	0xbe1eb0e6	-0.15497169
112	0xbf5b252f	-0.8560361
113	0xbe4efe09	-0.20214094
114	0xbf61f287	-0.8826069
115	0x3d33e7a2	0.043922074
116	0xbe2ae00e	-0.16687033
117	0xbce9558f	-0.02848318
118	0x3ea5b66b	0.32365736
119	0x3e28b1d1	0.16474082
120	0x3d8e5b1e	0.06950973
121	0xbe676308	-0.22596371
122	0x3e2021aa	0.15637842
123	0x3e1b7533	0.15181427
124	0x3d94157f	0.072306626
125	0x3e07f2c2	0.13276199
126	0x3d3d2ebc	0.046187147
127	0x3e6af004	0.22943121
128	0xbd73831a	-0.0594512
129	0xbd99de7f	-0.07513141
130	0xbc75bf5f	-0.01499924
131	0xbf1350fb	-0.5754544
132	0xbe1bffa8	-0.15234244
133	0xbf0839d0	-0.53213215
134	0xbe6f78d0	-0.2338593
135	0xbe28603b	-0.16442959
136	0x3d51567f	0.05110788
137	0xbd89130a	-0.066930845
138	0x3cefdbe5	0.029279659
139	0x3de58048	0.11206108
140	0xbe30a6f0	-0.17251182
141	0x3d108fe0	0.03529346
142	0x3c86e101	0.016464712
143	0xbdaa053d	-0.083017804
144	0x3def8a0b	0.116962515
145	0xbd7a4989	-0.061105285
146	0xbd801345	-0.06253675
147	0x3da90780	0.08253384
148	0xbe5728ab	-0.21011607
149	0xbf07c870	-0.5304022
150	0xbe2f5209	-0.17121138
151	0xbded036e	-0.1157292
152	0x3e21f56f	0.15816282
153	0xbe40ae31	-0.18816449
154	0xbe4ca235	-0.19983752
155	0xbd870360	-0.065924406
156	0xbede8bb6	-0.43465966
157	0x3e3ba89d	0.1832604
158	0x3d258701	0.040411953
159	0x3e3a2802	0.18179324
160	0xbe0f8c9a	-0.14018479
161	0xbe3e6ad1	-0.18595435
162	0xbde07ff6	-0.109619066
163	0xbe6e6b76	-0.2328318
164	0xbce80aa0	-0.028325379
165	0xbdd3d5cf	-0.10343515
166	0xbe295be7	-0.16538964
167	0x3e95e1a2	0.29273707
168	0xbe0a55d4	-0.13509303
169	0xbecad150	-0.39612818
170	0x3dcdfd2a	0.10058053
171	0xbed8294b	-0.42219004
172	0xbe854c1e	-0.26034635
173	0x3e27728e	0.16352293
174	0xbe025d4e	-0.12730905
175	0xbe5481dc	-0.20752662
176	0xbf0424b1	-0.51618487
177	0x3e5d632b	0.21619861
178	0xbb33d875	-0.002744225
179	0x3cb96d9b	0.022635272
180	0xbe17594b	-0.14780156
181	0xbe277791	-0.16354205
182	0x3e384f9e	0.17999122
183	0x3d9da69a	0.07697792
184	0x3e4a21aa	0.19739404
185	0x3bbc8094	0.0057526324
186	0xbe21ce04	-0.15801245
187	0xbddcd1d6	-0.107822105
188	0xbd83066a	-0.06397708
189	0xbd328dab	-0.043592136
190	0x3d92ba1b	0.07164403
191	0x3d6030b3	0.054733943
192	0xbdde63e1	-0.10858894
193	0x3e409dc7	0.18810187
194	0xbe23cc80	-0.1599598
195	0xbf482380	-0.7817917
196	0xbe59ff91	-0.21288897
197	0xbe4ebf7a	-0.2019023
198	0xbd1b7a02	-0.037958153
199	0xbf4bf233	-0.7966644
200	0xbe267c83	-0.16258435
201	0x3dab2e06	0.08358388
202	0xbf3e2ea1	-0.742899
203	0xbe4e73c4	-0.20161349
204	0xbed31764	-0.41228783
205	0xbeb4da6f	-0.35322902
206	0xbd71522c	-0.058916256
207	0x3bd90302	0.006622673
208	0xbe6bc356	-0.23023733
209	0x3d32f5bd	0.043691386
210	0xbe012920	-0.12613344
211	0x3e860699	0.2617691
212	0xbd831cdd	-0.064019896
213	0xbe748576	-0.23879036
214	0x3e9306ac	0.28716028
215	0xbb90ede0	-0.004422888
216	0x3dac001d	0.08398459
217	0xbee619cf	-0.44941565
218	0xbcc89990	-0.024487287
219	0x3c80b803	0.015712744
220	0xbf3932c6	-0.723431
221	0xbc67ace0	-0.014140338
222	0x3de22a56	0.11043231
223	0xbe1ed3f6	-0.15510544
224	0xbd8faa92	-0.070149556
225	0x3ea4982c	0.32147348
226	0xbe3e16ee	-0.18563434
227	0x3e18a3ed	0.14906283
228	0xbdaa4d3a	-0.08315511
229	0xbc5a0902	-0.013307812
230	0x3e6c7619	0.23091926
231	0x3f077641	0.52914816
232	0x3d702e64	0.05863799
233	0xbf385637	-0.72006553
234	0xbe187f86	-0.14892396
235	0x3e654824	0.223908
236	0x3e8a3477	0.26993152
237	0xbd98ce31	-0.07461203
238	0x3e080612	0.13283566
239	0xbdf4f0e1	-0.119600065
240	0xbf41c90a	-0.75697386
241	0xbc8a4078	-0.016876444
242	0xbf37f484	-0.71857476
243	0x3cde8cfe	0.02716684
244	0xbe3bae38	-0.18328178
245	0xbeb8523c	-0.3600024
246	0x3edc1dab	0.42991385
247	0x3c9f8448	0.019472256
248	0x3dc4dd8f	0.096125714
249	0xbe58b99a	-0.21164551
250	0xbe334f46	-0.17510709
251	0x3e678848	0.22610581
252	0x3ee217f8	0.44158912
253	0xbe35e944	-0.17764765
254	0xbd93cbde	-0.07216619
255	0x3e0cafe6	0.13738975

net.2.bias f4 [64]
0	0x3be8c6a3	0.0071037575
1	0x3e95afea	0.29235774
2	0x3ec3ff73	0.3828083
3	0x3e76fe1d	0.24120374
4	0x3f297852	0.6619922
5	0x3e65a47a	0.22426024
6	0x3e744dae	0.23857757
7	0xbe292887	-0.16519366
8	0x3ecdfbb8	0.4023111
9	0x3e8e5401	0.27798465
10	0x3e6a038b	0.22852914
11	0x3e667085	0.2250386
12	0x3ec3e9cd	0.38264313
13	0x3ef79d58	0.4836223
14	0x3f019f5c	0.5063379
15	0xbe3bd4fd	-0.18342967
16	0x3ecf25da	0.40458566
17	0x3d4b7ee9	0.049681578
18	0x3f2c3730	0.6727171
19	0x3e7338fa	0.23752204
20	0x3f4ec4b1	0.8076888
21	0x3dd106b5	0.102063574
22	0xbd7f8c23	-0.062389504
23	0x3ecf8dfb	0.4053801
24	0x3e8ba018	0.2727058
25	0x3e33075d	0.17483278
26	0x3f0cd54c	0.55012965
27	0x3eacd6ed	0.33757725
28	0xbdbb920a	-0.09158714
29	0x3deb0671	0.11475838
30	0x3e9f208a	0.31079513
31	0x3f01da54	0.5072377
32	0xbc0621b6	-0.008186748
33	0x3f048b69	0.51775223
34	0x3eae9bca	0.34103233
35	0x3e67d3f4	0.22639447
36	0x3f2dcf8c	0.67894816
37	0xbcc02643	-0.023455745
38	0x3f4e2ad7	0.8053412
39	0x3e96f28f	0.29481933
40	0x3ea84344	0.3286382
41	0x3ddea7a5	0.108718194
42	0x3f00bfe4	0.502928
43	0x3ce78cfb	0.028265467
44	0x3ebf642b	0.3738111
45	0xbc677e34	-0.01412921
46	0xbe405ae0	-0.18784666
47	0xbbca069c	-0.0061653387
48	0x3d83a0ef	0.0642718
49	0x3ef3f986	0.4765131
50	0x3f34be3e	0.70602787
51	0x3d8eb4cd	0.06968079
52	0xbd290a3e	-0.041269533
53	0x3e4d8ae8	0.2007252
54	0xbe8d9611	-0.27653554
55	0xbea8e736	-0.329889
56	0xbe8b76d4	-0.27239096
57	0x3d9d3ef3	0.07678022
58	0x3e9f2925	0.31086078
59	0x3e2b9061	0.16754295
60	0xbded43ab	-0.11585172
61	0x3f021528	0.5081353
62	0x3d8ea059	0.06964178
63	0x3ed12742	0.40850264

net.4.weight f4 [1, 64]
0	0x3ec18675	0.37797895
1	0xbe88681b	-0.26641926
2	0xbbb252ed	-0.0054420144
3	0xbebfb413	-0.37442073
4	0x3f355032	0.70825493
5	0x3f3acbeb	0.72967404
6	0x3f2059db	0.6263711
7	0xbddbe6c8	-0.107373774
8	0xbe9dd1cf	-0.30824134
9	0xbd8a9f3b	-0.06768652
10	0x3e0142ce	0.1262314
11	0x3d2c5e72	0.042082258
12	0x3f0f8f9b	0.560785
13	0x3f2bd044	0.67114663
14	0xbdc711eb	-0.097202145
15	0xbe37f431	-0.17964245
16	0xbc987373	-0.018609738
17	0x3d8b6531	0.0680641
18	0x3f5003b0	0.81255627
19	0x3e4fe279	0.20301236
20	0xbefa8c42	-0.48935133
21	0x3e4afc15	0.19822724
22	0x3e2ea507	0.1705514
23	0xbd78ea47	-0.0607703
24	0xbe560d52	-0.20903519
25	0xbded4dc6	-0.115871
26	0x3f48b79f	0.78405184
27	0xbe8840c9	-0.26611927
28	0x3ece6b21	0.40316108
29	0xbde3a4af	-0.11115395
30	0xbeb67b23	-0.3564082
31	0xbea37fab	-0.3193334
32	0x3e049e2c	0.12950963
33	0x3f3fa94a	0.7486769
34	0x3f1a8d55	0.60371906
35	0xbe85fab5	-0.26167837
36	0x3f61ad75	0.881553
37	0xbce8d310	-0.028420955
38	0xbf18c9a5	-0.59682685
39	0x3ed7c247	0.4214041
40	0xbdfa3f2c	-0.1221908
41	0x3d7dd13e	0.061967127
42	0xbe1c3173	-0.15253238
43	0xbd6d3487	-0.057911422
44	0x3effbdd8	0.49949527
45	0xbdfb508c	-0.122712225
46	0x3a6a2878	0.0008932422
47	0x3cb6ba34	0.022305585
48	0x3e1aa13e	0.15100572
49	0x3f4b8f64	0.7951567
50	0xbeb36f16	-0.3504569
51	0x3d5584d7	0.05212864
52	0x3ee0ba47	0.43892118
53	0xbd8711c2	-0.06595184
54	0xbf14feac	-0.582011
55	0xbf07f778	-0.5311198
56	0xbeb91749	-0.36150578
57	0x3e094c10	0.13407922
58	0x3ef5eb21	0.48030952
59	0x3ef39292	0.47572762
60	0x3d2e445a	0.042545654
61	0x3f2ced6f	0.67549795
62	0x3ec7ab76	0.38998002
63	0x3f2df614	0.6795361

exp_avg f4 [64, 8]
0	0x381345a5	3.5112393e-05
1	0x379baead	1.855878e-05
2	0xb8202107	-3.817773e-05
3	0xba195404	-0.0005849006
4	0x38f99a75	0.00011902015
5	0x3742fadb	1.1621708e-05
6	0x39aaed78	0.00032601855
7	0x3a207de7	0.00061222765
8	0xb9c29e58	-0.0003712054
9	0xb97f06a2	-0.00024321166
10	0xb8e4ea0f	-0.00010915484
11	0xbac3c360	-0.0014935546
12	0xb9486fc9	-0.0001911513
13	0xb8348e1b	-4.304769e-05
14	0xba11de84	-0.00055644684
15	0xba7523e3	-0.0009351356
16	0x00000004	6e-45
17	0x00000004	6e-45
18	0x00000000	0.0
19	0x00000004	6e-45
20	0x00000004	6e-45
21	0x00000004	6e-45
22	0x00000004	6e-45
23	0x00000004	6e-45
24	0x399294da	0.00027958193
25	0x37eb2145	2.8029675e-05
26	0x393688ba	0.00017407807
27	0x3aedce80	0.0018143207
28	0xba9d2483	-0.0011989031
29	0x389aea69	7.3869545e-05
30	0xba1d529b	-0.0006001384
31	0xbb1bd982	-0.0023780768
32	0x3812e12b	3.5018817e-05
33	0x36823759	3.880745e-06
34	0x38e0ba6d	0.00010715877
35	0x3b7b5e87	0.0038355903
36	0xb9983e1d	-0.00029037977
37	0x382ff49e	4.195107e-05
38	0xba225ada	-0.00061933475
39	0xbabcbf6a	-0.0014400308
40	0x3995c361	0.00028565063
41	0x38e96efa	0.00011130977
42	0x39609d44	0.0002142089
43	0x3b9c9f11	0.0047797044
44	0xba19f7ca	-0.000587341
45	0x38bca2e0	8.9948764e-05
46	0xba386f6d	-0.00070356467
47	0xbb1139b4	-0.0022159638
48	0xb6ec13b9	-7.035644e-06
49	0x37c73f75	2.3752198e-05
50	0x386476aa	5.446995e-05
51	0x3badeb29	0.0053075743
52	0x38ac4024	8.213546e-05
53	0x388f8eda	6.8453795e-05
54	0xb986c2e8	-0.00025703688
55	0xb9b0f1da	-0.0003374953
56	0x37a51f7e	1.9684197e-05
57	0xb6e8abde	-6.9341468e-06
58	0xb7811238	-1.5386482e-05
59	0xbaf3c6e5	-0.0018598704
60	0xb964c897	-0.000218185
61	0xb7968acc	-1.7946026e-05
62	0x39210687	0.00015356588
63	0x395af2b4	0.00020880514
64	0xb72d19ef	-1.0317642e-05
65	0x365cdcec	3.2911148e-06
66	0xb8772488	-5.892341e-05
67	0xba4f8d05	-0.0007917437
68	0x392aaf52	0.00016277775
69	0xb57a3deb	-9.322236e-07
70	0x39cd088e	0.0003910702
71	0x3a686137	0.0008864584
72	0x391adf9c	0.00014769885
73	0x386f39e1	5.7035944e-05
74	0x3905a6f5	0.00012746065
75	0x3bbbaced	0.0057274015
76	0xba32996a	-0.00068130216
77	0x390b113b	0.00013262492
78	0xb82acc9b	-4.0721712e-05
79	0xb9e05094	-0.00042784645
80	0x00000004	6e-45
81	0x00000004	6e-45
82	0x00000004	6e-45
83	0x00000004	6e-45
84	0x00000004	6e-45
85	0x00000004	6e-45
86	0x00000004	6e-45
87	0x00000004	6e-45
88	0x00000000	0.0
89	0x00000000	0.0
90	0x00000000	0.0
91	0x00000000	0.0
92	0x00000000	0.0
93	0x00000000	0.0
94	0x00000000	0.0
95	0x00000000	0.0
96	0x00000000	0.0
97	0x00000000	0.0
98	0x00000000	0.0
99	0x00000000	0.0
100	0x00000000	0.0
101	0x00000000	0.0
102	0x00000000	0.0
103	0x00000000	0.0
104	0xba02cfa9	-0.000499005
105	0xb9b0ab55	-0.00033696988
106	0xb93e5f93	-0.00018155416
107	0xbb9c75b3	-0.004774773
108	0xb9a5e7ff	-0.00031644103
109	0xb8a01081	-7.6324686e-05
110	0xb96e08cb	-0.00022700724
111	0xb8992d33	-7.3040275e-05
112	0x384e769c	4.922469e-05
113	0x37f8a4e5	2.9640689e-05
114	0x3814d7a0	3.5486766e-05
115	0x3b2756af	0.0025533845
116	0x389202b9	6.96233e-05
117	0x38241fa7	3.9130126e-05
118	0xb8f106c9	-0.00011493039
119	0xb994c8e0	-0.00028378423
120	0x39d094e1	0.00039783775
121	0x3891bc5a	6.949222e-05
122	0x39700b3f	0.00022892373
123	0x3accaead	0.0015616022
124	0xbac51d18	-0.0015038578
125	0x389ffd6f	7.6289165e-05
126	0xba2f63f8	-0.0006690617
127	0xbb3553e6	-0.0027668416
128	0x39441031	0.00018698048
129	0x3807a9e8	3.2344746e-05
130	0x391b5a7d	0.00014815661
131	0x3b1782b8	0.0023118686
132	0xba6f4b50	-0.0009128349
133	0x3853b007	5.047026e-05
134	0xb9fc2a23	-0.0004809658
135	0xbae196bb	-0.0017211059
136	0xb7d7cace	-2.5724436e-05
137	0xb756f828	-1.2813172e-05
138	0xb85c47c0	-5.251891e-05
139	0x39a316a4	0.0003110665
140	0x36cddf46	6.1354685e-06
141	0x378b69f5	1.6619431e-05
142	0x39b6514b	0.00034774313
143	0x3a483fbc	0.00076388917
144	0x00000004	6e-45
145	0x00000004	6e-45
146	0x00000000	0.0
147	0x00000004	6e-45
148	0x00000004	6e-45
149	0x80000004	-6e-45
150	0x00000004	6e-45
151	0x00000004	6e-45
152	0xb39373ce	-6.866286e-08
153	0xb3a99855	-7.897385e-08
154	0xb37a38e7	-5.8259413e-08
155	0xb3bbaaa5	-8.738906e-08
156	0xb5cb4e3a	-1.5147446e-06
157	0xb328e661	-3.9325077e-08
158	0xb29f3b76	-1.8537076e-08
159	0xb3087c20	-3.177786e-08
160	0xb815a77f	-3.568036e-05
161	0xb881d0d3	-6.190096e-05
162	0xb85f526d	-5.3244108e-05
163	0xbba633af	-0.005072079
164	0xb9d7d0da	-0.00041163602
165	0xb881e7f4	-6.194404e-05
166	0x38cb3773	9.6901225e-05
167	0x38b75c2e	8.74329e-05
168	0xb4fcb1fb	-4.7068156e-07
169	0xb5094968	-5.11433e-07
170	0xb4dcc65c	-4.112252e-07
171	0xb62ca417	-2.572551e-06
172	0xb7099689	-8.2008855e-06
173	0xb4884612	-2.5382957e-07
174	0xb3a50f02	-7.686141e-08
175	0xb41a6f83	-1.4382935e-07
176	0x3947390a	0.00018999368
177	0x389ca79f	7.4698815e-05
178	0x38dc27a1	0.00010497799
179	0x3acb0ec6	0.0015492074
180	0xb9b94ba8	-0.00035342318
181	0x383c2889	4.4860444e-05
182	0xb9297f4d	-0.00016164519
183	0xba566be0	-0.0008179527
184	0x3998a166	0.0002911195
185	0x39055597	0.00012715753
186	0x39237966	0.00015590116
187	0x3bbb6f9a	0.005720091
188	0xba5a758a	-0.0008333555
189	0x3911a973	0.00013891402
190	0x38e4bac6	0.000109066765
191	0xba0d05ac	-0.00053795683
192	0x3893d15f	7.0485046e-05
193	0x38b7c35e	8.76251e-05
194	0x37a25925	1.9353416e-05
195	0x3b5fd838	0.0034155976
196	0x39cea0eb	0.00039411275
197	0x386148b1	5.371188e-05
198	0x39a7e5e9	0.0003202402
199	0x3a5057a4	0.000794763
200	0xb9d767a5	-0.00041085217
201	0xb997c46e	-0.00028947316
202	0xb9316707	-0.00016918416
203	0xbb58e86d	-0.003309752
204	0xb994b6f9	-0.00028365085
205	0xb8489ec2	-4.783157e-05
206	0xb98c4c29	-0.00026759625
207	0xb9d9aa0f	-0.0004151617
208	0x00000000	0.0
209	0x00000000	0.0
210	0x00000000	0.0
211	0x00000000	0.0
212	0x00000000	0.0
213	0x00000000	0.0
214	0x00000000	0.0
215	0x00000000	0.0
216	0x399c5056	0.00029814494
217	0x39197ed4	0.00014638464
218	0x394dadfa	0.00019615135
219	0x3bc641ce	0.006050325
220	0xb9d26d87	-0.00040135926
221	0x38ee17e6	0.00011353176
222	0xb9bf805b	-0.0003652599
223	0xbabc0564	-0.0014344868
224	0x3a024887	0.0004969914
225	0x3956b9ca	0.00020477842
226	0x39915447	0.00027719347
227	0x3c363278	0.011120431
228	0xba9a1a30	-0.0011757072
229	0x397e5aa0	0.00024257088
230	0xb8d155c8	-9.9818746e-05
231	0xbac0b6eb	-0.0014702951
232	0xb810b522	-3.450097e-05
233	0xb833c68c	-4.2861837e-05
234	0x25ba640e	3.2333656e-16
235	0xb9d684a9	-0.000409161
236	0xb94385b4	-0.00018646457
237	0x34602ec1	2.0878635e-07
238	0xb936eda1	-0.00017445396
239	0xba18eed3	-0.00058339274
240	0xb13de195	-2.7631348e-09
241	0xb223203b	-9.495177e-09
242	0xb486106c	-2.4971393e-07
243	0x362760d7	2.4941307e-06
244	0xb6a428d2	-4.892333e-06
245	0xb434fc91	-1.685569e-07
246	0x35a2d2ff	1.2131349e-06
247	0x36aeba71	5.2073087e-06
248	0xba2f26de	-0.0006681512
249	0xba0137fe	-0.0004929303
250	0xb997b5bd	-0.0002893637
251	0xbc30b2c0	-0.010784805
252	0xba44f15b	-0.00075127714
253	0xb9242ad5	-0.00015656215
254	0xb98514ea	-0.0002538332
255	0xb9b785d1	-0.0003500418
