ppo_model_final.pt (torch, 132483 bytes, 33 tensors)

net.0.weight f4 [64, 8]
-0.16637768 -0.3595054 0.13348204 0.1081273 0.293887 -0.056229312 -0.0881976 0.25887424
0.3440617 -0.09875882 -0.08691239 -0.15235482 -0.28693223 -0.18823819 0.29374972 -0.18089756
0.691511 0.5849669 0.46339622 -0.02167147 -0.006269633 0.15202561 0.16210963 -0.21536233
0.43613586 0.53702796 0.10498801 -0.0040064245 0.02743118 -0.39358136 -0.5104449 -0.25186676
-0.21966559 0.05076204 -0.25344655 -0.036892742 0.32214564 0.19541116 -0.19987008 -0.2535372
-0.16909957 0.05779809 -0.75909615 0.052049417 0.13545896 0.25391012 -0.07007063 0.38530394
0.00902486 0.3104397 -0.2903998 -0.05537794 -0.07052965 -0.30080187 0.3375045 0.33994937
0.14616197 0.2570523 -0.13544177 0.1488889 -0.2737986 -0.44488966 0.3739316 0.16706865
-0.037932158 -0.22671501 0.2358397 -0.2942572 -0.1400286 -0.012501508 0.2711645 -0.053470075
0.20440246 0.17912303 0.7342944 0.04564672 0.1288277 -0.04608778 -0.26527524 -0.16546951
-0.022331018 0.15812437 -0.1053142 -0.03963334 -0.09634668 -0.19116051 -0.3216988 0.12323299
-0.20698452 -0.3195131 0.28016618 -0.2889483 -0.33814615 -0.06501785 0.2567654 -0.25383765
0.0878671 0.15737243 -0.117648885 -0.31181642 -0.31216073 -0.19566174 -0.19679148 0.20131771
-0.47641826 -0.18362571 0.24799362 0.23698893 0.23376541 0.3111385 -0.15453464 0.064191386
-0.2695782 -0.085481524 -0.042812377 -0.08348018 -0.10892646 0.15429345 0.34359327 -0.20410459
0.07323566 -0.08436248 0.22093084 -0.03640631 -0.13994388 0.15625575 -0.030463994 -0.0748004
-0.29156777 -0.3386346 -0.2809819 -0.20292088 -0.26328138 -0.30259565 -0.28421682 0.07140693
0.4297859 0.32264096 0.49111012 -0.19069564 -0.049670186 -0.009442696 0.1803938 0.39158815
0.31714433 -0.08116801 0.13740358 -0.16259414 0.19093122 -0.31964144 0.24771316 0.29981983
-0.17590162 -0.2439145 -0.014991773 -0.20327044 0.23401877 -0.22146256 -0.20977515 0.0567838
-0.0009379481 0.0003276129 -0.059638694 0.09748088 -0.06322678 -0.18970956 0.15906195 0.4248417
-0.36392218 -0.36231142 -0.1979416 0.16757846 0.067754254 0.08441164 0.2951449 0.0034445424
-0.41797903 -0.47358096 -0.58059 0.28062567 -0.14483309 0.3703471 0.24012507 0.1320584
0.015053773 0.4189028 -0.19232745 -0.1685216 0.08294619 -0.43938237 0.084959924 0.3168572
0.33519414 -0.29501206 0.29164925 -0.2803542 -0.2736038 0.25388744 0.0389975 -0.20186372
0.12589303 0.28798762 0.5983264 0.061444737 -0.14529797 -0.22839722 -0.3432839 -0.2673942
0.291134 0.06192388 0.584803 0.16902451 -0.05332127 -0.023389518 -0.31559256 -0.41618833
0.7617167 0.6841116 0.8514118 -0.02218614 0.17988451 -0.06940592 -0.015182445 -0.18530796
-0.24755159 -0.16725788 0.13674936 -0.23155001 -0.0042663035 -0.008762238 -0.17354359 0.045432594
-0.0663587 -0.6219402 -0.20850898 0.27064547 -0.16695683 -0.14633878 -0.17616051 0.13733211
0.30251157 0.021042684 0.13535789 0.08988352 0.20198365 -0.07158613 -0.38106617 -0.51969594
0.0030606678 0.13436373 0.8185848 0.25318873 0.013747023 0.3942865 -0.36202314 -0.4159533
00000000: e95e 2abe 1711 b8be 84af 083e d971 dd3d
00000010: 5b78 963e b550 66bd f1a0 b4bd 2a8b 843e
00000020: db28 b03e 1042 cabd 20ff b1bd e702 1cbe
00000030: c8e8 92be 83c1 40be 5d66 963e 363d 39be
00000040: dd06 313f 64c0 153f 4542 ed3e 5e88 b1bc
00000050: 7e71 cdbb 9aac 1b3e 1100 263e f187 5cbe
00000060: 334d df3e aa7a 093f f403 d73d 5348 83bb
00000070: 5bb7 e03c 7f83 c9be 84ac 02bf aef4 80be
00000080: 04f0 60be dbeb 4f3d bfc3 81be d81c 17bd
00000090: 46f0 a43e dd19 483e beaa 4cbe a1cf 81be
000000a0: 7028 2dbe b1bd 6c3d 2054 42bf c531 553d
000000b0: c1b5 0a3e 8200 823e 3181 8fbd 8f46 c53e
000000c0: 02dd 133c f4f1 9e3e 48af 94be fbd3 62bd
000000d0: d971 90bd b402 9abe 64cd ac3e d80d ae3e
000000e0: 7cab 153e 5c9c 833e 3fb1 0abe 5576 183e
000000f0: 552f 8cbe 94c8 e3be f673 bf3e 0b14 2b3e
00000100: c05e 1bbd fb27 68be f67f 713e e1a8 96be
00000110: a863 0fbe 20d3 4cbc 13d6 8a3e 7003 5bbd
00000120: e14e 513e 076c 373e b8fa 3b3f 0ef8 3a3d
00000130: 69eb 033e 8ac6 3cbd 28d2 87be d770 29be
00000140: 8aef b6bc 5beb 213e f9ae d7bd 9256 22bd
00000150: 6851 c5bd 95bf 43be b5b5 a4be 9461 fc3d
00000160: c0f3 53be 3997 a3be f171 8f3e 08f1 93be
00000170: 7e21 adbe 1428 85bd c176 833e 02f7 81be
00000180: abf3 b33d 3d26 213e e6f1 f0bd 67a6 9fbe
00000190: 88d3 9fbe 8d5b 48be b583 49be 3b26 4e3e
000001a0: 18ed f3be 6108 3cbe 0af2 7d3e 3aad 723e
000001b0: 3360 6f3e 8c4d 9f3e 543e 1ebe c676 833d
000001c0: 2706 8abe f010 afbd 085c 2fbd a8f7 aabd
000001d0: d614 dfbd 1aff 1d3e 75eb af3e cb00 51be
000001e0: 94fc 953d 3cc6 acbd b23b 623e c81e 15bd
000001f0: 734d 0fbe 8201 203e a08f f9bc f430 99bd
00000200: 5f48 95be 8461 adbe dcdc 8fbe 7eca 4fbe
00000210: d1cc 86be d1ed 9abe de84 91be cc3d 923d
00000220: e60c dc3e 3231 a53e c972 fb3e b845 43be
00000230: f772 4bbd 8ab5 1abc 27b9 383e 3e7e c83e
00000240: be60 a23e 6a3b a6bd 86b3 0c3e 147f 26be
00000250: 7983 433e 0ba8 a3be 85a8 7d3e fc81 993e
00000260: 8e1f 34be b9c4 79be 0ea0 75bc 2026 50be
00000270: 9ea2 6f3e 15c7 62be 4ccf 56be 2196 683d
00000280: a2e0 75ba 76c3 ab39 b447 74bd 0ea4 c73d
00000290: 0b7d 81bd 3943 42be 23e1 223e da84 d93e
000002a0: 0254 babe e280 b9be 34b1 4abe b099 2b3e
000002b0: bec2 8a3d 03e0 ac3d 3b1d 973e d5bd 613b
000002c0: 5901 d6be 3479 f2be 8ca1 14bf 2bae 8f3e
000002d0: 204f 14be 239e bd3e 59e3 753e 513a 073e
000002e0: 1aa4 763c 6e7a d63e 7df1 44be ed90 2cbe
000002f0: b1df a93d baf6 e0be 78ff ad3d 1b3b a23e
00000300: 919e ab3e d20b 97be 0d53 953e 968a 8fbe
00000310: cc15 8cbe 89fd 813e d8bb 1f3d 5db5 4ebe
00000320: 1aea 003e 1d73 933e eb2b 193f 7aad 7b3d
00000330: fec8 14be f6e0 69be e8c2 afbe e5e7 88be
00000340: 840f 953e e5a3 7d3d a6b5 153f c314 2d3e
00000350: 6767 5abd 609b bfbc 5995 a1be a316 d5be
00000360: deff 423f f021 2f3f 20f6 593f b5bf b5bc
00000370: a533 383e b124 8ebd cabf 78bc 5fc1 3dbe
00000380: 2a7e 7dbe a645 2bbe 0608 0c3e 721b 6dbe
00000390: 59cc 8bbb 7d8f 0fbc 69b5 31be 8717 3a3d
000003a0: 12e7 87bd 7937 1fbf 6183 55be 0b92 8a3e
000003b0: bbf6 2abe d5d9 15be 6c63 34be caa0 0c3e
000003c0: cce2 9a3e b561 ac3c 429b 0a3e da14 b83d
000003d0: cdd4 4e3e c09b 92bd 1b1b c3be cb0a 05bf
000003e0: 7c95 483b a596 093e c68e 513f f4a1 813e
000003f0: 323b 613c ecdf c93e 195b b9be d5f7 d4be

net.0.bias f4 [64]
-0.33211738 -0.03871277 -0.06009751 -0.017577466 -0.1506767 -0.20239046 0.41331974 0.14250435
-0.24211286 0.38766983 -0.060514256 -0.22244006 -0.19650358 -0.32155102 -0.03483689 0.0077094138
0.06803256 0.13923132 0.16956645 0.18409297 -0.32063124 -0.12433373 0.005571745 0.43769273
0.055079997 -0.036454495 -0.21483935 0.3916839 0.26246414 -0.08540172 -0.041760214 -0.046315014
0.32606265 0.027020453 0.16052371 -0.21868241 -0.051591694 0.037614916 0.46225402 -0.2935278
-0.44110507 -0.15732914 -0.13554715 0.14057209 0.3015977 -0.21591155 0.14587826 -0.2918904
0.07304657 -0.10180369 -0.16882388 -0.23925906 0.15685041 -0.09463965 -0.39932802 0.32249284
-0.11318385 -0.16963732 -0.28540662 -0.33156574 0.21450746 0.28537425 0.044070903 0.15574066
00000000: 4a0b aabe 4891 1ebd cf28 76bd 9efe 8fbc
00000010: fe4a 1abe 723f 4fbe a59e d33e a9ec 113e
00000020: 6fec 77be a97c c63e ccdd 77bd 54c7 63be
00000030: 3c38 49be 56a2 a4be 20b1 0ebd 409f fc3b
00000040: a854 8b3d a892 0e3e d4a2 2d3e de82 3c3e
00000050: c729 a4be afa2 febd 2f93 b63b 4319 e03e
00000060: 909b 613d 4f51 15bd d9fe 5bbe cb8a c83e
00000070: b361 863e 19e7 aebd c20c 2bbd d0b4 3dbd
00000080: aff1 a63e ff59 dd3c 5460 243e 48ee 5fbe
00000090: d051 53bd 1912 1a3d 8fac ec3e 4749 96be
000000a0: 86d8 e1be e41a 21be dfcc 0abe 21f2 0f3e
000000b0: 046b 9a3e eb17 5dbe 1c61 153e a972 95be
000000c0: 7199 953d 747e d0bd 2be0 2cbe 5400 75be
000000d0: 659d 203e 6fd2 c1bd b974 ccbe c81d a53e
000000e0: efcc e7bd 68b5 2dbe d120 92be fcc2 a9be
000000f0: d8a7 5b3e 931c 923e b183 343d 7b7a 1f3e

net.2.weight f4 [64, 64]
-0.09615844 0.015516669 0.0013139829 -0.11654231 0.012007901 0.046897303 -0.015716115 -0.061133865
-0.10434434 -0.1544637 0.17094024 0.013886645 -0.116873294 -0.16278386 0.037278786 0.12238087
-0.021818519 0.05075283 -0.0771888 -0.061439633 0.01144955 0.04427599 -0.10774696 0.0767113
-0.021577343 -0.20170818 -0.0073339175 -0.11140289 0.013822911 -0.007967672 0.057226356 -0.08853951
-0.08609207 0.015817616 -0.13728818 -0.08283623 -0.024058808 0.017755104 0.023948753 0.056091487
-0.17675894 0.015890004 -0.08581853 0.010963671 -0.021958206 -0.065185204 0.05922331 -0.115049966
0.047816142 -0.13095143 -0.123633474 0.015625864 -0.025474444 -0.019060502 -0.06427633 -0.023470517
-0.1627818 -0.030062122 -0.0076099723 0.037235994 -0.07789647 0.056493953 0.11029245 -0.0061397627
-0.0639732 -0.07977453 -0.09256896 0.023639157 0.049178746 -0.11615838 -0.10210496 -0.11364786
-0.06458938 -0.1367448 0.010732802 0.10210736 0.09677479 -0.0031393403 0.020614058 0.08121055
0.08327691 0.08946441 -0.12727402 0.034993187 -0.024450706 0.10917234 -0.11157567 -0.026761236
-0.07480858 -0.0011315484 -0.023811366 0.04344913 -0.02252024 -0.10139329 -0.0010616248 0.080772944
-0.11188614 -0.07875662 0.10395379 -0.041693605 -0.00735917 0.041455552 -0.11524598 -0.09673859
0.011234548 -0.043067817 -0.027190419 -0.061670262 -0.01235995 0.10828592 -0.04237798 0.060503185
-0.041511387 0.10137464 0.09661719 -0.07879845 0.02029765 -0.13656478 -0.0077658254 0.082910456
-0.0385774 -0.09738364 0.03293625 0.08615839 -0.06361454 -0.11041641 0.05987173 -0.053067077
-0.15965825 -0.041376457 0.009983539 -0.045309726 -0.07525667 -0.07237754 0.095669426 -0.046785016
-0.0411745 -0.021176433 -0.14834604 0.020552441 -0.089988574 -0.028915549 -0.05335568 0.04731019
-0.021696657 -0.057054542 0.051303197 0.044974387 -0.005295423 -0.10979431 -0.06237188 -0.080700606
-0.10595794 -0.17693733 0.029232364 -0.07488666 0.041037947 0.033289384 0.0097062085 -0.16302837
-0.017084092 0.008011684 -0.038744796 0.09415322 0.034587678 0.08997848 0.10157305 0.09378545
-0.041844543 -0.017168138 0.026557848 0.0014577403 0.08106797 -0.1211213 -0.0242199 -0.073967546
-0.05653552 -0.052656505 0.0050677657 -0.0090480875 -0.06824939 -0.023049364 0.03565714 -0.14233822
0.060430348 -0.0013611258 -0.027963243 0.013956365 -0.09430304 -0.057526357 -0.022336124 -0.008958581
-0.11413256 -0.10742386 0.2067302 0.2027512 -0.269716 -0.13170977 -0.41505593 -0.108330436
0.09189044 0.0026051302 0.13829152 0.05459477 0.11815174 -0.025918711 0.12127598 -0.10267818
0.11462003 0.04542662 0.052197285 -0.12936817 -0.09936352 -0.13993905 -0.093559705 0.07199387
0.04186423 0.103087105 0.08389299 0.17843892 0.09843477 -0.1733628 -0.022657055 0.08643066
-0.041947156 0.02853983 -0.13837475 -0.036618132 0.42967632 -0.013682768 -0.21877004 0.025705695
-0.007222326 0.26526633 0.15247388 -0.018444575 -0.23326191 -0.08670741 -0.010649517 0.021471888
0.011352226 0.09084398 -0.08430898 -0.062924705 0.14266723 -0.34188253 -0.11228512 0.014784651
0.06833359 0.11404367 -0.22752711 0.055974964 -0.1241076 -0.19460365 -0.1879717 0.058480676
00000000: b7ee c4bd a039 7e3c f339 ac3a bcad eebd
00000010: cabc 443c 6317 403d 15bf 80bc 8167 7abd
00000020: 7cb2 d5bd bb2b 1ebe f50a 2f3e d084 633c
00000030: 445b efbd d0b0 26be a4b1 183d d2a2 fa3d
00000040: c0bc b2bc 33e2 4f3d 2915 9ebd 20a8 7bbd
00000050: e596 3b3c be5a 353d 70aa dcbd d01a 9d3d
00000060: f8c2 b0bc 978c 4ebe 5c51 f0bb 3327 e4bd
00000070: 7e79 623c d78a 02bc 2f66 6a3d 3454 b5bd
00000080: 0a51 b0bd f293 813c 4695 0cbe 0ba6 a9bd
00000090: fa16 c5bc 2773 913c 2d30 c43c 30c0 653d
000000a0: 4c00 35be c12b 823c a0c1 afbd f8a0 333c
000000b0: b2e1 b3bc d27f 85bd 2494 723d 519f ebbd
000000c0: dcda 433d 2218 06be 8c33 fdbd d001 803c
000000d0: c8af d0bc c524 9cbc 4fa3 83bd 3e45 c0bc
000000e0: 46b0 26be d744 f6bc 135d f9bb c584 183d
000000f0: 2f88 9fbd 3466 673d 02e1 e13d 1030 c9bb
00000100: 6204 83bd d460 a3bd cb94 bdbd e8a6 c13c
00000110: a76f 493d 72e4 edbd 681c d1bd 36c0 e8bd
00000120: 7047 84bd d406 0cbe a2d8 2f3c aa1d d13d
00000130: dc31 c63d 64bd 4dbb d0de a83c b851 a63d
00000140: 168d aa3d 1e39 b73d 1f54 02be 0455 0f3d
00000150: d94c c8bc bf95 df3d c981 e4bd 613a dbbc
00000160: 3e35 99bd 7750 94ba 0e10 c3bc b7f7 313d
00000170: 5e7c b8bc 49a7 cfbd 3826 8bba 496c a53d
00000180: 9024 e5bd 274b a1bd bae5 d43d eac6 2abd
00000190: 3125 f1bb 4ccd 293d 1606 ecbd e21e c6bd
000001a0: 1c11 383c e167 30bd 71be debc f599 7cbd
000001b0: 6381 4abc 02c5 dd3d 8894 2dbd 30d2 773d
000001c0: d807 2abd 829d cf3d 3cdf c53d 1561 a1bd
000001d0: 4247 a63c a3d7 0bbe 7778 febb f5cc a93d
000001e0: 5603 1ebd 1371 c7bd 29e8 063d cf73 b03d
000001f0: 5748 82bd 0022 e2bd 0f3c 753d dd5c 59bd
00000200: 747d 23be 5c7a 29bd ff91 233c b196 39bd
00000210: 2b20 9abd ad3a 94bd 55ee c33d a5a1 3fbd
00000220: 98a6 28bd 337a adbc 06e8 17be 985d a83c
00000230: ee4b b8bd 4de0 ecbc 7c8b 5abd 54c8 413d
00000240: 30bd b1bc 06b2 69bd 4d23 523d 1037 383d
00000250: 3a85 adbb d7db e0bd a879 7fbd 5c46 a5bd
00000260: 7a00 d9bd 0f2f 35be b678 ef3c 2d5e 99bd
00000270: 6817 283d 735a 083d ca06 1f3c e9f0 26be
00000280: f0f3 8bbc 7043 033c ddb2 1ebd 67d3 c03d
00000290: cfab 0d3d a346 b83d 8805 d03d 9612 c03d
000002a0: 2f65 2bbd 32a4 8cbc d88f d93c a611 bf3a
000002b0: f706 a63d 720e f8bd d068 c6bc 4c7c 97bd
000002c0: ca91 67bd 59ae 57bd 800f a63b 6e3e 14bc
000002d0: 56c6 8bbd 05d2 bcbc 390d 123d 1cc1 11be
000002e0: d085 773d ce67 b2ba 2c13 e5bc 3da9 643c
000002f0: f421 c1bd c2a0 6bbd 3ffa b6bc 03c7 12bc
00000300: 55be e9bd 0a01 dcbd 15b1 533e 039e 4f3e
00000310: 3718 8abe edde 06be 3682 d4be 59dc ddbd
00000320: 0e31 bc3d d5ba 2a3b 4b9c 0d3e c49e 5f3d
00000330: 8af9 f13d 7a53 d4bc 8a5f f83d f048 d2bd
00000340: e8bd ea3d 4311 3a3d d2cc 553d 1779 04be
00000350: 1a7f cbbd 2f4c 0fbe 3b9c bfbd 8671 933d
00000360: d479 2b3d 551f d33d 17d0 ab3d b1b8 363e
00000370: 2b98 c93d 0586 31be 4a9b b9bc 8f02 b13d
00000380: c8d0 2bbd 5dcc e93c 1cb2 0dbe e5fc 15bd
00000390: 89fe db3e b02d 60bc 4105 60be c094 d23c
000003a0: 43a9 ecbb fdd0 873e 1d22 1c3e 1419 97bc
000003b0: 36dc 6ebe a893 b1bd 507b 2ebc d0e5 af3c
000003c0: b0fe 393c 690c ba3d 30aa acbd abde 80bd
000003d0: 5c17 123e 3a0b afbe bef5 e5bd 523b 723c
000003e0: 7bf2 8b3d ba8f e93d defc 68be 0146 653d
000003f0: 202c febd 2e46 47be a77b 40be 6f89 6f3d

net.2.bias f4 [64]
-0.055585336 -0.14571448 0.06788509 -0.11705379 -0.110605344 0.13544518 -0.06546808 -0.02749869
-0.04162632 -0.105552875 -0.1097399 -0.13553326 0.039892893 0.0688649 -0.043806903 0.07744495
-0.030145396 -0.09250718 0.074883565 0.19544846 -0.014338762 -0.13969828 -0.034911443 -0.16805792
0.042818397 -0.06257418 0.048869703 0.07089805 0.2324388 -0.06965891 0.06903466 0.2760154
0.027787862 0.05938346 0.04344262 -0.11296959 -0.15619196 -0.0475577 -0.10685495 0.0019615027
-0.027665876 0.09260174 -0.09203187 0.06476199 -0.021638274 -0.08572538 -0.10690344 -0.01952245
0.2300121 0.07512173 0.0879507 -0.04660724 0.06108516 0.22746068 -0.074554995 0.08894066
0.0396147 0.0055463486 0.08908902 0.03909252 -0.008035683 -0.16333818 0.086084135 -0.0047528762
00000000: 73ad 63bd 2d36 15be 5707 8b3d e6b9 efbd
00000010: 0e85 e2bd 24b2 0a3e 2114 86bd ef44 e1bc
00000020: 5c80 2abd 1b2c d8bd 50bf e0bd 3bc9 0abe
00000030: bb66 233d 0a09 8d3d de6e 33bd 759b 9e3d
00000040: 7af3 f6bc 6874 bdbd 8e5c 993d a423 483e
00000050: 20ed 6abc 110d 0fbe 4dff 0ebd 6017 2cbe
00000060: 5862 2f3d e426 80bd 992b 483d ff32 913d
00000070: 7004 6e3e 55a9 8ebd 0b62 8d3d e451 8d3e
00000080: 5fa3 e33c 123c 733d e4f0 313d 9a5c e7bd
00000090: c9f0 1fbe ddcb 42bd c5d6 dabd 8e8c 003b
000000a0: 8ca3 e2bc fba5 bd3d 347b bcbd efa1 843d
000000b0: c042 b1bc ca90 afbd 31f0 dabd 8ced 9fbc
000000c0: 4b88 6b3e 6cd9 993d 7f1f b43d 3ce7 3ebd
000000d0: 6f34 7a3d 74eb 683e 4ab0 98bd 8526 b63d
000000e0: 0643 223d 25be b53b 4e74 b63d 7a1f 203d
000000f0: 19a8 03bc 2042 27be e14c b03d 04be 9bbb

net.4.weight f4 [4, 64]
-0.049040087 0.045925062 -0.0011383095 -0.14551896 0.013343993 0.07170229 -0.124850236 -0.033198807
-0.0015036317 0.017704153 0.019218178 -0.0647766 -0.03509877 0.07419649 -0.008655454 0.030586181
0.051527884 0.046857733 0.015785068 0.15616295 -0.17808712 -0.18099362 -0.0010886284 -0.06290789
-0.017104747 0.00048631892 -0.020040546 0.04835589 0.15469229 0.050586518 -0.00019333682 0.05082995
0.013637647 -0.016876163 0.0011822456 -0.018914498 -0.03187333 -0.09835856 0.00822716 -0.20586845
-0.04474232 -0.0052889283 0.0019339088 -0.0029006326 0.0008688541 0.0034880273 0.047599226 -0.02696464
0.15536085 -0.018643932 -0.0062217643 0.054714072 0.019567033 0.13218264 -0.03484913 -0.17916664
0.055676296 0.030697374 0.023884827 0.0070995684 0.061424673 0.036222745 0.0659639 0.0016669623
0.028978046 0.017421538 -0.0041735843 -0.14731702 0.028400144 0.026947303 -0.25855187 -0.007419034
0.0018837787 0.017739203 -0.009126356 0.02737215 -0.015460544 0.036307994 0.0066339923 0.059562612
-0.07581196 0.034454685 0.005465751 0.18027864 -0.23933299 -0.19179592 -0.004139217 0.010865127
0.18655547 0.014613944 -0.12386269 -0.0021674545 0.23585103 0.035101365 -0.0032213556 0.21710114
-0.0026116245 0.024693843 0.002498895 -0.01738939 -0.017536895 -0.21142699 0.02248431 -0.20942304
0.020192944 0.056987382 -0.0017860887 0.015627686 -0.0018730749 0.031882096 0.030379355 0.00603571
0.22538407 0.020822966 0.005035935 0.024309788 -0.015415228 0.15971114 0.08302247 -0.1633806
0.13605861 -0.044405248 -0.18320931 0.08216921 0.052200716 0.01660486 0.0071705324 -0.003166574
0.07553071 0.02637253 0.0018258119 0.1287427 0.005900194 -0.04880057 0.12880021 0.005103388
9.994698e-05 -0.0013056394 0.0057881502 0.004411518 0.013045084 -0.0106959725 0.0036390538 -0.019968972
0.024903053 0.00024282325 -0.0024338486 -0.055876683 0.15510383 0.1412361 0.0025467216 0.08658297
-0.15691212 0.010163394 0.05433418 -0.020886429 -0.31329656 -0.01760939 0.0057186815 -0.08458057
0.024812784 -0.017293489 0.0009844196 0.018501647 -0.010096306 0.104291074 -0.013078242 0.10616442
0.008003802 0.07107554 0.0011129287 0.01075947 0.0015572943 0.011868481 0.020805448 0.066584945
-0.18191516 0.022202319 -0.026764764 -0.020799877 0.015476726 -0.10287966 0.046955 0.06565355
-0.002836992 0.008125426 0.05439582 0.049769323 -0.035176814 0.024219032 -0.021899346 -0.0063168067
0.04841763 0.01987291 0.010743662 0.13845865 0.000121207224 -0.03334403 0.14881045 0.05980644
-0.00037964014 -0.0013073038 0.02919585 0.0008831869 -0.010935529 -0.030307233 -0.014932392 0.030673902
0.05155027 -0.054040946 -0.00060057366 -0.097175 0.18481688 0.12936334 -0.007900384 0.08500327
-0.17716956 -0.008338758 0.1809495 0.0068532852 -0.3274023 -0.016140798 0.002119486 -0.19573234
-0.04073487 0.004898366 -0.0027143054 -0.024740845 0.023568051 0.1405819 0.0023773161 0.17040789
0.00347048 0.09901504 -9.825349e-05 0.0138074355 -0.0018121845 0.02916327 -0.012920501 0.011005343
-0.2907926 0.02813952 0.02361492 -0.022078115 0.019388078 -0.23935774 -0.023841271 0.10839154
-0.0039699133 0.064608574 0.12069617 -0.00038634957 -0.038624845 -0.011501585 -0.010105573 0.0072941934
00000000: 42de 48bd eb1b 3c3d 5433 95ba ec02 15be
00000010: c3a0 5a3c a6d8 923d 7bb1 ffbd 79fb 07bd
00000020: 8215 c5ba 4d08 913c 716f 9d3c 98a9 84bd
00000030: bac3 0fbd 54f4 973d 9bcf 0dbc df8f fa3c
00000040: e70e 533d e5ed 3f3d b04f 813c 2ee9 1f3e
00000050: 785c 36be 6456 39be 4fb0 8eba dad5 80bd
00000060: 411f 8cbc 9ff8 fe39 122c a4bc d310 463d
00000070: a867 1e3e cf33 4f3d 75ba 4ab9 1133 503d
00000080: 7070 5f3c e13f 8abc 94f5 9a3a 94f2 9abc
00000090: 9c8d 02bd 3670 c9bd 36cb 063c 2ecf 52be
000000a0: b943 37bd bf4e adbb 367b fd3a 8a18 3ebb
000000b0: d0c3 633a 6397 643b 68f7 423d f3e4 dcbc
000000c0: ea16 1f3e 29bb 98bc f1df cbbb dd1b 603d
000000d0: 0b4b a03c e35a 073e f6bd 0ebd 7677 37be
000000e0: d40c 643d 0f79 fb3c 1daa c33c 7fa3 e83b
000000f0: 7098 7b3d 4d5e 143d 1518 873d f97d da3a
00000100: 5e63 ed3c 9db7 8e3c 90c2 88bb 46da 16be
00000110: 6ba7 e83c 97c0 dc3c e960 84be 5e1b f3bb
00000120: 20e9 f63a ce51 913c b686 15bc 8f3b e03c
00000130: 394e 7dbc b1b7 143d f661 d93b edf7 733d
00000140: 4d43 9bbd 5b20 0d3d 0b1a b33b f79a 383e
00000150: b513 75be 2666 44be 45a2 87bb a503 323c
00000160: 6608 3f3e 536f 6f3c b9ab fdbd da0b 0ebb
00000170: ef82 713e 73c6 0f3d 611d 53bb c34f 5e3e
00000180: ca27 2bbb be4a ca3c 80c4 233b 3274 8ebc
00000190: 89a9 8fbc 5180 58be 0431 b83c fe72 56be
000001a0: ac6b a53c 9a6b 693d 311b eaba a205 803c
000001b0: f781 f5ba cd96 023d 20de f83c 35c7 c53b
000001c0: 15cb 663e ed94 aa3c 7c04 a53b 5225 c73c
000001d0: 2790 7cbc 518b 233e af07 aa3d 3e4d 27be
000001e0: f352 0b3e 47e2 35bd 399b 3bbe 5548 a83d
000001f0: 6bd0 553d ea06 883c c9f6 ea3b 4c86 4fbb
00000200: d8af 9a3d 340b d83c 1550 ef3a 20d5 033e
00000210: 6a56 c13b 1be3 47bd 34e4 033e 523a a73b
00000220: a09a d138 fd21 abba 86aa bd3b 7f8e 903b
00000230: 0cbb 553c 293e 2fbc 317d 6e3b f895 a3bc
00000240: 7d01 cc3c 5f9e 7e39 3481 1fbb f3de 64bd
00000250: 8ad3 1e3e 32a0 103e e6e6 263b 6a52 b13d
00000260: 92ad 20be 5d84 263c 848d 5e3d 041a abbc
00000270: 6868 a0be 9141 90bc c763 bb3b 9438 adbd
00000280: 2e44 cb3c 13ab 8dbc a407 813a c490 973c
00000290: fa6a 25bc 8f96 d53d 1f46 56bc bb6c d93d
000002a0: 6122 033c 0d90 913d b1df 913a 7d48 303c
000002b0: 201e cc3a 0474 423c 3070 aa3c b05d 883d
000002c0: f847 3abe a3e1 b53c c741 dbbc 8164 aabc
000002d0: 1892 7d3c 92b2 d2bd e353 403d 5e75 863d
000002e0: d4ec 39bb 8220 053c 27ce 5e3d ebda 4b3d
000002f0: 9015 10bd fe66 c63c 4266 b3bc 37fd cebb
00000300: 9151 463d 83cc a23c 2f06 303c 1bc8 0d3e
00000310: a230 fe38 c093 08bd c461 183e 99f7 743d
00000320: 700a c7b9 d659 abba 232c ef3c ab85 673a
00000330: ef2a 33bc e046 f8bc fea6 74bc d647 fb3c
00000340: 6026 533d 0a5a 5dbd d16f 1dba b003 c7bd
00000350: a340 3d3e d377 043e 9d70 01bc 3216 ae3d
00000360: f06b 35be 499f 08bc d34a 393e 8691 e03b
00000370: 46a1 a7be b539 84bc 13e7 0a3b 0f6e 48be
00000380: 9bd9 26bd 7982 a03b 7de2 31bb 50ad cabc
00000390: c911 c13c b4f4 0f3e bfcc 1b3b 687f 2e3e
000003a0: fe70 633b 66c8 ca3d 710d ceb8 9538 623c
000003b0: d286 edba cfe7 ee3c 82b0 53bc c14f 343c
000003c0: c5e2 94be da84 e63c 1474 c13c 2add b4bc
000003d0: bfd3 9e3c 321a 75be c54e c3bc 62fc dd3d
000003e0: 0c16 82bb 8051 843d 8e2f f73d f68e cab9
000003f0: 1635 1ebd 2571 3cbc d891 25bc 2104 ef3b

net.4.bias f4 [4]
0.2293361 0.061811708 -0.06981634 -0.18000408
00000000: 15d7 6a3e 462e 7d3d dffb 8ebd fd52 38be

net.0.weight f4 [64, 8]
-0.06043273 0.33612517 -0.30955333 -0.2723733 -0.3730918 -0.1736111 -0.15037762 0.07678548
0.91321313 1.4660907 0.8180741 -0.26119265 0.021857452 1.2744588 -0.30845377 -0.08173133
0.2591656 0.33046466 0.18280785 -0.42574233 -0.29053122 0.114819 -0.04031129 0.18988226
-0.052848294 0.0632247 0.23743981 -0.13887227 -0.121423826 -0.12135528 -0.011526525 -0.2885955
0.32618192 0.8645084 0.04858478 -0.43027836 -0.35648882 0.14217824 -0.28279778 -0.22225665
-0.77114594 -0.9787011 -0.48896554 0.033508983 -0.09827615 -0.5218251 0.31694484 0.08105267
-0.20805694 -0.12892815 -0.0685562 -0.17555979 0.2612478 0.30413324 -0.2493899 0.16757074
1.0595344 0.696778 1.7880383 0.040415265 0.09045829 1.0538075 -1.7594255 -2.1680102
0.9578231 0.69388074 0.5465698 -0.37387618 -0.25102633 -0.7982932 -0.45212027 -0.1327227
1.369756 1.6876496 1.2166898 0.010459508 -0.10159678 1.1422327 -0.31349432 0.043151584
0.95760065 1.7741337 0.6446603 -0.019838268 0.11833991 1.559292 -0.50984794 -0.48098922
-0.8260998 -1.0494108 -0.8172638 0.027497137 -0.4662121 -1.3180326 0.5640166 0.24264985
0.72074145 1.2031131 0.59220886 -0.13086234 -0.21867973 0.51645726 -0.17282014 -0.57790256
0.6547741 0.086736836 0.3398361 -0.120870546 -0.27572733 -10.488655 0.048013307 0.03003182
-0.9777427 -1.0859658 -0.53285486 0.019311087 0.050827034 -0.34977037 0.6147355 -0.22793578
-0.20085901 -0.2593111 -0.1249256 -0.23703417 -0.16515708 -0.21633407 -0.21972477 -0.072926134
-1.5605297 -1.5514319 -0.10099631 0.026831733 0.4319397 1.0697873 -0.27769163 0.022203974
0.7381559 1.061313 0.08134684 -0.25076407 -0.25131598 0.43830538 -0.58469933 -0.15560733
0.069932126 -0.26064706 0.14328864 -0.012171557 -0.00770736 0.14795402 -0.24345858 0.031563755
0.57725585 1.1676887 -0.6940459 -0.2534316 -0.27674145 1.0898697 -0.03883925 0.06671039
0.3078787 0.16035508 0.10888092 -0.44063178 -0.20506303 -0.48219007 -0.17605262 0.04344042
1.3518233 1.0632395 1.6544964 0.054208077 -0.014943409 1.2771165 -0.9367024 -1.4933171
0.30704525 0.6839368 0.7595799 -0.37590668 -0.22214366 -0.34329897 -0.006685068 -0.3840179
0.5975804 0.5952585 0.9757536 -0.313582 -0.4019388 0.094623566 -0.58168983 -0.7100016
0.8597278 1.1920054 0.7433451 -0.14152417 -0.32101429 0.39191586 -0.018156853 -0.31483302
-0.11688607 -0.31042027 -0.088682346 -0.059325665 0.16730076 -0.46050295 -0.12940423 -0.24390587
0.29128176 0.41772476 0.027990168 -0.14256062 -0.4639627 0.085686766 0.03204426 -0.25099412
-0.25461677 -0.12478368 -0.16387287 -0.23445845 0.0003579259 0.00706023 0.15626502 -0.12876858
-0.44419158 -0.6682051 -1.1307844 -0.18095793 -0.5980775 -0.5944624 0.41038367 0.04753136
1.2672336 1.4845839 0.6132061 -0.08333021 -0.032312993 1.03036 -0.19843394 -0.012491016
-1.2257854 -1.2445431 -1.0504211 -0.19854107 0.21063292 -0.94480836 -0.49545586 -0.5116023
0.65183544 0.459084 0.63102007 -0.08705017 -0.052803393 0.73549527 -0.00991552 -0.8253418
00000000: 4f88 77bd 9918 ac3e c67d 9ebe 8374 8bbe
00000010: e305 bfbe 1cc7 31be 97fc 19be b541 9d3d
00000020: 56c8 693f dca8 bb3f 4e6d 513f 0bbb 85be
00000030: 660e b33c 7721 a33f a7ed 9dbe c162 a7bd
00000040: 5bb1 843e aa32 a93e fb31 3b3e e6fa d9be
00000050: 82c0 94be 3926 eb3d 741d 25bd 7f70 423e
00000060: 7477 58bd f47b 813d 6c23 733e 8834 0ebe
00000070: 0ead f8bd 1e89 f8bd c0d9 3cbc cac2 93be
00000080: 5101 a73e 6c50 5d3f d600 473d 724d dcbe
00000090: b485 b6be 2c97 113e dfca 90be 3f97 63be
000000a0: d269 45bf 288c 7abf b159 fabe b740 093d
000000b0: 0245 c9bd 5496 05bf 9846 a23e f1fe a53d
000000c0: e10c 55be be05 04be 3167 8cbd f2c5 33be
000000d0: 46c2 853e 5ab7 9b3e 1160 7fbe aa97 2b3e
000000e0: d39e 873f 0b60 323f 70de e43f 7a8a 253d
000000f0: 3242 b93d 2ae3 863f db34 e1bf aec0 0ac0
00000100: e533 753f 2ba2 313f 00ec 0b3f b36c bfbe
00000110: 8686 80be f15c 4cbf 4f7c e7be 76e8 07be
00000120: 2a54 af3f e704 d83f 7ebc 9b3f 5b5e 2b3c
00000130: f911 d0bd ae34 923f 5482 a0be b7bf 303d
00000140: 5125 753f d016 e33f 7508 253f dd83 a2bc
00000150: 325c f23d e196 c73f 6585 02bf 3844 f6be
00000160: 477b 53bf 1853 86bf 3338 51bf ad41 e13c
00000170: 5ab3 eebe 4bb5 a8bf 6463 103f 3479 783e
00000180: 8382 383f 9cff 993f 009b 173f c700 06be
00000190: 94ed 5fbe 8b36 043f c3f7 30be 6cf1 13bf
000001a0: 479f 273f 15a3 b13d fffe ad3e fa8a f7bd
000001b0: 222c 8dbe 88d1 27c1 9aa9 443d 4b05 f63c
000001c0: 584d 7abf ed00 8bbf 2d69 08bf 4932 9e3c
000001d0: 0230 503d 1a15 b3be 4e5f 1d3f ff67 69be
000001e0: fcad 4dbe 6dc4 84be fed8 ffbd 16b9 72be
000001f0: f01e 29be ae86 5dbe 88ff 60be 4c5a 95bd
00000200: 70bf c7bf 5295 c6bf 27d7 cebd 39ce db3c
00000210: 3327 dd3e caee 883f 992d 8ebe 1ce5 b53c
00000220: c9f7 3c3f 1bd9 873f 2c99 a63d 2664 80be
00000230: 7dac 80be 9069 e03e dbae 15bf 8757 1fbe
00000240: 9338 8f3d 8873 85be 42ba 123e 366b 47bc
00000250: 068e fcbb 4281 173e 354d 79be ff48 013d
00000260: 0ac7 133f d376 953f feac 31bf c9c1 81be
00000270: 0eb1 8dbe da80 8b3f e815 1fbd 759f 883d
00000280: 47a2 9d3e 1f34 243e f6fc de3d 7d9a e1be
00000290: 0bfc 51be 9ee1 f6be 2347 34be 95ee 313d
000002a0: 8c08 ad3f 3b18 883f 8ac6 d33f 4a09 5e3d
000002b0: 33d5 74bc 8e78 a33f bacb 6fbf 0425 bfbf
000002c0: 0935 9d3e 7b16 2f3f d473 423f d776 c0be
000002d0: a179 63be e2c4 afbe 6a0e dbbb ff9d c4be
000002e0: 07fb 183f dc62 183f fdca 793f d28d a0be
000002f0: ecca cdbe 00ca c13d a0e9 14bf aac2 35bf
00000300: 1f17 5c3f a293 983f dd4b 3e3f b6eb 10be
00000310: fc5b a4be 32a9 c83e aebd 94bc cb31 a1be
00000320: f761 efbd 68ef 9ebe 179f b5bd 78ff 72bd
00000330: e450 2b3e 0bc7 ebbe 8b82 04be 76c2 79be
00000340: e222 953e 05e0 d53e a34b e53c 69fb 11be
00000350: 858c edbe 8b7c af3d d840 033d 4d82 80be
00000360: 215d 82be 968e ffbd 4ace 27be e015 70be
00000370: 00a8 bb39 8059 e73b f003 203e e9db 03be
00000380: 146d e3be 7d0f 2bbf 8bbd 90bf 094d 39be
00000390: 9b1b 19bf b02e 18bf cf1d d23e 3eb0 423d
000003a0: b634 a23f d806 be3f 13fb 1c3f 07a9 aabd
000003b0: a15a 04bd d6e2 833f 4432 4bbe 1ea7 4cbc
000003c0: 89e6 9cbf 304d 9fbf 3374 86bf 5a4e 4bbe
000003d0: 28b0 573e f6de 71bf 64ac fdbe 5ef8 02bf
000003e0: b0de 263f 0f0d eb3e 888a 213f 5c47 b2bd
000003f0: 5f48 58bd 6b49 3c3f b574 22bc 9a49 53bf

net.0.bias f4 [64]
0.15398012 -0.17587942 0.03862419 -0.18356591 0.015552687 0.9845338 -0.11602798 -0.68289596
-0.3358455 0.2448505 -0.8107693 0.9353735 0.020708637 0.40003797 1.2178954 -0.2486547
-0.91973877 -0.28023034 -0.098674476 -0.09027021 0.27794352 -0.6380104 0.15243077 -0.10638358
-0.4531923 0.7024876 0.03370577 -0.22287199 0.44952184 -0.9802807 -0.55204207 0.62249696
1.1833318 -0.41701236 -0.20042647 -0.83772415 0.9384187 -1.1177229 -0.55834657 0.12991092
0.04080936 -0.2664462 -0.74769425 -0.13669834 0.5942968 0.6970396 -0.5867379 1.0715165
-0.47436455 0.58011246 0.40688744 0.06198921 -0.3363367 -0.3255828 0.05252936 0.10824223
0.28176004 1.0290675 0.021218542 0.20990442 0.34634966 0.40296805 -0.14572148 0.27619877
00000000: f7ac 1d3e bc19 34be 6634 1e3d b4f8 3bbe
00000010: b3d0 7e3c 680a 7c3f 14a0 edbd 45d2 2ebf
00000020: f1f3 abbe 17ba 7a3e 948e 4fbf a374 6f3f
00000030: 29a5 a93c c7d1 cc3e ffe3 9b3f 569f 7ebe
00000040: 0074 6bbf 5a7a 8fbe d815 cabd 96df b8bd
00000050: 9d4e 8e3e a654 23bf d016 1c3e a2df d9bd
00000060: d208 e8be 3ad6 333f 100f 0a3d 8e38 64be
00000070: ba27 e63e adf3 7abf a152 0dbf f65b 1f3f
00000080: 6b77 973f a582 d5be 993c 4dbe 1775 56bf
00000090: 353c 703f 8b11 8fbf cdef 0ebf 5e07 053e
000000a0: b727 273d a36b 88be e468 3fbf a6fa 0bbe
000000b0: d623 183f 3071 323f 7434 16bf 7427 893f
000000c0: e9df f2be 4082 143f 8d53 d03e 66e8 7d3d
000000d0: 5334 acbe cab2 a6be 0729 573d 1aae dd3d
000000e0: da42 903e 7cb8 833f 82d2 ad3c 2ff1 563e
000000f0: be54 b13e d451 ce3e 0338 15be ed69 8d3e

net.2.weight f4 [64, 64]
0.020800818 0.14557295 0.05615548 -0.04983133 -0.42038384 0.027911821 0.14193542 -1.207611
-0.30902165 0.3613469 -1.2731638 -0.03794262 -0.29834312 -1.6268797 0.22867739 -0.085997686
0.18139122 -1.2595022 0.029090498 0.14610468 0.18524949 -1.3371542 -0.26286912 -0.5805778
-0.36603323 0.014898927 0.012273311 0.07796647 -0.0077809514 -2.9499078 0.11877408 0.1635269
0.07287641 0.006413762 0.19680674 -2.0360017 -0.1658913 -2.9919865 -0.72429127 0.0029817075
0.2424956 -0.112632185 -0.20148544 -0.6600354 -0.028733637 -0.2587162 -0.022632837 0.11337365
-0.10239298 0.5357345 -0.558406 -0.41999054 -0.17573625 -0.17207898 -0.06506712 -0.14164734
-0.15274157 0.2680608 -1.1250877 -0.1294915 -0.011557057 0.16966683 -0.09354865 0.11762605
-0.25669864 -0.16406643 -0.20262274 0.15111472 0.016765533 -0.099174395 -0.1517728 0.10317903
-0.033852205 0.093169704 -0.070461065 -0.07410443 0.14659083 -0.2366894 0.04110772 -0.11194206
-0.2605102 -0.02678216 -0.17090467 -0.044510625 0.014328137 -0.0047951224 0.23070763 -0.0906058
-0.08621301 0.075115755 -0.07294991 -0.088416114 -0.017008377 -0.13734312 -0.14287215 0.13744953
-0.18095961 0.09652999 0.09888755 -0.12580895 0.10434175 -0.112768725 0.06930845 -0.16075002
-0.063397236 0.111600146 -0.078276195 -0.06955651 -0.24712415 -0.13495222 -0.1651113 -0.005569518
0.1649082 -0.0580632 0.080666475 0.24397062 -0.056797773 -0.20314597 -0.18378264 0.14119415
-0.12130125 -0.21428162 -0.07829279 -0.18756182 -0.22425687 -0.11837428 -0.07875163 0.060430784
0.068865985 0.39785165 -0.15967526 -0.098943636 -0.028222304 -1.180331 -0.109108925 -0.11356181
0.08204945 0.45944482 0.43441147 -1.6157985 -0.027125455 0.00023835614 -1.8494716 0.12522526
-0.15232666 0.09777761 0.10336713 0.25378162 0.23065673 0.3639414 0.25111023 -0.3357591
0.08168839 -0.11245236 0.07824067 0.21041395 -0.789241 0.4912678 -0.2968728 -0.005908616
-2.2196436 0.027085513 -0.13424408 0.502255 -1.5646733 0.31662652 0.038942095 -0.06497735
0.3464776 0.06620737 -0.06129568 0.15051758 -0.022396324 -0.16762306 -0.30560294 -1.7554138
-0.060741603 0.74170536 -0.5125364 -0.10699673 -0.40047213 0.5377411 -0.014510289 0.04211736
-0.028871395 -0.8582513 0.28616783 0.07989777 -0.02159564 -0.07817167 0.17244808 0.27597556
0.13343665 -0.27406546 -0.20793685 0.17126183 -0.023591144 -0.19035037 -0.007760181 -0.117653556
-0.014390907 -0.10371421 -0.07965777 -0.1844111 0.0194832 0.19512449 0.05164197 0.02567871
-0.2555074 0.05559994 0.022331443 -0.13978365 -0.039344445 -0.249547 -0.17381386 0.031234443
0.0047819098 -0.06549677 0.09492571 0.18672429 -0.23446824 0.00642979 0.102881834 -0.019472918
0.11724518 -0.20070425 -0.17382666 -0.0615599 -0.1964783 -0.07617298 -0.097086996 0.05068226
-0.15431103 -0.20853685 -0.03801025 0.22632352 -0.115627564 -0.25937176 0.092039414 0.047090154
-0.083927326 0.08637229 -0.07898227 0.058699 0.20132446 -0.080173224 -0.03860423 0.04103838
-0.19673118 -0.09052231 0.1742961 -0.028930688 -0.11283371 0.14318399 -0.04197839 -0.13913473
00000000: 7a66 aa3c 1311 153e 4a03 663d f01b 4cbd
00000010: 8d3c d7be 55a7 e43c 8557 113e ff92 9abf
00000020: 1638 9ebe 7602 b93e 08f7 a2bf b969 1bbd
00000030: 6ec0 98be 983d d0bf 682a 6a3e 8e1f b0bd
00000040: 9fbe 393e 5e37 a1bf 324f ee3c 779c 153e
00000050: 0bb2 3d3e de27 abbf c896 86be bfa0 14bf
00000060: b568 bbbe a11a 743c ff15 493c e2ac 9f3d
00000070: 5af7 febb 4acb 3cc0 d33f f33d 9873 273e
00000080: 3a40 953d 892a d23b b587 493e da4d 02c0
00000090: 69df 29be b57c 3fc0 276b 39bf c068 433b
000000a0: c450 783e b4ab e6bd 3352 4ebe 14f8 28bf
000000b0: ce62 ebbc 7376 84be 8068 b9bc 7230 e83d
000000c0: 69b3 d1bd e525 093f b2f3 0ebf 0009 d7be
000000d0: 34f4 33be 7935 30be e941 85bd 000c 11be
000000e0: 4968 1cbe 443f 893e e002 90bf 6b99 04be
000000f0: cf59 3dbc 24bd 2d3e 6f96 bfbd ede5 f03d
00000100: 016e 83be 0801 28be 567c 4fbe d1bd 1a3e
00000110: df57 893c f21b cbbd 546a 1bbe 874f d33d
00000120: 9ca8 0abd c2cf be3d e44d 90bd 10c4 97bd
00000130: e81b 163e b55e 72be 9260 283d e141 e5bd
00000140: 9861 85be 4366 dbbc a201 2fbe c650 36bd
00000150: 90c0 6a3c 6720 9dbb 9f3e 6c3e 898f b9bd
00000160: 7290 b0bd 4ad6 993d c366 95bd 8213 b5bd
00000170: 2755 8bbc ada3 0cbe 144d 12be 92bf 0c3e
00000180: 7a4d 39be 84b1 c53d 8e85 ca3d 10d4 00be
00000190: 21b1 d53d 4af3 e6bd 97f1 8d3d a79b 24be
000001a0: 69d6 81bd 9e8e e43d 454f a0bd a573 8ebd
000001b0: 1d0e 7dbe ea30 0abe f012 29be 8180 b6bb
000001c0: b2dd 283e aed3 6dbd 7734 a53d 6fd3 793e
000001d0: c8a4 68bd 7f05 50be 8431 3cbe 3395 103e
000001e0: ca6c f8bd a46c 5bbe f857 a0bd 3510 40be
000001f0: 98a3 65be 376e f2bd 8948 a1bd 4586 773d
00000200: 9c09 8d3d 36b3 cb3e e981 23be f6a2 cabd
00000210: 7632 e7bc 1615 97bf 8074 dfbd 1893 e8bd
00000220: 8b09 a83d 5a3c eb3e 2e6b de3e 7cd2 cebf
00000230: 3436 debc 3def 7939 7cbb ecbf 0d3b 003e
00000240: 85fb 1bbe a13f c83d 25b2 d33d aaef 813e
00000250: 4731 6c3e 8756 ba3e 8591 803e 9ee8 abbe
00000260: 3e4c a73d 6c4d e6bd a53c a03d c176 573e
00000270: b30b 4abf 7487 fb3e b6ff 97be 109d c1bb
00000280: a40e 0ec0 70e2 dd3c 4877 09be c993 003f
00000290: 3747 c8bf df1c a23e bf81 1f3d d812 85bd
000002a0: 8365 b13e bb97 873d 2e11 7bbd 4821 1a3e
000002b0: 7f78 b7bc 61a5 2bbe fd77 9cbe 66b1 e0bf
000002c0: 30cc 78bd 67e0 3d3f 9635 03bf 1a21 dbbd
000002d0: af0a cdbe 67a9 093f 90bc 6dbc 4183 2c3d
000002e0: b483 ecbc 5bb6 5bbf 9784 923e 71a1 a33d
000002f0: 57e9 b0bc 7818 a0bd 3b96 303e ab4c 8d3e
00000300: 9ea3 083e 4f52 8cbe 66ed 54be 435f 2f3e
00000310: 3742 c1bc 35eb 42be 1e49 febb 59f4 f0bd
00000320: d7c7 6bbc 1e68 d4bd 9d23 a3bd 43d6 3cbe
00000330: 3b9b 9f3c b7ce 473e 8886 533d 285c d23c
00000340: ded1 82be c3bc 633d 6ef0 b63c 7223 0fbe
00000350: a427 21bd 4089 7fbe 43fc 31be 60df ff3c
00000360: 91b1 9c3b 2c23 86bd 6968 c23d a734 3f3e
00000370: 7118 70be fdb0 d23b b6b3 d23d ab85 9fbc
00000380: 3e1e f03d 6a85 4dbe 9eff 31be 3c26 7cbd
00000390: 9c31 49be 9400 9cbd 8cd5 c6bd 3498 4f3d
000003a0: b603 1ebe af8a 55be a3b0 1bbd 5ac1 673e
000003b0: 25ce ecbd 60cc 84be 297f bc3d 9be1 403d
000003c0: 17e2 abbd f5e3 b03d 75c1 a1bd 5d6e 703d
000003d0: 0028 4e3e dc31 a4bd 781f 1ebd dc17 283d
000003e0: e673 49be c363 b9bd ad7a 323e 0d00 edbc
000003f0: 5c15 e7bd d39e 123e 88f1 2bbd 5679 0ebe

net.2.bias f4 [64]
0.7959 -0.23036245 -0.23395842 -0.094833195 -0.17937304 -0.129412 -0.14100742 -0.1242815
0.21464708 0.06618869 0.084766895 -0.12265359 0.87419903 -0.028087178 -0.07404698 -0.03700904
-0.30451682 0.7683009 0.060991455 -0.20619841 0.7038787 -0.4334156 -0.13825566 0.16345875
-0.04135387 -0.07813256 -0.08380752 0.0024017268 0.763946 -0.16558449 -0.10535398 0.031391677
-0.034566324 0.87617594 -0.08823077 0.7321667 -0.10767768 -1.2900075 0.8495641 0.08123738
-0.092217274 0.1369426 -0.08709954 -0.9658621 0.78258944 -0.13065149 -0.031461217 -0.11578638
0.8643489 -0.16092211 -0.039824665 0.629196 -0.0061426414 -0.15367915 0.6834282 0.053540222
0.65688074 0.65979594 -0.012322276 0.06575865 -0.56446874 0.022154672 -0.09170997 0.7550078
00000000: 1ac0 4b3f 22e4 6bbe cc92 6fbe e837 c2bd
00000010: 91ad 37be 9484 04be 4064 10be 4d87 febd
00000020: 72cc 5b3e f08d 873d 449a ad3d ce31 fbbd
00000030: 82cb 5f3f 1517 e6bc f1a5 97bd cb96 17bd
00000040: a1e9 9bbe 5eaf 443f 2dd2 793d ad25 53be
00000050: 6531 343f a6e8 ddbe e492 0dbe bb61 273e
00000060: ad62 29bd f703 a0bd 47a3 abbd 4a66 1d3b
00000070: f791 433f fb8e 29be d4c3 d7bd 8f94 003d
00000080: 6b95 0dbd 114d 603f 55b2 b4bd 476f 3b3f
00000090: 1e86 dcbd f71e a5bf 087d 593f c95f a63d
000000a0: 69dc bcbd ae3a 0c3e 3e61 b2bd bd42 77bf
000000b0: c857 483f 81c9 05be 7add 00bd 6921 edbd
000000c0: f845 5d3f c4c8 24be 301f 23bd fd12 213f
000000d0: 3648 c9bb 115e 1dbe 27f5 2e3f fe4c 5b3d
000000e0: 5629 283f 63e8 283f 5fe3 49bc 79ac 863d
000000f0: 0681 10bf b77d b53c 70d2 bbbd 3148 413f

net.4.weight f4 [1, 64]
-0.49685875 -0.14565742 0.8400467 -0.002582294 0.25828025 0.39848962 -0.04065568 0.70503044
1.0605849 0.8129739 0.16328044 1.8127545 -0.5468322 0.8839718 -0.077387355 -0.08022818
-0.09178341 -0.4895434 0.443275 0.574897 -0.54114276 -1.1729486 -0.033630874 0.58403236
-0.062316824 0.16501889 0.25186437 1.0801252 -0.36025977 -0.17181441 0.05395761 0.013177777
0.92183656 -0.6103745 0.8023735 -0.3983888 0.5978117 -0.5334515 -0.5913712 0.84641045
0.9739475 0.7475198 1.1637803 -0.38058826 -0.37178704 1.6764708 0.0499665 1.5510094
-0.619476 0.014720319 1.6006901 -0.47654143 0.026737887 0.73983234 -0.43372875 0.58599365
-1.3843359 -0.35418382 1.5370414 -0.0031990707 -0.20241357 0.14526156 0.82738614 -0.68640053
00000000: 4564 febe 3827 15be 4d0d 573f b43b 29bb
00000010: 4f3d 843e d506 cc3e 9286 26bd e07c 343f
00000020: 3fc1 873f 0f1f 503f fd32 273e 5708 e83f
00000030: 32fd 0bbf fa4b 623f 437d 9ebd ac4e a4bd
00000040: f1f8 bbbd 6fa5 fabe f1f4 e23e 732c 133f
00000050: 5588 0abf 2e23 96bf 87c0 09bd 2583 153f
00000060: ed3f 7fbd b6fa 283e 5ef4 803e 8b41 8a3f
00000070: f873 b8be 1ef0 2fbe a802 5d3d 9ae7 573c
00000080: 7bfd 6b3f 8141 1cbf 5a68 4d3f 9ef9 cbbe
00000090: 300a 193f 4790 08bf 1a64 17bf 5bae 583f
000000a0: a054 793f 755d 3f3f c1f6 943f 77dc c2be
000000b0: df5a bebe 9896 d63f aca9 4c3d 7a87 c63f
000000c0: fb95 1ebf 7e2d 713c 6ae3 cc3f 3dfd f3be
000000d0: 6a09 db3c a765 3d3f b211 debe ae03 163f
000000e0: eb31 b1bf 9557 b5be c6bd c43f 80a7 51bb
000000f0: 8145 4fbe 72bf 143e 94cf 533f f2b7 2fbf

exp_avg f4 [64, 8]
0.0023493029 0.0024411613 -1.370426e-05 0.00988692 0.005786157 0.00016655041 0.003794955 0.0090255
0.0 0.0 0.0 0.0 0.0 0.0 0.0 0.0
-0.0014095793 -0.0014684688 0.00011005293 -0.001177467 -0.0038928573 -3.0343908e-05 -0.0021831829 -0.005756595
2.6051188e-05 2.5891286e-05 1.0155595e-05 0.00067028514 -0.00016777446 8.0110085e-06 7.526863e-06 3.430079e-06
-2.991667e-05 -3.4392186e-05 -1.146297e-05 -0.0006058576 5.6119206e-05 -1.1557041e-05 -1.2401712e-05 -1.30903e-05
0.000117372736 7.6991375e-05 -2.2900052e-05 0.01177165 0.00029224143 0.00016092062 0.0005981095 0.0009227623
-0.0020429008 -0.0021393732 1.1701331e-06 -0.006198408 -0.005004576 -6.6640365e-05 -0.0030202381 -0.0075728945
-0.001031302 -0.0010759392 -5.997594e-06 -0.00030857022 -0.002514111 2.1760254e-05 -0.001346352 -0.0034440074
0.0 0.0 0.0 0.0 0.0 0.0 0.0 0.0
-0.0016624947 -0.0017170962 9.179523e-06 -0.008277196 -0.0040117833 -8.4007814e-05 -0.002527608 -0.006048734
6e-45 6e-45 6e-45 6e-45 6e-45 6e-45 6e-45 6e-45
0.0 0.0 0.0 0.0 0.0 0.0 0.0 0.0
6e-45 6e-45 0.0 6e-45 6e-45 6e-45 6e-45 6e-45
0.0030757717 0.0031239572 -3.2783057e-05 0.010954422 0.007184687 9.14678e-05 0.005016326 0.011846572
0.0 0.0 0.0 0.0 0.0 0.0 0.0 0.0
0.0 0.0 0.0 0.0 0.0 0.0 0.0 0.0
0.0 0.0 0.0 0.0 0.0 0.0 0.0 0.0
-0.0032568902 -0.0034094392 8.288156e-05 -0.0072171963 -0.008029521 -9.506272e-05 -0.00484003 -0.012067925
-0.0023933803 -0.0025184269 5.36582e-05 -0.00580923 -0.005995162 -3.976651e-05 -0.0035570825 -0.009015097
2.4861362e-07 8.43702e-07 4.4130567e-07 -1.3384329e-06 3.880357e-05 7.339427e-07 1.0112374e-06 2.3134294e-06
-0.00010575231 -0.00012688414 -1.26075365e-05 0.004636845 -0.00030390074 0.00010069853 0.00019096756 0.00014203369
0.0012393496 0.0012473965 -7.846354e-05 0.010842188 0.0032056589 0.00027860655 0.0027718744 0.006189045
0.0017476167 0.0017654089 -5.302872e-05 0.013462882 0.0041725403 0.0002364715 0.003329583 0.007573711
-0.0026473904 -0.0027675391 5.3809945e-05 -0.006772106 -0.0065745595 -6.507353e-05 -0.0039874283 -0.010062848
0.0 0.0 0.0 0.0 0.0 0.0 0.0 0.0
-2.4052004e-05 -1.4676373e-05 -3.3635997e-06 -0.004180355 9.022072e-06 -2.5670304e-05 -9.296138e-05 -0.00021990389
3.9195358e-05 5.407685e-05 3.995908e-05 -0.0047417097 0.00012406072 -5.5136155e-05 -0.00018648469 -0.0004005346
-0.002874245 -0.0030153706 5.537278e-06 -0.011032338 -0.007216066 -7.6408636e-05 -0.0043735295 -0.010715117
3.4385052e-13 3.6939012e-13 3.0858383e-13 9.257519e-13 9.864811e-11 3.7030077e-13 9.494891e-15 1.8989782e-14
0.0020225332 0.0020747355 -2.0319383e-05 0.008702213 0.004866147 0.00014699464 0.0035261349 0.008266366
1.8931443e-05 2.7435983e-05 1.7236855e-05 -0.005510156 5.5745903e-07 -3.154178e-05 -6.111964e-05 -0.00018449759
-0.0007231389 -0.0005864611 3.0240944e-05 -0.014396337 -0.0012971796 -0.00018515589 -0.0014972987 -0.0023320678
00000000: c3f6 193b e4fb 1f3b 59eb 65b7 c0fc 213c
00000010: ce99 bd3b 09a4 2e39 c8b4 783b b1df 133c
00000020: 0000 0000 0000 0000 0000 0000 0000 0000
00000030: 0000 0000 0000 0000 0000 0000 0000 0000
00000040: a2c1 b8ba a379 c0ba 38cc e638 3d55 9aba
00000050: 4f1f 7fbb 0c8b feb7 bb13 0fbb d2a1 bcbb
00000060: 8088 da37 1d31 d937 f361 2a37 13b6 2f3a
00000070: 9dec 2fb9 0567 0637 438f fc36 4f30 6636
00000080: 8ff5 fab7 5440 10b8 1551 40b7 6ad2 1eba
00000090: 8a61 6b38 1de5 41b7 f310 50b7 699e 5bb7
000000a0: 0226 f638 6e76 a138 7d19 c0b7 e1dd 403c
000000b0: fb37 9939 cdbc 2839 73ca 1c3a 88e5 713a
000000c0: 30e2 05bb ba34 0cbb 780d 9d35 041c cbbb
000000d0: 6dfd a3bb 46c1 8bb8 30ef 45bb 0b26 f8bb
000000e0: c12c 87ba 8706 8dba f13e c9b6 98c7 a1b9
000000f0: c9c3 24bb ca89 b637 1478 b0ba dbb4 61bb
00000100: 0000 0000 0000 0000 0000 0000 0000 0000
00000110: 0000 0000 0000 0000 0000 0000 0000 0000
00000120: 11e8 d9ba 3010 e1ba c001 1a37 149d 07bc
00000130: 4775 83bb 5a2d b0b8 3aa6 25bb 7534 c6bb
00000140: 0400 0000 0400 0000 0400 0000 0400 0000
00000150: 0400 0000 0400 0000 0400 0000 0400 0000
00000160: 0000 0000 0000 0000 0000 0000 0000 0000
00000170: 0000 0000 0000 0000 0000 0000 0000 0000
00000180: 0400 0000 0400 0000 0000 0000 0400 0000
00000190: 0400 0000 0400 0000 0400 0000 0400 0000
000001a0: e392 493b 4ebb 4c3b 8a80 09b8 2d7a 333c
000001b0: 866d eb3b 67d2 bf38 fe5f a43b 2018 423c
000001c0: 0000 0000 0000 0000 0000 0000 0000 0000
000001d0: 0000 0000 0000 0000 0000 0000 0000 0000
000001e0: 0000 0000 0000 0000 0000 0000 0000 0000
000001f0: 0000 0000 0000 0000 0000 0000 0000 0000
00000200: 0000 0000 0000 0000 0000 0000 0000 0000
00000210: 0000 0000 0000 0000 0000 0000 0000 0000
00000220: 8d71 55bb e670 5fbb b3d0 ad38 3b7e ecbb
00000230: 418e 03bc 695c c7b8 1d99 9ebb 8cb8 45bc
00000240: 42da 1cbb 310c 25bb 0e0f 6138 5a5b bebb
00000250: 1073 c4bb f7ca 26b8 f11d 69bb 0fb4 13bc
00000260: 3279 8534 c37a 6235 97ec ec34 34a4 b3b5
00000270: 04c1 2238 2904 4535 dab9 8735 6a40 1b36
00000280: 57c7 ddb8 340c 05b9 f584 53b7 adf0 973b
00000290: de54 9fb9 1d2e d338 773e 4839 e1ee 1439
000002a0: ac71 a23a ae7f a33a cb8c a4b8 6fa3 313c
000002b0: 0816 523b f011 9239 56a8 353b 79cd ca3b
000002c0: 4910 e53a 4b65 e73a 286b 5eb8 6b93 5c3c
000002d0: ceb9 883b 56f5 7739 2235 5a3b e52c f83b
000002e0: d77f 2dbb 9a5f 35bb fdb1 6138 8be8 ddbb
000002f0: 676f d7bb 1678 88b8 f9a8 82bb a5de 24bc
00000300: 0000 0000 0000 0000 0000 0000 0000 0000
00000310: 0000 0000 0000 0000 0000 0000 0000 0000
00000320: 49c3 c9b7 8b3a 76b7 34ba 61b6 5cfb 88bb
00000330: 815d 1737 8f56 d7b7 43f4 c2b8 0096 66b9
00000340: b265 2438 93d0 6238 bc99 2738 5860 9bbb
00000350: 4c16 0239 ff41 67b8 1a8b 43b9 d8fe d1b9
00000360: d45d 3cbb 869d 45bb dbcc b936 fbc0 34bc
00000370: c074 ecbb 933d a0b8 d34f 8fbb 758e 2fbc
00000380: 1592 c12a baf2 cf2a 9eb7 ad2a ba49 822b
00000390: f3ed d82e f775 d02a 750b 2b28 750b ab28
000003a0: 7a8c 043b 49f8 073b 8b73 aab7 ba93 0e3c
000003b0: 3374 9f3b 9322 1a39 ba16 673b a76f 073c
000003c0: f7ce 9e37 5326 e637 dd97 9037 8a8e b4bb
000003d0: 4ba4 1535 ba4b 04b8 5b2d 80b8 b275 41b9
000003e0: 0891 3dba bdbc 19ba efad fd37 9dde 6bbc
000003f0: 2006 aaba 6826 42b9 0241 c4ba 9bd5 18bb
