ppo_model_final.pt (torch, 132483 bytes, 33 tensors)

net.0.weight f4 [64, 8]
00000000: 0740 2ebe 056e b8be a5d2 033e 3452 d43d
00000010: 4bb9 963e 3802 6dbd efc3 bfbd 0fbb 823e
00000020: db28 b03e 1042 cabd 20ff b1bd e702 1cbe
00000030: c8e8 92be 83c1 40be 5d66 963e 363d 39be
00000040: bf5e 323f 26b0 163f ae0b f03e ce19 58bc
00000050: 5468 d2bb 235e 203e 074c 2c3e 35b6 58be
00000060: 6046 e03e d4ed 093f baae db3d 2c22 6b3a
00000070: 378c df3c b78c c7be 339a 02bf a5fe 80be
00000080: 099a 69be a94c 2f3d 67f7 84be a578 44bd
00000090: 7335 a43e 5350 413e b0ee 52be 18a6 83be
000000a0: 8a95 31be 749a 5b3d 0667 43bf 0c43 453d
000000b0: f29f 083e b902 803e 89b2 93bd 2fe0 c33e
000000c0: 2f79 193c cf53 9e3e ee9f 94be 9b1c 5cbd
000000d0: d350 95bd c78f 9abe ba98 ae3e 35fa ae3e
000000e0: ce95 143e 3249 823e 7230 0dbe e00e 193e
000000f0: 7182 8fbe 777c e5be de01 c13e e496 2c3e
00000100: c05e 1bbd fb27 68be f67f 713e e1a8 96be
00000110: a863 0fbe 20d3 4cbc 13d6 8a3e 7003 5bbd
00000120: 8508 553e de9b 383e a112 3d3f 24b9 4a3d
00000130: a864 043e 43c4 32bd 9461 85be 8914 26be
00000140: 8aef b6bc 5beb 213e f9ae d7bd 9256 22bd
00000150: 6851 c5bd 95bf 43be b5b5 a4be 9461 fc3d
00000160: c0f3 53be 3997 a3be f171 8f3e 08f1 93be
00000170: 7e21 adbe 1428 85bd c176 833e 02f7 81be
00000180: abf3 b33d 3d26 213e e6f1 f0bd 67a6 9fbe
00000190: 88d3 9fbe 8d5b 48be b583 49be 3b26 4e3e
000001a0: 3388 f4be 2326 3abe 89eb 793e 108a 6f3e
000001b0: 2d9d 743e 4e8b 9f3e b03c 21be d4be 803d
000001c0: 2706 8abe f010 afbd 085c 2fbd a8f7 aabd
000001d0: d614 dfbd 1aff 1d3e 75eb af3e cb00 51be
000001e0: 94fc 953d 3cc6 acbd b23b 623e c81e 15bd
000001f0: 734d 0fbe 8201 203e a08f f9bc f430 99bd
00000200: 5f48 95be 8461 adbe dcdc 8fbe 7eca 4fbe
00000210: d1cc 86be d1ed 9abe de84 91be cc3d 923d
00000220: 1d4d db3e 1f04 a33e aed3 fc3e 6050 42be
00000230: af25 60bd b5fc 3abc df84 3a3e 82ec c83e
00000240: 69ab a23e 82a3 aabd 9475 0e3e e15f 23be
00000250: 97aa 3d3e 5e68 a4be 3a94 803e 3a61 9a3e
00000260: 19f7 33be 0856 79be 3689 70bc bc4d 50be
00000270: 7055 713e d870 61be 4263 56be 317b 6a3d
00000280: 9afb a9bb 5589 88bb f743 85bd 8aae c13d
00000290: 2185 94bd 8cc2 47be a471 213e e449 d83e
000002a0: 3971 bbbe 4b72 b9be bfc2 4fbe 4225 293e
000002b0: 7d67 8d3d de43 ac3d a98f 953e 2810 f63a
000002c0: 5881 d7be 42ea f2be 7f08 16bf fff1 8d3e
000002d0: a741 19be 47e5 bb3e 2c9e 723e 9ae4 053e
000002e0: ef3b 863c a5e6 d53e a563 43be 14df 28be
000002f0: d0df a03d 1958 e1be f658 b63d 4150 a33e
00000300: 919e ab3e d20b 97be 0d53 953e 968a 8fbe
00000310: cc15 8cbe 89fd 813e d8bb 1f3d 5db5 4ebe
00000320: 65a2 023e fd5d 943e dfcd 193f 345f 833d
00000330: f9c6 0fbe 2616 65be f700 b0be 0d4f 89be
00000340: 69e8 963e 8384 883d 2c25 173f 66d4 2e3e
00000350: 129f 38bd cead 94bc b97f a2be 425d d5be
00000360: addb 433f f052 2f3f 46fe 5a3f 7ae7 94bc
00000370: 3f1f 373e 0605 8abd bffe 2fbc a7e3 3abe
00000380: 2a7e 7dbe a645 2bbe 0608 0c3e 721b 6dbe
00000390: cbca 8bbb 368f 0fbc 69b5 31be 8717 3a3d
000003a0: e62e 88bd 2885 1ebf a1b7 57be a013 893e
000003b0: 4282 2bbe 3ce5 17be a47e 36be 69ec 0c3e
000003c0: ca30 9e3e dcde e33c c956 113e 4ee9 c33d
000003d0: e2f6 533e ce34 87bd 1d11 c0be c66e 03bf
000003e0: 0fa3 ed3b 5abc 0f3e d1db 523f 2816 823e
000003f0: 4170 983c 299f cb3e af58 b9be 8f0f d4be
-0.17016612 -0.36021438 0.12873323 0.103672415 0.29438242 -0.057863444 -0.09363543 0.2553334
0.3440617 -0.09875882 -0.08691239 -0.15235482 -0.28693223 -0.18823819 0.29374972 -0.18089756
0.6967582 0.5886253 0.4688391 -0.013189746 -0.0064211283 0.1566091 0.16825877 -0.21163256
0.43803692 0.5387852 0.10726686 0.00089696306 0.02728854 -0.38974544 -0.5101654 -0.25194278
-0.22812666 0.04279772 -0.25970003 -0.047966618 0.3207203 0.18878298 -0.20598865 -0.25712657
-0.17342201 0.053614095 -0.76329076 0.048159644 0.13342264 0.25002077 -0.07211787 0.38256976
0.009367271 0.30923316 -0.29028267 -0.053738218 -0.072908066 -0.30187818 0.34100896 0.34175268
0.14510271 0.2544647 -0.13788012 0.1494708 -0.28029206 -0.44821522 0.37696737 0.16854435
-0.037932158 -0.22671501 0.2358397 -0.2942572 -0.1400286 -0.012501508 0.2711645 -0.053470075
0.20804031 0.18028209 0.7385655 0.04949297 0.12929022 -0.0436442 -0.2605101 -0.16218771
-0.022331018 0.15812437 -0.1053142 -0.03963334 -0.09634668 -0.19116051 -0.3216988 0.12323299
-0.20698452 -0.3195131 0.28016618 -0.2889483 -0.33814615 -0.06501785 0.2567654 -0.25383765
0.0878671 0.15737243 -0.117648885 -0.31181642 -0.31216073 -0.19566174 -0.19679148 0.20131771
-0.47760162 -0.1817861 0.24406256 0.2339251 0.23888083 0.3116097 -0.15745807 0.062863976
-0.2695782 -0.085481524 -0.042812377 -0.08348018 -0.10892646 0.15429345 0.34359327 -0.20410459
0.07323566 -0.08436248 0.22093084 -0.03640631 -0.13994388 0.15625575 -0.030463994 -0.0748004
-0.29156777 -0.3386346 -0.2809819 -0.20292088 -0.26328138 -0.30259565 -0.28421682 0.07140693
0.4283227 0.31839082 0.4938025 -0.18975973 -0.054723438 -0.011412789 0.18214749 0.3924294
0.317714 -0.08331968 0.1391204 -0.15954544 0.18522106 -0.32110876 0.25113088 0.30152303
-0.17574729 -0.24349225 -0.014681151 -0.20342153 0.23567748 -0.22015703 -0.20936301 0.05724639
-0.005187464 -0.004166762 -0.06507104 0.09457119 -0.07251955 -0.19507807 0.15766007 0.42243874
-0.3660982 -0.3622001 -0.20289133 0.16518119 0.069045044 0.08411382 0.29211167 0.0018773125
-0.4209087 -0.4744435 -0.58606714 0.2772369 -0.1496645 0.36698362 0.2369315 0.13075486
0.016386 0.4177753 -0.1908098 -0.16491348 0.07855189 -0.44012526 0.08903687 0.31897166
0.33519414 -0.29501206 0.29164925 -0.2803542 -0.2736038 0.25388744 0.0389975 -0.20186372
0.12757261 0.28977957 0.6007976 0.06414643 -0.14040746 -0.2237173 -0.34375736 -0.26818123
0.2947419 0.066658996 0.59041095 0.17073211 -0.045073576 -0.018149283 -0.3173807 -0.41672713
0.76507074 0.6848593 0.8554424 -0.018176783 0.17883013 -0.067392394 -0.010741889 -0.18250905
-0.24755159 -0.16725788 0.13674936 -0.23155001 -0.004266118 -0.0087621715 -0.17354359 0.045432594
-0.0664957 -0.6192193 -0.21066143 0.26772785 -0.16748908 -0.1483354 -0.17821747 0.13762058
0.30896598 0.027816229 0.14193262 0.09565984 0.20699647 -0.066018686 -0.37513056 -0.513409
0.007252104 0.14036694 0.82366663 0.2540753 0.018608214 0.39769867 -0.36200473 -0.4141812

net.0.bias f4 [64]
00000000: 0ebe acbe 4891 1ebd 6936 5cbd d283 85bc
00000010: cdbf 22be 3301 53be f0c1 d43e 2d75 133e
00000020: 6fec 77be 22fd c83e ccdd 77bd 54c7 63be
00000030: 3c38 49be 6814 a6be 20b1 0ebd 409f fc3b
00000040: a854 8b3d 9674 0f3e a55b 303e 8ecb 3c3e
00000050: 15bb a5be 9592 02be 6e26 023b f2d0 e13e
00000060: 909b 613d 04b1 13bd 270c 5bbe b0cf ca3e
00000070: b361 863e e487 b2bd 2098 0ebd 43e3 36bd
00000080: aff1 a63e 97bf c43c bcd9 203e eff1 61be
00000090: 0f71 4cbd 1912 1a3d 3119 ee3e 4749 96be
000000a0: d4b8 e2be 7066 18be 43a1 05be 50ab 153e
000000b0: ef42 993e eb17 5dbe 1c61 153e a972 95be
000000c0: 7199 953d d7b4 c3bd 2be0 2cbe 3feb 77be
000000d0: a5cf 243e ced5 c7bd 4176 cfbe 2fa3 a53e
000000e0: 04ca ecbd 95db 29be 08d3 94be cf6a a8be
000000f0: 7045 5c3e 41dd 913e fb71 2c3d 061c 213e
-0.3373875 -0.03871277 -0.053762827 -0.016298208 -0.15893479 -0.20605926 0.41554213 0.14400168
-0.24211286 0.39255625 -0.060514256 -0.22244006 -0.19650358 -0.32437444 -0.03483689 0.0077094138
0.06803256 0.14009318 0.1722246 0.18437025 -0.32369295 -0.12751229 0.0019859332 0.44104725
0.055079997 -0.036057487 -0.21391355 0.39611578 0.26246414 -0.08717325 -0.034813046 -0.044650327
0.32606265 0.024017138 0.15708059 -0.22064947 -0.04991251 0.037614916 0.46503595 -0.2935278
-0.44281638 -0.14882827 -0.13049798 0.14616132 0.2993388 -0.21591155 0.14587826 -0.2918904
0.07304657 -0.09555977 -0.16882388 -0.24210833 0.16094835 -0.09757577 -0.40519908 0.32351062
-0.11561969 -0.1658767 -0.29067254 -0.32893988 0.21510863 0.28489116 0.042100888 0.15733346

net.2.weight f4 [64, 64]
00000000: b7ee c4bd a039 7e3c f339 ac3a bcad eebd
00000010: cabc 443c 6317 403d 15bf 80bc 8167 7abd
00000020: 7cb2 d5bd bb2b 1ebe f50a 2f3e d084 633c
00000030: 445b efbd d0b0 26be a4b1 183d d2a2 fa3d
00000040: c0bc b2bc 33e2 4f3d 2915 9ebd 20a8 7bbd
00000050: e596 3b3c be5a 353d 70aa dcbd d01a 9d3d
00000060: f8c2 b0bc 978c 4ebe 5c51 f0bb 3327 e4bd
00000070: 7e79 623c d78a 02bc 2f66 6a3d 3454 b5bd
00000080: 0a51 b0bd f293 813c 4695 0cbe 0ba6 a9bd
00000090: fa16 c5bc 2773 913c 2d30 c43c 30c0 653d
000000a0: 4c00 35be c12b 823c a0c1 afbd f8a0 333c
000000b0: b2e1 b3bc d27f 85bd 2494 723d 519f ebbd
000000c0: dcda 433d 2218 06be 8c33 fdbd d001 803c
000000d0: c8af d0bc c524 9cbc 4fa3 83bd 3e45 c0bc
000000e0: 46b0 26be d744 f6bc 135d f9bb c584 183d
000000f0: 2f88 9fbd 3466 673d 02e1 e13d 1030 c9bb
00000100: 6204 83bd d460 a3bd cb94 bdbd e8a6 c13c
00000110: a76f 493d 72e4 edbd 681c d1bd 36c0 e8bd
00000120: 7047 84bd d406 0cbe a2d8 2f3c aa1d d13d
00000130: dc31 c63d 64bd 4dbb d0de a83c b851 a63d
00000140: 168d aa3d 1e39 b73d 1f54 02be 0455 0f3d
00000150: d94c c8bc bf95 df3d c981 e4bd 613a dbbc
00000160: 3e35 99bd 7750 94ba 0e10 c3bc b7f7 313d
00000170: 5e7c b8bc 49a7 cfbd 3826 8bba 496c a53d
00000180: 9024 e5bd 274b a1bd bae5 d43d eac6 2abd
00000190: 3125 f1bb 4ccd 293d 1606 ecbd e21e c6bd
000001a0: 1c11 383c e167 30bd 71be debc f599 7cbd
000001b0: 6381 4abc 02c5 dd3d 8894 2dbd 30d2 773d
000001c0: d807 2abd 829d cf3d 3cdf c53d 1561 a1bd
000001d0: 4247 a63c a3d7 0bbe 7778 febb f5cc a93d
000001e0: 5603 1ebd 1371 c7bd 29e8 063d cf73 b03d
000001f0: 5748 82bd 0022 e2bd 0f3c 753d dd5c 59bd
00000200: 747d 23be 5c7a 29bd ff91 233c b196 39bd
00000210: 2b20 9abd ad3a 94bd 55ee c33d a5a1 3fbd
00000220: 98a6 28bd 337a adbc 06e8 17be 985d a83c
00000230: ee4b b8bd 4de0 ecbc 7c8b 5abd 54c8 413d
00000240: 30bd b1bc 06b2 69bd 4d23 523d 1037 383d
00000250: 3a85 adbb d7db e0bd a879 7fbd 5c46 a5bd
00000260: 7a00 d9bd 0f2f 35be b678 ef3c 2d5e 99bd
00000270: 6817 283d 735a 083d ca06 1f3c e9f0 26be
00000280: f0f3 8bbc 7043 033c ddb2 1ebd 67d3 c03d
00000290: cfab 0d3d a346 b83d 8805 d03d 9612 c03d
000002a0: 2f65 2bbd 32a4 8cbc d88f d93c a611 bf3a
000002b0: f706 a63d 720e f8bd d068 c6bc 4c7c 97bd
000002c0: ca91 67bd 59ae 57bd 800f a63b 6e3e 14bc
000002d0: 56c6 8bbd 05d2 bcbc 390d 123d 1cc1 11be
000002e0: d085 773d ce67 b2ba 2c13 e5bc 3da9 643c
000002f0: f421 c1bd c2a0 6bbd 3ffa b6bc 03c7 12bc
00000300: bb48 d6bd 0a01 dcbd 046d 593e 43a6 563e
00000310: 14b8 85be 4e0b febd 9a6e d4be a728 dcbd
00000320: 0e31 bc3d f8d6 f63b 4b9c 0d3e c49e 5f3d
00000330: 8af9 f13d ebf7 a7bc 8a5f f83d f048 d2bd
00000340: e8bd ea3d cc93 3a3d be5b 663d 8f9d 00be
00000350: 22f7 c7bd 511c 0bbe 49b8 babd 727f 983d
00000360: d479 2b3d 5931 d53d 18db b23d 8fd9 3c3e
00000370: 2b98 c93d c059 2fbe d8a9 87bc 8d66 b93d
00000380: c8d0 2bbd e312 043d e2e7 0bbe 7ee2 15bd
00000390: ec02 e03e b02d 60bc ae5a 5fbe c094 d23c
000003a0: dd38 88bb f455 8c3e 3272 223e 6add 61bc
000003b0: a406 6bbe a893 b1bd 507b 2ebc d0e5 af3c
000003c0: b0fe 393c b9ba c43d 30aa acbd acef 76bd
000003d0: 88a7 153e 6eeb aabe f7c6 debd 3a47 723c
000003e0: 1c71 8f3d 09cc f03d a07a 61be d23d 7e3d
000003f0: c3b0 fcbd 824c 45be 8e02 3fbe 1e0a 823d
-0.09615844 0.015516669 0.0013139829 -0.11654231 0.012007901 0.046897303 -0.015716115 -0.061133865
-0.10434434 -0.1544637 0.17094024 0.013886645 -0.116873294 -0.16278386 0.037278786 0.12238087
-0.021818519 0.05075283 -0.0771888 -0.061439633 0.01144955 0.04427599 -0.10774696 0.0767113
-0.021577343 -0.20170818 -0.0073339175 -0.11140289 0.013822911 -0.007967672 0.057226356 -0.08853951
-0.08609207 0.015817616 -0.13728818 -0.08283623 -0.024058808 0.017755104 0.023948753 0.056091487
-0.17675894 0.015890004 -0.08581853 0.010963671 -0.021958206 -0.065185204 0.05922331 -0.115049966
0.047816142 -0.13095143 -0.123633474 0.015625864 -0.025474444 -0.019060502 -0.06427633 -0.023470517
-0.1627818 -0.030062122 -0.0076099723 0.037235994 -0.07789647 0.056493953 0.11029245 -0.0061397627
-0.0639732 -0.07977453 -0.09256896 0.023639157 0.049178746 -0.11615838 -0.10210496 -0.11364786
-0.06458938 -0.1367448 0.010732802 0.10210736 0.09677479 -0.0031393403 0.020614058 0.08121055
0.08327691 0.08946441 -0.12727402 0.034993187 -0.024450706 0.10917234 -0.11157567 -0.026761236
-0.07480858 -0.0011315484 -0.023811366 0.04344913 -0.02252024 -0.10139329 -0.0010616248 0.080772944
-0.11188614 -0.07875662 0.10395379 -0.041693605 -0.00735917 0.041455552 -0.11524598 -0.09673859
0.011234548 -0.043067817 -0.027190419 -0.061670262 -0.01235995 0.10828592 -0.04237798 0.060503185
-0.041511387 0.10137464 0.09661719 -0.07879845 0.02029765 -0.13656478 -0.0077658254 0.082910456
-0.0385774 -0.09738364 0.03293625 0.08615839 -0.06361454 -0.11041641 0.05987173 -0.053067077
-0.15965825 -0.041376457 0.009983539 -0.045309726 -0.07525667 -0.07237754 0.095669426 -0.046785016
-0.0411745 -0.021176433 -0.14834604 0.020552441 -0.089988574 -0.028915549 -0.05335568 0.04731019
-0.021696657 -0.057054542 0.051303197 0.044974387 -0.005295423 -0.10979431 -0.06237188 -0.080700606
-0.10595794 -0.17693733 0.029232364 -0.07488666 0.041037947 0.033289384 0.0097062085 -0.16302837
-0.017084092 0.008011684 -0.038744796 0.09415322 0.034587678 0.08997848 0.10157305 0.09378545
-0.041844543 -0.017168138 0.026557848 0.0014577403 0.08106797 -0.1211213 -0.0242199 -0.073967546
-0.05653552 -0.052656505 0.0050677657 -0.0090480875 -0.06824939 -0.023049364 0.03565714 -0.14233822
0.060430348 -0.0013611258 -0.027963243 0.013956365 -0.09430304 -0.057526357 -0.022336124 -0.008958581
-0.10463091 -0.10742386 0.21232992 0.20961861 -0.26117003 -0.124045 -0.41490632 -0.10749941
0.09189044 0.0075329505 0.13829152 0.05459477 0.11815174 -0.020503959 0.12127598 -0.10267818
0.11462003 0.045551106 0.056239836 -0.12560104 -0.09763934 -0.1358502 -0.09117181 0.07446183
0.04186423 0.10409803 0.08733195 0.18442367 0.09843477 -0.1712408 -0.01656048 0.09052763
-0.041947156 0.032244574 -0.13662675 -0.036592953 0.4375223 -0.013682768 -0.21811935 0.025705695
-0.0041571693 0.27409327 0.15863875 -0.013785699 -0.22951752 -0.08670741 -0.010649517 0.021471888
0.011352226 0.09605927 -0.08430898 -0.060287163 0.1461469 -0.33382744 -0.10877793 0.01478749
0.07003996 0.117576666 -0.22019434 0.062070675 -0.12338402 -0.19267467 -0.18653318 0.06349586

net.2.bias f4 [64]
00000000: 73ad 63bd 2d36 15be 5707 8b3d ab8f e5bd
00000010: 0e85 e2bd 24b2 0a3e 767a 84bd ef44 e1bc
00000020: 5c80 2abd 1b2c d8bd 50bf e0bd 3bc9 0abe
00000030: bb66 233d 0a09 8d3d de6e 33bd 759b 9e3d
00000040: 7af3 f6bc 6874 bdbd 8e5c 993d 144a 4c3e
00000050: 18c8 3ebc a4b1 0bbe 4dff 0ebd 1316 2cbe
00000060: df06 393d e426 80bd 0471 423d ff32 913d
00000070: 0098 6d3e 55a9 8ebd 0b62 8d3d 61f7 8e3e
00000080: 5fa3 e33c 123c 733d e4f0 313d 9a5c e7bd
00000090: c9f0 1fbe 4aa6 3bbd c5d6 dabd 5d9f 7a3b
000000a0: 8ca3 e2bc fba5 bd3d 347b bcbd efa1 843d
000000b0: c042 b1bc ca90 afbd 31f0 dabd 8ced 9fbc
000000c0: 16eb 6c3e 6cd9 993d 7f1f b43d 3ce7 3ebd
000000d0: 6f34 7a3d a9b0 6f3e 0b6c 97bd b7c2 b23d
000000e0: 0643 223d 25be b53b dd50 b53d 7a1f 203d
000000f0: 19a8 03bc 2042 27be e14c b03d 04be 9bbb
-0.055585336 -0.14571448 0.06788509 -0.11209043 -0.110605344 0.13544518 -0.0646867 -0.02749869
-0.04162632 -0.105552875 -0.1097399 -0.13553326 0.039892893 0.0688649 -0.043806903 0.07744495
-0.030145396 -0.09250718 0.074883565 0.19950134 -0.011644386 -0.13641983 -0.034911443 -0.16805296
0.04517257 -0.06257418 0.04747106 0.07089805 0.23202515 -0.06965891 0.06903466 0.2792311
0.027787862 0.05938346 0.04344262 -0.11296959 -0.15619196 -0.045812882 -0.10685495 0.003824196
-0.027665876 0.09260174 -0.09203187 0.06476199 -0.021638274 -0.08572538 -0.10690344 -0.01952245
0.23136553 0.07512173 0.0879507 -0.04660724 0.06108516 0.23407234 -0.073936544 0.08728545
0.0396147 0.0055463486 0.08853314 0.03909252 -0.008035683 -0.16333818 0.086084135 -0.0047528762

net.4.weight f4 [4, 64]
00000000: 42de 48bd eb1b 3c3d 5433 95ba f460 18be
00000010: c3a0 5a3c a6d8 923d eb31 f7bd 79fb 07bd
00000020: 8215 c5ba 4d08 913c 716f 9d3c 98a9 84bd
00000030: bac3 0fbd 54f4 973d 9bcf 0dbc df8f fa3c
00000040: e70e 533d e5ed 3f3d b04f 813c 176f 1f3e
00000050: 5e7d 37be c141 3dbe 4fb0 8eba 8235 81bd
00000060: c59e 99bc 9ff8 fe39 08e6 a3bc d310 463d
00000070: fa82 1c3e cf33 4f3d 75ba 4ab9 4d82 4c3d
00000080: 7070 5f3c e13f 8abc 94f5 9a3a 94f2 9abc
00000090: 9c8d 02bd 266f cbbd 36cb 063c 7167 53be
000000a0: b943 37bd bf4e adbb 367b fd3a 8a18 3ebb
000000b0: d0c3 633a 6397 643b 68f7 423d f3e4 dcbc
000000c0: 2e88 1d3e 29bb 98bc f1df cbbb dd1b 603d
000000d0: 0b4b a03c 232a 063e 6823 c2bc 8e73 35be
000000e0: d40c 643d 0f79 fb3c c8e1 073d 7fa3 e83b
000000f0: 7098 7b3d 4d5e 143d 1518 873d f97d da3a
00000100: 5e63 ed3c 9db7 8e3c 90c2 88bb bacb 19be
00000110: 6ba7 e83c 97c0 dc3c 64d4 85be 5e1b f3bb
00000120: 20e9 f63a ce51 913c b686 15bc 8f3b e03c
00000130: 394e 7dbc b1b7 143d f661 d93b edf7 733d
00000140: 4d43 9bbd 5b20 0d3d 0b1a b33b 1662 393e
00000150: 6ede 75be 2db6 4cbe 45a2 87bb 664b 423c
00000160: 9a24 403e 536f 6f3c 4802 febd da0b 0ebb
00000170: 19b0 723e 73c6 0f3d 611d 53bb 511f 5f3e
00000180: ca27 2bbb be4a ca3c 80c4 233b 3274 8ebc
00000190: 89a9 8fbc f21d 59be 0431 b83c 85d2 56be
000001a0: ac6b a53c 9a6b 693d 311b eaba a205 803c
000001b0: f781 f5ba cd96 023d 20de f83c 35c7 c53b
000001c0: 39dc 673e ed94 aa3c 7c04 a53b 5225 c73c
000001d0: 2790 7cbc d632 243e 2ad8 803d 920d 29be
000001e0: f352 0b3e 47e2 35bd 9167 40be 5548 a83d
000001f0: 6bd0 553d ea06 883c c9f6 ea3b 4c86 4fbb
00000200: d8af 9a3d 340b d83c 1550 ef3a 7a32 043e
00000210: 6a56 c13b 1be3 47bd 5949 043e 523a a73b
00000220: a09a d138 fd21 abba 86aa bd3b 7f8e 903b
00000230: 0cbb 553c 293e 2fbc 317d 6e3b f895 a3bc
00000240: 7d01 cc3c 5f9e 7e39 3481 1fbb 9e21 61bd
00000250: 662c 1f3e 6667 123e e6e6 263b d13a ae3d
00000260: 0968 1fbe 5d84 263c 2b66 633d 041a abbc
00000270: 454e 9fbe 9141 90bc c763 bb3b 28a5 acbd
00000280: 2e44 cb3c 13ab 8dbc a407 813a c490 973c
00000290: fa6a 25bc 4979 d63d 1f46 56bc b028 db3d
000002a0: 6122 033c 0d90 913d b1df 913a 7d48 303c
000002b0: 201e cc3a 0474 423c 3070 aa3c b05d 883d
000002c0: cfda 39be a3e1 b53c c741 dbbc 8164 aabc
000002d0: 1892 7d3c cc9d cfbd 7f1f 363d 8f92 883d
000002e0: d4ec 39bb 8220 053c 7547 4c3d ebda 4b3d
000002f0: 9015 10bd fe66 c63c 4266 b3bc 37fd cebb
00000300: 9151 463d 83cc a23c 2f06 303c 6d96 0e3e
00000310: a230 fe38 c093 08bd fa69 173e 99f7 743d
00000320: 700a c7b9 d659 abba 232c ef3c ab85 673a
00000330: ef2a 33bc e046 f8bc fea6 74bc d647 fb3c
00000340: 6026 533d 0a5a 5dbd d16f 1dba 194e cbbd
00000350: f274 3d3e d86d 063e 9d70 01bc 505a ab3d
00000360: f36b 32be 499f 08bc f518 383e 8691 e03b
00000370: 2a49 a5be b539 84bc 13e7 0a3b 012c 48be
00000380: 9bd9 26bd 7982 a03b 7de2 31bb 50ad cabc
00000390: c911 c13c 50fc 0f3e bfcc 1b3b dde1 2d3e
000003a0: fe70 633b 66c8 ca3d 710d ceb8 9538 623c
000003b0: d286 edba cfe7 ee3c 82b0 53bc c14f 343c
000003c0: 63df 92be da84 e63c 1474 c13c 2add b4bc
000003d0: bfd3 9e3c 025d 73be b0d0 a4bc 8592 db3d
000003e0: 0c16 82bb 8051 843d b017 f33d f68e cab9
000003f0: 1635 1ebd 2571 3cbc d891 25bc 2104 ef3b
-0.049040087 0.045925062 -0.0011383095 -0.14880735 0.013343993 0.07170229 -0.12070068 -0.033198807
-0.0015036317 0.017704153 0.019218178 -0.0647766 -0.03509877 0.07419649 -0.008655454 0.030586181
0.051527884 0.046857733 0.015785068 0.15569721 -0.17918918 -0.18482114 -0.0010886284 -0.06309034
-0.018752465 0.00048631892 -0.020007148 0.04835589 0.15284339 0.050586518 -0.00019333682 0.049928952
0.013637647 -0.016876163 0.0011822456 -0.018914498 -0.03187333 -0.09933309 0.00822716 -0.20644929
-0.04474232 -0.0052889283 0.0019339088 -0.0029006326 0.0008688541 0.0034880273 0.047599226 -0.02696464
0.1538398 -0.018643932 -0.0062217643 0.054714072 0.019567033 0.13102011 -0.023698524 -0.17719862
0.055676296 0.030697374 0.033174306 0.0070995684 0.061424673 0.036222745 0.0659639 0.0016669623
0.028978046 0.017421538 -0.0041735843 -0.15019122 0.028400144 0.026947303 -0.26138604 -0.007419034
0.0018837787 0.017739203 -0.009126356 0.02737215 -0.015460544 0.036307994 0.0066339923 0.059562612
-0.07581196 0.034454685 0.005465751 0.18103823 -0.24010631 -0.1999137 -0.004139217 0.011858797
0.18763962 0.014613944 -0.12402779 -0.0021674545 0.23699988 0.035101365 -0.0032213556 0.2178929
-0.0026116245 0.024693843 0.002498895 -0.01738939 -0.017536895 -0.2120283 0.02248431 -0.20978744
0.020192944 0.056987382 -0.0017860887 0.015627686 -0.0018730749 0.031882096 0.030379355 0.00603571
0.22642602 0.020822966 0.005035935 0.024309788 -0.015415228 0.16035017 0.0629123 -0.16509083
0.13605861 -0.044405248 -0.18789507 0.08216921 0.052200716 0.01660486 0.0071705324 -0.003166574
0.07553071 0.02637253 0.0018258119 0.1290988 0.005900194 -0.04880057 0.12918605 0.005103388
9.994698e-05 -0.0013056394 0.0057881502 0.004411518 0.013045084 -0.0106959725 0.0036390538 -0.019968972
0.024903053 0.00024282325 -0.0024338486 -0.0549637 0.1554428 0.14297256 0.0025467216 0.08507312
-0.1556703 0.010163394 0.055517357 -0.020886429 -0.31114402 -0.01760939 0.0057186815 -0.084299386
0.024812784 -0.017293489 0.0009844196 0.018501647 -0.010096306 0.10472352 -0.013078242 0.1070112
0.008003802 0.07107554 0.0011129287 0.01075947 0.0015572943 0.011868481 0.020805448 0.066584945
-0.18149875 0.022202319 -0.026764764 -0.020799877 0.015476726 -0.10137519 0.04446363 0.06668579
-0.002836992 0.008125426 0.049872834 0.049769323 -0.035176814 0.024219032 -0.021899346 -0.0063168067
0.04841763 0.01987291 0.010743662 0.1392457 0.000121207224 -0.03334403 0.1478652 0.05980644
-0.00037964014 -0.0013073038 0.02919585 0.0008831869 -0.010935529 -0.030307233 -0.014932392 0.030673902
0.05155027 -0.054040946 -0.00060057366 -0.09927005 0.18501642 0.1312784 -0.007900384 0.08366835
-0.17423992 -0.008338758 0.1797827 0.0068532852 -0.32282382 -0.016140798 0.002119486 -0.19548036
-0.04073487 0.004898366 -0.0027143054 -0.024740845 0.023568051 0.14061093 0.0023773161 0.16980691
0.00347048 0.09901504 -9.825349e-05 0.0138074355 -0.0018121845 0.02916327 -0.012920501 0.011005343
-0.28686056 0.02813952 0.02361492 -0.022078115 0.019388078 -0.23765948 -0.020119041 0.10721306
-0.0039699133 0.064608574 0.118697524 -0.00038634957 -0.038624845 -0.011501585 -0.010105573 0.0072941934

net.4.bias f4 [4]
00000000: e052 6b3e f4ec 783d 43b4 86bd 0115 3dbe
0.22980833 0.06077285 -0.06577351 -0.18465044

net.0.weight f4 [64, 8]
00000000: 4f88 77bd 9918 ac3e c67d 9ebe 8374 8bbe
00000010: e305 bfbe 1cc7 31be 97fc 19be b541 9d3d
00000020: 6c66 6d3f 6d50 bd3f f216 553f 6bed 7bbe
00000030: c29b 0d3d abdd a33f 1eb8 94be 5281 81bd
00000040: 5bb1 843e aa32 a93e fb31 3b3e e6fa d9be
00000050: 82c0 94be 3926 eb3d 741d 25bd 7f70 423e
00000060: 7477 58bd f47b 813d 6c23 733e 8834 0ebe
00000070: 0ead f8bd 1e89 f8bd c0d9 3cbc cac2 93be
00000080: 5101 a73e 6c50 5d3f d600 473d 724d dcbe
00000090: b485 b6be 2c97 113e dfca 90be 3f97 63be
000000a0: 5ad6 47bf 1400 7dbf ddd2 02bf a563 403d
000000b0: 4662 eebd dfd0 00bf 294d 9d3e 7479 913d
000000c0: ad1f 57be c08d 05be 5e82 90bd 2385 33be
000000d0: 6608 873e 8385 9c3e 92bf 7ebe 977b 2c3e
000000e0: 8e1e 873f ad2b 313f 0176 e43f a4bc 0a3d
000000f0: ff6f 9b3d 7b59 853f d3a9 e1bf f3f8 0ac0
00000100: e533 753f 2ba2 313f 00ec 0b3f b36c bfbe
00000110: 8686 80be f15c 4cbf 4f7c e7be 76e8 07be
00000120: 1280 b03f 0005 d93f 3299 9d3f fc40 a03b
00000130: f9b0 b0bd d60e 933f 2e8e 9cbe f04d 763d
00000140: 48d0 743f 1003 e33f 4129 273f 23b1 d0bc
00000150: 10b5 033e 00d0 c73f 9c34 03bf c99a f6be
00000160: 808d 54bf a1d4 86bf ff38 56bf 888b 0a3d
00000170: b641 f3be 8c89 a5bf 3e1b 0f3f 38f6 723e
00000180: 4a3e 393f b65a 9a3f a519 183f 4ae2 01be
00000190: 8f46 5ebe 59ee 043f b87b 2ebe 4674 13bf
000001a0: 901f 283f d7db b33d 068d a73e 6c3f f3bd
000001b0: cc64 8cbe 0fa8 27c1 f1a4 593d aad6 033d
000001c0: ae67 7dbf ec92 8cbf d2eb 0ebf 93c4 8a3c
000001d0: 51ec 013d d6bc b1be 4dc1 1a3f acc9 73be
000001e0: fcad 4dbe 6dc4 84be fed8 ffbd 16b9 72be
000001f0: f01e 29be ae86 5dbe 88ff 60be 4c5a 95bd
00000200: a6bc c8bf d3ad c7bf b3bc debd 9f95 0a3d
00000210: acb1 d73e e168 883f a6f2 8cbe 0440 df3c
00000220: c9f7 3c3f 1bd9 873f 2c99 a63d 2664 80be
00000230: 7dac 80be 9069 e03e dbae 15bf 8757 1fbe
00000240: 9338 8f3d 8873 85be 42ba 123e 366b 47bc
00000250: 068e fcbb 4281 173e 354d 79be ff48 013d
00000260: ecfa 153f 7a6a 963f 864f 2fbf c7d4 7bbe
00000270: d62c 8abe 542c 8b3f 2579 febc 95a7 973d
00000280: 47a2 9d3e 1f34 243e f6fc de3d 7d9a e1be
00000290: 0bfc 51be 9ee1 f6be 2347 34be 95ee 313d
000002a0: 85f2 ac3f f4f1 873f 4e91 d33f a643 493d
000002b0: c17b c2bc a44f a23f 5c9e 6fbf d815 bfbf
000002c0: 0935 9d3e 7b16 2f3f d473 423f d776 c0be
000002d0: a179 63be e2c4 afbe 5f0e dbbb ff9d c4be
000002e0: 07fb 183f dc62 183f fdca 793f d28d a0be
000002f0: ecca cdbe 00ca c13d a0e9 14bf aac2 35bf
00000300: dcc9 5c3f 8af0 983f 04d4 3e3f 1b3f 0dbe
00000310: 4ab4 a2be 4caa ca3e c5ad 83bc 9c6a a0be
00000320: 39ae 01be 6622 a4be 6134 dbbd ad50 92bd
00000330: 7c20 233e c11a efbe 2a7a 07be f211 80be
00000340: e222 953e 05e0 d53e a34b e53c 69fb 11be
00000350: 858c edbe 8b7c af3d d840 033d 4d82 80be
00000360: 215d 82be 968e ffbd 4ace 27be e015 70be
00000370: 00a8 bb39 8059 e73b f003 203e e9db 03be
00000380: 146d e3be 7d0f 2bbf 8bbd 90bf 094d 39be
00000390: 9b1b 19bf b02e 18bf cf1d d23e 3eb0 423d
000003a0: 6762 a23f 512a be3f e92d 233f 4c52 aebd
000003b0: a027 b3bc 3cf3 833f 9068 4cbe 8c0f 58bc
000003c0: 1c6c 9dbf 00d6 9fbf 48fd 86bf e829 4ebe
000003d0: 1393 523e 17ec 72bf 7102 ffbe c3ef 03bf
000003e0: 43aa 233f c15e e43e 94bd 1d3f 42b5 bebd
000003f0: 442c 95bd e010 3b3f 7db7 d2bc d0eb 57bf
-0.06043273 0.33612517 -0.30955333 -0.2723733 -0.3730918 -0.1736111 -0.15037762 0.07678548
0.9273441 1.4790169 0.83238137 -0.24602287 0.03457237 1.2802023 -0.2904672 -0.06323494
0.2591656 0.33046466 0.18280785 -0.42574233 -0.29053122 0.114819 -0.04031129 0.18988226
-0.052848294 0.0632247 0.23743981 -0.13887227 -0.121423826 -0.12135528 -0.011526525 -0.2885955
0.32618192 0.8645084 0.04858478 -0.43027836 -0.35648882 0.14217824 -0.28279778 -0.22225665
-0.7806145 -0.98828244 -0.51103 0.04697003 -0.11639838 -0.5031871 0.3072293 0.071032435
-0.21008177 -0.13042355 -0.070561156 -0.17531256 0.26373595 0.3057061 -0.24877766 0.16844021
1.05562 0.6920727 1.7848512 0.033871308 0.07589721 1.0417932 -1.7629951 -2.1714447
0.9578231 0.69388074 0.5465698 -0.37387618 -0.25102633 -0.7982932 -0.45212027 -0.1327227
1.3789084 1.6954651 1.2312376 0.0048905592 -0.08627505 1.1488903 -0.30577224 0.06013292
0.9563031 1.773531 0.65297323 -0.02547509 0.12862039 1.5610352 -0.5125215 -0.48164967
-0.8302841 -1.0533639 -0.8368072 0.033824474 -0.4751107 -1.2932601 0.55900943 0.23726737
0.7236067 1.2058933 0.5941413 -0.12683979 -0.21706603 0.5192619 -0.17039382 -0.57599294
0.6567316 0.087821655 0.3272478 -0.11877331 -0.27420652 -10.47853 0.053135816 0.03218714
-0.9898633 -1.0982337 -0.55828583 0.016939437 0.03171951 -0.34714383 0.60451204 -0.238074
-0.20085901 -0.2593111 -0.1249256 -0.23703417 -0.16515708 -0.21633407 -0.21972477 -0.072926134
-1.5682571 -1.5599922 -0.10875835 0.033834096 0.4212774 1.0657007 -0.27528876 0.027252205
0.7381559 1.061313 0.08134684 -0.25076407 -0.25131598 0.43830538 -0.58469933 -0.15560733
0.069932126 -0.26064706 0.14328864 -0.012171557 -0.00770736 0.14795402 -0.24345858 0.031563755
0.58586 1.1751244 -0.6848072 -0.24592887 -0.26987332 1.0872903 -0.031063626 0.074050106
0.3078787 0.16035508 0.10888092 -0.44063178 -0.20506303 -0.48219007 -0.17605262 0.04344042
1.3511511 1.0620713 1.6528718 0.04913678 -0.023740651 1.2680554 -0.9360101 -1.4928541
0.30704525 0.6839368 0.7595799 -0.37590668 -0.22214366 -0.34329897 -0.006685063 -0.3840179
0.5975804 0.5952585 0.9757536 -0.313582 -0.4019388 0.094623566 -0.58168983 -0.7100016
0.8624551 1.1948407 0.7454226 -0.13793604 -0.31778175 0.3958305 -0.01607407 -0.31331336
-0.12664117 -0.32057494 -0.1070335 -0.07144294 0.1593036 -0.467001 -0.13230196 -0.2501369
0.29128176 0.41772476 0.027990168 -0.14256062 -0.4639627 0.085686766 0.03204426 -0.25099412
-0.25461677 -0.12478368 -0.16387287 -0.23445845 0.0003579259 0.00706023 0.15626502 -0.12876858
-0.44419158 -0.6682051 -1.1307844 -0.18095793 -0.5980775 -0.5944624 0.41038367 0.04753136
1.268628 1.4856664 0.6374193 -0.08511791 -0.02186948 1.0308604 -0.19961762 -0.0131873
-1.2298617 -1.2487183 -1.0546045 -0.20133173 0.20563917 -0.94891495 -0.4980655 -0.5153772
0.63931674 0.44603541 0.616174 -0.09311916 -0.072838336 0.73072624 -0.02572226 -0.84344196

net.0.bias f4 [64]
00000000: f7ac 1d3e 930d 1fbe 6634 1e3d b4f8 3bbe
00000010: b3d0 7e3c 3c3a 783f 862b f0bd c5db 2fbf
00000020: f1f3 abbe d15b 843e 634b 4fbf 5199 6d3f
00000030: 5d5a be3c 8f6b ce3e 74e5 993f 569f 7ebe
00000040: 3493 6cbf 5a7a 8fbe d815 cabd 8266 a6bd
00000050: 9d4e 8e3e cb79 23bf d016 1c3e a2df d9bd
00000060: 0fc4 e6be b16e 313f 100f 0a3d 8e38 64be
00000070: ba27 e63e 81ef 79bf 8364 0ebf f8d8 1a3f
00000080: 4c60 953f 1287 d1be 993c 4dbe bf7d 56bf
00000090: 8e04 6c3f c4df 8ebf 2fd7 11bf 5e07 053e
000000a0: b727 273d a36b 88be b187 41bf 3e5f 05be
000000b0: d623 183f 3071 323f 3974 19bf 7d01 873f
000000c0: e9df f2be 67c6 173f 6270 cf3e 66e8 7d3d
000000d0: 2b25 acbe 6d5f a0be 0729 573d 1aae dd3d
000000e0: da42 903e 3c3f 823f 2e2f df3c f1f0 533e
000000f0: be54 b13e 16a7 d53e 0338 15be 1123 933e
0.15398012 -0.15532522 0.03862419 -0.18356591 0.015552687 0.9696386 -0.117270514 -0.68694717
-0.3358455 0.258513 -0.80974406 0.9281207 0.023236448 0.40316436 1.2023149 -0.2486547
-0.92412114 -0.28023034 -0.098674476 -0.081250206 0.27794352 -0.63857716 0.15243077 -0.10638358
-0.45071456 0.69309527 0.03370577 -0.22287199 0.44952184 -0.9763108 -0.5562212 0.6048732
1.1670012 -0.40923363 -0.20042647 -0.83785623 0.9219445 -1.1162038 -0.5696897 0.12991092
0.04080936 -0.2664462 -0.75597674 -0.13024613 0.5942968 0.6970396 -0.59942967 1.0547329
-0.47436455 0.5928711 0.4051543 0.06198921 -0.33622107 -0.31322804 0.05252936 0.10824223
0.28176004 1.0175548 0.027244177 0.2069738 0.34634966 0.4172904 -0.14572148 0.2873769

net.2.weight f4 [64, 64]
00000000: 7a66 aa3c b74f 1a3e 4a03 663d f01b 4cbd
00000010: 8d3c d7be 2342 043d 8557 113e ff92 9abf
00000020: 1638 9ebe 2d65 bc3e 5c65 a3bf f818 02bd
00000030: e7d6 98be 0016 d0bf a656 6a3e 8e1f b0bd
00000040: 2e66 2c3e 5e37 a1bf 324f ee3c 790c 1a3e
00000050: 0bb2 3d3e d9e3 aabf c896 86be bfa0 14bf
00000060: b568 bbbe abfb 223c ff15 493c e2ac 9f3d
00000070: 5af7 febb 8aec 3cc0 d33f f33d 2961 203e
00000080: e0a7 9d3d 4854 473c b587 493e da4d 02c0
00000090: 28f4 25be 1e3d 3fc0 8b5a 36bf c068 433b
000000a0: c450 783e b4ab e6bd 3352 4ebe 0987 28bf
000000b0: ce62 ebbc 7376 84be 8068 b9bc 7230 ee3d
000000c0: 69b3 d1bd 1b5e 0a3f 721a 0fbf 0009 d7be
000000d0: 34f4 33be ff09 2abe e941 85bd 000c 11be
000000e0: 4968 1cbe de68 8b3e cb6d 8fbf 6b99 04be
000000f0: cf59 3dbc 0351 373e 6f96 bfbd 6653 fa3d
00000100: 016e 83be 0801 28be 567c 4fbe d1bd 1a3e
00000110: df57 893c f21b cbbd 546a 1bbe 874f d33d
00000120: 9ca8 0abd c2cf be3d e44d 90bd 10c4 97bd
00000130: e81b 163e b55e 72be 9260 283d e141 e5bd
00000140: 9861 85be 4366 dbbc a201 2fbe c650 36bd
00000150: 90c0 6a3c 6720 9dbb 9f3e 6c3e 898f b9bd
00000160: 7290 b0bd 4ad6 993d c366 95bd 8213 b5bd
00000170: 2755 8bbc ada3 0cbe 144d 12be 92bf 0c3e
00000180: 7a4d 39be 84b1 c53d 8e85 ca3d 10d4 00be
00000190: 21b1 d53d 4af3 e6bd 97f1 8d3d a79b 24be
000001a0: 69d6 81bd 9e8e e43d 454f a0bd a573 8ebd
000001b0: 1d0e 7dbe ea30 0abe f012 29be 8180 b6bb
000001c0: b2dd 283e aed3 6dbd 7734 a53d 6fd3 793e
000001d0: c8a4 68bd 7f05 50be 8431 3cbe 3395 103e
000001e0: ca6c f8bd a46c 5bbe f857 a0bd 3510 40be
000001f0: 98a3 65be 376e f2bd 8948 a1bd 4586 773d
00000200: 9c09 8d3d 6b7a cf3e e981 23be f6a2 cabd
00000210: 7632 e7bc dd55 95bf 7cc5 cdbd 0bcf e4bd
00000220: 8b09 a83d 6da5 ee3e fd82 e03e a326 cebf
00000230: 35b2 f1bc 2ddb 913c 3f9d e9bf 0d3b 003e
00000240: 56d2 14be a13f c83d 25b2 d33d ced6 813e
00000250: 4731 6c3e ecf6 b93e 8591 803e 9ee8 abbe
00000260: 846f a53d 4155 d3bd a53c a03d c176 573e
00000270: b30b 4abf 3546 fc3e 6d30 95be 09e3 a8bb
00000280: 5ab6 0cc0 5032 fc3c 4877 09be 1db6 003f
00000290: cfeb c5bf 5f8c a33e 79a0 fb3c d812 85bd
000002a0: 8365 b13e bb97 873d 09c6 61bd 520c 293e
000002b0: 7f78 b7bc 61a5 2bbe e1a3 9bbe b7b1 debf
000002c0: 30cc 78bd 3601 403f 9c16 fdbe 1a21 dbbd
000002d0: eed1 cabe 468a 0b3f 90bc 6dbc 4183 2c3d
000002e0: b483 ecbc f3c3 55bf 3766 9a3e 7b1f b23d
000002f0: 57e9 b0bc c189 88bd 3b96 303e 7026 913e
00000300: 9ea3 083e 4f52 8cbe 66ed 54be 435f 2f3e
00000310: 3742 c1bc 35eb 42be 1e49 febb 59f4 f0bd
00000320: d7c7 6bbc 1e68 d4bd 9d23 a3bd 43d6 3cbe
00000330: 3b9b 9f3c b7ce 473e 8886 533d 285c d23c
00000340: ded1 82be c3bc 633d 6ef0 b63c 7223 0fbe
00000350: a427 21bd 4089 7fbe 43fc 31be 60df ff3c
00000360: 91b1 9c3b 2c23 86bd 6968 c23d a734 3f3e
00000370: 7118 70be fdb0 d23b b6b3 d23d ab85 9fbc
00000380: 3e1e f03d 6a85 4dbe 9eff 31be 3c26 7cbd
00000390: 9c31 49be 9400 9cbd 8cd5 c6bd 3498 4f3d
000003a0: b603 1ebe af8a 55be a3b0 1bbd 5ac1 673e
000003b0: 25ce ecbd 60cc 84be 297f bc3d 9be1 403d
000003c0: 17e2 abbd f5e3 b03d 75c1 a1bd 5d6e 703d
000003d0: 0028 4e3e dc31 a4bd 781f 1ebd dc17 283d
000003e0: e673 49be c363 b9bd ad7a 323e 0d00 edbc
000003f0: 5c15 e7bd d39e 123e 88f1 2bbd 5679 0ebe
0.020800818 0.15069471 0.05615548 -0.04983133 -0.42038384 0.032289635 0.14193542 -1.207611
-0.30902165 0.3679594 -1.2765307 -0.031762093 -0.29851457 -1.6256714 0.22884616 -0.085997686
0.16835853 -1.2595022 0.029090498 0.1504382 0.18524949 -1.3350784 -0.26286912 -0.5805778
-0.36603323 0.009947698 0.012273311 0.07796647 -0.0077809514 -2.9519372 0.11877408 0.15662064
0.07698035 0.01216609 0.19680674 -2.0360017 -0.1620642 -2.9881053 -0.7123191 0.0029817075
0.2424956 -0.112632185 -0.20148544 -0.6583105 -0.028733637 -0.2587162 -0.022632837 0.11630334
-0.10239298 0.54049844 -0.5589973 -0.41999054 -0.17573625 -0.16605376 -0.06506712 -0.14164734
-0.15274157 0.27228445 -1.1205381 -0.1294915 -0.011557057 0.17901997 -0.09354865 0.12222938
-0.25669864 -0.16406643 -0.20262274 0.15111472 0.016765533 -0.099174395 -0.1517728 0.10317903
-0.033852205 0.093169704 -0.070461065 -0.07410443 0.14659083 -0.2366894 0.04110772 -0.11194206
-0.2605102 -0.02678216 -0.17090467 -0.044510625 0.014328137 -0.0047951224 0.23070763 -0.0906058
-0.08621301 0.075115755 -0.07294991 -0.088416114 -0.017008377 -0.13734312 -0.14287215 0.13744953
-0.18095961 0.09652999 0.09888755 -0.12580895 0.10434175 -0.112768725 0.06930845 -0.16075002
-0.063397236 0.111600146 -0.078276195 -0.06955651 -0.24712415 -0.13495222 -0.1651113 -0.005569518
0.1649082 -0.0580632 0.080666475 0.24397062 -0.056797773 -0.20314597 -0.18378264 0.14119415
-0.12130125 -0.21428162 -0.07829279 -0.18756182 -0.22425687 -0.11837428 -0.07875163 0.060430784
0.068865985 0.40523085 -0.15967526 -0.098943636 -0.028222304 -1.1666828 -0.10047433 -0.11172303
0.08204945 0.46610585 0.43849936 -1.6105541 -0.029503921 0.017804706 -1.8251113 0.12522526
-0.14533362 0.09777761 0.10336713 0.25359195 0.23065673 0.363212 0.25111023 -0.3357591
0.080779105 -0.10318995 0.07824067 0.21041395 -0.789241 0.49272314 -0.29138508 -0.005154018
-2.1986299 0.03078571 -0.13424408 0.5027788 -1.5462588 0.31943032 0.030716168 -0.06497735
0.3464776 0.06620737 -0.0551205 0.16508606 -0.022396324 -0.16762306 -0.30398467 -1.7397984
-0.060741603 0.7500185 -0.49431312 -0.10699673 -0.3961329 0.54507864 -0.014510289 0.04211736
-0.028871395 -0.8350212 0.3015611 0.08697411 -0.02159564 -0.066668995 0.17244808 0.28349638
0.13343665 -0.27406546 -0.20793685 0.17126183 -0.023591144 -0.19035037 -0.007760181 -0.117653556
-0.014390907 -0.10371421 -0.07965777 -0.1844111 0.0194832 0.19512449 0.05164197 0.02567871
-0.2555074 0.05559994 0.022331443 -0.13978365 -0.039344445 -0.249547 -0.17381386 0.031234443
0.0047819098 -0.06549677 0.09492571 0.18672429 -0.23446824 0.00642979 0.102881834 -0.019472918
0.11724518 -0.20070425 -0.17382666 -0.0615599 -0.1964783 -0.07617298 -0.097086996 0.05068226
-0.15431103 -0.20853685 -0.03801025 0.22632352 -0.115627564 -0.25937176 0.092039414 0.047090154
-0.083927326 0.08637229 -0.07898227 0.058699 0.20132446 -0.080173224 -0.03860423 0.04103838
-0.19673118 -0.09052231 0.1742961 -0.028930688 -0.11283371 0.14318399 -0.04197839 -0.13913473

net.2.bias f4 [64]
00000000: fe4a 4d3f 22e4 6bbe a07a 63be e837 c2bd
00000010: 8ab9 43be d77e 09be 4064 10be 8558 e6bd
00000020: 4fa7 6a3e a8e1 953d 449a ad3d a35d e3bd
00000030: d454 613f 4dd1 86bc f1a5 97bd cb96 17bd
00000040: a1e9 9bbe f73a 463f f6aa 633d 4903 47be
00000050: ebba 353f 02ff dcbe e492 0dbe 213d 213e
00000060: ad62 29bd f703 a0bd 47a3 abbd bb34 773c
00000070: 9a1e 453f fb8e 29be f0f6 dfbd 8f94 003d
00000080: 5354 adbc 30d2 613f 96e5 9cbd b3fb 3c3f
00000090: 4ee7 cfbd 2e11 a5bf 5807 5b3f 4cb8 b33d
000000a0: e4b5 9fbd b0e0 0a3e 7c83 95bd be8d 77bf
000000b0: 59e4 493f 2e60 f4bd 7add 00bd f77b dfbd
000000c0: 02cf 5e3f c4c8 24be 1122 e7bc d59d 223f
000000d0: 3648 c9bb 45d0 11be b381 303f dac7 633d
000000e0: 28b9 293f cb72 2a3f a1e9 5bbc 79ac 863d
000000f0: 334e 10bf b77d b53c c660 9fbd a5f9 423f
0.80192554 -0.23036245 -0.22214746 -0.094833195 -0.19113746 -0.13427292 -0.14100742 -0.112473525
0.22915386 0.07318431 0.084766895 -0.11101844 0.8802006 -0.016457224 -0.07404698 -0.03700904
-0.30451682 0.77433723 0.055582963 -0.19434847 0.7098834 -0.43163306 -0.13825566 0.15745975
-0.04135387 -0.07813256 -0.08380752 0.0150882555 0.7699982 -0.16558449 -0.109357715 0.031391677
-0.021158373 0.88211346 -0.076609775 0.7382156 -0.1015154 -1.2895868 0.8555808 0.08775386
-0.07798365 0.13562274 -0.07300469 -0.96700656 0.78864056 -0.11932407 -0.031461217 -0.10912316
0.8703462 -0.16092211 -0.028214486 0.6352208 -0.0061426414 -0.14239605 0.68947905 0.055610515
0.6629815 0.6658141 -0.013422401 0.06575865 -0.5636932 0.022154672 -0.0778213 0.7616218

net.4.weight f4 [1, 64]
00000000: 47ba 00bf 3827 15be a97f 573f b43b 29bb
00000010: c3e2 833e 2d5a cb3e 9286 26bd 8400 353f
00000020: eed4 873f a2e1 4f3f fd32 273e 7d1c e83f
00000030: 8197 0dbf a3d5 623f 437d 9ebd ac4e a4bd
00000040: f1f8 bbbd 07bb fdbe c56d e13e 57a1 133f
00000050: 9f42 0cbf ca31 96bf 87c0 09bd 0966 143f
00000060: ed3f 7fbd b6fa 283e 5ef4 803e cc5c 8a3f
00000070: 7777 bbbe 1ef0 2fbe 9070 553d 9ae7 573c
00000080: 57f5 6b3f e499 1dbf 15ac 4d3f 5b41 cfbe
00000090: 9528 193f b276 08bf bcf2 18bf 2fc1 573f
000000a0: 1b52 793f f439 3e3f 7000 953f bb74 c2be
000000b0: aac5 c1be 0471 d63f aca9 4c3d 7d36 c63f
000000c0: b833 20bf 7e2d 713c 3e10 cd3f 144f f7be
000000d0: 6a09 db3c 76f5 3d3f 2c23 e1be 134b 153f
000000e0: 00e8 b1bf 72d1 b8be e667 c43f 80a7 51bb
000000f0: e84f 4fbe 72bf 143e 93c3 533f a2fa 30bf
-0.50284237 -0.14565742 0.8417917 -0.002582294 0.25758943 0.39717236 -0.04065568 0.7070391
1.0611856 0.81203663 0.16328044 1.8133694 -0.553093 0.88607234 -0.077387355 -0.08022818
-0.09178341 -0.49556753 0.4402906 0.5766806 -0.54789156 -1.1733944 -0.033630874 0.57968193
-0.062316824 0.16501889 0.25186437 1.0809569 -0.36614582 -0.17181441 0.0521093 0.013177777
0.92171234 -0.61562943 0.803407 -0.4047955 0.5982755 -0.53306115 -0.59745383 0.8427915
0.9739091 0.7430718 1.1640759 -0.37979683 -0.37846118 1.675324 0.0499665 1.5485379
-0.62578917 0.014720319 1.6020582 -0.4830252 0.026737887 0.7420267 -0.43972147 0.5831768
-1.3898926 -0.36097294 1.5344207 -0.0031990707 -0.20245326 0.14526156 0.827203 -0.69132435

exp_avg f4 [64, 8]
00000000: 9bdf 13bb 0697 e7ba 769a 22ba 461a 29bd
00000010: 30e5 77bb 0542 aeb9 d287 acbb 89dd e3bb
00000020: 0000 0000 0000 0000 0000 0000 0000 0000
00000030: 0000 0000 0000 0000 0000 0000 0000 0000
00000040: a010 903a 3849 3b3a d382 8e39 735b c33c
00000050: f9ae 013b a9d5 4939 b961 3a3b 6470 603b
00000060: ec1e 5c38 1f5c 4a38 bfc3 5b38 2804 153a
00000070: 0cb2 9339 3212 aa36 5bfe 4b38 7100 6438
00000080: fe7f 2fb8 680a 35b8 ccca 04b8 12e6 1fba
00000090: 30d6 bfb9 4a58 2bb7 8c49 06b7 2c7e 39b7
000000a0: 026d 10b9 b780 d9b8 fa36 ff38 55ea f3bb
000000b0: d488 e2b8 b77e 3fb8 f989 afb9 a601 dcb9
000000c0: 1272 023b 99b3 d13a f885 2f3a c2dd 0a3d
000000d0: ac0c 663b 6768 9439 ebb6 953b 80c6 c63b
000000e0: 339e 403a e7dc 143a db60 6c39 b189 283c
000000f0: e8e2 9c3a f499 b138 c395 df3a 3283 163b
00000100: 0000 0000 0000 0000 0000 0000 0000 0000
00000110: 0000 0000 0000 0000 0000 0000 0000 0000
00000120: 10a0 db3a 99fc ad3a 0196 e639 0505 f93c
00000130: 9e21 323b 842d 7639 a8bf 783b 685c aa3b
00000140: 0400 0000 0400 0000 0400 0000 0400 0000
00000150: 0400 0000 0400 0000 0400 0000 0400 0000
00000160: 0000 0000 0000 0000 0000 0000 0000 0000
00000170: 0000 0000 0000 0000 0000 0000 0000 0000
00000180: 0400 0000 0400 0000 0000 0000 0400 0000
00000190: 0400 0000 0400 0000 0400 0000 0400 0000
000001a0: 8fa4 d2ba 50d0 99ba 6a87 2fba a42e ecbc
000001b0: 91fc 37bb 8766 81b9 c154 82bb b915 aabb
000001c0: 0000 0000 0000 0000 0000 0000 0000 0000
000001d0: 0000 0000 0000 0000 0000 0000 0000 0000
000001e0: 0000 0000 0000 0000 0000 0000 0000 0000
000001f0: 0000 0000 0000 0000 0000 0000 0000 0000
00000200: 0000 0000 0000 0000 0000 0000 0000 0000
00000210: 0000 0000 0000 0000 0000 0000 0000 0000
00000220: 2edd dc3a c9d9 963a f2bf 653a d81a e63c
00000230: e06f 6d3b 62ca 8b39 342c 9b3b 7cc2 c53b
00000240: e8ec f33a b32a b23a 9c04 423a d1c1 e33c
00000250: f160 603b 11d7 7b39 90f9 933b 654b c53b
00000260: e0b0 ca36 7f71 d336 4360 9c36 fbf1 0137
00000270: f9cd b937 55a2 ed34 cd94 6536 8d70 2037
00000280: df5b 37b9 da14 1eb9 25c3 f735 4ffd d0bb
00000290: c422 61b9 89e6 34b8 f5a4 cbb9 48b9 0fba
000002a0: 7932 8fba 4056 51ba 8d97 ceb9 e769 c5bc
000002b0: bfe9 07bb 8dd8 51b9 30d8 3abb 4204 72bb
000002c0: cd44 95ba 79b1 60ba 5b58 f8b9 d6fd b4bc
000002d0: 31a5 18bb 7c8d 44b9 66ec 3cbb 1dfe 7ebb
000002e0: 7246 0e3b 0437 d23a 2b58 3f3a 0eb5 013d
000002f0: 1315 743b e043 8b39 d914 a73b b826 e03b
00000300: 0000 0000 0000 0000 0000 0000 0000 0000
00000310: 0000 0000 0000 0000 0000 0000 0000 0000
00000320: 6724 9bb8 84a9 73b8 501e 7f37 0f50 a0bb
00000330: 944e abb7 6575 f2b7 c837 89b9 9b24 cab9
00000340: 2c55 b9ba cf6d 91ba cd44 30ba 39dd a7bc
00000350: b885 22bb cc58 24b9 7df1 4cbb 2eaa 97bb
00000360: fe2f 3e3b 6f48 163b 20f3 593a ee98 4e3d
00000370: 2912 a03b 40b8 d439 ead0 d83b 8a58 133c
00000380: e55e f42f b842 0330 9a4e db2f f87a a430
00000390: 09ee 0834 9295 0330 e3ee 572d e3ee d72d
000003a0: b042 acba d05f 7bba 9e6f 08ba 3952 d4bc
000003b0: b34f 14bb 55ad 69b9 c816 59bb 8d12 8bbb
000003c0: 54f7 fd37 7bb5 2e34 f6be b0b7 1ecf 113b
000003d0: fca4 f737 4ba1 4b37 0c36 1239 5151 6039
000003e0: 3c14 72ba 8604 2dba f901 24ba fb35 43bc
000003f0: c6b8 0bbb 6071 ecb8 32c6 11bb b2b7 44bb
-0.00225637 -0.001766891 -0.0006202826 -0.041284822 -0.0037825815 -0.00033237055 -0.0052652145 -0.0069538993
0.0 0.0 0.0 0.0 0.0 0.0 0.0 0.0
0.0010991283 0.00071443943 0.00027181822 0.023847317 0.001978813 0.00019248448 0.0028439595 0.0034246678
5.2480886e-05 4.8246347e-05 5.239597e-05 0.0005684518 0.0002817068 5.068513e-06 4.863586e-05 5.4359847e-05
-4.1842453e-05 -4.3163454e-05 -3.166012e-05 -0.0006099652 -0.0003658994 -1.0212951e-05 -8.004146e-06 -1.1056236e-05
-0.00013773519 -0.00010371341 0.00012169588 -0.007443706 -0.00010802006 -4.565596e-05 -0.000334814 -0.00041962898
0.0019904417 0.0015998959 0.0006695683 0.03390289 0.0035102768 0.00028306546 0.0045689247 0.0060661435
0.0007347792 0.0005678669 0.00022542795 0.010286734 0.0011969479 8.468694e-05 0.0017058182 0.0022966382
0.0 0.0 0.0 0.0 0.0 0.0 0.0 0.0
0.0016756076 0.0013274133 0.0004398078 0.030397901 0.0027180682 0.00023477344 0.0037956033 0.005199004
6e-45 6e-45 6e-45 6e-45 6e-45 6e-45 6e-45 6e-45
0.0 0.0 0.0 0.0 0.0 0.0 0.0 0.0
6e-45 6e-45 0.0 6e-45 6e-45 6e-45 6e-45 6e-45
-0.0016070771 -0.0011735056 -0.00066958985 -0.028830834 -0.0028074125 -0.00024681186 -0.0039773886 -0.005190578
0.0 0.0 0.0 0.0 0.0 0.0 0.0 0.0
0.0 0.0 0.0 0.0 0.0 0.0 0.0 0.0
0.0 0.0 0.0 0.0 0.0 0.0 0.0 0.0
0.0016850585 0.0011508997 0.0008764259 0.028088972 0.0036230013 0.00026662933 0.004735494 0.0060351472
0.0018610032 0.0013593048 0.00074011995 0.02780238 0.003423747 0.00024017344 0.004515834 0.0060209506
6.04066e-06 6.3015027e-06 4.6603686e-06 7.74534e-06 2.2149632e-05 4.4262802e-07 3.4210273e-06 9.562948e-06
-0.00017486465 -0.00015075822 1.8459729e-06 -0.006377853 -0.00021470623 -4.3130047e-05 -0.0003884208 -0.0005482626
-0.0010925076 -0.00079855695 -0.00039404296 -0.02409835 -0.0020738689 -0.00020012465 -0.0028510205 -0.0036928807
-0.0011388302 -0.00085713674 -0.00047368076 -0.022093695 -0.002329182 -0.00018744724 -0.0028827428 -0.0038908788
0.002170947 0.0016038124 0.000729921 0.031666808 0.0037244007 0.00026562717 0.005098921 0.006840553
0.0 0.0 0.0 0.0 0.0 0.0 0.0 0.0
-7.3977564e-05 -5.809359e-05 1.5206242e-05 -0.004892356 -2.042138e-05 -2.8903314e-05 -0.00026172237 -0.00038555716
-0.0014139763 -0.0011095348 -0.00067241193 -0.02049123 -0.002479894 -0.00015673338 -0.0031271868 -0.0046284413
0.0029020305 0.0022931357 0.00083141215 0.050438814 0.0048849774 0.00040573068 0.0066167014 0.008993277
4.4450768e-10 4.7752335e-10 3.9891718e-10 1.196752e-09 1.2752584e-07 4.7870075e-10 1.22743786e-11 2.4548757e-11
-0.0013142433 -0.00095891673 -0.00052046205 -0.025918113 -0.0022630512 -0.00022285183 -0.003312515 -0.004244155
3.0275121e-05 1.6271035e-07 -2.1069758e-05 0.0022248696 2.9521521e-05 1.2137297e-05 0.00013943779 0.00021392597
-0.00092345825 -0.00066001003 -0.00062563975 -0.011914725 -0.002131985 -0.00011274475 -0.0022243378 -0.0030016718
