ppo_model2.pt (torch, 42485 bytes, 11 tensors)

body.0.weight f4 [64, 5]
-0.76106125 -0.060712554 0.53287905 0.31877232 0.24881044 0.010033903 -0.47849 0.16556433
-0.00014838023 -0.38414896 0.19295388 0.32120568 0.1029655 -0.2098501 0.00880875 -0.3629626
-0.29839292 -0.20495509 -0.2582636 0.17645751 -0.18486355 -0.09033534 0.5583915 0.09080524
-0.30223697 0.311955 0.006111108 0.39702502 -0.2155909 0.0046930593 -0.38916034 -0.105169624
0.7625131 0.14158855 0.31978434 -0.5837625 -0.38264513 1.0201538 0.18820824 -0.17036112
0.17826462 -0.48392665 0.37769142 -0.0026741473 -0.5467665 -0.3255713 -0.4203227 0.050891403
-0.24402365 0.24442345 -0.22471514 -0.21388547 0.34223232 0.019596849 0.3006843 -0.34728858
-0.13335237 -0.17858964 -0.365211 -0.36651915 -0.55532366 -0.8965662 0.87629974 0.2137192
0.16418077 -0.34399092 -0.4026981 -0.29681396 -0.18557128 -0.06553304 -0.2756878 -0.53942156
0.32030407 0.1856692 -0.5733171 0.2823178 0.097002216 0.13495046 -0.030406551 0.31695765
-0.46554914 -0.5830762 0.66075194 0.19470559 -0.05591951 -0.02982822 0.16719186 0.38230515
-0.22868407 -0.28634244 0.15673119 -0.22312246 -0.047080368 -0.11190766 -0.24861285 0.07004555
0.07676007 0.64590865 -0.11184899 0.4703512 0.2877166 0.4338412 -1.1107309 0.26728544
0.45729014 -0.49564496 -0.13588049 0.2598887 -0.0005452528 -0.49684078 -0.72230697 -0.60418016
0.79784954 0.13561201 0.4819696 0.05418475 -0.21872698 -0.3772465 -0.1940707 0.15843147
-0.30789366 0.37548944 -0.43004242 -0.2091918 0.05114725 -0.08624241 -0.3042384 0.7027608
0.1296004 0.29238737 -0.6957004 -0.78103864 0.4021714 0.3516518 0.13245998 -0.5994536
-0.41092014 1.3109492 0.0002525578 -0.63840437 0.35341775 -0.314906 -0.30856696 -0.007118851
-0.17248255 -0.022868289 -0.814515 0.6195022 0.2073296 0.18055065 0.20599435 0.106301166
0.2264774 -0.03037105 0.50561744 0.7751461 0.6328009 -1.0037913 0.17531468 0.4708346
0.047661077 0.07374202 0.54143494 0.24056907 0.38046616 -0.13235421 -0.47140998 -0.32278275
0.19688742 -0.27951223 0.065422416 -0.14125425 0.17729962 -0.23887631 -0.30020827 0.17140967
-0.3258702 0.24917205 -0.41619304 0.033597656 0.12959649 -0.09004513 0.1214704 0.40895754
-0.7074373 0.24216062 -0.14061749 0.20726705 -0.2716887 -0.07409993 0.050729822 -0.32315707
-0.22818477 -0.0010208429 -0.14816989 -0.07065639 0.031526506 0.27625066 -0.007968539 -0.63153553
0.17076288 0.32466054 0.12051396 0.359564 -0.048061356 0.15406868 -0.43474314 0.02973337
0.00018863744 -0.4087149 0.12985632 0.21245445 -0.49243784 0.17482805 0.4124242 0.33504778
-0.024376541 -0.1609303 -0.350483 -0.064457536 0.19513255 -0.34253365 -0.26449335 -0.2972762
-0.23657942 -0.822177 -0.28693074 0.6544203 0.24014214 -0.40099815 0.2782508 0.13585562
-0.17887747 -0.19164884 -0.2444647 -0.5478996 -0.6664591 0.9151716 0.30978638 -0.15058954
0.5099227 0.053424086 -0.35529503 0.20695992 0.1524717 0.12074149 -0.28311053 0.3442423
-0.0003124421 -0.03485843 0.07189584 0.06897074 0.30506933 -0.09668279 -0.3943584 -0.110396594
00000000: e9d4 42bf baad 78bd c36a 083f 2036 a33e
00000010: 2ac8 7e3e 3d65 243c a4fc f4be b289 293e
00000020: 8496 1bb9 2caf c4be b495 453e 1275 a43e
00000030: 93df d23d f2e2 56be 9352 103c 3cd6 b9be
00000040: f5c6 98be bfdf 51be 203b 84be 47b1 343e
00000050: df4c 3dbe bc01 b9bd bff2 0e3f 19f8 b93d
00000060: cebe 9abe 91b8 9f3e b13f c83b dd46 cb3e
00000070: dcc3 5cbe 3cc8 993b 0640 c7be 2c63 d7bd
00000080: 0f34 433f 97fc 103e c6ba a33e 7671 15bf
00000090: 10ea c3be 6694 823f a9b9 403e 2573 2ebe
000000a0: 008b 363e 3cc5 f7be c560 c13e bf40 2fbb
000000b0: e4f8 0bbf 48b1 a6be 8934 d7be 8173 503d
000000c0: 56e1 79be 244a 7a3e ba1b 66be cb04 5bbe
000000d0: 1339 af3e 9289 a03c 4bf3 993e cfcf b1be
000000e0: 868d 08be 34e0 36be f0fc babe 66a8 bbbe
000000f0: b129 0ebf 5d85 65bf 2e55 603f 35d9 5a3e
00000100: 011f 283e 941f b0be 722e cebe 00f8 97be
00000110: 6606 3ebe 3036 86bd f426 8dbe 8817 0abf
00000120: e5fe a33e 1120 3e3e e9c4 12bf f58b 903e
00000130: 19a9 c63d 7430 0a3e 2917 f9bc 4648 a23e
00000140: 755c eebe 7b44 15bf 0a27 293f e760 473e
00000150: db0b 65bd 505a f4bc 5834 2b3e 80bd c33e
00000160: 282c 6abe 7a9b 92be 247e 203e 377a 64be
00000170: 58d7 40bd d82f e5bd 5e94 7ebe 0b74 8f3d
00000180: 6234 9d3d 455a 253f 1511 e5bd dfd1 f03e
00000190: 974f 933e 6f20 de3e 6e2c 8ebf a3d9 883e
000001a0: ef21 ea3e 2dc5 fdbe 4124 0bbe 2210 853e
000001b0: 4cef 0eba ea61 febe 1ce9 38bf 8dab 1abf
000001c0: de3f 4c3f e0dd 0a3e b8c4 f63e d4f0 5d3d
000001d0: f7f9 5fbe 7426 c1be 78ba 46be dc3b 223e
000001e0: 3da4 9dbe 2740 c03e 852e dcbe 6036 56be
000001f0: c77f 513d dc9f b0bd 23c5 9bbe 22e8 333f
00000200: f8b5 043e ccb3 953e 6c19 32bf 26f2 47bf
00000210: 69e9 cd3e b40b b43e 97a3 073e cb75 19bf
00000220: 2064 d2be 2fcd a73f bc69 8439 786e 23bf
00000230: 2cf3 b43e 5c3b a1be 7dfc 9dbe 4045 e9bb
00000240: 449f 30be 4756 bbbc 0e84 50bf b297 1e3f
00000250: 364e 543e 45e2 383e 2ff0 523e 6db4 d93d
00000260: b1e9 673e b5cc f8bc 2570 013f fa6f 463f
00000270: 3dff 213f 3c7c 80bf b185 333e 3c11 f13e
00000280: 4338 433d 0e06 973d 7b9b 0a3f bd57 763e
00000290: 76cc c23e dd87 07be a65c f1be c843 a5be
000002a0: db9c 493e 3a1c 8fbe 30fc 853d f4a4 10be
000002b0: 088e 353e fe9b 74be e6b4 99be 0486 2f3e
000002c0: 75d8 a6be f526 7f3e 4117 d5be b29d 093d
000002d0: f1b4 043e 9569 b8bd 79c5 f83d e262 d13e
000002e0: 9c1a 35bf f4f8 773e 08fe 0fbe d03d 543e
000002f0: c81a 8bbe b4c1 97bd 13ca 4f3d d874 a5be
00000300: 45a9 69be cecd 85ba d9b9 17be 4cb4 90bd
00000310: f021 013d ba70 8d3e 7a8e 02bc 50ac 21bf
00000320: 77dc 2e3e e839 a63e 06d0 f63d c618 b83e
00000330: fcdb 44bd 2ec4 1d3e a796 debe 6593 f33c
00000340: facc 4539 1443 d1be 0ef9 043e a98d 593e
00000350: d020 fcbe 2006 333e 4429 d33e 628b ab3e
00000360: 50b1 c7bc eaca 24be 8272 b3be 5002 84bd
00000370: d4d0 473e 9260 afbe ac6b 87be 9634 98be
00000380: e041 72be 317a 52bf 96e8 92be 1788 273f
00000390: d2e7 753e a14f cdbe e476 8e3e bc1d 0b3e
000003a0: a82b 37be 983f 44be f454 7abe 2643 0cbf
000003b0: 109d 2abf b048 6a3f 529c 9e3e 2534 1abe
000003c0: 4b8a 023f 37d3 5a3d 3be9 b5be 4ded 533e
000003d0: 8b21 1c3e 5047 f73d ddf3 90be 8740 b03e
000003e0: 45cf a3b9 b7c7 0ebd 203e 933d 8840 8d3d
000003f0: 0c32 9c3e a001 c6bd 58e9 c9be 9c17 e2bd

body.0.bias f4 [64]
-0.57040864 -0.07533009 -0.20623639 -0.061834835 -0.56572443 0.1187168 -0.7679532 -0.10270815
-0.011778854 -0.36779395 0.39469913 -0.061278164 -0.13002135 -0.4156451 -0.07735965 0.19352771
-0.47184318 -0.2821579 0.32090938 0.21614644 0.7171135 -0.41082373 -0.7445494 0.15173383
0.02669964 -0.7819831 -0.34285948 -0.19340809 -0.4246479 -0.43110737 0.035814118 0.0030935213
-0.6609897 0.01806518 0.1365267 0.14921485 -0.09388379 -0.38832605 -0.0990752 0.13620801
0.39064172 -0.32739875 0.123209305 -0.057404667 -0.27573854 -0.20636977 -0.30847085 -0.5128407
0.5389619 -0.27652302 0.107072055 -0.15036282 0.6062627 -0.38994348 -0.10649173 -0.5096667
-0.19749084 -0.29784235 0.62506855 -0.60955083 -0.11960376 -0.010386139 0.3210369 -0.23709683
00000000: 4d06 12bf aa46 9abd a22f 53be 8646 7dbd
00000010: 51d3 10bf cb21 f33d 9598 44bf a758 d2bd
00000020: 18fc 40bc 7d4f bcbe 0116 ca3e d0fe 7abd
00000030: 5124 05be 6fcf d4be bc6e 9ebd 212c 463e
00000040: 6e95 f1be 0077 90be 3c4e a43e 7e55 5d3e
00000050: c094 373f 7d57 d2be ca9a 3ebf 1d60 1b3e
00000060: 34b9 da3c 0b30 48bf 478b afbe c50c 46be
00000070: 736b d9be 1bba dcbe d3b1 123d adbc 4a3b
00000080: 9f36 29bf 6efd 933c a8cd 0b3e c7cb 183e
00000090: 2546 c0bd acd2 c6be f0e7 cabd 1d7a 0b3e
000000a0: 3102 c83e cfa0 a7be 2955 fc3d 2821 6bbd
000000b0: 9a2d 8dbe 9952 53be e4ef 9dbe 8749 03bf
000000c0: 68f9 093f 6d94 8dbe 9848 db3d b6f8 19be
000000d0: 0834 1b3f aca6 c7be 5618 dabd 8479 02bf
000000e0: 0a3b 4abe cb7e 98be 7e04 203f 860b 1cbf
000000f0: d1f2 f4bd a02a 2abc f35e a43e 83c9 72be

body.2.weight f4 [64, 64]
-0.089720935 -0.062328234 -0.005518496 -0.063503265 0.047700897 0.08657844 -0.06838088 0.07269272
-0.04235165 -0.06315416 -0.10126683 -0.069765225 -0.101787284 0.11842452 0.10193691 0.01967591
-0.11091785 -0.10393852 0.07253319 -0.028512642 -0.10797328 -0.02964449 -0.026446268 0.06732297
-0.018516317 0.08939141 0.04764676 -0.016950741 -0.11618839 -0.0085437745 -0.085311845 -0.051679403
0.101471946 0.10957651 -0.014521003 0.103315994 -0.029451817 -0.05129595 0.078439385 0.09929727
-0.10912746 -0.04935302 -0.020450711 0.08761999 0.04213856 -0.106866956 0.05192353 -0.059063584
0.023543552 0.06638171 0.111957 0.008511215 0.08552016 -0.103250265 -0.017083108 -0.04472345
0.05376236 0.006252557 -0.11039357 0.072860196 0.105138764 0.06441824 0.097338974 0.010682389
0.0914421 -0.078364514 0.05927846 -0.06817517 -0.11466646 0.013198862 -0.037985444 0.06867119
0.046176188 -0.059945006 0.021894189 -0.033982262 -0.042175267 0.043246567 0.01758862 -0.032166783
-0.036149547 0.06520733 0.010786459 0.08168902 -0.12710766 0.027864115 -0.06829141 -0.015903784
-0.043593854 -0.06199361 0.0877703 -0.038785096 -0.098407105 0.09220169 0.094063826 -0.06605984
-0.1285568 -0.07783764 0.060847744 0.10278114 0.029932626 0.016999036 0.072870865 -0.14504933
-0.08652772 0.025787298 -0.056035798 -0.05192153 -0.06528233 0.043397456 -0.0013026744 -0.080707125
-0.20981477 0.013838597 0.03123878 -0.12206468 -0.103432335 -0.112277016 -0.16617826 0.10808889
0.039915934 -0.0686026 -0.20973168 0.03930288 -0.02539027 -0.020114347 -0.075386204 -0.05840489
0.007517148 0.054127384 -0.029596135 -0.0094925165 -0.10374659 -0.053357318 -0.10561925 -0.10855926
0.0908744 0.033855975 -0.023162842 -0.11190568 0.08876572 0.0109111965 -0.058813926 -0.093343005
-0.023908803 -0.01557596 0.113716185 0.114168316 -0.112899795 -0.075187996 0.059216432 -0.0016903132
0.113775834 0.023346432 -0.12428008 0.007285446 -0.04286909 0.08547365 -0.023917824 -0.09499395
-0.023805916 0.021685546 -0.08230081 -0.11994159 0.073239595 0.025997251 -0.018992156 0.038470853
-0.11023284 0.12169926 0.01094893 -0.11312771 -0.10625371 0.023648962 -0.07346581 0.05434826
-0.04795205 -0.05031143 -0.03610839 -0.011697382 -0.112855524 0.060270816 -0.041606788 0.1074612
-0.06703445 0.0010909736 -0.11505774 -0.1128072 -0.02561893 0.05963604 0.040201485 0.11596806
0.0045193722 -0.01337585 -0.019134685 -0.05687794 -0.016589763 -0.10114695 -0.10431757 0.00916308
-0.048419382 0.061261132 -0.1130635 -0.018425822 0.03983826 -0.11578983 0.01672138 -0.103343844
-0.04891425 0.0100183785 -0.071847305 0.0024166852 -0.017197138 0.049608696 -0.10851105 0.12269698
-0.056322336 -0.05003385 -0.0404482 0.07413503 0.05655572 0.04236682 -0.11344464 0.08642267
-0.044157516 -0.06065781 0.121572435 -0.027203768 0.03193857 0.07374118 0.017534716 0.02465227
-0.0074341903 0.07708507 -0.0040428755 -0.083530694 -0.06414741 0.020968927 0.016069472 0.04930753
-0.11183826 -0.008562652 0.1189695 0.07107356 0.07375486 0.09784864 0.060609166 0.11939854
0.08158213 -0.07565286 -0.09597358 -0.12285947 -0.045040917 -0.09356949 -0.01566352 0.06732254
00000000: 9cbf b7bd e44b 7fbd 80d4 b4bb 000e 82bd
00000010: 0462 433d 0a50 b13d 460b 8cbd ecdf 943d
00000020: ec78 2dbd f856 81bd fc64 cfbd 12e1 8ebd
00000030: da75 d0bd 8e88 f23d 4cc4 d03d 602f a13c
00000040: e628 e3bd b8dd d4bd 488c 943d 5893 e9bc
00000050: 1821 ddbd 00d9 f2bc d8a5 d8bc a0e0 893d
00000060: 88af 97bc d812 b73d 4029 433d 48dc 8abc
00000070: 2ef4 edbd 30fb 0bbc fab7 aebd c8ad 53bd
00000080: 86d0 cf3d a669 e03d 80e9 6dbc 5697 d33d
00000090: f044 f1bc b41b 52bd d4a4 a03d 5e5c cb3d
000000a0: 387e dfbd 6426 4abd 4088 a7bc 1c72 b33d
000000b0: 7c99 2c3d 10dd dabd c4ad 543d a8ec 71bd
000000c0: 68de c03c 22f3 873d b649 e53d a072 0b3c
000000d0: 3225 af3d e074 d3bd e0f1 8bbc f02f 37bd
000000e0: ec35 5c3d 40e2 cc3b 0616 e2bd ba37 953d
000000f0: fe52 d73d b6ed 833d a859 c73d 3005 2f3c
00000100: ff45 bb3d 937d a0bd f8cd 723d 6c9f 8bbd
00000110: 40d6 eabd 0a40 583c a096 1bbd 7ba3 8c3d
00000120: 3e23 3d3d e588 75bd 715b b33c fc30 0bbd
00000130: f9bf 2cbd 5023 313d 0216 903c 51c1 03bd
00000140: 8c11 14bd 6c8b 853d b0b9 303c 934c a73d
00000150: 8328 02be 4943 e43c 5edc 8bbd a748 82bc
00000160: 788f 32bd 03ed 7dbd eac0 b33d 1fdd 1ebd
00000170: aa89 c9bd 3dd4 bc3d 89a4 c03d 624a 87bd
00000180: 65a4 03be 5769 9fbd 7c3b 793d eb7e d23d
00000190: 4435 f53c 9041 8b3c 523d 953d d087 14be
000001a0: 7235 b1bd e23f d33c cb85 65bd acab 54bd
000001b0: beb2 85bd 88c1 313d 80be aaba c749 a5bd
000001c0: afd9 56be 48bb 623c 78e8 ff3c 0cfd f9bd
000001d0: 55d4 d3bd 7ef1 e5bd a22a 2abe b55d dd3d
000001e0: e47e 233d 857f 8cbd e7c3 56be 0ffc 203d
000001f0: 41ff cfbc d8c6 a4bc 1564 9abd f739 6fbd
00000200: 6852 f63b adb4 5d3d 9873 f2bc 8086 1bbc
00000210: 1879 d4bd 348d 5abd e84e d8bd 5154 debd
00000220: 5c1c ba3d 90ac 0a3d 00c0 bdbc ce2e e5bd
00000230: cdca b53d e0c4 323c dfe6 70bd 9e2a bfbd
00000240: 65dc c3bc 5032 7fbc 08e4 e83d 14d1 e93d
00000250: 0238 e7bd 2afc 99bd ee8c 723d 808d ddba
00000260: 4e03 e93d 0441 bf3c 8e86 febd c0ba ee3b
00000270: 8097 2fbd cf0c af3d 50ef c3bc 308c c2bd
00000280: a004 c3bc e3a5 b13c 548d a8bd f0a3 f5bd
00000290: a4fe 953d 30f8 d43c 7095 9bbc 9d93 1d3d
000002a0: c1c1 e1bd 763d f93d 2463 333c 80af e7bd
000002b0: 8c9b d9bd 78bb c13c 3e75 96bd 489c 5e3d
000002c0: 5e69 44bd 5c13 4ebd 64e6 13bd 60a6 3fbc
000002d0: cc20 e7bd 88de 763d e16b 2abd 9e14 dc3d
000002e0: 5c49 89bd 00ff 8e3a 64a3 ebbd 7607 e7bd
000002f0: cade d1bc ec44 743d 50aa 243d aa80 ed3d
00000300: 3e17 943b 6226 5bbc 58c0 9cbc d8f8 68bd
00000310: 41e7 87bc 2226 cfbd 73a4 d5bd be20 163c
00000320: 6753 46bd f4ec 7a3d d68d e7bd c0f1 96bc
00000330: 712d 233d 3823 edbd 47fb 883c f0a5 d3bd
00000340: 4f5a 48bd 2024 243c ae24 93bd 4061 1e3b
00000350: 03e1 8cbc 7d32 4b3d 0b3b debd 8e48 fb3d
00000360: 40b2 66bd 4bf0 4cbd 03ad 25bd 1bd4 973d
00000370: f8a6 673d d588 2d3d aa55 e8bd 5efe b03d
00000380: 83de 34bd 5374 78bd f8fa f83d 70da debc
00000390: 05d2 023d 9e05 973d f7a4 8f3c 8ff3 c93c
000003a0: 829a f3bb c7de 9d3d 197a 84bb 2412 abbd
000003b0: b85f 83bd 07c7 ab3c 20a4 833c b1f6 493d
000003c0: 750b e5bd 5e4a 0cbc 48a6 f33d 048f 913d
000003d0: ca0c 973d de64 c83d 5141 783d 3987 f43d
000003e0: 8814 a73d e3ef 9abd cc8d c4bd bf9d fbbd
000003f0: d37c 38bd 5ca1 bfbd c850 80bc 66e0 893d

body.2.bias f4 [64]
0.05083482 -0.23577888 0.06832386 -0.07016974 0.119115785 -0.02663981 0.073350094 -0.08574634
0.2840401 0.0599593 -0.028957142 -0.17544664 -0.16567406 -0.08427733 0.15943827 -0.017425548
0.09496997 0.024931788 0.031857345 -0.17848977 0.018955749 0.0033987164 -0.029666511 -0.017925883
0.078171834 0.027867246 -0.22123396 0.044386923 -0.10823336 -0.07233611 -0.19721915 -0.06564154
0.021463998 -0.18962064 0.026332904 -0.18147211 -0.08035347 0.09829098 -0.117026836 -0.0038544838
-0.010448187 -0.12792584 -0.016888518 -0.023516461 -0.068340525 -0.0032220753 -0.050413754 -0.10099676
-0.35592347 -0.20445657 -0.2731712 -0.107454814 0.12233351 -0.13220534 0.032813482 0.07382385
0.0591564 -0.087746195 -0.3640836 -0.11646526 0.06394221 -0.42818084 -0.04697676 0.20164856
00000000: 2c38 503d 0570 71be 61ed 8b3d 27b5 8fbd
00000010: faf2 f33d bb3b dabc 9338 963d c79b afbd
00000020: b46d 913e e297 753d 8737 edbc 49a8 33be
00000030: 76a6 29be 9899 acbd c943 233e 06c0 8ebc
00000040: 9e7f c23d c03d cc3c d97c 023d 06c6 36be
00000050: 1649 9b3c 00bd 5e3b 2f07 f3bc 4dd9 92bc
00000060: 8e18 a03d da49 e43c 288b 62be 10cf 353d
00000070: 74a9 ddbd f424 94bd d1f3 49be 126f 86bd
00000080: 44d5 af3c ea2b 42be 1ab8 d73c d3d3 39be
00000090: 5c90 a4bd c84c c93d c4ab efbd 829b 7cbb
000000a0: df2e 2bbc fefe 02be ca59 8abc 98a5 c0bc
000000b0: 1ef6 8bbd 7429 53bb a77e 4ebd 64d7 cebd
000000c0: 9a3b b6be 105d 51be 18dd 8bbe 4511 dcbd
000000d0: fe89 fa3d d660 07be 6e67 063d f530 973d
000000e0: fb4d 723d 47b4 b3bd 2a69 babe 5785 eebd
000000f0: 22f4 823d 853a dbbe b46a 40bd f67c 4e3e

body.4.weight f4 [4, 64]
-0.0005509397 0.051535327 0.010632421 0.0015856522 0.008279892 0.0016343973 0.30203462 -0.0038942068
0.2361588 -0.0040424354 0.06185757 0.2601653 0.041069154 0.008371963 0.15613529 0.057383087
0.006343316 0.003734772 0.056330375 0.17449266 0.043799456 -0.0020591356 0.0020323799 0.022023967
-0.011522066 0.0018366406 0.33513272 0.0015756246 0.0013330271 0.083373904 0.038590267 -0.009277472
0.08684517 0.021497019 0.010691528 0.039773636 0.043535642 0.008694825 0.35094786 -0.0031777315
0.28484687 0.106282584 0.3499985 0.005698392 0.0067877257 0.045293607 0.06772135 0.06923212
0.14740102 0.40582258 0.36632633 0.051532626 -0.007155677 -0.024157397 0.083548605 0.05579127
0.011673632 0.06035045 0.38053975 -0.009499385 0.18265732 0.26614022 0.06895429 0.31546333
0.009673372 0.022521332 -0.00060866785 0.0030865234 0.009901019 -0.011213752 0.26993784 0.0258955
0.30668366 -0.010832662 0.037225354 0.2439705 0.058172286 0.013445787 0.09980633 -0.027811697
0.0011936319 -0.0057808827 -0.008153713 0.2010969 0.037087068 0.00033134222 0.002860461 -0.08857752
-0.0047080065 0.0045131505 0.32922938 0.007427627 0.009626405 0.18583569 0.032844875 0.012356912
-0.011747263 0.030001065 -0.0014109467 0.05314474 -0.01969339 -0.0011979701 0.37172347 -0.00091864
0.25363544 0.10550167 0.30238724 -0.0004920503 0.01907182 0.017965112 -0.01571562 0.056270383
0.14848103 0.17780392 0.13307418 0.049667895 -2.4044886e-05 -0.023649855 0.08672212 0.019653272
-0.021408759 0.090753295 0.29384825 -0.0059451377 0.14435442 0.25619745 0.09885719 0.22576049
-0.007989982 0.040604185 -0.004842077 0.003705144 -0.00792606 -0.01569098 0.25541574 0.02310894
0.06759466 -0.00206852 0.06559404 0.2382738 0.060090743 0.0210227 0.11727022 0.13021725
0.0057551516 0.0048225997 0.05357178 0.06173707 -0.07379092 -0.009747373 0.00855697 -0.016440699
-0.015665943 -0.004318875 0.25203723 0.0031787595 0.0047454126 0.030418223 0.03989747 -0.0077834097
0.055758215 0.04254282 0.008477783 0.045507345 0.047099568 -0.00019267679 0.32536164 -0.009493972
0.23092288 0.10724648 0.33179465 0.005690543 -0.037098926 0.033360794 0.16704209 0.055647638
0.18692385 0.36689872 0.26988864 0.04703114 -0.0030308971 -0.02215206 0.04131774 0.028883012
0.002085728 0.27697676 0.27217394 -0.021888696 0.14010663 0.17741182 0.040911198 0.26128036
0.005511879 0.021573123 0.006191916 -0.0066777114 0.006279392 -0.012154211 0.37167478 0.028201783
0.440183 -0.0017065792 0.025428295 0.3016056 0.048969045 0.0062327664 0.16072735 0.00850787
0.0015137519 0.006879989 0.030121831 0.099713996 -0.09336049 -0.008199099 -0.0072438824 0.032236617
-0.017261598 0.0009265039 0.096904226 0.008705266 0.0076705087 0.09285821 0.02589195 -0.007775839
0.025736831 0.019502744 0.009125659 0.02909209 0.060929857 0.01107604 0.058175974 -0.0041030943
0.28774032 0.037017237 0.040512986 -0.007915998 -0.03505235 0.012665904 0.1373771 0.041003026
0.043000396 0.17694518 -0.034381263 0.012123947 0.004582653 -0.017914537 0.033466205 0.07200794
-0.008787213 -0.043099973 0.24700125 -0.008510816 0.22376427 0.0902795 0.042196497 0.5072131
00000000: f06c 10ba b516 533d 9b33 2e3c a9d5 cf3a
00000010: 62a8 073c 4639 d63a 48a4 9a3e f335 7fbb
00000020: 9dd3 713e 6876 84bb 5d5e 7d3d 6334 853e
00000030: 2138 283d 8f2a 093c eee1 1f3e 870a 6b3d
00000040: 97db cf3b 14c3 743b aeba 663d 34ae 323e
00000050: 0f67 333d 90f2 06bb ad31 053b 9b6b b43c
00000060: 0cc7 3cbc 6fbb f03a 8496 ab3e 3085 ce3a
00000070: f8b8 ae3a f0bf aa3d d410 1e3d 8a00 18bc
00000080: e1db b13d 841a b03c 852b 2f3c aee9 223d
00000090: 6e52 323d bd74 0e3c 70af b33e 7d41 50bb
000000a0: 73d7 913e afaa d93d 0133 b33e 94b9 ba3b
000000b0: 926b de3b ca85 393d 7eb1 8a3d 92c9 8d3d
000000c0: 4bf0 163e fac7 cf3e 208f bb3e e013 533d
000000d0: 2b7a eabb bce5 c5bc 881b ab3d 6385 643d
000000e0: c342 3f3c 0932 773d 1bd6 c23e 4fa3 1bbc
000000f0: 850a 3b3e 8843 883e e837 8d3d 6984 a13e
00000100: 107d 1e3c a87e b83c 028f 1fba 4547 4a3b
00000110: e237 223c e3b9 37bc 4b35 8a3e cd22 d43c
00000120: a405 9d3e 7a7b 31bc 9d79 183d 67d3 793e
00000130: 1046 6e3d b84b 5c3c 4367 cc3d 5bd5 e3bc
00000140: a473 9c3a 8f6d bdbb 2797 05bc 59ec 4d3e
00000150: 9ce8 173d 00b8 ad39 9276 3b3b 2168 b5bd
00000160: 9f45 9abb 0de3 933b c190 a83e 7463 f33b
00000170: 12b8 1d3c b64b 3e3e 5988 063d a574 4a3c
00000180: 9877 40bc cbc4 f53c 84ef b8ba 4dae 593d
00000190: 0854 a1bc 3505 9dba 8a52 be3e e3d0 70ba
000001a0: 81dc 813e 4211 d83d 80d2 9a3e f0fc 00ba
000001b0: 813c 9c3c 922b 933c 0bbe 80bc c67b 663d
000001c0: 690b 183e 3b12 363e 9944 083e 9070 4b3d
000001d0: 00b4 c9b7 57bd c1bc 5e9b b13d e6ff a03c
000001e0: 6c61 afbc dddc b93d 4773 963e 6ecf c2bb
000001f0: a5d1 133e 502c 833e a375 ca3d c22d 673e
00000200: 6ae8 02bc 9350 263d 49aa 9ebb 00d2 723b
00000210: 4edc 01bc 5f8a 80bc dac5 823e f64e bd3c
00000220: 126f 8a3d 0290 07bb 2b56 863d 0cfe 733e
00000230: b621 763d cc37 ac3c 5e2b f03d ac57 053e
00000240: b695 bc3b e606 9e3b 156e 5b3d 03e0 7c3d
00000250: b21f 97bd 72b3 1fbc 8932 0c3c a5ae 86bc
00000260: dd55 80bc 5985 8dbb 060b 813e bc52 503b
00000270: 687f 9b3b a32f f93c 886b 233d f90b ffbb
00000280: ba62 643d 6141 2e3d 66e6 0a3c e965 3a3d
00000290: 7aeb 403d 4809 4ab9 cd95 a63e 9b8c 1bbc
000002a0: 0c77 6c3e 0ba4 db3d fde0 a93e bc77 ba3b
000002b0: 0bf5 17bd 54a5 083d 150d 2b3e c7ee 633d
000002c0: f768 3f3e 26da bb3e d82e 8a3e baa3 403d
000002d0: 04a2 46bb 3d78 b5bc ca3c 293d 119c ec3c
000002e0: b6b0 083b e6cf 8d3e 625a 8b3e ec4f b3bc
000002f0: 1d78 0f3e 72ab 353e 8092 273d 8ac6 853e
00000300: fe9c b43b 1eba b03c 8ee5 ca3b b4d0 dabb
00000310: 5cc3 cd3b 7522 47bc 284c be3e 6d07 e73c
00000320: ab5f e13e 4caf dfba 004f d03c 0d6c 9a3e
00000330: c493 483d 3c3c cc3b b695 243e 9864 0b3c
00000340: 1669 c63a 8871 e13b 0fc2 f63c da36 cc3d
00000350: c933 bfbd 8455 06bc 175e edbb 8b0a 043d
00000360: 3268 8dbc a0e0 723a b975 c63d 88a0 0e3c
00000370: e458 fb3b 722c be3d 5b1b d43c 77cc febb
00000380: 0cd6 d23c 38c4 9f3c ca83 153c 8952 ee3c
00000390: 9691 793d 4778 353c ee49 6e3d 4073 86bb
000003a0: b352 933e 639f 173d f2f0 253d 1ab2 01bc
000003b0: 0e93 0fbd a784 4f3c 95ac 0c3e caf2 273d
000003c0: 2f21 303d 1e31 353e 5ed3 0cbd 85a3 463c
000003d0: 142a 963b 82c1 92bc dc13 093d e678 933d
000003e0: 3ef8 0fbc 9989 30bd e5ed 7c3e f370 0bbc
000003f0: 7622 653e 75e4 b83d 3cd6 2c3d b8d8 013f

body.4.bias f4 [4]
0.30563903 0.2613301 0.23405202 0.5249737
00000000: b87c 9c3e 0fcd 853e 55ab 6f3e ad64 063f

body.0.weight f4 [64, 5]
0.2762304 0.048637092 0.31606925 -0.18669605 -0.120784074 -0.21664222 0.27619708 0.23579812
-0.31761608 -0.24761389 0.99732953 0.8684475 -0.99425036 0.09095333 0.9570662 -0.015211223
0.24222584 1.1412792 -0.00075516116 0.19459784 -1.5759206 -1.0372344 1.5932715 0.24317218
-0.13485298 0.014264764 0.017868953 1.2957461 -0.009785984 0.57746565 0.8749422 1.2737719
-1.2965775 0.1889957 1.0082163 -1.6397446 -0.91060793 1.0809218 0.274851 -0.54386026
-1.4749753 -0.869744 1.3066077 0.242823 -0.22754575 -0.1389246 0.3003509 -0.07062504
-0.014123857 -0.25308043 -1.6781322 -1.1940852 1.3656594 0.15137072 -0.4661352 -1.0417225
-1.1641448 1.6673532 0.14475545 -0.5343312 0.8582387 0.5915201 0.6652871 -0.006796187
0.5205585 0.34353524 -0.016275585 0.16187572 -0.38033175 -0.25190273 0.9777783 0.8144062
-1.0466133 -0.040653147 0.7398528 0.9445619 0.5036882 -0.83219874 0.40392083 0.8986344
-0.8594044 -0.9883674 1.5428839 0.3962381 -0.21444215 0.94854945 0.6477524 -0.87725526
0.23003946 0.40068856 0.6582585 0.7251525 -1.3874255 0.08988843 0.81300354 -0.24889247
-0.3331506 0.5155973 -0.1551425 0.17553811 -0.652599 0.13834323 0.13171344 0.21910784
0.1586736 -0.87726635 -1.0708299 1.4609479 0.5301127 -0.310823 0.8810445 0.61048317
-1.4806752 0.26230708 0.5942779 1.0433806 1.3108977 -1.6016781 0.10541842 0.44092065
0.2433232 -0.26115543 -0.041765273 -0.30485174 -0.12471771 0.39245647 0.17217028 -0.32758403
-0.27026922 -0.33527195 -0.14555305 -0.284288 0.15997946 -0.23370473 -0.14134887 0.7373496
1.2442623 -0.99801373 0.43069148 0.18832968 -0.6634841 -0.560703 1.4130881 0.012240333
0.38731626 1.1060005 0.703483 0.24419938 -0.004063661 0.6539868 -0.13298607 -0.31833357
-0.35685 -0.06389856 -0.2486307 0.7147447 0.83447856 -1.4495288 0.13768256 0.6731833
1.2629955 1.366784 -1.2353383 0.070241526 0.43994904 -0.090488724 0.45218962 1.2581288
-0.0019713629 0.26340663 0.36160737 0.8841337 0.4090893 -0.0022784646 0.2507032 0.17615032
0.7546625 1.2727678 -0.0046851817 0.3997681 -1.3112493 -0.38303646 1.3890285 0.4731887
-0.4142186 -0.2697456 0.18847042 -0.2084599 -0.09577057 -0.3370486 0.28916547 -0.14828254
-0.28889933 -0.14870039 0.023934186 1.4544946 0.6279551 -1.476361 0.01813167 0.32858825
1.3605435 1.3314192 -0.85645235 0.28751576 0.5067632 -1.654014 -1.456153 0.8959652
0.38628197 -0.44023916 0.40729308 -0.09959109 0.26989478 -0.3238808 0.26432586 -1.504754
-0.9684836 1.639844 0.17087317 -0.012316046 0.43463576 -0.2370611 0.28065318 -0.13775435
-0.28786755 0.6060986 0.24819009 0.41734585 -0.004412434 0.6771921 0.6956432 0.66290116
1.0149076 -0.005285254 0.5132867 -0.3937668 0.31772834 0.1410504 -0.3287585 -0.18387774
0.0006708306 -0.31443733 -0.11235828 -0.079392545 -0.115284435 1.2791696 1.0556668 -0.9015412
0.4795298 0.8157055 0.8025991 0.42103988 -1.6441737 0.45341375 0.86747926 -0.36392674
00000000: 126e 8d3e b037 473d d4d3 a13e 402d 3fbe
00000010: a45d f7bd 75d7 5dbe b469 8d3e 1075 713e
00000020: 939e a2be 7f8e 7dbe fd50 7f3f 9352 5e3f
00000030: 3187 7ebf bd45 ba3d 4a02 753f 7e38 79bc
00000040: 0d0a 783e 7015 923f 02f6 45ba a844 473e
00000050: c4b7 c9bf 19c4 84bf 52f0 cb3f 2102 793e
00000060: e616 0abe c2b6 693c e961 923c 02db a53f
00000070: 6455 20bc cad4 133f 36fc 5f3f f50a a33f
00000080: 40f6 a5bf 1788 413e 3b0d 813f 27e3 d1bf
00000090: 9a1d 69bf a55b 8a3f 45b9 8c3e 6d3a 0bbf
000000a0: fecb bcbf 8ba7 5ebf ec3e a73f 98a6 783e
000000b0: c101 69be 4042 0ebe 98c7 993e dca3 90bd
000000c0: c067 67bc c293 81be 09cd d6bf c9d7 98bf
000000d0: edcd ae3f ed00 1b3e 46a9 eebe 2a57 85bf
000000e0: b202 95bf d46b d53f c63a 143e eec9 08bf
000000f0: 88b5 5b3f dc6d 173f 4150 2a3f 8cb2 debb
00000100: 5243 053f dae3 af3e 6054 85bc c0c2 253e
00000110: d8ba c2be 65f9 80be ae4f 7a3f ed7c 503f
00000120: 6df7 85bf ea83 26bd fe66 3d3f cfce 713f
00000130: b6f1 003f fa0a 55bf b6ce ce3e e70c 663f
00000140: ed01 5cbf a505 7dbf 387d c53f b8df ca3e
00000150: b996 5bbe 23d4 723f 1ad3 253f cd93 60bf
00000160: 778f 6b3e 0d27 cd3e a183 283f 98a3 393f
00000170: 2997 b1bf 6d17 b83d 0021 503f abdd 7ebe
00000180: b792 aabe 2ffe 033f addd 1ebe 43c0 333e
00000190: ba10 27bf d9a9 0d3e e3df 063e ce5d 603e
000001a0: 557b 223e 8794 60bf f410 89bf 5700 bb3f
000001b0: 77b5 073f 3124 9fbe 228c 613f a048 1c3f
000001c0: c486 bdbf 1d4d 863e 9922 183f 7f8d 853f
000001d0: 7fcb a73f ca03 cdbf 9de5 d73d 5ac0 e13e
000001e0: b829 793e 2ab6 85be 1012 2bbd 8715 9cbe
000001f0: 006c ffbd 0ef0 c83e 684d 303e 18b9 a7be
00000200: ba60 8abe c4a8 abbe dc0b 15be 328e 91be
00000210: a8d1 233e 4b50 6fbe c2bd 10be f2c2 3c3f
00000220: fd43 9f3f d47d 7fbf 9883 dc3e 7fd9 403e
00000230: 18da 29bf 3b8a 0fbf 12e0 b43f ad8b 483c
00000240: 514e c63e 6d91 8d3f 7617 343f 670f 7a3e
00000250: 7628 85bb ae6b 273f 802d 08be 9efc a2be
00000260: 0bb5 b6be 40dd 82bd 0c99 7ebe 82f9 363f
00000270: 63a0 553f 298a b9bf a8fc 0c3e be55 2c3f
00000280: d6a9 a13f c7f2 ae3f 911f 9ebf cada 8f3d
00000290: 0041 e13e 2752 b9bd 6685 e73e 5d0a a13f
000002a0: fb31 01bb 3cdd 863e 9a24 b93e 9656 623f
000002b0: 2774 d13e 4b52 15bb 2b5c 803e c060 343e
000002c0: 9031 413f 0eea a23f 2786 99bb 68ae cc3e
000002d0: 04d7 a7bf 5b1d c4be b0cb b13f ca45 f23e
000002e0: 7614 d4be 181c 8abe 64fe 403e 8376 55be
000002f0: 5c23 c4bd a291 acbe 7f0d 943e 61d7 17be
00000300: 9dea 93be ea44 18be a011 c43c e12c ba3f
00000310: aac1 203f 66f9 bcbf de88 943c b83c a83e
00000320: 4a26 ae3f f26b aa3f 7640 5bbf 4435 933e
00000330: 3cbb 013f bbb6 d3bf 3963 babf fa5d 653f
00000340: c0c6 c53e 0767 e1be b888 d03e 6af6 cbbd
00000350: a62f 8a3e b4d3 a5be b855 873e c79b c0bf
00000360: 8bee 77bf 68e6 d13f 60f9 2e3e 3ec9 49bc
00000370: 9488 de3e 25c0 72be c6b1 8f3e 7a0f 0dbe
00000380: 6063 93be 4729 1b3f 8b25 7e3e 5bae d53e
00000390: 2e96 90bb 765c 2d3f ac15 323f e4b3 293f
000003a0: 7ee8 813f ed2f adbb c266 033f cd9b c9be
000003b0: 4aad a23e 846f 103e 0953 a8be 724a 3cbe
000003c0: aeda 2f3a eefd a0be 191c e6bd 8f98 a2bd
000003d0: 3f1a ecbd d4bb a33f 1720 873f 67cb 66bf
000003e0: ee84 f53e 13d2 503f 2277 4d3f 8a92 d73e
000003f0: 4974 d2bf d925 e83e 1f13 5e3f 9b54 babe

body.0.bias f4 [64]
-0.12941748 -0.39602858 0.72737014 0.6454217 -0.6905975 0.123963095 0.07360924 -0.7129239
-0.70467883 -0.28905907 -0.38309762 -0.75321496 0.92524564 0.32405156 0.6111203 0.5308734
-0.3735788 -0.1571455 0.7989157 0.3021648 -0.6764705 -0.3584917 0.27839422 0.20653816
-0.057926714 0.16434431 0.02415654 0.51499134 -0.12329272 0.24554074 -0.23081468 -0.039874956
0.48530278 0.7461191 0.87597245 0.8659749 -0.61870277 0.21546829 -0.31994754 0.63249624
0.58854944 -0.73556817 0.37797 -0.516756 -0.43233815 0.8592693 0.93765664 0.11136305
0.40195817 0.36316195 -0.0085509345 0.2394675 0.40500844 0.3750029 -0.05911812 0.72936976
-0.03798255 0.44635358 0.6823355 -0.17060257 0.60656023 0.07035413 0.26567668 0.34038496
00000000: 0486 04be 42c4 cabe ee34 3a3f 5b3a 253f
00000010: ffca 30bf 5de0 fd3d 71c0 963d 2e82 36bf
00000020: d565 34bf 8dff 93be 5f25 c4be b2d2 40bf
00000030: e6dc 6c3f 16ea a53e 6172 1c3f 52e7 073f
00000040: b845 bfbe c0ea 20be bd85 4c3f 58b5 9a3e
00000050: 2c2d 2dbf 398c b7be b089 8e3e bd7e 533e
00000060: 9044 6dbd e049 283e f0e3 c53c 79d6 033f
00000070: e580 fcbd 086f 7b3e af5a 6cbe ec53 23bd
00000080: 9b79 f83e a901 3f3f bb3f 603f 88b0 5d3f
00000090: 4e63 1ebf b8a3 5c3e 2ad0 a3be 46eb 213f
000000a0: 2dab 163f 324e 3cbf 4985 c13e 1f4a 04bf
000000b0: 6d5b ddbe 13f9 5b3f 440a 703f 5012 e43d
000000c0: 76cd cd3e 5df0 b93e 3819 0cbc f836 753e
000000d0: 445d cf3e 6100 c03e d825 72bd fab7 3a3f
000000e0: 9793 1bbd 7588 e43e 8aad 2e3f 71b2 2ebe
000000f0: 8847 1b3f d315 903d c606 883e f046 ae3e

body.2.weight f4 [64, 64]
-0.07006119 0.09417929 -0.0047563612 -0.019519165 -0.050220028 -0.11044541 0.08616924 0.06498517
0.045589685 -0.043265134 -0.09727207 -0.07287645 0.03945233 -0.05128652 -0.043776423 -0.09718299
-0.09205261 -0.09201269 0.07357402 -0.019277647 -0.019945309 -0.10405876 -0.018112049 0.07152429
-0.026740327 -0.042831138 -0.07006256 0.10675852 0.052512825 0.06974137 0.062043503 0.059145316
-0.04295771 0.038412347 -0.010567188 -0.011068657 0.023472369 -0.08744031 -0.025200278 -0.03981082
0.039550096 0.10451645 0.06926146 0.05243063 0.077542886 -0.052429274 0.08654457 0.09504749
0.0027269125 -0.08809851 -0.10842304 -0.04338357 -0.088227585 -0.07034767 0.120584205 0.084563866
-0.085765496 0.07522644 -0.017064035 0.06719142 -0.07109456 0.09564416 -0.107627735 -0.028472781
-0.12180191 -0.0434393 -0.0850212 -0.10509236 -0.08309691 0.063636124 -0.017762884 0.034880996
-0.07516952 0.09786822 -0.069954425 0.09413198 0.07367264 0.017399862 0.025162712 -0.08260609
-0.05437918 -0.11390194 -0.09526774 -0.032254532 0.102979094 0.11141859 0.022064164 -0.110131234
0.019223437 0.09824613 -0.00017116964 -0.002698183 0.020917088 -0.056245744 -0.04394774 0.024928287
-0.09529702 -0.007882535 -0.07711972 -0.055230007 -0.05108255 0.110073894 -0.04660189 0.030155063
-0.117513 0.10035816 0.114521146 0.097030446 -0.07474582 -0.047960535 -0.12459856 0.04405293
-0.11242524 0.10284418 -0.111251295 -0.0062579215 -0.053339005 0.11659384 -0.123806864 0.0078486055
-0.11590427 -0.0460909 -0.0007184893 0.062050804 -0.11346918 0.05371587 -0.10929389 -0.11613183
-0.035176903 -0.018508047 -0.025954446 0.321433 0.2622137 0.4306127 -0.14716868 -0.009280807
0.10884366 -0.06018938 0.117401406 0.016414199 0.46234643 -0.03140013 0.35991204 -0.047573183
0.01919415 0.08105932 -0.027313467 -0.051100876 -0.029924957 0.08893729 0.08187552 -0.013912489
0.038034633 -0.056625813 0.06251322 0.012376714 0.0049679643 0.61218256 -0.050556883 -0.07841754
-0.005785606 0.30897155 0.527327 0.5039349 -0.046080086 -0.00901258 -0.049835794 -0.13902624
0.06474553 -0.071485244 -0.09242028 0.25858128 0.0884057 0.510777 0.4564625 -0.050895184
0.07388493 -0.04305183 -0.080431044 0.037894428 -0.017203439 0.25649062 0.10630551 -0.04431096
-0.030786604 -0.113427706 -0.2086609 -0.084857956 -0.012178588 0.40600705 0.33164132 0.11319275
-0.025659412 -0.12374188 0.026156932 0.034792647 -0.02862367 -0.11680451 -0.028982759 -0.01142624
0.09345929 -0.08051476 0.11893387 0.07608046 -0.089156434 0.023389429 -0.09794316 -0.10537329
-0.051571384 -0.07075244 -0.017174706 0.05561295 -0.02304262 0.11866489 0.043782994 -0.08349705
-0.110885724 -0.035604596 0.015354767 0.10812798 -0.05727206 -0.114096686 0.015697718 -0.05758436
-0.07030256 -0.116713494 0.08275662 -0.12472296 -0.112875566 0.008956701 0.027838945 -0.06404132
0.11530511 -0.095215425 -0.09833482 -0.043573186 -0.11752221 0.10310708 -0.009441972 0.0712689
-0.11974341 -0.058855087 -0.038427338 0.08242935 0.11535202 -0.085639566 0.07102074 -0.017698303
0.0019762367 0.054787844 0.024779886 0.03372045 -0.08737537 -0.0036254078 -0.080748215 -0.11069204
00000000: 3e7c 8fbd 12e1 c03d 40db 9bbb a8e6 9fbc
00000010: 84b3 4dbd 3431 e2bd 8079 b03d f216 853d
00000020: 40bc 3a3d c836 31bd 9436 c7bd 4040 95bd
00000030: c498 213d d011 52bd e84e 33bd e007 c7bd
00000040: 1486 bcbd 2671 bcbd faad 963d 28ec 9dbc
00000050: 5864 a3bc c21c d5bd b85f 94bc 547b 923d
00000060: 880e dbbc b46f 2fbd f67c 8fbd 36a4 da3d
00000070: b017 573d 90d4 8e3d 5421 7e3d 5c42 723d
00000080: 6cf4 2fbd 4456 1d3d 0022 2dbc 5059 35bc
00000090: 2049 c03c e813 b3bd d070 cebc ac10 23bd
000000a0: 48ff 213d b80c d63d f4d8 8d3d 80c1 563d
000000b0: cece 9e3d 14c0 56bd 483e b13d 42a8 c23d
000000c0: 00b6 323b fe6c b4bd e60c debd f8b2 31bd
000000d0: aab0 b4bd 7012 90bd daf4 f63d d22f ad3d
000000e0: d2a5 afbd 5210 9a3d e0c9 8bbc a89b 893d
000000f0: 069a 91bd 16e1 c33d ee6b dcbd c03f e9bc
00000100: 4873 f9bd 68ed 31bd 981f aebd aa3a d7bd
00000110: b62e aabd a853 823d 7883 91bc 60df 0e3d
00000120: 7af2 99bd 226f c83d 4444 8fbd 44c8 c03d
00000130: aee1 963d 288a 8e3c 0822 ce3c 622d a9bd
00000140: b4bc 5ebd 6c45 e9bd bc1b c3bd 541d 04bd
00000150: b4e6 d23d 6e2f e43d e8bf b43c 7c8c e1bd
00000160: 787a 9d3c 4435 c93d 007c 33b9 00d4 30bb
00000170: 505a ab3c f061 66bd 8c02 34bd 6836 cc3c
00000180: 162b c3bd c025 01bc f2f0 9dbd dc38 62bd
00000190: f03b 51bd 6c6e e13d a0e1 3ebd c007 f73c
000001a0: a8aa f0bd 9488 cd3d 108a ea3d e6b7 c63d
000001b0: 5614 99bd 4472 44bd 882d ffbd d870 343d
000001c0: 343f e6bd f89f d23d b8d7 e3bd 400f cdbb
000001d0: 007a 5abd c0c8 ee3d 748e fdbd 7097 003c
000001e0: 385f edbd d0c9 3cbd 0059 3cba fc28 7e3d
000001f0: 8862 e8bd 2c05 5c3d 7ad5 dfbd 86d6 edbd
00000200: a815 10bd 309e 97bc 6b9e d4bc de92 a43e
00000210: e040 863e 4579 dc3e 63b3 16be 870e 18bc
00000220: 6de9 de3d 2489 76bd 2670 f03d 1277 863c
00000230: acb8 ec3e 6c9d 00bd 6446 b83e 19dc 42bd
00000240: 0d3d 9d3c 6e02 a63d 7ec0 dfbc 274f 51bd
00000250: 2f25 f5bc c124 b63d 5aae a73d 35f1 63bc
00000260: 34ca 1b3d 78f0 67bd ee06 803d b3c7 4a3c
00000270: 4eca a23b ffb7 1c3f bc14 4fbd 6099 a0bd
00000280: 2e95 bdbb 8531 9e3e e7fe 063f e101 013f
00000290: 79be 3cbd 80a9 13bc 9e20 4cbd e55c 0ebe
000002a0: 4e99 843d db66 92bd d846 bdbd c464 843e
000002b0: 0c0e b53d 48c2 023f 74b5 e93e 7877 50bd
000002c0: fb50 973d 1e57 30bd 08b9 a4bd 3037 1b3d
000002d0: 3aee 8cbc bd52 833e b4b6 d93d 697f 35bd
000002e0: 3034 fcbc c94c e8bd 34ab 55be 02ca adbd
000002f0: b388 47bc 28e0 cf3e e4cc a93e 9ad1 e73d
00000300: b033 d2bc 626c fdbd 1047 d63c bc82 0e3d
00000310: 307c eabc 3437 efbd 406d edbc 2035 3bbc
00000320: 9667 bf3d ece4 a4bd 9a93 f33d 12d0 9b3d
00000330: a697 b6bd 309b bf3c 6c96 c8bd f4cd d7bd
00000340: 843c 53bd a8e6 90bd f8b1 8cbc 68ca 633d
00000350: e0c3 bcbc 9406 f33d cc55 333d 8000 abbd
00000360: 0e18 e3bd 20d6 11bd 9092 7b3c 3472 dd3d
00000370: 1c96 6abd 86ab e9bd 8098 803c 94dd 6bbd
00000380: cafa 8fbd 7c07 efbd 4e7c a93d c06e ffbd
00000390: 4e2b e7bd 20bf 123c 800e e43c 1828 83bd
000003a0: 1625 ec3d 4e00 c3bd c463 c9bd cc79 32bd
000003b0: 7caf f0bd ce29 d33d 80b2 1abc 6ef5 913d
000003c0: 083c f5bd 0812 71bd fc65 1dbd b8d0 a83d
000003d0: ae3d ec3d cc63 afbd 5273 913d 08fc 90bc
000003e0: c083 013b 3869 603d 30ff ca3c 741e 0a3d
000003f0: dcf1 b2bd 4098 6dbb 525f a5bd 82b2 e2bd

body.2.bias f4 [64]
0.0020275265 0.050822064 0.10728363 -0.11246142 0.33164158 0.066474915 0.06703351 0.19563477
0.22503044 0.1857103 0.3908868 0.11542271 0.3060928 0.024247035 -0.08733283 -0.02479795
-0.026666163 0.0707755 0.4328221 0.07961663 -0.09360091 0.41347182 0.2147905 0.4731965
-0.48842004 0.39264387 0.09457029 0.049719393 0.003085613 0.07811177 0.2081155 0.343938
-0.22126883 0.030311218 0.28606707 0.048401266 0.5288589 0.011381654 -0.09023471 0.41757196
0.097509585 0.2327921 0.09226702 0.12346711 0.23278724 -0.52716607 0.23150434 0.032690793
-0.09449941 0.04264307 -0.034704696 0.09461101 0.060559936 0.05581546 0.11690737 0.10555112
0.23089501 -0.074824385 -0.05483004 0.38803095 0.067641206 -0.42330825 0.0421656 0.02300322
00000000: 40e0 043b cc2a 503d 85b7 db3d 2c52 e6bd
00000010: edcc a93e 0024 883d dd48 893d 7b54 483e
00000020: 616e 663e d72a 3e3e 5122 c83e be62 ec3d
00000030: 32b8 9c3e b8a1 c63c 8edb b2bd 1225 cbbc
00000040: ff72 dabc bff2 903d dc9a dd3e 0b0e a33d
00000050: d5b1 bfbd 94b2 d33e 0af2 5b3e d046 f23e
00000060: 3112 fabe 9e08 c93e 11ae c13d 90a6 4b3d
00000070: ff37 4a3b 10f9 9f3d 3b1c 553e a418 b03e
00000080: 4c94 62be 3b4f f83c 6277 923e 6840 463d
00000090: 4c63 073f 1e7a 3a3c facc b8bd fecb d53e
000000a0: 1bb3 c73d 0d61 6e3e 7ef6 bc3d 53dc fc3d
000000b0: c75f 6e3e 5bf4 06bf 790f 6d3e c8e6 053d
000000c0: e888 c1bd 80aa 2e3d 8326 0ebd 6bc3 c13d
000000d0: b20d 783d c09e 643d 226d ef3d 302b d83d
000000e0: be6f 6c3e 873d 99bd 7795 60bd feab c63e
000000f0: 7987 8a3d dcbb d8be d6b5 2c3d 4071 bc3c

body.4.weight f4 [1, 64]
-0.119623706 -0.07930513 0.16120806 -0.027275562 -0.26031375 0.029166207 0.028973931 0.1058291
-0.22389108 -0.22239955 -0.37736526 0.013462438 0.38143486 -0.10282886 0.0090729045 0.13803546
-0.010194523 -0.047512777 -0.20267175 0.29725486 0.053065427 -0.25502473 -0.26444578 -0.39922184
0.45861715 -0.41737023 -0.03914689 -0.10000351 0.1044682 -0.06334482 0.2614372 -0.33646813
0.2454272 0.3214013 -0.19128583 -0.02934143 -0.33952698 -0.116526045 0.10402843 -0.35877272
-0.19353965 -0.27896303 0.09462997 0.25397682 -0.17459768 0.42714417 -0.24018389 -0.10031803
0.080100924 -0.0020437967 0.09322874 0.029621264 0.27115315 0.043427348 -0.0015018018 0.21442153
0.38990343 0.05497938 -0.095118225 -0.33755198 0.013285069 0.39096823 0.0016730012 0.03750877
00000000: 46fd f4bd ba6a a2bd ba13 253e 0071 dfbc
00000010: d847 85be f8ed ee3c bd5a ed3c edbc d83d
00000020: b443 65be b5bc 63be 0536 c1be 8f91 5c3c
00000030: 6e4b c33e f097 d2bd 85a6 143c 2b59 0d3e
00000040: ee06 27bc c29c 42bd 2f89 4fbe ca31 983e
00000050: 225b 593d 9a92 82be 7065 87be ce66 ccbe
00000060: decf ea3e 8db1 d5be 7d58 20bd a4ce ccbd
00000070: 6cf3 d53d eeba 81bd 19db 853e 8d45 acbe
00000080: 4551 7b3e b68e a43e 6fe0 43be 705d f0bc
00000090: 7bd6 adbe 35a5 eebd dc0c d53d 0fb1 b7be
000000a0: 422f 46be 3ed4 8ebe 5ccd c13d 4009 823e
000000b0: bcc9 32be a4b2 da3e c4f2 75be 8a73 cdbd
000000c0: f40b a43d 38f1 05bb b6ee be3d 4ba8 f23c
000000d0: 96d4 8a3e e0e0 313d 1bd8 c4ba 5191 5b3e
000000e0: 6ca1 c73e 0f32 613d 58cd c2bd 9dd3 acbe
000000f0: 9ea9 593c fd2c c83e 9b48 db3a cca2 193d
