ppo_model_final.pt (torch, 132483 bytes, 33 tensors)

net.0.weight f4 [64, 8]
0	0xbe4edcc4	-0.20201403
1	0xbebf74da	-0.37393838
2	0x3e003fc5	0.12524326
3	0x3d5c927a	0.05385063
4	0x3e85a6c3	0.26103792
5	0xbdaa0ac3	-0.08302834
6	0xbe0fa93f	-0.14029406
7	0x3e514f02	0.20440295
8	0x3eb028db	0.3440617
9	0xbdca4210	-0.09875882
10	0xbdb1ff20	-0.08691239
11	0xbe1c02e7	-0.15235482
12	0xbe92e8c8	-0.28693223
13	0xbe40c183	-0.18823819
14	0x3e96665d	0.29374972
15	0xbe393d36	-0.18089756
16	0x3f2c0ff6	0.67211854
17	0x3f1040a8	0.5634866
18	0x3ee55c2d	0.44796887
19	0xbcf36f58	-0.029716179
20	0x3b389536	0.0028165109
21	0x3e1cd11b	0.15314142
22	0x3e26feb0	0.16308093
23	0xbe57dbef	-0.21079992
24	0x3edf1eb5	0.43578115
25	0x3f091c67	0.53558964
26	0x3dadb314	0.08481422
27	0x3c357f32	0.011077689
28	0x3d1a7202	0.037706383
29	0xbeccaf5b	-0.39977536
30	0xbef483f0	-0.4775691
31	0xbe583e53	-0.21117525
32	0xbe7d493b	-0.24734966
33	0x3cc50cbb	0.024053922
34	0xbe965c61	-0.29367355
35	0xbdcebd3b	-0.100946866
36	0x3e97d6d8	0.296561
37	0x3e1f6501	0.15565874
38	0xbe546b55	-0.20744069
39	0xbe837285	-0.2567331
40	0xbe346cd4	-0.1761964
41	0x3d5be4d8	0.05368504
42	0xbf3f6b50	-0.7477312
43	0x3cf9f8e5	0.03051419
44	0x3ddbd335	0.10733644
45	0x3e6fd70d	0.23421879
46	0xbdc89ff1	-0.097961314
47	0x3eb403e3	0.35159215
48	0xbc1cc734	-0.009568978
49	0x3e925f7b	0.2858847
50	0xbe9c76c1	-0.30559352
51	0xbda6fbfd	-0.08153532
52	0xbdaa7881	-0.083237655
53	0xbe9745ed	-0.29545537
54	0x3ea66a12	0.325028
55	0x3ea80285	0.32814422
56	0x3e0a30ea	0.13495222
57	0x3e73c6e8	0.23806345
58	0xbe21d6ec	-0.15804642
59	0x3e157bc1	0.1459799
60	0xbea604b3	-0.3242546
61	0xbee3d47b	-0.44498047
62	0x3ebd357f	0.36954877
63	0x3e1bef71	0.15228058
64	0xbd1b5ec0	-0.037932158
65	0xbe6827fb	-0.22671501
66	0x3e717ff6	0.2358397
67	0xbe96a8e1	-0.2942572
68	0xbe0f63a8	-0.1400286
69	0xbc4cd320	-0.012501508
70	0x3e8ad613	0.2711645
71	0xbd5b0370	-0.053470075
72	0x3e511baa	0.20420709
73	0x3e22877e	0.15871999
74	0x3f383556	0.71956384
75	0x3db9e8a1	0.090775736
76	0x3e17d18e	0.14826033
77	0xbcafa68d	-0.021441722
78	0xbe7877bd	-0.24264427
79	0xbe148493	-0.14503698
80	0xbcb6ef8a	-0.022331018
81	0x3e21eb5b	0.15812437
82	0xbdd7aef9	-0.1053142
83	0xbd225692	-0.03963334
84	0xbdc55168	-0.09634668
85	0xbe43bf95	-0.19116051
86	0xbea4b5b5	-0.3216988
87	0x3dfc6194	0.12323299
88	0xbe53f3c0	-0.20698452
89	0xbea39739	-0.3195131
90	0x3e8f71f1	0.28016618
91	0xbe93f108	-0.2889483
92	0xbead217e	-0.33814615
93	0xbd852814	-0.06501785
94	0x3e8376c1	0.2567654
95	0xbe81f702	-0.25383765
96	0x3db3f3ab	0.0878671
97	0x3e21263d	0.15737243
98	0xbdf0f1e6	-0.117648885
99	0xbe9fa667	-0.31181642
100	0xbe9fd388	-0.31216073
101	0xbe485b8d	-0.19566174
102	0xbe4983b5	-0.19679148
103	0x3e4e263b	0.20131771
104	0xbee8e15b	-0.45484433
105	0xbe13cb56	-0.14433035
106	0x3e93342e	0.28750747
107	0x3e6f18d4	0.23349315
108	0x3e8ba25e	0.27272314
109	0x3ea3bbf6	0.3197934
110	0xbe230544	-0.15919977
111	0x3d874d03	0.06606486
112	0xbe8a0627	-0.2695782
113	0xbdaf10f0	-0.085481524
114	0xbd2f5c08	-0.042812377
115	0xbdaaf7a8	-0.08348018
116	0xbddf14d6	-0.10892646
117	0x3e1dff1a	0.15429345
118	0x3eafeb75	0.34359327
119	0xbe5100cb	-0.20410459
120	0x3d95fc94	0.07323566
121	0xbdacc63c	-0.08436248
122	0x3e623bb2	0.22093084
123	0xbd151ec8	-0.03640631
124	0xbe0f4d73	-0.13994388
125	0x3e200182	0.15625575
126	0xbcf98fa0	-0.030463994
127	0xbd9930f4	-0.0748004
128	0xbe95485f	-0.29156777
129	0xbead6184	-0.3386346
130	0xbe8fdcdc	-0.2809819
131	0xbe4fca7e	-0.20292088
132	0xbe86ccd1	-0.26328138
133	0xbe9aedd1	-0.30259565
134	0xbe9184de	-0.28421682
135	0x3d923dcc	0.07140693
136	0x3ecff9c1	0.40620235
137	0x3e93b2c9	0.2884734
138	0x3eef3ade	0.467246
139	0xbe475fa4	-0.19470078
140	0xbd8fd9d0	-0.07023966
141	0xbc22c792	-0.009935277
142	0x3e2f2bbb	0.17106526
143	0x3ec113dc	0.37710464
144	0x3e994825	0.29937854
145	0xbde0bfee	-0.10974108
146	0x3def07f4	0.11671439
147	0xbe271cbc	-0.16319555
148	0x3e2f098d	0.17093487
149	0xbea1485e	-0.31500524
150	0x3e7817f6	0.2422789
151	0x3e93bcaf	0.28854892
152	0xbdcfa059	-0.10138006
153	0xbe2dfbc3	-0.1699057
154	0x3d5d124b	0.053972524
155	0xbe0e1b16	-0.1387752
156	0x3e873bc9	0.264128
157	0xbe4ac935	-0.19803317
158	0xbe11ab36	-0.14225468
159	0x3e07665b	0.1322264
160	0xbc82a111	-0.015945943
161	0xbc810da1	-0.01575357
162	0xbd945878	-0.072434366
163	0x3d9b1310	0.07571995
164	0xbe04f384	-0.12983519
165	0xbe561055	-0.20904668
166	0x3e07ebe4	0.13273579
167	0x3ec3fc25	0.3827831
168	0xbeaed5d3	-0.3414751
169	0xbea99ae5	-0.33125988
170	0xbe3e4c9e	-0.18583915
171	0x3e0bc4ec	0.13649338
172	0x3d58f38e	0.052966647
173	0x3d8ac582	0.06775953
174	0x3e92f22e	0.28700393
175	0xbbcd1730	-0.0062588677
176	0xbed15a6c	-0.408893
177	0xbee94a1c	-0.45564353
178	0xbf14d7ee	-0.5814198
179	0x3e8112a2	0.25209528
180	0xbe496fa9	-0.19671501
181	0x3eb1b08a	0.34705
182	0x3e74aa22	0.23893026
183	0x3e0f3b93	0.1398757
184	0x3b0c19fc	0.0021377793
185	0x3ec99f00	0.3937912
186	0xbe53fb9c	-0.2070145
187	0xbe2762cf	-0.16346286
188	0x3d7d9436	0.061908923
189	0xbedfcf0c	-0.43712652
190	0x3da979a6	0.08275156
191	0x3e9e1198	0.30872798
192	0x3eab9e91	0.33519414
193	0xbe970bd2	-0.29501206
194	0x3e95530d	0.29164925
195	0xbe8f8a96	-0.2803542
196	0xbe8c15cc	-0.2736038
197	0x3e81fd89	0.25388744
198	0x3d1fbbd8	0.0389975
199	0xbe4eb55d	-0.20186372
200	0x3df0e2e7	0.11762028
201	0x3e917adb	0.28414044
202	0x3f159ae0	0.58439445
203	0x3da7de61	0.08196712
204	0xbdd178b5	-0.10228101
205	0xbe58b4d9	-0.21162738
206	0xbeafcaa5	-0.34334293
207	0xbe879cfb	-0.26486954
208	0x3e90dc20	0.28292942
209	0x3d5b01e1	0.05346859
210	0x3f124c56	0.5714773
211	0x3e3a3e5d	0.18187852
212	0xbd3afde7	-0.045652296
213	0xbcee0f5f	-0.029060064
214	0xbea0f616	-0.3143775
215	0xbed21241	-0.41029552
216	0x3f41e0c8	0.75733614
217	0x3f297e99	0.662088
218	0x3f5a290f	0.852189
219	0x3ca2e8f4	0.019886471
220	0x3e52ad57	0.20573936
221	0xbd25b2ca	-0.04045371
222	0x3aefbdae	0.0018290782
223	0xbe2d7d5c	-0.16942352
224	0xbe6183b3	-0.22022896
225	0xbe0fb96f	-0.14035581
226	0x3e2925bd	0.16518302
227	0xbe462e77	-0.19353662
228	0x3d1de148	0.038544923
229	0x3c34e771	0.011041508
230	0xbe308a39	-0.17240228
231	0x3d3f5475	0.046711404
232	0xbca8d415	-0.020608941
233	0xbf0ec518	-0.5576949
234	0xbe1bd0e7	-0.15216409
235	0x3e83a864	0.2571441
236	0xbe15978e	-0.14608595
237	0xbe19ace2	-0.15007356
238	0xbe2aa90f	-0.16666053
239	0x3e1c6aa7	0.1527506
240	0x3e9fc8af	0.31207797
241	0x3d01fdb1	0.03173608
242	0x3e0e867e	0.13918492
243	0x3dd30367	0.10303383
244	0x3e6fb683	0.23409466
245	0xbda76b4c	-0.08174762
246	0xbeb44260	-0.3520689
247	0xbef647d4	-0.48101676
248	0x3d04f816	0.032463156
249	0x3e2eb102	0.1705971
250	0x3f59cfc5	0.85082656
251	0x3e84bf78	0.2592733
252	0x3d2f70b5	0.042832095
253	0x3ec6f7cf	0.38860938
254	0xbebb2b9f	-0.36556718
255	0xbed3f28b	-0.41395983

net.0.bias f4 [64]
0	0xbec461f1	-0.38355973
1	0xbd1e9148	-0.03871277
2	0xbd761fc9	-0.060088906
3	0x3c29c794	0.010362525
4	0xbe347ba6	-0.17625293
5	0xbe665ad5	-0.22495587
6	0x3ec961f2	0.3933254
7	0x3e038961	0.12845375
8	0xbe77ec6f	-0.24211286
9	0x3ed04def	0.4068446
10	0xbd77ddcc	-0.060514256
11	0xbe63c754	-0.22244006
12	0xbe49383c	-0.19650358
13	0xbea0cf59	-0.31408194
14	0xbd0eb120	-0.03483689
15	0x3bfc9f40	0.0077094138
16	0x3d8b54a8	0.06803256
17	0x3e00a467	0.12562715
18	0x3e23e56d	0.16005488
19	0x3e86e3b0	0.26345587
20	0xbeb569da	-0.3543232
21	0xbe08ed8f	-0.13371871
22	0xbad998c2	-0.0016601312
23	0x3edca4d0	0.43094492
24	0x3d619b90	0.055079997
25	0xbd04cdb6	-0.032422744
26	0xbe53c4ae	-0.20680496
27	0x3ecfd62f	0.40593097
28	0x3e93bf4c	0.28856885
29	0xbd83116f	-0.063998096
30	0xbc267ade	-0.01016113
31	0xbcdd5f70	-0.027023047
32	0x3ea6f1af	0.32606265
33	0x3b5ccb1d	0.00336904
34	0x3e2bc82b	0.16775577
35	0xbe59bce4	-0.21263462
36	0xbcf10585	-0.029421577
37	0x3d1a1219	0.037614916
38	0x3eea5306	0.45766467
39	0xbe964947	-0.2935278
40	0xbedb1169	-0.4278672
41	0xbe1ee1dc	-0.15515846
42	0xbe1287d9	-0.14309634
43	0x3e25cc0c	0.16191119
44	0x3e87567f	0.2643318
45	0xbe5d17eb	-0.21591155
46	0x3e15611c	0.14587826
47	0xbe9572a9	-0.2918904
48	0x3d959971	0.07304657
49	0xbd58ff9d	-0.052978147
50	0xbe2ce02b	-0.16882388
51	0xbe8f191c	-0.27948844
52	0x3e569df8	0.20958698
53	0xbde0eb05	-0.109823264
54	0xbec4a0da	-0.3840397
55	0x3ea97170	0.33094358
56	0xbdd800bf	-0.10547017
57	0xbe0e03d1	-0.13868643
58	0xbe8dc427	-0.27688715
59	0xbe98955e	-0.29801458
60	0x3e57a253	0.21058016
61	0x3e8db309	0.27675655
62	0x3c3eb58d	0.011639965
63	0x3e151a63	0.14560847

net.2.weight f4 [64, 64]
0	0xbdc4eeb7	-0.09615844
1	0x3c7e39a0	0.015516669
2	0x3be31565	0.0069300407
3	0xbdeeadbc	-0.11654231
4	0x3c44bcca	0.012007901
5	0x3d5cc294	0.0538965
6	0xbbf397cb	-0.0074338666
7	0xbd5ad36e	-0.05342429
8	0xbdd5b27c	-0.10434434
9	0xbe17dc69	-0.14830174
10	0x3e2f0af5	0.17094024
11	0x3c6384d0	0.013886645
12	0xbdef5b44	-0.116873294
13	0xbe26b0d0	-0.16278386
14	0x3d18b1a4	0.037278786
15	0x3dfaa2d2	0.12238087
16	0xbcb2bcc0	-0.021818519
17	0x3d711c3b	0.058864813
18	0xbd8d79b5	-0.069079794
19	0xbd7b31cf	-0.061326798
20	0x3c989854	0.018627323
21	0x3d39563d	0.04524826
22	0xbdd9a672	-0.1062745
23	0x3dade5ef	0.08491122
24	0xbcb0c2f8	-0.021577343
25	0xbe4e8c97	-0.20170818
26	0xbbf0515c	-0.0073339175
27	0xbdd3e92b	-0.10347208
28	0x3c62797e	0.013822911
29	0xbc028ad7	-0.007967672
30	0x3d6a662f	0.057226356
31	0xbdb55434	-0.08853951
32	0xbdb0510a	-0.08609207
33	0x3c8193f2	0.015817616
34	0xbe0c9546	-0.13728818
35	0xbda9a60b	-0.08283623
36	0xbcc516fa	-0.024058808
37	0x3c917327	0.017755104
38	0x3d04c557	0.03241476
39	0x3d65c030	0.056091487
40	0xbe35004c	-0.17675894
41	0x3c822bc1	0.015890004
42	0xbdaa3613	-0.08311095
43	0x3c938f32	0.018012617
44	0xbc70820c	-0.014679443
45	0xbd857fd2	-0.065185204
46	0x3d729424	0.05922331
47	0xbdeb9f51	-0.115049966
48	0x3d43dadc	0.047816142
49	0xbe061822	-0.13095143
50	0xbdfd338c	-0.123633474
51	0x3c99b7b7	0.01876436
52	0xbcd0afc8	-0.025474444
53	0xbc3aeafb	-0.011408563
54	0xbd83a34f	-0.06427633
55	0xbc829de3	-0.015944427
56	0xbe26b046	-0.1627818
57	0xbcf644d7	-0.030062122
58	0xbbf95d13	-0.0076099723
59	0x3d1884c5	0.037235994
60	0xbd901273	-0.07034769
61	0x3d80d714	0.06291023
62	0x3df205c2	0.118175045
63	0xbbc93010	-0.0061397627
64	0xbd830462	-0.0639732
65	0xbda360d4	-0.07977453
66	0xbdbd94cb	-0.09256896
67	0x3cc1a6e8	0.023639157
68	0x3d496fa7	0.049178746
69	0xbdede472	-0.11615838
70	0xbdd11c68	-0.10210496
71	0xbde8c036	-0.11364786
72	0xbd844770	-0.06458938
73	0xbe0c06d4	-0.1367448
74	0x3c2fd8a2	0.010732802
75	0x3dd11daa	0.10210736
76	0x3dc631dc	0.09677479
77	0xbb4dbd64	-0.0031393403
78	0x3ca8ded0	0.020614058
79	0x3da651b8	0.08121055
80	0x3daa8d16	0.08327691
81	0x3db7391e	0.08946441
82	0xbe02541f	-0.12727402
83	0x3d0f5504	0.034993187
84	0xbcc84cd9	-0.024450706
85	0x3ddf95bf	0.10917234
86	0xbde481c9	-0.11157567
87	0xbcdb3a61	-0.026761236
88	0xbd99353e	-0.07480858
89	0xba945077	-0.0011315484
90	0xbcc3100e	-0.023811366
91	0x3d31f7b7	0.04344913
92	0xbcb87c5e	-0.02252024
93	0xbdcfa749	-0.10139329
94	0xba8b2638	-0.0010616248
95	0x3da56c49	0.080772944
96	0xbde52490	-0.11188614
97	0xbda14b27	-0.07875662
98	0x3dd4e5ba	0.10395379
99	0xbd2ac6ea	-0.041693605
100	0xbbf12531	-0.00735917
101	0x3d29cd4c	0.041455552
102	0xbdec0616	-0.11524598
103	0xbdc61ee2	-0.09673859
104	0x3c38111c	0.011234548
105	0xbd3067e1	-0.043067817
106	0xbcdebe71	-0.027190419
107	0xbd7c99f5	-0.061670262
108	0xbc4a8163	-0.01235995
109	0x3dddc502	0.10828592
110	0xbd2d9488	-0.04237798
111	0x3d77d230	0.060503185
112	0xbd2a07d8	-0.041511387
113	0x3dcf9d82	0.10137464
114	0x3dc5df3c	0.09661719
115	0xbda16115	-0.07879845
116	0x3ca64742	0.02029765
117	0xbe0bd7a3	-0.13656478
118	0xbbfe7877	-0.0077658254
119	0x3da9ccf5	0.082910456
120	0xbd1e0356	-0.0385774
121	0xbdc77113	-0.09738364
122	0x3d06e829	0.03293625
123	0x3db073cf	0.08615839
124	0xbd824857	-0.06361454
125	0xbde22200	-0.11041641
126	0x3d753c0f	0.05987173
127	0xbd595cdd	-0.053067077
128	0xbe237d74	-0.15965825
129	0xbd297a5c	-0.041376457
130	0x3c2391ff	0.009983539
131	0xbd3996b1	-0.045309726
132	0xbd9a202b	-0.07525667
133	0xbd943aad	-0.07237754
134	0x3dc3ee55	0.095669426
135	0xbd3fa1a5	-0.046785016
136	0xbd28a698	-0.0411745
137	0xbcad7a33	-0.021176433
138	0xbe17e806	-0.14834604
139	0x3ca85d98	0.020552441
140	0xbdb84bee	-0.089988574
141	0xbcece04d	-0.028915549
142	0xbd5a8b7c	-0.05335568
143	0x3d41c854	0.04731019
144	0xbcb1bd30	-0.021696657
145	0xbd69b206	-0.057054542
146	0x3d52234d	0.051303197
147	0x3d383710	0.044974387
148	0xbbad853a	-0.005295423
149	0xbde0dbd7	-0.10979431
150	0xbd7f79a8	-0.06237188
151	0xbda5465c	-0.080700606
152	0xbdd9007a	-0.10595794
153	0xbe352f0f	-0.17693733
154	0x3cef78b6	0.029232364
155	0xbd995e2d	-0.07488666
156	0x3d281768	0.041037947
157	0x3d085a73	0.033289384
158	0x3c1f06ca	0.0097062085
159	0xbe26f0e9	-0.16302837
160	0xbc8bf3f0	-0.017084092
161	0x3c034370	0.008011684
162	0xbd1eb2dd	-0.038744796
163	0x3dc0d367	0.09415322
164	0x3d0dabcf	0.034587678
165	0x3db846a3	0.08997848
166	0x3dd00588	0.10157305
167	0x3dc01296	0.09378545
168	0xbd2b652f	-0.041844543
169	0xbc8ca432	-0.017168138
170	0x3cd98fd8	0.026557848
171	0x3abf11a6	0.0014577403
172	0x3da606f7	0.08106797
173	0xbdf80e72	-0.1211213
174	0xbcc668d0	-0.0242199
175	0xbd977c4c	-0.073967546
176	0xbd6791ca	-0.05653552
177	0xbd57ae59	-0.052656505
178	0x3ba60f80	0.0050677657
179	0xbc143e6e	-0.0090480875
180	0xbd8bc656	-0.06824939
181	0xbcbcd205	-0.023049364
182	0x3d120d39	0.03565714
183	0xbe11c11c	-0.14233822
184	0x3d7785d0	0.060430348
185	0xbab267ce	-0.0013611258
186	0xbce5132c	-0.027963243
187	0x3c64a93d	0.013956365
188	0xbdc121f4	-0.09430304
189	0xbd6ba0c2	-0.057526357
190	0xbcb6fa3f	-0.022336124
191	0xbc12c703	-0.008958581
192	0xbda29302	-0.07938196
193	0xbddc010a	-0.10742386
194	0x3e469175	0.19391425
195	0x3e5046f6	0.2033957
196	0xbe89788a	-0.26849777
197	0xbdd9520e	-0.10611354
198	0xbed26295	-0.41090837
199	0xbdc09537	-0.094034605
200	0x3dbc310e	0.09189044
201	0x3c519e32	0.012794064
202	0x3e0d9c4b	0.13829152
203	0x3d5f9ec4	0.05459477
204	0x3df1f98a	0.11815174
205	0xba690506	-0.0008888993
206	0x3df85f8a	0.12127598
207	0xbdd248f0	-0.10267818
208	0x3deabde8	0.11462003
209	0x3ca94440	0.020662427
210	0x3d28e316	0.04123219
211	0xbe006f0d	-0.12542363
212	0xbdb6dc0b	-0.089286886
213	0xbded74f2	-0.11594571
214	0xbd8bdcc4	-0.06829217
215	0x3d77cc43	0.060497534
216	0x3d2b79d4	0.04186423
217	0x3dee0724	0.11622456
218	0x3dd153e6	0.102210805
219	0x3e397c2c	0.18113774
220	0x3dc91377	0.09818166
221	0xbe15d362	-0.14631417
222	0xbbaffa07	-0.0053703818
223	0x3dd5ce5b	0.1043975
224	0xbd2bd0c8	-0.041947156
225	0x3d5e198f	0.054223593
226	0xbde2dfff	-0.1107788
227	0xbc5cb3fd	-0.013470647
228	0x3edf98ce	0.43671268
229	0xbc602db0	-0.013682768
230	0xbe6d7889	-0.23190512
231	0x3cd294c0	0.025705695
232	0x3c81d07d	0.015846485
233	0x3e85f102	0.26160437
234	0x3e1fc933	0.15604095
235	0xbc82eadd	-0.015981132
236	0xbe57fa1f	-0.21091507
237	0xbdb193a8	-0.08670741
238	0xbc2e7b50	-0.010649517
239	0x3cafe5d0	0.021471888
240	0x3c39feb0	0.011352226
241	0x3ddc4904	0.10756114
242	0xbdacaa30	-0.08430898
243	0xbd2d326d	-0.042284418
244	0x3e20b23d	0.15692993
245	0xbea43971	-0.32075074
246	0xbdc0e0f8	-0.094179094
247	0x3ceb90c6	0.028755557
248	0x3dba76ef	0.09104716
249	0x3e05a2e5	0.1305042
250	0xbe50b2ad	-0.2038066
251	0x3d977b7d	0.073966004
252	0xbde21792	-0.11039652
253	0xbe31b97c	-0.17355913
254	0xbe2b339c	-0.16718906
255	0x3d370dc2	0.044690855

net.2.bias f4 [64]
0	0xbd43e47c	-0.04782532
1	0xbe15362d	-0.14571448
2	0x3d8b0757	0.06788509
3	0xbde69b43	-0.112600826
4	0xbde2850e	-0.110605344
5	0x3e0ab224	0.13544518
6	0xbd5ca793	-0.05387075
7	0xbce144ef	-0.02749869
8	0xbd2a805c	-0.04162632
9	0xbdd82c1b	-0.105552875
10	0xbde0bf50	-0.1097399
11	0xbdf73acd	-0.12071762
12	0x3d2366bb	0.039892893
13	0x3db9be1b	0.09069463
14	0xbd336ede	-0.043806903
15	0x3d9e9b75	0.07744495
16	0xbca56c3c	-0.020193212
17	0xbdbd7468	-0.09250718
18	0x3d995c8e	0.074883565
19	0x3e4a38d7	0.19748245
20	0xbc7296c4	-0.014806453
21	0xbddf80d1	-0.10913242
22	0xbd0eff4d	-0.034911443
23	0xbe0718af	-0.1319301
24	0x3ce98cb4	0.028509475
25	0xbd8026e4	-0.06257418
26	0x3d47e538	0.048802584
27	0x3d9132ff	0.07089805
28	0x3e5fc7a8	0.21853507
29	0xbd8ea955	-0.06965891
30	0x3d8d620b	0.06903466
31	0x3e86db69	0.26339272
32	0x3ce3a35f	0.027787862
33	0x3d733c12	0.05938346
34	0x3d31f0e4	0.04344262
35	0xbdada305	-0.08478359
36	0xbe1ff0c9	-0.15619196
37	0xbd1814ba	-0.03712914
38	0xbddad6c5	-0.10685495
39	0x3cac3a39	0.021023856
40	0xbce2a38c	-0.027665876
41	0x3dbdb081	0.09262181
42	0xbdbc7b34	-0.09203187
43	0x3d84a1ef	0.06476199
44	0xbcb142c0	-0.021638274
45	0xbdaf90ca	-0.08572538
46	0xbddaf031	-0.10690344
47	0xbc9fed8c	-0.01952245
48	0x3e5ca8dd	0.21548791
49	0x3d99d96c	0.07512173
50	0x3db41f7f	0.0879507
51	0xbd3ee73c	-0.04660724
52	0x3d7a346f	0.06108516
53	0x3e81f28e	0.25380367
54	0xbdd24b4a	-0.102682665
55	0x3dd917ff	0.1060028
56	0x3d468969	0.04847089
57	0x3bb5be25	0.0055463486
58	0x3d51fb29	0.051264916
59	0x3d201f7a	0.03909252
60	0xbc03a819	-0.008035683
61	0xbe274220	-0.16333818
62	0x3dc13d0a	0.094354704
63	0xbb9bbe04	-0.0047528762

net.4.weight f4 [4, 64]
0	0xbd49a756	-0.04923185
1	0x3d3c1beb	0.045925062
2	0xba953354	-0.0011383095
3	0xbe1af197	-0.15131222
4	0x3c5aa0c3	0.013343993
5	0x3d92d8a6	0.07170229
6	0xbe1541c1	-0.14575864
7	0xbd07fb79	-0.033198807
8	0xbac51582	-0.0015036317
9	0x3c91084d	0.017704153
10	0x3c9d6f71	0.019218178
11	0xbd9134b0	-0.070901275
12	0xbd0fc3ba	-0.03509877
13	0x3d90597c	0.07048318
14	0xbc0dcf9b	-0.008655454
15	0x3cfa8fdf	0.030586181
16	0x3d608db3	0.054822635
17	0x3d3fede5	0.046857733
18	0x3c814fb0	0.015785068
19	0x3e1b223e	0.15149781
20	0xbe40ede9	-0.18840756
21	0xbe0a6b5a	-0.13517514
22	0xba8eb04f	-0.0010886284
23	0xbded3786	-0.11582856
24	0xbcc195f3	-0.023631072
25	0x39fef89f	0.00048631892
26	0xbc974938	-0.01846753
27	0x3d4610d3	0.04835589
28	0x3e18a3fc	0.14906305
29	0x3d4f33cf	0.050586518
30	0xb94aba75	-0.00019333682
31	0x3d5815b9	0.05275509
32	0x3c5f7070	0.013637647
33	0xbc8a3fe1	-0.016876163
34	0x3a9af594	0.0011822456
35	0x3b3b5795	0.0028586139
36	0xbd028d9c	-0.03187333
37	0xbddea248	-0.108707964
38	0x3c06cb36	0.00822716
39	0xbe5e4050	-0.21704221
40	0xbd3743b9	-0.04474232
41	0xbbad7404	-0.005293371
42	0x3afd7b36	0.0019339088
43	0xbb3e188a	-0.0029006326
44	0x3a63c3d0	0.0008688541
45	0x3b649763	0.0034880273
46	0x3d42f768	0.047599226
47	0xbcdce4f3	-0.02696464
48	0x3e1a58df	0.15072964
49	0xbc98bb29	-0.018643932
50	0xbbcbdff1	-0.0062217643
51	0x3d601bdd	0.054714072
52	0x3ca04b0b	0.019567033
53	0x3e0e8909	0.13919462
54	0x3ab6f2f4	0.0013957904
55	0xbe4393ce	-0.19099352
56	0x3d802005	0.06256107
57	0x3cfb790f	0.030697374
58	0xbceae4e0	-0.02867359
59	0x3be8a37f	0.0070995684
60	0x3d7b9870	0.061424673
61	0x3d145e4d	0.036222745
62	0x3d895843	0.06706288
63	0x3ada7df9	0.0016669623
64	0x3ceec2dd	0.029145652
65	0x3c8eb79d	0.017421538
66	0xbb88c290	-0.0041735843
67	0xbdd59931	-0.104296096
68	0x3ce8a76b	0.028400144
69	0x3cdcc097	0.026947303
70	0xbe5ec4ce	-0.21754763
71	0xbbf31b5e	-0.007419034
72	0x3af6e920	0.0018837787
73	0x3c9151ce	0.017739203
74	0xbc1586b6	-0.009126356
75	0x3cfb298b	0.030659458
76	0xbc7d4e39	-0.015460544
77	0x3d3cba4e	0.04607611
78	0x3bd961f6	0.0066339923
79	0x3d73f7ed	0.059562612
80	0xbda21f5d	-0.07916138
81	0x3d0d205b	0.034454685
82	0x3bb31a0b	0.005465751
83	0x3e31a631	0.17348553
84	0xbe58fb15	-0.2118953
85	0xbe62c507	-0.22145472
86	0xbb87a245	-0.004139217
87	0x3d4357bb	0.04769109
88	0x3e38db6c	0.18052453
89	0x3c6f6f53	0.014613944
90	0xbdd4e163	-0.103945516
91	0xbb0e0bda	-0.0021674545
92	0x3e690204	0.22754675
93	0x3d0fc673	0.035101365
94	0xbb531d61	-0.0032213556
95	0x3e505bcd	0.20347519
96	0xbb2b27ca	-0.0026116245
97	0x3cca4abe	0.024693843
98	0x3b23c480	0.002498895
99	0xbb8024a1	-0.0039106165
100	0xbc8fa989	-0.017536895
101	0xbe3e0701	-0.1855736
102	0x3cb83104	0.02248431
103	0xbe369c21	-0.17832996
104	0x3ca56bac	0.020192944
105	0x3d696b5f	0.056987163
106	0xbaea1b31	-0.0017860887
107	0x3c8005a2	0.015627686
108	0xbaf581f7	-0.0018730749
109	0x3d0296cd	0.031882096
110	0x3cf8de20	0.030379355
111	0x3bc5c735	0.00603571
112	0x3e5f441d	0.21803327
113	0x3caa94ed	0.020822966
114	0x3ba5047c	0.005035935
115	0x3cc72552	0.024309788
116	0xbc7c9027	-0.015415228
117	0x3e0d3d96	0.13793024
118	0xba9e8426	-0.0012093827
119	0xbdf00fac	-0.11721739
120	0x3e0b313d	0.13593002
121	0xbd35e247	-0.044405248
122	0xbd59ad36	-0.053143702
123	0x3da84855	0.08216921
124	0x3d55d06b	0.052200716
125	0x3c8806ea	0.01660486
126	0x3bc672ec	0.00605618
127	0xbb4f864c	-0.003166574
128	0x3d9ab042	0.0755315
129	0x3cd80b34	0.02637253
130	0x3aef5015	0.0018258119
131	0x3e045b6a	0.12925497
132	0x3bc1566a	0.005900194
133	0xbd47e31b	-0.04880057
134	0x3e0c4dd9	0.13701572
135	0x3ba73a52	0.005103388
136	0x38d19aa0	9.994698e-05
137	0xbaab21fd	-0.0013056394
138	0x3bbdaa86	0.0057881502
139	0x3b6827d4	0.003542413
140	0x3c55bb0c	0.013045084
141	0x3b962df7	0.004583116
142	0x3b6e7d31	0.0036390538
143	0xbca395f8	-0.019968972
144	0x3ce9e564	0.028551765
145	0x397e9e5f	0.00024282325
146	0xbb1f8134	-0.0024338486
147	0xbd05c9e2	-0.032663234
148	0x3e358cc3	0.17729478
149	0x3e0bc80f	0.13650535
150	0x3b26e6e6	0.0025467216
151	0x3deac602	0.11463548
152	0xbe062f71	-0.13104035
153	0x3c26845d	0.010163394
154	0x3db3e12e	0.08783184
155	0xbcab1a04	-0.020886429
156	0xbe8dc31c	-0.2768792
157	0xbc904191	-0.01760939
158	0x3bbb63c7	0.0057186815
159	0xbd3bc550	-0.04584247
160	0x3ccb442e	0.024812784
161	0xbc8dab13	-0.017293489
162	0x3a8107a4	0.0009844196
163	0x3bb9e3eb	0.005672922
164	0xbc256afa	-0.010096306
165	0x3df03b0d	0.11730013
166	0xbc56461f	-0.013078242
167	0x3dfd93e2	0.12381722
168	0x3c032261	0.008003802
169	0x3d9181b2	0.071048155
170	0x3a91dfb1	0.0011129287
171	0x3c30487d	0.01075947
172	0x3acc1e20	0.0015572943
173	0x3c427404	0.011868481
174	0x3caa7030	0.020805448
175	0x3d885db0	0.066584945
176	0xbe1ccc2e	-0.15312263
177	0x3cb5e1a3	0.022202319
178	0xbcdb41c7	-0.026764764
179	0xbcaa6481	-0.020799877
180	0x3c7d9218	0.015476726
181	0xbd61e262	-0.055147536
182	0x3c07734c	0.008267235
183	0x3d8d7a26	0.069080636
184	0xbb7f29f4	-0.0038934918
185	0x3c052082	0.008125426
186	0x3d477ce1	0.04870308
187	0x3d4bdaeb	0.049769323
188	0xbd101590	-0.035176814
189	0x3cc666fe	0.024219032
190	0xbcb346e4	-0.02188439
191	0xbbcefd37	-0.0063168067
192	0x3d4651db	0.048417907
193	0x3ca2cc83	0.01987291
194	0x3c30062f	0.010743662
195	0x3e04443e	0.12916657
196	0x38fe30a2	0.000121207224
197	0xbd0893c0	-0.03334403
198	0x3e05ea63	0.13077693
199	0x3d74f799	0.05980644
200	0xb9c70a70	-0.00037964014
201	0xbaab59d6	-0.0013073038
202	0x3cef2c23	0.02919585
203	0x3ba8bbe7	0.005149353
204	0xbc332aef	-0.010935529
205	0xbd509ead	-0.050932575
206	0xbc74a6fe	-0.014932392
207	0x3cfb47d6	0.030673902
208	0x3d560689	0.052252326
209	0xbd5d5a0a	-0.054040946
210	0xba1d6fd1	-0.00060057366
211	0xbdcbd321	-0.09952379
212	0x3e1f6613	0.15566282
213	0x3dfb82ca	0.122808054
214	0xbc01709d	-0.007900384
215	0x3daeda13	0.08537688
216	0xbe1590a5	-0.14605959
217	0xbc089f49	-0.008338758
218	0x3dff0bd1	0.12453426
219	0x3be09186	0.0068532852
220	0xbe942d9b	-0.28941044
221	0xbc8439b5	-0.016140798
222	0x3b0ae713	0.002119486
223	0xbe470a86	-0.19437608
224	0xbd26d99b	-0.04073487
225	0x3ba08279	0.004898366
226	0xbb31e27d	-0.0027143054
227	0xba251466	-0.000629729
228	0x3cc111c9	0.023568051
229	0x3df648ab	0.12025579
230	0x3b1bccbf	0.0023773161
231	0x3e13ae4e	0.1442196
232	0x3b6370fe	0.00347048
233	0x3dcad1d2	0.09903301
234	0xb8ce0d71	-9.825349e-05
235	0x3c623895	0.0138074355
236	0xbaed86d2	-0.0018121845
237	0x3ceee7cf	0.02916327
238	0xbc53b082	-0.012920501
239	0x3c344fc1	0.011005343
240	0xbe8692ca	-0.26283866
241	0x3ce684da	0.02813952
242	0x3cc17414	0.02361492
243	0xbcb4dd2a	-0.022078115
244	0x3c9ed3bf	0.019388078
245	0xbe7a29e9	-0.2443005
246	0x3bc0b99b	0.005881501
247	0x3dbe02ba	0.09277864
248	0xbc07320a	-0.008251676
249	0x3d845180	0.064608574
250	0x3da1cc92	0.07900347
251	0xb9ca8ef6	-0.00038634957
252	0xbd1e3516	-0.038624845
253	0xbc3c7125	-0.011501585
254	0xbc257e1b	-0.010100867
255	0x3bef0421	0.0072941934

net.4.bias f4 [4]
0	0x3e5ed67c	0.21761507
1	0x3d897827	0.0671237
2	0xbd5480e4	-0.051880732
3	0xbe3fe008	-0.18737805

net.0.weight f4 [64, 8]
0	0xbd77884f	-0.06043273
1	0x3eac1899	0.33612517
2	0xbe9e7dc6	-0.30955333
3	0xbe8b7483	-0.2723733
4	0xbebf05e3	-0.3730918
5	0xbe31c71c	-0.1736111
6	0xbe19fc97	-0.15037762
7	0x3d9d41b5	0.07678548
8	0x3f7047f8	0.93859816
9	0x3fb9f597	1.4528073
10	0x3f4c7865	0.7987121
11	0xbe61272c	-0.21987599
12	0xbd4e64ab	-0.050388973
13	0x3f9b3efc	1.2128596
14	0xbea41c96	-0.3205306
15	0xbe30160f	-0.17195915
16	0x3e8e53e3	0.27798375
17	0x3eb2df75	0.3493611
18	0x3e4f7b8f	0.20261978
19	0xbed35416	-0.4127509
20	0xbe8b9b59	-0.27266958
21	0x3deb2639	0.114819
22	0xbcbaf7cd	-0.022823239
23	0x3e54bd3a	0.20775309
24	0xbd587774	-0.052848294
25	0x3d817bf4	0.0632247
26	0x3e73236c	0.23743981
27	0xbe0e3488	-0.13887227
28	0xbdf8ad0e	-0.121423826
29	0xbdf8891e	-0.12135528
30	0xbc3cd9c0	-0.011526525
31	0xbe93c2ca	-0.2885955
32	0x3ea70151	0.32618192
33	0x3f5d506c	0.8645084
34	0x3d4700d6	0.04858478
35	0xbedc4d72	-0.43027836
36	0xbeb685b4	-0.35648882
37	0x3e11972c	0.14217824
38	0xbe90cadf	-0.28279778
39	0xbe63973f	-0.22225665
40	0xbf405e11	-0.75143534
41	0xbf70535e	-0.9387721
42	0xbf17e671	-0.59336
43	0x3c37b5e5	0.011212801
44	0xbe3af81e	-0.18258712
45	0xbf0ef610	-0.5584421
46	0x3ea9a974	0.33137095
47	0x3e1180e6	0.14209327
48	0xbe6fdea0	-0.23424768
49	0xbe42dbee	-0.19029209
50	0xbe11b31f	-0.14228486
51	0xbe054d49	-0.13017763
52	0x3e854beb	0.26034483
53	0x3ebaf3f5	0.3651425
54	0xbe80da65	-0.25166622
55	0x3e204f8e	0.15655348
56	0x3f84ee91	1.0385305
57	0x3f39d717	0.72593826
58	0x3fe4d5ff	1.7877806
59	0x3d1db3d3	0.038501572
60	0x3e1c890f	0.15286659
61	0x3f839c8f	1.0282153
62	0xbfda306a	-1.7046025
63	0xc001fdf4	-2.031125
64	0x3f801d11	1.000887
65	0x3f3d96bb	0.7405812
66	0x3f1dd753	0.61656684
67	0xbeaf653d	-0.34256926
68	0xbe36cc2b	-0.17851321
69	0xbf42e3a7	-0.7612862
70	0xbed0af79	-0.40758875
71	0xbdb21b4d	-0.086966135
72	0x3facb74f	1.3493441
73	0x3fd4d775	1.6628252
74	0x3f99c6ef	1.2013835
75	0xbcc4dd24	-0.02403123
76	0xbe086c4e	-0.13322565
77	0x3f898b60	1.0745659
78	0xbea2f2a0	-0.31825733
79	0x3ca612f2	0.020272706
80	0x3f738ae3	0.951338
81	0x3fde34e8	1.7359896
82	0x3f408cea	0.7521502
83	0x3d1b3c1e	0.03789913
84	0x3e047626	0.12935695
85	0x3fb63b81	1.4236909
86	0xbf05f4c4	-0.5232661
87	0xbf014125	-0.5049003
88	0xbf4e62e1	-0.8061963
89	0xbf80a7f0	-1.005125
90	0xbf72d8f6	-0.94862306
91	0x3b747d0e	0.0037305984
92	0xbf012eb6	-0.504619
93	0xbf9f5948	-1.2449121
94	0x3f1482be	0.58011997
95	0x3e9b0eda	0.30284768
96	0x3f2a7b77	0.6659464
97	0x3f948515	1.1603113
98	0x3f1bfa2b	0.609286
99	0xbe1993ca	-0.14997783
100	0xbe38aebd	-0.18035407
101	0x3eeef8e8	0.46674275
102	0xbe58fef2	-0.21191004
103	0xbf13f720	-0.5779896
104	0x3f2687ba	0.6505085
105	0x3d64401f	0.055725213
106	0x3ee17eef	0.44042155
107	0xbdfef7a5	-0.12449578
108	0xbe85857f	-0.26078412
109	0xc12225d6	-10.134237
110	0x3d1a2e65	0.0376419
111	0x3cb4b80c	0.022060417
112	0xbf77788c	-0.96668315
113	0xbf86c484	-1.0528722
114	0xbf3369d9	-0.70083386
115	0x3c94555c	0.018107109
116	0x3d71bc12	0.05901725
117	0xbe28c690	-0.16481996
118	0x3f202e7c	0.6257093
119	0xbe325adb	-0.17417471
120	0xbe4dadfc	-0.20085901
121	0xbe84c46d	-0.2593111
122	0xbdffd8fe	-0.1249256
123	0xbe72b916	-0.23703417
124	0xbe291ef0	-0.16515708
125	0xbe5d86ae	-0.21633407
126	0xbe60ff88	-0.21972477
127	0xbd955a4c	-0.072926134
128	0xbfcad600	-1.5846558
129	0xbfc5f9de	-1.5466878
130	0xbe17b2af	-0.14814256
131	0x3e0401c0	0.12891293
132	0x3ed0cf53	0.40783176
133	0x3f8eb3bf	1.1148604
134	0xbe534ca6	-0.20634708
135	0x3de5c652	0.11219467
136	0x3f41db76	0.75725496
137	0x3f8af416	1.0855739
138	0x3e00fea7	0.12597142
139	0xbe76e2e5	-0.24109991
140	0xbe6e83f5	-0.23292525
141	0x3ee7e9bf	0.45295522
142	0xbf0e6b25	-0.5563224
143	0xbdf5292e	-0.11970745
144	0x3d8f3893	0.069932126
145	0xbe857388	-0.26064706
146	0x3e12ba42	0.14328864
147	0xbc476b36	-0.012171557
148	0xbbfc8e06	-0.00770736
149	0x3e178142	0.14795402
150	0xbe794d35	-0.24345858
151	0x3d0148ff	0.031563755
152	0x3f12df8f	0.57372373
153	0x3f92a777	1.1457356
154	0xbf196709	-0.59922844
155	0xbe5a100f	-0.21295188
156	0xbe8a1a6c	-0.26973283
157	0x3f8a240b	1.079225
158	0xbd8dd122	-0.069246545
159	0xbbc3b08b	-0.0059719733
160	0x3e9da247	0.3078787
161	0x3e24341f	0.16035508
162	0x3ddefcf6	0.10888092
163	0xbee19a7d	-0.44063178
164	0xbe51fc0b	-0.20506303
165	0xbef6e19e	-0.48219007
166	0xbe344723	-0.17605262
167	0x3d31ee95	0.04344042
168	0x3fa72bc0	1.3060226
169	0x3f875890	1.0573902
170	0x3fd88c13	1.6917747
171	0x3d4f624e	0.05063086
172	0x3d780255	0.0605491
173	0x3f979ea9	1.1845294
174	0xbf6cc9a7	-0.924952
175	0xbfb52f83	-1.4155124
176	0x3eadbaae	0.33931488
177	0x3f379d12	0.71724045
178	0x3f5490a7	0.8303322
179	0xbeb1196e	-0.34589714
180	0xbe2215dd	-0.15828653
181	0xbeaa8ccd	-0.33310547
182	0x3cd3b7aa	0.025844414
183	0xbeb318f4	-0.34979975
184	0x3f254ead	0.64573175
185	0x3f24d9fb	0.6439511
186	0x3f83195d	1.0242115
187	0xbe9043b9	-0.28176668
188	0xbeb3684c	-0.3504051
189	0x3e06c552	0.13161209
190	0xbf0b2419	-0.54351956
191	0xbf2b9600	-0.67025757
192	0x3f52b851	0.82312495
193	0x3f953a1b	1.1658357
194	0x3f454a5b	0.7706658
195	0xbe2fd922	-0.17172673
196	0xbe99defe	-0.30052942
197	0x3ea7ef5c	0.32799804
198	0xbc6f29c0	-0.014597356
199	0xbe8f9d48	-0.28049684
200	0xbe6b5635	-0.22982104
201	0xbed77a98	-0.4208572
202	0xbe97453e	-0.29545015
203	0xbd87e018	-0.06634539
204	0x3e5851e7	0.21124993
205	0xbe9d9ac5	-0.30782142
206	0xbe5e5327	-0.21711408
207	0xbe94e043	-0.29077348
208	0x3e9522e2	0.29128176
209	0x3ed5e005	0.41772476
210	0x3ce54ba3	0.027990168
211	0xbe11fb69	-0.14256062
212	0xbeed8c85	-0.4639627
213	0x3daf7c8b	0.085686766
214	0x3d0340d8	0.03204426
215	0xbe80824d	-0.25099412
216	0xbe825d21	-0.25461677
217	0xbdff8e96	-0.12478368
218	0xbe27ce4a	-0.16387287
219	0xbe7015e0	-0.23445845
220	0x39bba800	0.0003579259
221	0x3be75980	0.00706023
222	0x3e2003f0	0.15626502
223	0xbe03dbe9	-0.12876858
224	0xbee36d14	-0.44419158
225	0xbf2b0f7d	-0.6682051
226	0xbf90bd8b	-1.1307844
227	0xbe394d09	-0.18095793
228	0xbf191b9b	-0.5980775
229	0xbf182eb0	-0.5944624
230	0x3ed21dcf	0.41038367
231	0x3d42b03e	0.04753136
232	0x3f9efffb	1.2421869
233	0x3fb7a12c	1.4346061
234	0x3f48a03c	0.783695
235	0xbda264b0	-0.07929361
236	0x3d28a628	0.041174084
237	0x3f5e54c5	0.868481
238	0xbe74cc2f	-0.23906015
239	0xbdc345ed	-0.09534822
240	0xbf93ecd4	-1.1556649
241	0xbf95504d	-1.1665131
242	0xbf7da2e5	-0.9907668
243	0xbe7714af	-0.24128984
244	0x3e7267ac	0.2367236
245	0xbf5098cc	-0.8148315
246	0xbecde080	-0.40210342
247	0xbed2aa9f	-0.411458
248	0x3f1dcda7	0.61641926
249	0x3edfbab8	0.43697143
250	0x3f091563	0.5354826
251	0xbd83799e	-0.06419681
252	0xbd75c57a	-0.06000278
253	0x3f3efa05	0.7460025
254	0x3b50eb94	0.0031878697
255	0xbf518261	-0.8183957

net.0.bias f4 [64]
0	0x3e1dacf7	0.15398012
1	0xbe0ef018	-0.13958776
2	0x3d649cb5	0.05581351
3	0xbe3bf8b4	-0.18356591
4	0x3c7ed0b3	0.015552687
5	0x3f671fe7	0.90283054
6	0xbe1202c1	-0.14258863
7	0xbf1c1c15	-0.6098035
8	0xbe93b87a	-0.28851682
9	0x3e7f08c8	0.24905694
10	0xbf32d60e	-0.6985787
11	0x3f5f8467	0.87311405
12	0x3b097ca1	0.0020978826
13	0x3ed775af	0.42081973
14	0x3f8f2077	1.1181782
15	0xbe7e9f56	-0.2486547
16	0xbf6561d0	-0.89602375
17	0xbe80e9ca	-0.25178367
18	0xbdca15d8	-0.098674476
19	0xbd778237	-0.060426917
20	0x3e8e4e9d	0.27794352
21	0xbf16e75e	-0.5894679
22	0x3e409fa6	0.18810901
23	0xbd6a7d2f	-0.05724829
24	0xbee7c975	-0.45270887
25	0x3f0eb250	0.55740833
26	0x3d0a0f10	0.03370577
27	0xbe64388e	-0.22287199
28	0x3ee627ba	0.44952184
29	0xbf6d466a	-0.9268557
30	0xbef34242	-0.47511488
31	0x3f199a53	0.60001105
32	0x3f8a1959	1.0788985
33	0xbeb5e467	-0.3552582
34	0xbe4d3c99	-0.20042647
35	0xbf42f1e3	-0.7615034
36	0x3f57f47d	0.84357435
37	0xbf82fd8a	-1.0233624
38	0xbefa9cc8	-0.4894774
39	0x3e05075e	0.12991092
40	0x3d2727b7	0.04080936
41	0xbe886ba3	-0.2664462
42	0xbf1e2eca	-0.61790144
43	0xbde6f95e	-0.11278032
44	0x3f1823d6	0.5942968
45	0x3f327130	0.6970396
46	0xbf037f17	-0.513658
47	0x3f7df84e	0.9920701
48	0xbef2dfe9	-0.47436455
49	0x3f14107f	0.5783767
50	0x3ec9248e	0.39285702
51	0x3d82fe05	0.06396107
52	0xbe81e30b	-0.25368533
53	0xbe904966	-0.28181
54	0x3d572907	0.05252936
55	0x3dddae1a	0.10824223
56	0x3e9042da	0.28176004
57	0x3f744c74	0.9542916
58	0x3d14d8d5	0.0363396
59	0x3e0807ab	0.13284175
60	0x3eb154be	0.34634966
61	0x3edf296a	0.43586284
62	0xbe153803	-0.14572148
63	0x3e9ace56	0.30235547

net.2.weight f4 [64, 64]
0	0x3caa667a	0.020800818
1	0x3e12d0ad	0.14337416
2	0x3d692fe5	0.05693044
3	0xbd4c1bf0	-0.04983133
4	0xbed73c8d	-0.42038384
5	0x3d3b5f58	0.045745224
6	0x3d93c03c	0.072144
7	0xbf902b7f	-1.1263274
8	0xbe9e3816	-0.30902165
9	0x3ebcbec4	0.36864293
10	0xbfa66979	-1.3000938
11	0xbaf1b0a7	-0.0018439487
12	0xbedfef18	-0.43737102
13	0xbfd8fde4	-1.6952481
14	0x3e6e2f72	0.23260286
15	0xbdb01f8e	-0.085997686
16	0x3e57a2b9	0.21058168
17	0xbfa1375e	-1.2595022
18	0x3cee4f32	0.029090498
19	0x3e311bca	0.17295757
20	0x3e3db20b	0.18524949
21	0xbf8d7056	-1.1049907
22	0xbe8696c8	-0.26286912
23	0xbf14a0bf	-0.5805778
24	0xbec42c76	-0.3831517
25	0x3db07d02	0.08617593
26	0x3c4915ff	0.012273311
27	0x3d9face2	0.07796647
28	0xbbfef75a	-0.0077809514
29	0xc030ff59	-2.7655852
30	0x3df33fd3	0.11877408
31	0x3e9e6087	0.3093302
32	0x3dbc39eb	0.091907345
33	0x3d07c70c	0.03314881
34	0x3e4987b5	0.19680674
35	0xbffe4921	-1.9866067
36	0xbe1b423f	-0.1516199
37	0xc02db241	-2.7140048
38	0xbf28e96a	-0.6598116
39	0x3b4368c0	0.0029817075
40	0x3e7850c4	0.2424956
41	0xbde6abb4	-0.112632185
42	0xbe4e5233	-0.20148544
43	0xbf31c142	-0.69435513
44	0xbceb62ce	-0.028733637
45	0xbe847673	-0.2587162
46	0xbcb96880	-0.022632837
47	0x3e0875bd	0.13326164
48	0xbdd1b369	-0.10239298
49	0x3f0a3a49	0.53995186
50	0xbf17b28b	-0.5925681
51	0xbed70900	-0.41999054
52	0xbe33f434	-0.17573625
53	0xbe15e48d	-0.14637966
54	0xbd8541e9	-0.06506712
55	0xbe110c00	-0.14164734
56	0xbe1c6849	-0.15274157
57	0x3e7e29c1	0.24820615
58	0xbf9618fe	-1.1726377
59	0xbe01ca03	-0.12674718
60	0xbc3d59cf	-0.011557057
61	0x3e43c071	0.1911638
62	0xbdbf966f	-0.09354865
63	0x3dfdba42	0.123890415
64	0xbe836e01	-0.25669864
65	0xbe280108	-0.16406643
66	0xbe4f7c56	-0.20262274
67	0x3e1abdd1	0.15111472
68	0x3c8957df	0.016765533
69	0xbdcb1bf2	-0.099174395
70	0xbe1b6a54	-0.1517728
71	0x3daf9f46	0.08575301
72	0xbd0aa89c	-0.033852205
73	0x3dd31f49	0.103087015
74	0xbd4291b8	-0.04750225
75	0xbd97c410	-0.07410443
76	0x3e161be8	0.14659083
77	0xbe725eb5	-0.2366894
78	0x3d286092	0.04110772
79	0xbde541e1	-0.11194206
80	0xbe829d77	-0.2551076
81	0xbcdb6643	-0.02678216
82	0xbe2f01a2	-0.17090467
83	0xbd3650c6	-0.044510625
84	0x3c6ac090	0.014328137
85	0xbc6056d3	-0.0136925755
86	0x3e6c3e9f	0.23070763
87	0xbdb98f89	-0.0906058
88	0xbdb09072	-0.08621301
89	0x3d99d64a	0.075115755
90	0xbd9566c3	-0.07294991
91	0xbdb51382	-0.088416114
92	0xbc8b5527	-0.017008377
93	0xbe0ca3ad	-0.13734312
94	0xbe124d14	-0.14287215
95	0x3e12ade9	0.14324154
96	0xbe394d7a	-0.18095961
97	0x3dc5b184	0.09652999
98	0x3dca858e	0.09888755
99	0xbe00d410	-0.12580895
100	0x3dd5b121	0.10434175
101	0xbdbeac30	-0.09310186
102	0x3d89afa0	0.06722951
103	0xbe249ba7	-0.16075002
104	0xbd81d669	-0.063397236
105	0x3de48e9e	0.111600146
106	0xbda04f45	-0.078276195
107	0xbd8e73a5	-0.06955651
108	0xbe7d0e1d	-0.24712415
109	0xbe0a30ea	-0.13495222
110	0xbe2912f0	-0.1651113
111	0xbbb68081	-0.005569518
112	0x3e28ddb2	0.1649082
113	0xbd3df4ad	-0.04637592
114	0x3da53477	0.080666475
115	0x3e79d36f	0.24397062
116	0xbd68a4c8	-0.056797773
117	0xbe312412	-0.17298916
118	0xbe3c3184	-0.18378264
119	0x3e109533	0.14119415
120	0xbdf86cca	-0.12130125
121	0xbe5b6ca4	-0.21428162
122	0xbda057f8	-0.07829279
123	0xbe401035	-0.18756182
124	0xbe65a398	-0.22425687
125	0xbdd6b488	-0.10483652
126	0xbda14889	-0.07875163
127	0x3db67403	0.08908846
128	0x3d8d099c	0.068865985
129	0x3ecca4df	0.39969537
130	0xbe2381e9	-0.15967526
131	0xbdcaa2f6	-0.098943636
132	0xbce73276	-0.028222304
133	0xbf797cfa	-0.97456324
134	0xbdd8eb58	-0.10591763
135	0xbe2da931	-0.16959073
136	0x3c6ca6b3	0.014444041
137	0x3ef0d425	0.47036853
138	0x3ec8db59	0.3922985
139	0xbfc6e703	-1.5539249
140	0xbdf82990	-0.121173024
141	0x3d2e093a	0.042489268
142	0xbfbcdeca	-1.475549
143	0x3e003b0d	0.12522526
144	0xbe811c2f	-0.25216815
145	0x3d2024cf	0.039097603
146	0x3dd3b225	0.10336713
147	0x3e57f051	0.21087767
148	0x3e6c3147	0.23065673
149	0x3e892894	0.2678877
150	0x3e19a915	0.15005906
151	0xbeaf9396	-0.34292287
152	0xbd23544c	-0.039875314
153	0xbe0aa91b	-0.13541071
154	0x3da03ca5	0.07824067
155	0x3e5776c1	0.21041395
156	0xbf4a0bb3	-0.789241
157	0x3eee210d	0.4650959
158	0xbe84b725	-0.25920978
159	0xbcabe99b	-0.020985415
160	0xbff9a4d3	-1.9503425
161	0xbc8ffac6	-0.017575633
162	0xbe097748	-0.13424408
163	0x3efaa53a	0.48954183
164	0xbfae93c6	-1.3638847
165	0x3e9a421d	0.30128565
166	0x3be11f1f	0.006870165
167	0xbd8512d8	-0.06497735
168	0x3eb16583	0.3464776
169	0x3d8797bb	0.06620737
170	0xbce5b322	-0.028039519
171	0x3e27b05e	0.16375872
172	0xbcb7787f	-0.022396324
173	0xbe2ba561	-0.16762306
174	0xbe6c61b6	-0.23084149
175	0xbfc63441	-1.5484697
176	0xbd78cc30	-0.060741603
177	0x3f3757bb	0.7161824
178	0xbedf1dce	-0.43577427
179	0xbe7bcf4a	-0.24590793
180	0xbec083b5	-0.37600484
181	0x3f0dfa62	0.5546018
182	0xbc6dbc90	-0.014510289
183	0x3d2c8341	0.04211736
184	0xbcec83b4	-0.028871395
185	0xbf130fb7	-0.57445854
186	0x3e8fc459	0.2807949
187	0x3da8c21c	0.082401484
188	0xbcb0e957	-0.02159564
189	0xbcf5475b	-0.029941252
190	0x3e30963b	0.17244808
191	0x3e99c123	0.30030164
192	0x3e08a39e	0.13343665
193	0xbe8c584b	-0.27411112
194	0xbe54ed66	-0.20793685
195	0x3e2f5f43	0.17126183
196	0xbcc14237	-0.023591144
197	0xbe42f244	-0.1903773
198	0xbbfe491e	-0.007760181
199	0xbdf0f459	-0.117653556
200	0xbc6bc7d7	-0.014390907
201	0xbdd5b101	-0.104341514
202	0xbda3239d	-0.07965777
203	0xbe3cebf4	-0.18449384
204	0x3c9f9b3b	0.0194832
205	0x3e47a08e	0.1949484
206	0x3d534d02	0.051587112
207	0x3cd25c28	0.02567871
208	0xbe82d1de	-0.2555074
209	0x3d63bcc3	0.05559994
210	0x3cb6f06e	0.022331443
211	0xbe0f2abe	-0.13981149
212	0xbd2127a4	-0.039344445
213	0xbe7f8940	-0.249547
214	0xbe31fc43	-0.17381386
215	0x3cffdf60	0.031234443
216	0x3b9cb191	0.0047819098
217	0xbd86232c	-0.06549677
218	0x3dc26869	0.09492571
219	0x3e3f34a7	0.18672429
220	0xbe701871	-0.23446824
221	0x3bd132fa	0.0063842507
222	0x3dd2b3b6	0.102881834
223	0xbc9f85ab	-0.019472918
224	0x3df00077	0.11718839
225	0xbe4d8fc7	-0.20074378
226	0xbe31ff9e	-0.17382666
227	0xbd7c263c	-0.0615599
228	0xbe493c82	-0.19651988
229	0xbd9c1864	-0.0762184
230	0xbdc6d58c	-0.097086996
231	0x3d4f9834	0.05068226
232	0xbe1e03b6	-0.15431103
233	0xbe558aaf	-0.20853685
234	0xbd1bb0a3	-0.03801025
235	0x3e67994d	0.22617073
236	0xbdecce25	-0.115627564
237	0xbe84cc60	-0.25937176
238	0x3dbc7f29	0.092039414
239	0x3d40b153	0.04704411
240	0xbdabe217	-0.083927326
241	0x3daeccc3	0.08535149
242	0xbda1fbba	-0.07909341
243	0x3d706e5d	0.058699
244	0x3e4e2800	0.20132446
245	0xbda53ecd	-0.08068619
246	0xbd1e1f78	-0.03860423
247	0x3d2817dc	0.04103838
248	0xbe4973e6	-0.19673118
249	0xbdb97b05	-0.09056667
250	0x3e3244c1	0.1740904
251	0xbced000d	-0.028930688
252	0xbde7155c	-0.11283371
253	0x3e120bae	0.14262268
254	0xbd2bf188	-0.04197839
255	0xbe0f012a	-0.13965288

net.2.bias f4 [64]
0	0x3f4635bd	0.7742575
1	0xbe5dd328	-0.21662581
2	0xbe5f321a	-0.21796456
3	0xbdc304c1	-0.09522391
4	0xbe091e04	-0.13390356
5	0xbe050b29	-0.12992539
6	0xbe106440	-0.14100742
7	0xbddac877	-0.10682767
8	0x3e570cd0	0.21000981
9	0x3d7afba1	0.06127513
10	0x3dad9a44	0.084766895
11	0xbdc97ad6	-0.09837882
12	0x3f5c6635	0.86093456
13	0xbb843917	-0.004035126
14	0xbd97a5f1	-0.07404698
15	0xbd1796cb	-0.03700904
16	0xbe9be9a1	-0.30451682
17	0x3f3f5405	0.7473758
18	0x3d7bafd4	0.06144698
19	0xbe56509c	-0.20929188
20	0x3f2e990a	0.6820227
21	0xbedd03d5	-0.43166986
22	0xbe0ed23f	-0.1394739
23	0x3e0b7de0	0.13622236
24	0xbd2962ad	-0.04135387
25	0xbda003f7	-0.07813256
26	0xbdaba347	-0.08380752
27	0x3c32ce32	0.010913419
28	0x3f3e9328	0.7444329
29	0xbe298efb	-0.16558449
30	0xbdbaf6e5	-0.09129123
31	0x3d00948f	0.031391677
32	0xbd5278ed	-0.051384855
33	0x3f584968	0.8448701
34	0xbda45957	-0.08024853
35	0x3f36916a	0.71315634
36	0xbded2531	-0.11579359
37	0xbf9b1ae1	-1.2117578
38	0x3f54fdae	0.83199584
39	0x3d947ac1	0.07249976
40	0xbdd4a180	-0.10382366
41	0x3e14530e	0.14484808
42	0xbdc4fb60	-0.096182585
43	0xbf5dede4	-0.8669112
44	0x3f43866c	0.76376987
45	0xbe0581ed	-0.13037844
46	0xbd09d7a7	-0.033652928
47	0xbdd7de71	-0.10540474
48	0x3f57b448	0.8425946
49	0xbe24c8c4	-0.16092211
50	0xbd641c17	-0.05569085
51	0x3f1bfb58	0.60930395
52	0xbbc94836	-0.0061426414
53	0xbe0c1f86	-0.136839
54	0x3f28e645	0.65976363
55	0x3d55b7c1	0.052177195
56	0x3f1c74d5	0.6111577
57	0x3f246737	0.64219993
58	0xbc8366e9	-0.016040282
59	0x3d8f5900	0.06999397
60	0xbe9e9b08	-0.30977654
61	0x3cb57db7	0.022154672
62	0xbde92eb6	-0.113858625
63	0x3f35062f	0.7071256

net.4.weight f4 [1, 64]
0	0xbf046ee9	-0.51731735
1	0xbe0a903f	-0.13531588
2	0x3f48f6e8	0.7850175
3	0xbb161bab	-0.0022904675
4	0x3ea98a7f	0.33113477
5	0x3efa126b	0.48842177
6	0xbd268692	-0.04065568
7	0x3f2763f9	0.6538692
8	0x3f76c4bd	0.9639395
9	0x3f3cba1c	0.7372148
10	0x3e2732fd	0.16328044
11	0x3fde51f0	1.7368755
12	0xbf1141fe	-0.5674132
13	0x3f550810	0.8321543
14	0xbd9e7d43	-0.077387355
15	0xbda44eac	-0.08022818
16	0xbdbbf8f1	-0.09178341
17	0xbf0328c8	-0.512341
18	0x3f04f62c	0.5193813
19	0x3f0625c1	0.5240136
20	0xbf10f5f0	-0.5662527
21	0xbf8ceb46	-1.10093
22	0xbcdd25bd	-0.026995534
23	0x3f0e90a5	0.5568946
24	0xbd7f3fed	-0.062316824
25	0x3e28fab6	0.16501889
26	0x3e80f45e	0.25186437
27	0x3f8264c5	1.0187002
28	0xbec85f62	-0.3913527
29	0xbe2ff01e	-0.17181441
30	0x3e08b63e	0.1335077
31	0x3c57e79a	0.013177777
32	0x3f537f30	0.8261595
33	0xbf09f6e0	-0.53892326
34	0x3f3f45aa	0.74715674
35	0xbed76551	-0.42069486
36	0x3f0c5303	0.54814166
37	0xbf0bb45c	-0.5457208
38	0xbf1c743d	-0.61114866
39	0x3f40f535	0.75374156
40	0x3f631105	0.88697845
41	0x3f181980	0.5941391
42	0x3f88f4ba	1.0699685
43	0xbed7c3bc	-0.4214152
44	0xbecc1490	-0.39859438
45	0x3fccc0f3	1.5996383
46	0x3c0e6435	0.008690883
47	0x3fb74a5e	1.431957
48	0xbf242938	-0.64125395
49	0x3c712d7e	0.014720319
50	0x3fbfe958	1.4993086
51	0xbf01982d	-0.50622827
52	0x3cdb096a	0.026737887
53	0x3f2d8250	0.67776966
54	0xbeec1647	-0.46110746
55	0x3f02d870	0.5111151
56	0xbfa8b9e9	-1.3181735
57	0xbec66b51	-0.3875375
58	0x3fb78ba0	1.4339485
59	0xbc8e6b7c	-0.017385237
60	0xbe2c3d25	-0.168202
61	0x3e14bf72	0.14526156
62	0x3f3c0c24	0.73456025
63	0xbf1b7403	-0.60723895

exp_avg f4 [64, 8]
0	0xb9d28535	-0.00040153568
1	0xb9fce7a8	-0.00048237783
2	0xb92aaa63	-0.00016275937
3	0xbbf7b646	-0.0075595705
4	0xba35d708	-0.0006936644
5	0xb8a11aa1	-7.682038e-05
6	0xbad0ee2b	-0.001594012
7	0xbb1be5fa	-0.00237882
8	0x00000000	0.0
9	0x00000000	0.0
10	0x00000000	0.0
11	0x00000000	0.0
12	0x00000000	0.0
13	0x00000000	0.0
14	0x00000000	0.0
15	0x00000000	0.0
16	0x39c74e07	0.00038014373
17	0x39ec37bc	0.00045054953
18	0x38c6f62a	9.487227e-05
19	0x3c204a8c	0.009783398
20	0x3a267bc7	0.0006350842
21	0x38bb1927	8.92154e-05
22	0x3a5fcbd1	0.0008537146
23	0x3acbf40e	0.0015560405
24	0xb9c82665	-0.0003817558
25	0xb9c02cb3	-0.00036654397
26	0xb93930c4	-0.00017661141
27	0x3baf83e1	0.0053562974
28	0xba6b5db4	-0.00089785014
29	0xb7ae1f14	-2.0756888e-05
30	0xb9ec1f06	-0.00045036542
31	0xba37b5c3	-0.00070079806
32	0x359214f5	1.0883947e-06
33	0x34502131	1.9383585e-07
34	0x3693873f	4.396686e-06
35	0x39e59037	0.00043785732
36	0xb845430d	-4.7030906e-05
37	0x3621a003	2.4084009e-06
38	0xb64110c1	-2.8768993e-06
39	0xb6aa5592	-5.0763565e-06
40	0xb9dec9c7	-0.00042493475
41	0xb9ca63f0	-0.00038602902
42	0xb921ce46	-0.00015431
43	0xbc775ff1	-0.015098558
44	0xba318c39	-0.0006772909
45	0xb8ac95ad	-8.2294784e-05
46	0xb965b892	-0.000219079
47	0xb9e6d0f3	-0.00044024698
48	0x3a3549b5	0.0006915585
49	0x3a4b49a1	0.0007754807
50	0x391f1ee7	0.00015174934
51	0x3c6de0b0	0.014518902
52	0x3aa85e8a	0.0012845558
53	0x391c955d	0.00014932961
54	0x3b0066d2	0.0019592536
55	0x3b359c3d	0.0027711533
56	0x399a8136	0.0002946944
57	0x39a6c3d2	0.00031807885
58	0x38c0575c	9.1715454e-05
59	0x3aa8e9ca	0.0012887057
60	0x3a299059	0.0006468348
61	0x381c7712	3.730419e-05
62	0x3a398610	0.0007077167
63	0x3a8a5646	0.0010554276
64	0x00000000	0.0
65	0x00000000	0.0
66	0x00000000	0.0
67	0x00000000	0.0
68	0x00000000	0.0
69	0x00000000	0.0
70	0x00000000	0.0
71	0x00000000	0.0
72	0x3a3d2bb0	0.0007216288
73	0x3a490cd3	0.00076694525
74	0x3983163b	0.0002500283
75	0x3c08fa7e	0.008360503
76	0x3aa49f2f	0.0012559647
77	0x38bff69f	9.1535265e-05
78	0x3ac43e23	0.0014972131
79	0x3b182fa3	0.0023221753
80	0x00000004	6e-45
81	0x00000004	6e-45
82	0x00000004	6e-45
83	0x00000004	6e-45
84	0x00000004	6e-45
85	0x00000004	6e-45
86	0x00000004	6e-45
87	0x00000004	6e-45
88	0x00000000	0.0
89	0x00000000	0.0
90	0x00000000	0.0
91	0x00000000	0.0
92	0x00000000	0.0
93	0x00000000	0.0
94	0x00000000	0.0
95	0x00000000	0.0
96	0x00000004	6e-45
97	0x00000004	6e-45
98	0x00000000	0.0
99	0x00000004	6e-45
100	0x00000004	6e-45
101	0x00000004	6e-45
102	0x00000004	6e-45
103	0x00000004	6e-45
104	0xb9358edd	-0.00017314726
105	0xb9713152	-0.00023001924
106	0xb7ae365f	-2.0767735e-05
107	0xbc1ba713	-0.009500283
108	0xb8bdca0c	-9.0498565e-05
109	0xb8be38f1	-9.070512e-05
110	0xba3a1ddd	-0.0007099787
111	0xba35422b	-0.0006914462
112	0x00000000	0.0
113	0x00000000	0.0
114	0x00000000	0.0
115	0x00000000	0.0
116	0x00000000	0.0
117	0x00000000	0.0
118	0x00000000	0.0
119	0x00000000	0.0
120	0x00000000	0.0
121	0x00000000	0.0
122	0x00000000	0.0
123	0x00000000	0.0
124	0x00000000	0.0
125	0x00000000	0.0
126	0x00000000	0.0
127	0x00000000	0.0
128	0x00000000	0.0
129	0x00000000	0.0
130	0x00000000	0.0
131	0x00000000	0.0
132	0x00000000	0.0
133	0x00000000	0.0
134	0x00000000	0.0
135	0x00000000	0.0
136	0xb8e7ec35	-0.00011058935
137	0xb8acc0e5	-8.2375285e-05
138	0xb92e92da	-0.0001664864
139	0xbab692ab	-0.0013929209
140	0xb9b7d7e6	-0.00035065337
141	0x36379c7a	2.7360206e-06
142	0xb9bf4ae7	-0.00036486165
143	0xba894eb5	-0.0010475727
144	0x3982055c	0.00024799525
145	0x39a3964b	0.0003120176
146	0xb7d4cea9	-2.5368603e-05
147	0x3bf9b6a2	0.0076206485
148	0x39b222eb	0.00033976822
149	0x38cec9d4	9.860439e-05
150	0x3a9a6910	0.0011780579
151	0x3ac3799a	0.001491356
152	0xb806afb8	-3.211174e-05
153	0xb7e6ada5	-2.7498996e-05
154	0xb837199e	-4.3654458e-05
155	0xba26d1e0	-0.0006363671
156	0xb7029142	-7.782424e-06
157	0xb6d67730	-6.3915722e-06
158	0xb883ddd9	-6.287889e-05
159	0xb9215e05	-0.00015389181
160	0xb892591b	-6.97842e-05
161	0xb8891f6a	-6.5385204e-05
162	0xb8457a3e	-4.7082307e-05
163	0xbbc1cb93	-0.0059141605
164	0xba2bda94	-0.0006555703
165	0xb84a0282	-4.816289e-05
166	0xb5c59d91	-1.4723502e-06
167	0xb7a1c85a	-1.9285992e-05
168	0x388743cc	6.44993e-05
169	0x375299b7	1.2552765e-05
170	0x38e7446f	0.00011027685
171	0xbbf591a8	-0.00749417
172	0x39eb42d0	0.00044872472
173	0xb84ca4f4	-4.8791015e-05
174	0xba1d3eae	-0.00059984147
175	0xba1ddf74	-0.0006022372
176	0xb85591a9	-5.0918814e-05
177	0xb854aae3	-5.070389e-05
178	0x38673714	5.5125987e-05
179	0xbb91e302	-0.0044521103
180	0x3972135a	0.00023086127
181	0xb7a861c1	-2.007268e-05
182	0xb90d7963	-0.00013492028
183	0xb90a1018	-0.00013166701
184	0x39a92984	0.00032265123
185	0x39d5d098	0.0004078194
186	0x380ed02a	3.4049306e-05
187	0x3c0d49ae	0.008623524
188	0x3addf5ff	0.0016934274
189	0x38fc7fbb	0.00012040088
190	0x3aac588b	0.0013148946
191	0x3adfa2dd	0.0017062087
192	0x00000000	0.0
193	0x00000000	0.0
194	0x00000000	0.0
195	0x00000000	0.0
196	0x00000000	0.0
197	0x00000000	0.0
198	0x00000000	0.0
199	0x00000000	0.0
200	0xb8ef2311	-0.0001140294
201	0xb8fbad2d	-0.00012000869
202	0xb85555fe	-5.0863244e-05
203	0xbaf6bbaa	-0.0018824239
204	0xb9d74b59	-0.00041064134
205	0xb7dee15f	-2.6569409e-05
206	0xb9760ce1	-0.00023465186
207	0xb9d83493	-0.000412379
208	0xb91ad820	-0.00014767097
209	0xb9437449	-0.00018639969
210	0xb8d729b1	-0.000102597645
211	0x3a54000b	0.00080871646
212	0xba118d57	-0.00055523723
213	0xb786b915	-1.606023e-05
214	0xb996ef93	-0.00028788726
215	0xba07b186	-0.00051762944
216	0x3a8ddb1c	0.0010822746
217	0x3a99d900	0.0011737645
218	0x39ce0648	0.00039296062
219	0x3c82c6e4	0.015963979
220	0x3b4244cd	0.002964306
221	0x39750045	0.00023365121
222	0x3b11c0d1	0.0022240172
223	0x3b57dcf6	0.00329381
224	0xb68683c8	-4.0088526e-06
225	0xb69027cd	-4.296168e-06
226	0xb6716ffc	-3.5976982e-06
227	0xb7472ecf	-1.1872223e-05
228	0xb91073d2	-0.00013776057
229	0xb690de77	-4.3174327e-06
230	0xb46daa4d	-2.21343e-07
231	0xb4edb0fc	-4.4273463e-07
232	0x38c7fe58	9.536435e-05
233	0x37fbb9dd	3.0008081e-05
234	0x3854111c	5.0560673e-05
235	0xbbd720b1	-0.0065651764
236	0xb94166b1	-0.0001844417
237	0xb8cb3006	-9.6887394e-05
238	0xb9e85c2a	-0.00044319156
239	0xb93b4116	-0.00017857956
240	0xb96fae91	-0.00022857847
241	0xb9678888	-0.00022080739
242	0xb86510b4	-5.461341e-05
243	0x3b103220	0.0022002533
244	0x38f1c473	0.00011528367
245	0x37c6f7ce	2.3718832e-05
246	0xb9e9a911	-0.00044567187
247	0xba453b66	-0.00075238047
248	0x371d5002	9.3765575e-06
249	0xb7c77acc	-2.377983e-05
250	0x380650c6	3.2023316e-05
251	0x3af96fbf	0.0019030495
252	0x380641ec	3.2009484e-05
253	0x36391065	2.757669e-06
254	0xba25f950	-0.0006331401
255	0xba746e9f	-0.0009324345
