ppo_model.pt (torch, 42467 bytes, 11 tensors)

net.0.weight f4 [64, 5]
0.14325613 -0.011353016 0.3439288 -0.34863585 -0.2485501 0.2905616 -0.15288982 -0.090595186
0.39777407 -0.005123611 -0.18636224 -0.25855553 -0.30472243 -0.43648115 -0.42027462 -0.09010448
0.112031154 -0.2518606 -0.20487219 0.03616897 -0.27223507 -0.059890144 0.35216776 0.02429439
-0.091533214 0.18593182 0.3535701 0.352452 0.22959404 0.28450638 -0.15372723 0.15728033
-0.2611293 -0.10613531 -0.24208319 0.11966898 -0.18119574 -0.2144721 0.37047732 0.42480943
-0.010113329 0.05073178 -0.41704047 -0.44169608 -0.16303682 -0.39161402 0.37142038 -0.20438248
-0.29952875 -0.13744092 -0.24339129 -0.13330555 0.31434548 0.25226393 -0.0707102 -0.19914222
-0.17697397 -0.36421725 0.13843851 0.17030126 -0.0723863 -0.05549199 0.32924503 -0.12472356
0.4084217 -0.27400935 -0.2381735 0.24392238 0.2516848 0.142885 0.09614622 0.02504834
0.124311924 0.17414495 -0.37222248 0.38708502 0.40272945 -0.36672485 0.067542635 0.15696988
-0.3252044 -0.05236945 0.36675936 0.03614367 -0.36236465 0.1184285 0.50037163 0.20413248
0.20610236 -0.06534214 -0.009022683 -0.23657009 0.23398662 -0.2949134 -0.09749153 0.30538103
-0.47441247 -0.24096374 0.25661245 -0.23630148 -0.046152033 0.38340253 0.36477658 0.085082956
0.37754193 -0.09276205 0.2582067 0.11935378 -0.12055502 0.34030515 0.020451061 0.2492059
0.45715445 -0.0027520976 0.2832905 0.43888152 -0.14449409 0.38852894 0.25433755 -0.000965519
-0.25000903 -0.5989439 0.04586219 0.27955776 -0.27507052 0.0003208816 -0.4298513 -0.39459816
-0.12665564 -0.43285742 0.13206108 -0.26908833 -0.18115957 0.05668466 -0.28526992 0.11274209
-0.25078478 -0.3445613 -0.069245145 0.16729197 0.028468218 -0.4085976 -0.3156392 -0.08137894
-0.045715798 0.080537096 -0.25148183 -0.04032399 -0.21424638 0.1881287 0.38763577 -0.0061614015
0.29493746 -0.21340698 0.21266836 -0.411937 0.06540842 0.07875258 0.07122955 -0.42147413
0.417469 0.108265236 -0.23164658 0.14938185 -0.39144313 -0.41424528 0.14042014 -0.08419831
0.40108812 -0.30583483 -0.22764362 -0.21903282 -0.3483569 -0.2584091 0.005027493 0.15441233
0.38946953 -0.06951442 -0.35983115 0.08803704 -0.44879058 -0.19035156 0.19303998 0.28871384
-0.4769295 0.26736295 -0.14453495 -0.06294012 -0.073177725 -0.41383517 -0.09789983 -0.30711082
0.129651 -0.06371127 0.45977712 0.081220865 -0.20372729 0.18455188 0.074562624 -0.30948755
-0.019929042 0.5414941 0.045798857 0.01794817 0.21536322 -0.22802685 -0.24456604 0.24042246
-0.46085945 0.3124298 0.0073091732 0.017737834 -0.21791266 -0.14662455 0.31058964 -0.045523103
0.22400075 0.44014594 0.020704787 -0.07794494 -0.121377915 0.032349944 -0.13331196 -0.15680784
-0.10312766 -0.06995597 -0.17873082 -0.33100522 -0.27122304 0.056128513 0.01302747 0.065893106
-0.3789541 0.18220325 -0.075425826 0.20348446 -0.029063912 0.08980433 -0.11034801 0.3622875
0.22034028 0.33904904 0.008998571 0.22014184 -0.35122496 -0.34954274 -0.1393784 0.2480615
0.19945814 0.041754294 -0.3280011 0.34370816 -0.124761224 0.22163543 0.03134443 -0.315571
00000000: bcb1 123e 0002 3abc 7017 b03e 6680 b2be
00000010: eb83 7ebe 7dc4 943e 268f 1cbe f889 b9bd
00000020: 0ba9 cb3e f7e3 a7bb bed5 3ebe 6461 84be
00000030: 9404 9cbe 757a dfbe 3c2e d7be b388 b8bd
00000040: 9770 e53d dff3 80be 04ca 51be ea25 143d
00000050: 6562 8bbe 5e4f 75bd 554f b43e 0705 c73c
00000060: c475 bbbd e964 3e3e 2407 b53e 9774 b43e
00000070: b31a 6b3e d2aa 913e ac6a 1dbe 180e 213e
00000080: bdb2 85be 785d d9bd a8e4 77be 0315 f53d
00000090: 608b 39be 939e 5bbe 34af bd3e 9f80 d93e
000000a0: 60b2 25bc 20cc 4f3d 5486 d5be fd25 e2be
000000b0: 20f3 26be a281 c8be d02a be3e a449 51be
000000c0: d55b 99be 50bd 0cbe 913b 79be 4081 08be
000000d0: e4f1 a03e bd28 813e 82d0 90bd f0eb 4bbe
000000e0: aa38 35be af7a babe d3c2 0d3e 7463 2e3e
000000f0: 453f 94bd 924b 63bd ce92 a83e 116f ffbd
00000100: a61c d13e f44a 8cbe c1e3 73be cac6 793e
00000110: d5dc 803e 7250 123e 4fe8 c43d 2d32 cd3c
00000120: 4097 fe3d 0e53 323e f293 bebe 0230 c63e
00000130: 8e32 ce3e 5cc3 bbbe cb53 8a3d b6bc 203e
00000140: 3181 a6be 5981 56bd e2c7 bb3e 630b 143d
00000150: dc87 b9be a48a f23d 5b18 003f 1b08 513e
00000160: 7f0c 533e 1ad2 85bd e0d3 13bc 6e3f 72be
00000170: 309a 6f3e e4fe 96be a4a9 c7bd e75a 9c3e
00000180: 31e6 f2be 33bf 76be b562 833e 04f9 71be
00000190: ea09 3dbd 564d c43e ffc3 ba3e f93f ae3d
000001a0: 2d4d c13e 08fa bdbd ab33 843e c16f f43d
000001b0: 8de5 f6bd 7a3c ae3e fc88 a73c d52f 7f3e
000001c0: 2610 ea3e 895c 34bb 740b 913e 14b5 e03e
000001d0: 42f6 13be 44ed c63e 8838 823e e21a 7dba
000001e0: 2f01 80be 6354 19bf fed9 3b3d 3222 8f3e
000001f0: 0bd6 8cbe 003c a839 7815 dcbe c508 cabe
00000200: 04b2 01be 7d9f ddbe 053b 073e f2c5 89be
00000210: e581 39be 2d2e 683d e60e 92be 53e5 e63d
00000220: dd66 80be 576a b0be 66d0 8dbd 964e 2b3e
00000230: 2e36 e93c b433 d1be 769b a1be 00aa a6bd
00000240: 7d40 3bbd a2f0 a43d 3ac2 80be c52a 25bd
00000250: 6763 5bbe cfa4 403e 3278 c63e 95e5 c9bb
00000260: 0b02 973e 5c87 5abe bcc5 593e 68e9 d2be
00000270: daf4 853d 0849 a13d cce0 913d 75cb d7be
00000280: 7fbe d53e 2aba dd3d c334 6dbe 8ef7 183e
00000290: 3c6b c8be f517 d4be 4cca 0f3e 2a70 acbd
000002a0: 6c5b cd3e 6296 9cbe 691b 69be 244a 60be
000002b0: d65b b2be 334e 84be abbd a43b 441e 1e3e
000002c0: 8d68 c73e 945d 8ebd ca3b b8be c34c b43d
000002d0: e1c7 e5be 85eb 42be 46ac 453e 4dd2 933e
000002e0: 1a30 f4be cce3 883e f800 14be c0e6 80bd
000002f0: 34de 95bd 34e2 d3be b57f c8bd a13d 9dbe
00000300: 3bc3 043e 0e7b 82bd e867 eb3e 2057 a63d
00000310: e39d 50be 2bfb 3c3e 4ab4 983d 2775 9ebe
00000320: 3b42 a3bc 5b9f 0a3f 9597 3b3d 0a08 933c
00000330: 2d88 5c3e df7f 69be 856f 7abe 4e31 763e
00000340: c5f5 ebbe ccf6 9f3e ca81 ef3b ef4e 913c
00000350: 7f24 5fbe bf24 16be 9b05 9f3e 6f76 3abd
00000360: 7460 653e cf5a e13e 169d a93c 99a1 9fbd
00000370: fc94 f8bd 6081 043d ee82 08be 3c92 20be
00000380: 9834 d3bd 1345 8fbd 3605 37be 8479 a9be
00000390: bfdd 8abe 03e7 653d 2b71 553c f7f2 863d
000003a0: 4606 c2be 7d93 3a3e db78 9abd 3b5e 503e
000003b0: 7117 eebc 55eb b73d 23fe e1bd bf7d b93e
000003c0: e2a0 613e d697 ad3e be6e 133c dd6c 613e
000003d0: c2d3 b3be 44f7 b2be 36b9 0ebe d503 7e3e
000003e0: c13e 4c3e 8d06 2b3d c3ef a7be 84fa af3e
000003f0: d082 ffbd 66f4 623e 0463 003d 8692 a1be

net.0.bias f4 [64]
-0.075484574 -0.31424022 0.38652712 0.05554241 -0.30277288 -0.12972656 -0.09762815 -0.44600642
-0.24526118 -0.0079601705 -0.25649086 0.27954495 0.4428438 -0.34805536 -0.040094294 -0.3473557
-0.0051593087 0.17132391 0.0072658956 -0.011560603 0.21229024 -0.2958427 0.3481478 -0.49564555
-0.41950464 0.278854 0.43651938 0.289643 0.2377616 -0.07612818 -0.1889049 -0.30756888
0.05789996 -0.39611772 -0.30247113 0.3452005 -0.12256539 0.014184356 -0.17586802 0.24984775
0.054320805 -0.00661623 0.38029087 0.20414822 0.22907454 0.37845224 -0.36386734 0.04080326
-0.41351 0.30578604 -0.5229737 -0.44255692 -0.20711237 -0.023298535 0.26211524 0.14505725
-0.44249213 -0.08970263 -0.0042687585 -0.113820285 0.22256334 -0.24792303 0.273414 -0.48840588
00000000: a897 9abd 18e4 a0be e2e6 c53e 7080 633d
00000010: 0c05 9bbe 0ad7 04be 44f1 c7bd f45a e4be
00000020: bf25 7bbe 606b 02bc c552 83be 8420 8f3e
00000030: 6cbc e23e 5034 b2be ea39 24bd 9bd8 b1be
00000040: 6b0f a9bb 896f 2f3e c016 ee3b af68 3dbc
00000050: 9d62 593e b278 97be 6e40 b23e 41c5 fdbe
00000060: 50c9 d6be f4c5 8e3e 787f df3e 164c 943e
00000070: c777 733e 17e9 9bbd 4970 41be ab79 9dbe
00000080: 8228 6d3d f1cf cabe 7fdd 9abe 1fbe b03e
00000090: 9003 fbbd 8065 683c bf16 34be 17d8 7f3e
000000a0: 7e7f 5e3d f6cc d8bb 7cb5 c23e 3b0c 513e
000000b0: 8492 6a3e 7ec4 c13e d24c babe 5221 273d
000000c0: 95b7 d3be fd8f 9c3e 9be1 05bf d296 e2be
000000d0: 4415 54be 92dc bebc f833 863e e389 143e
000000e0: 548e e2be 03b6 b7bd f1e0 8bbb 9c1a e9bd
000000f0: a5e7 633e 89df 7dbe ebfc 8b3e 5610 fabe

net.2.weight f4 [64, 64]
-0.048461303 -0.060117386 0.079449534 0.064415015 -0.06969603 0.099236585 0.08412282 -0.008318186
0.02023013 -0.0561219 -0.019935759 0.028446231 0.055177536 0.100238286 0.061922457 -0.048695058
0.08122461 -0.032691084 0.115254015 -0.03855929 0.070172034 0.091280125 -0.093590975 -0.052886486
-0.06364459 -0.08001368 0.050686613 -0.119585894 -0.035298474 -0.023728263 -0.1309148 0.09406103
-0.12942825 0.052594505 -0.053278327 -0.059979677 0.10806015 0.10848631 -0.1260506 -0.03358291
0.12841387 -0.12036644 0.14054146 0.015943399 -0.023916721 0.08705042 -0.08538323 0.057921033
0.10090344 -0.10807124 0.13305308 0.11296806 0.06257969 -0.07936031 -0.035141047 0.15271454
-0.024583638 0.11396119 -0.14120181 0.11609687 -0.043456964 -0.0135030225 0.08661976 0.067209795
-0.06464532 0.09708926 -0.05518064 -0.09551744 0.021627754 0.0054315627 0.11046982 -0.11082366
-0.07193741 0.051938966 -0.092096165 -0.05809565 -0.057098165 0.088010564 0.090050265 -0.12044977
-0.10629018 -0.10300413 0.0025879145 -0.03008838 0.011674508 -0.016098186 -0.11860052 0.06954788
-0.0027849823 0.0014351457 0.074842796 0.09423369 0.1135373 -0.06604153 0.049780637 -0.06970726
0.020633146 -0.08215526 0.10698445 -0.07422951 0.0920323 0.056866348 -0.06671649 0.020252585
-0.0037884414 0.06728187 0.097793475 -0.06672566 -0.09202139 -0.09647012 -0.10727674 0.07824944
-0.052172184 -0.0958537 -0.049753338 0.018320233 0.093031555 0.102477625 0.05533141 -0.06946041
-0.043673232 0.07675524 -0.029305577 0.040029302 -0.024505734 0.01006484 -0.122405246 0.044453412
0.0026203543 -0.021811107 0.032938704 0.06936686 0.053535666 0.016002817 -0.12439118 0.10846969
-0.116983086 -0.07578823 0.04511454 0.047603186 0.104759626 0.10526991 0.043373376 -0.091000035
-0.14407459 -0.08358419 0.09001714 -0.060942262 0.10879528 0.109027274 0.020942701 -0.051608082
0.14529979 0.054102585 -0.010906354 0.12688705 -0.019654563 -0.048723225 -0.10198867 -0.05441377
-0.07913477 -0.008986603 0.015838614 -0.04491013 0.05225246 0.121433154 0.13485958 -0.0789356
0.13660309 -0.06598713 -0.015169158 0.16679886 -0.002300933 0.0036808182 -0.081876226 -0.008317734
0.11299139 0.16508508 0.15601008 -0.0060869935 -0.066648394 -0.10819533 0.1337916 0.12693934
0.086893104 -0.056416765 -0.018950162 -0.0048577487 0.06840416 -0.040995456 0.09889416 0.0892227
-0.10580085 -0.07355493 -0.10443044 -0.06594551 -0.117718585 -0.010654771 0.0396837 0.05397083
0.027500555 0.004262522 -0.037850033 -0.0385573 -0.016924335 -0.055496924 -0.022553157 0.03974157
0.08387037 -0.058350302 -0.0976523 0.008208112 0.09485774 0.04421025 -0.040551774 -0.124460645
0.014661036 0.04187095 -0.072514586 -0.062462788 0.0879651 -0.10165448 0.0072486983 -0.0336017
-0.09374145 0.022973789 0.07479773 -0.11055115 0.04943172 -0.0063350797 0.09213638 -0.043547153
0.08559424 -0.0053855 0.058471818 -0.07783729 0.069985 -0.09933148 0.020157496 -0.10683848
0.0654297 0.031058544 -0.060376458 0.06511575 0.07408397 0.11899226 -0.06223967 -0.14328848
-0.09114187 0.011348302 0.042461187 0.11295472 0.08871615 0.06247643 -0.08394804 -0.046176083
00000000: 5c7f 46bd a63d 76bd 70b6 a23d 05ec 833d
00000010: cbbc 8ebd 8d3c cb3d 9648 ac3d 0049 08bc
00000020: a8b9 a53c 14e0 65bd 5150 a3bc 1208 e93c
00000030: d701 623d bb49 cd3d 67a2 7d3d 7874 47bd
00000040: 1759 a63d 16e7 05bd 4c0a ec3d 59f0 1dbd
00000050: 5bb6 8f3d 13f1 ba3d a0ac bfbd 809f 58bd
00000060: 1858 82bd 36de a3bd c49c 4f3d 73e9 f4bd
00000070: 2295 10bd c661 c2bc 880e 06be 12a3 c03d
00000080: d788 04be 566d 573d 603a 5abd 40ad 75bd
00000090: a44e dd3d 122e de3d 6913 01be 3c8e 09bd
000000a0: ed7e 033e ae82 f6bd 1aea 0f3e bb9b 823c
000000b0: 00ed c3bc 7e47 b23d 67dd aebd 9b3e 6d3d
000000c0: 76a6 ce3d 7454 ddbd 113f 083e cc5b e73d
000000d0: c829 803d a987 a2bd 0ff0 0fbd 3361 1c3e
000000e0: a063 c9bc 7c64 e93d 3597 10be 32c4 ed3d
000000f0: eeff 31bd c83b 5dbc b365 b13d 4aa5 893d
00000100: c464 84bd bcd6 c63d 1805 62bd a69e c3bd
00000110: b02c b13c 40fb b13b 003e e23d 84f7 e2bd
00000120: ec53 93bd f4bd 543d ea9c bcbd b4f5 6dbd
00000130: c4df 69bd e23e b43d 466c b83d 5eae f6bd
00000140: aaae d9bd d4f3 d2bd 009a 293b e87b f6bc
00000150: 7046 3f3c 58e0 83bc d4e4 f2bd 1e6f 8e3d
00000160: 4084 36bb 801b bc3a 2e47 993d 98fd c03d
00000170: 3e86 e83d c840 87bd c8e6 4b3d aec2 8ebd
00000180: d806 a93c 0441 a8bd aa1a db3d a405 98bd
00000190: 6e7b bc3d b0ec 683d a8a2 88bd c0e8 a53c
000001a0: 8047 78bb 14cb 893d f247 c83d 76a7 88bd
000001b0: b675 bcbd 2092 c5bd e8b3 dbbd 3e41 a03d
000001c0: 80b2 55bd f24e c4bd 28ca 4bbd 5014 963c
000001d0: 5487 be3d cadf d13d 30a3 623d 4241 8ebd
000001e0: b4e2 32bd da31 9d3d 4012 f0bc c4f5 233d
000001f0: 40c0 c8bc 00e7 243c 9aaf fabd c814 363d
00000200: 40ba 2b3b 35ad b2bc bcea 063d 3610 8e3d
00000210: 3748 5b3d 5718 833c cec0 febd 5b25 de3d
00000220: d494 efbd dc36 9bbd 06ca 383d 8ffb 423d
00000230: 378c d63d c097 d73d 48a8 313d 3a5e babd
00000240: 4a88 13be 302e abbd e85a b83d 989e 79bd
00000250: 0fd0 de3d b149 df3d 0790 ab3c ff62 53bd
00000260: 78c9 143e ac9a 5d3d 90b0 32bc aeee 013e
00000270: 9b02 a1bc 0192 47bd 70df d0bd f9e0 5ebd
00000280: 6911 a2bd 8b3c 13bc fbbf 813c aff3 37bd
00000290: ad06 563d f2b1 f83d a118 0a3e fda8 a1bd
000002a0: aee1 0b3e 4324 87bd 0f88 78bc 52cd 2a3e
000002b0: 40cb 16bb e239 713b b9ae a7bd 1b47 08bc
000002c0: 0868 e73d 100c 293e 1bc1 1f3e 6775 c7bb
000002d0: f47e 88bd 8395 ddbd aa00 093e 63fc 013e
000002e0: 03f5 b13d 4415 67bd 5f3d 9bbc c02d 9fbb
000002f0: 7b17 8c3d daea 27bd 0589 ca3d 64ba b63d
00000300: 1eae d8bd f8a3 96bd a0df d5bd 710e 87bd
00000310: 7116 f1bd 5991 2ebc 608b 223d 8410 5d3d
00000320: d848 e13c a0ac 8b3b a308 1bbd 42ee 1dbd
00000330: e7a4 8abc be50 63bd 66c1 b8bc 0ec8 223d
00000340: 3bc4 ab3d ba00 6fbd eefd c7bd 517b 063c
00000350: c644 c23d cf15 353d 9e19 26bd 39e5 febd
00000360: d834 703c e080 2b3d 8782 94bd fbd8 7fbd
00000370: 0c27 b43d 3930 d0bd 7d86 ed3b f0a1 09bd
00000380: 84fb bfbd 8733 bc3c 8d2f 993d a468 e2bd
00000390: ea78 4a3d 8096 cfbb 00b2 bc3d 805e 32bd
000003a0: 084c af3d d978 b0bb 2580 6f3d 2869 9fbd
000003b0: 4c54 8f3d 4e6e cbbd 5521 a53c 22ce dabd
000003c0: 0200 863d 7d6e fe3c 4e4d 77bd 685b 853d
000003d0: 56b9 973d 37b2 f33d 06ef 7ebd 37ba 12be
000003e0: 97a8 babd 3aee 393c c8eb 2d3d ce54 e73d
000003f0: d0b0 b53d 49e7 7f3d f3ec abbd 2223 3dbd

net.2.bias f4 [64]
0.088930584 0.018773392 0.13290803 0.11102143 -0.09340397 0.12488618 0.049356632 0.081270956
-0.03468226 0.16970159 -0.061285324 0.026320556 0.07925709 -0.123629615 0.012552016 -0.06719001
-0.015096714 -0.020009056 0.025522336 -0.07825922 -0.04677939 0.11031659 -0.04039085 0.06972488
0.10655789 0.098866336 0.037519876 -0.002581624 -0.05739925 0.012429179 0.05817234 0.039910156
0.010466919 0.04745252 0.13473763 -0.029951697 -0.1246579 -0.1373664 0.18182601 0.013961536
0.0196196 0.0221297 -0.11265441 0.028191805 0.040516507 -0.050604407 -0.001666531 -0.126607
0.007768348 0.031598564 -0.048608806 0.19251445 0.003789323 0.026576221 -0.017590042 -0.041558594
0.038681168 -0.01615449 0.015713394 -0.008779904 0.13585085 -0.030328648 0.014752597 0.10769438
00000000: 3d21 b63d a8ca 993c 0b19 083e 345f e33d
00000010: 954a bfbd 53c4 ff3d 2e2a 4a3d 6371 a63d
00000020: fc0e 0ebd 41c6 2d3e 5206 7bbd 359e d73c
00000030: 8b51 a23d 8631 fdbd f9a6 4d3c ea9a 89bd
00000040: 3558 77bc 08ea a3bc 3814 d13c 5f46 a0bd
00000050: bf9b 3fbd aaed e13d e070 25bd ebcb 8e3d
00000060: 063b da3d 6f7a ca3d 71ae 193d 7730 29bb
00000070: 7a1b 6bbd c1a3 4b3c 1f46 6e3d d578 233d
00000080: 717d 2b3c 935d 423d a9f8 093e 435d f5bc
00000090: a44c ffbd c7a9 0cbe 9930 3a3e edbe 643c
000000a0: 49b9 a03c 5849 b53c 5bb7 e6bd 80f2 e63c
000000b0: a3f4 253d 9146 4fbd 806f daba 44a5 01be
000000c0: a08d fe3b 7f6d 013d 071a 47bd 8222 453e
000000d0: 4a56 783b 60b6 d93c fe18 90bc 5839 2abd
000000e0: 2570 1e3d 6c56 84bc 60b9 803c 96d9 0fbc
000000f0: 7c1c 0b3e c973 f8bc e0b4 713c df8e dc3d

net.4.weight f4 [4, 64]
0.06117878 -0.0074050557 0.11005418 0.052017882 0.039089873 0.09342235 0.13147232 0.109506905
0.009413822 0.17044514 0.04035063 0.08145929 0.14601602 0.0066091362 0.13491713 0.04994187
0.018973267 0.014495395 0.015547353 -0.00030332367 0.12692952 0.19698574 -0.0052341186 0.09891948
-0.024870994 0.10470325 0.0716888 0.080194116 0.11939737 0.019212907 0.15859616 0.1294977
-0.0004586373 0.114229515 0.12903704 0.10263959 0.016950272 -0.0034890135 0.17148271 0.07742158
0.0029936272 -0.0020707983 0.087067656 0.009399783 0.23097195 0.0012563516 0.007909954 -0.031249372
-0.0087125525 0.10457267 0.012820817 0.14083026 0.11575587 0.008868646 -0.007223771 -0.0031952201
0.17694564 0.10955902 0.0014202772 0.06692011 0.07214509 0.12893057 0.00074743293 0.15537593
0.08330073 0.008121567 0.19365922 0.10957027 0.04333798 0.09917985 0.2437842 0.17277898
0.008779021 0.13635856 -0.0031918345 0.13500224 0.10406333 -0.008612301 0.13503446 0.046403784
0.06800268 0.042859107 0.006436734 0.004002958 0.13951896 0.2104672 0.0086852275 0.16805488
0.011380914 0.18568358 0.09549107 0.107062824 0.08472208 0.02201194 0.15387419 0.08844845
0.016851464 0.14553781 0.09024717 0.07716875 0.042638835 0.004489928 0.118554145 0.12241342
5.3509473e-05 0.0046508517 0.12723675 -0.009602664 0.2399967 -0.011811935 0.005661661 -0.0047169966
0.0043336786 0.16420421 0.027582718 0.1316843 0.14798313 -0.008765978 0.011453261 -0.009793858
0.21382323 0.15254053 0.00835124 0.09828109 0.04563446 0.16473898 0.0014753267 0.18635152
0.15272918 0.004092457 0.12453939 0.10535495 0.03860087 0.1408078 0.25916046 0.083398625
-0.005844263 0.16027486 0.013657987 0.12828079 0.15501474 -0.002326827 0.20123322 0.028594257
0.05355197 0.052395906 0.044547997 -0.0005985604 0.13738763 0.3163274 0.0016868981 0.085956275
0.01640878 0.16965055 0.059058394 0.070878856 0.049103715 0.017389014 0.06846731 0.07367704
0.0037209222 0.14606012 0.11418605 0.1003569 0.031093264 0.020858325 0.15681094 0.079342134
0.014821516 0.008891994 0.15822189 0.0055914996 0.18269229 0.0125406785 0.008629337 -0.0061334893
-0.00835165 0.12992173 0.06391928 0.13861878 0.104763925 -0.009012951 0.0020519332 -0.009236921
0.118693516 0.07688257 -0.004215008 0.05220141 0.0082697105 0.13145351 -0.005947715 0.24512987
0.14539723 0.009773968 0.11579553 0.05778581 0.0572729 0.16776128 -0.007508438 0.15939797
-0.0079055345 0.17939918 0.024552563 -0.01670978 0.08864026 0.0089343805 0.07078464 0.028070882
0.04769712 0.030032378 0.024128532 0.000922511 -0.0022458276 0.03336134 0.001521063 0.15125158
-0.012297925 -0.02192566 0.054577645 0.07229397 0.061361007 0.011042234 0.07553953 0.09745119
0.0037166956 0.20380947 0.15942122 0.095652804 0.027701274 -0.012286498 0.1998421 0.063508645
-0.023418183 0.008352129 0.024147699 -0.008319342 0.010118588 -0.00088579755 -0.0024198224 0.0066472734
-0.003271501 0.19937675 0.0625002 0.19046447 0.0603952 0.00956771 0.0013043307 -0.0033644377
0.0805665 0.092143185 0.0011063181 0.06914004 0.0069966326 -0.053858038 -0.008211025 0.0066128136
00000000: 9a96 7a3d 1ca6 f2bb 1664 e13d b410 553d
00000010: b41c 203d 3854 bf3d aea0 063e 2845 e03d
00000020: 6e3c 1a3c 2c89 2e3e b446 253d 21d4 a63d
00000030: 3985 153e 7491 d83b b727 0a3e d98f 4c3d
00000040: d36d 9b3c 187e 6d3c 53ba 7e3c 6a07 9fb9
00000050: d0f9 013e a1b6 493e f882 abbb 4c96 ca3d
00000060: 41be cbbc a86e d63d 94d1 923d d03c a43d
00000070: 9c86 f43d 6364 9d3c 0867 223e 0c9b 043e
00000080: 4275 f0b9 2af1 e93d 4922 043e b534 d23d
00000090: 4cdb 8a3c efa7 64bb 2a99 2f3e 358f 9e3d
000000a0: bb30 443b 3bb6 07bb 8750 b23d 8c01 1a3c
000000b0: e983 6c3e 2aac a43a c098 013c affe ffbc
000000c0: 18bf 0ebc 322a d63d 670e 523c cf35 103e
000000d0: 6a11 ed3d cc4d 113c 62b5 ecbb e666 51bb
000000e0: 3d31 353e 7b60 e03d 9828 ba3a 690d 893d
000000f0: cec0 933d 6006 043e 60ef 433a de1a 1f3e
00000100: 9399 aa3d 5210 053c 9a4e 463e 6166 e03d
00000110: 2a83 313d ce1e cb3d 91a2 793e f9ec 303e
00000120: e2d5 0f3c 94a1 0b3e 192e 51bb 073e 0a3e
00000130: 281f d53d 9c1a 0dbc 7946 0a3e e511 3e3d
00000140: fd44 8b3d 088d 2f3d 3deb d23b 3f2b 833b
00000150: 0fde 0e3e b784 573e 7c4c 0e3c 9416 2c3e
00000160: 0377 3a3c d623 3e3e d290 c33d c143 db3d
00000170: c582 ad3d 6252 b43c 3291 1d3e 7624 b53d
00000180: 150c 8a3c dd07 153e 82d3 b83d a60a 9e3d
00000190: 0fa6 2e3d 3f20 933b 84cc f23d e3b3 fa3d
000001a0: 5c6f 6038 2c66 983b 5a4a 023e 7e54 1dbc
000001b0: b2c1 753e d986 41bc 7485 b93b 0991 9abb
000001c0: 8801 8e3b 2625 283e 27f5 e13c 40d8 063e
000001d0: e488 173e 2d9f 0fbc 75a6 3b3c 6b76 20bc
000001e0: 7af4 5a3e 9633 1c3e a4d3 083c 9947 c93d
000001f0: 33eb 3a3d 56b1 283e c05f c13a efd2 3e3e
00000200: 0a65 1c3e 041a 863b 820e ff3d 56c4 d73d
00000210: f21b 1e3d ec2f 103e aeb0 843e e6cc aa3d
00000220: 3b81 bfbb 181f 243e c0c5 5f3c 0a5c 033e
00000230: 2fbc 1e3e ae7d 18bb 1510 4e3e 813e ea3c
00000240: 4f59 5b3d 179d 563d f677 363d b5e8 1cba
00000250: 58af 0c3e aaf5 a13e e81a dd3a d809 b03d
00000260: b56b 863c e0b8 2d3e 37e7 713d ef28 913d
00000270: fa20 493d 6873 8e3c 9738 8c3d fde3 963d
00000280: b7da 733b c990 153e 60da e93d eb87 cd3d
00000290: 4db7 fe3c 14df aa3c 0c93 203e 217e a23d
000002a0: f2d5 723c baaf 113c eb04 223e e638 b73b
000002b0: b013 3b3e 6b77 4d3c 1062 0d3c 70fb c8bb
000002c0: 5cd5 08bc 340a 053e 1de8 823d 15f2 0d3e
000002d0: 788e d63d 0eab 13bc ba79 063b 7456 17bc
000002e0: 9615 f33d 9c74 9d3d 0d1e 8abb 25d1 553d
000002f0: ae7d 073c c09b 063e 0de5 c2bb 5303 7b3e
00000300: 03e3 143e fe22 203c 3526 ed3d d0b0 6c3d
00000310: fd96 6a3d 9dc9 2b3e 5809 f6bb 3939 233e
00000320: 3786 01bc 6bb4 373e 7522 c93c f3e2 88bc
00000330: 0689 b53d 8261 123c 8af7 903d e8f4 e53c
00000340: 0e5e 433d 7606 f63c 33a9 c53c aad4 713a
00000350: bc2e 13bb e7a5 083d 685e c73a b2e1 1a3e
00000360: 3c7d 49bc 719d b3bc cf8c 5f3d dc0e 943d
00000370: ae55 7b3d 7cea 343c 78b4 9a3d 7d94 c73d
00000380: ce93 733b 6eb3 503e 513f 233e 9ee5 c33d
00000390: c8ed e23c 4f4d 49bc 68a3 4c3e d210 823d
000003a0: 7dd7 bfbc 5ed7 083c 65d1 c53c d94d 08bc
000003b0: 6fc8 253c de34 68ba e295 1ebb 5fd1 d93b
000003c0: ae66 56bb 6b29 4c3e 1b00 803d 1e09 433e
000003d0: f560 773d e2c1 1c3c 13f6 aa3a e67d 5cbb
000003e0: 0d00 a53d 91b5 bc3d e001 913a 4b99 8d3d
000003f0: 0244 e53b 3f9a 5cbd 8987 06bc 4db0 d83b

net.4.bias f4 [4]
0.21763016 0.15457736 0.12698711 0.13796227
00000000: 71da 5e3e 8749 1e3e e908 023e fb45 0d3e

net.0.weight f4 [64, 5]
1.0614355 0.79267454 -0.8874352 0.2791383 0.1382269 0.33465946 0.053738642 0.0883129
-0.008815968 -0.01234191 -0.15793772 -0.4812421 -0.35967806 -0.33975774 0.28139547 -0.43232062
0.12656814 0.36913592 -0.2448464 -0.43353894 -0.2349389 0.25296724 -0.033818215 -0.24868919
-0.40357322 0.345275 0.25492623 0.09353478 -0.27841714 0.30799344 0.2936137 0.30549115
-0.14364982 -0.22825973 -0.012670499 0.04246959 0.30147249 0.049438477 -0.40069896 -0.0111168325
-0.41711026 -0.5665862 0.24925925 -0.009051206 0.42258066 0.64543474 0.8194418 -0.32196712
0.008226685 0.42824185 0.16080078 -0.40996793 0.04131558 -0.29358074 0.19719036 -0.94632435
-0.48564526 0.7614631 0.14195804 -0.21905799 -1.0790837 -0.9044166 1.0177888 0.058472026
-0.076721214 -0.23752113 0.42729396 0.25619775 -0.09090924 -0.17149493 -1.0063059 -0.21613848
0.7303843 -0.020741785 -0.22921723 0.28106475 -0.36788127 -0.101621926 -0.4180676 -0.25592843
-0.30348897 0.20504558 0.20946383 -0.043341547 -0.041652083 -0.20533568 -0.371232 0.7033703
-0.0052047 0.11417226 0.8337707 0.66610265 0.4109041 -0.03756228 -0.021757472 -0.3950182
0.42741936 -0.42814133 -0.19908535 -0.2055071 0.3308762 -0.10661069 0.057743985 -0.013270198
-0.2531727 0.9171774 0.20954184 0.12482869 -0.01387997 0.2584232 0.56499225 0.69793934
-0.27911305 0.11893529 0.19441326 0.9676672 0.9083815 -0.31440747 0.08405916 0.5120942
-0.11831305 -0.11457778 -0.090066865 -0.086448275 0.28311065 -0.48658234 0.2635488 0.54715765
-0.006976495 0.3456312 -0.3620955 0.39201695 0.3063809 -0.4644852 0.2776409 0.15280217
-0.46216083 0.036308613 0.59287983 -0.3353422 -0.12605599 0.27929598 -0.116933465 -0.01363188
-0.2273156 -0.30428457 0.092442505 0.27686 -0.1324235 -0.048673023 -0.9161489 -0.6619185
0.10346485 0.30102587 -0.21269856 0.32040638 0.18511838 0.80539703 -0.0139356125 0.032559343
-0.35182744 -0.059588846 0.25698227 -0.37353462 0.2738342 -0.09226346 0.55602825 0.47051185
-0.18714336 0.31150633 0.55230325 0.37078846 -0.5648939 -0.057124797 -0.10975344 -0.3825835
0.29197234 0.071944416 -0.43759817 -0.10639095 -0.14517842 -0.2088095 -0.3998679 -0.2538502
0.18079765 -0.42431185 -0.3768147 -0.40404773 -0.27112684 0.34156516 0.41685194 0.6556311
-0.44925857 0.013313282 0.04662961 0.40623927 0.03233421 0.21613818 -0.16430491 -0.38480255
0.044192217 -0.28626403 0.38943678 -0.00321883 -0.46057174 0.11604775 -0.44955647 -0.2226966
-0.035067663 -0.41271397 -0.17290741 0.18499555 0.81679285 -0.005768158 0.58802915 0.33589843
-0.2906603 -0.5789164 0.65515167 0.13962191 0.55395234 0.10012973 -0.18226036 -0.002552732
-0.45128837 -0.07318969 0.28614795 0.8940847 -0.009414459 -0.02556046 -0.029592738 0.3287566
0.33443347 -0.008107383 0.063630156 -1.2633584 -0.85121065 0.45548183 0.39640254 0.0073960125
-0.24143012 -0.012502313 0.3250273 -0.16226491 -0.08222574 0.1908381 0.18757182 -0.21639486
-0.31244892 -0.08159509 0.4631768 0.7310998 0.6062458 0.1261763 0.3662545 0.099873774
00000000: 1edd 873f b8ec 4a3f f42e 63bf 37eb 8e3e
00000010: 5a8b 0d3e 7c58 ab3e 0d1d 5c3d 65dd b43d
00000020: da70 10bc b935 4abc 6dba 21be 5d65 f6be
00000030: b927 b8be baf4 adbe 1113 903e 2159 ddbe
00000040: 149b 013e 62ff bc3e 04b9 7abe d1f8 ddbe
00000050: d393 70be ec84 813e f884 0abd 61a8 7ebe
00000060: 26a1 cebe e3c7 b03e b185 823e 2a8f bf3d
00000070: b18c 8ebe 51b1 9d3e 8954 963e 5669 9c3e
00000080: f018 13be ebbc 69be ed97 4fbc 98f4 2d3d
00000090: 9a5a 9a3e 0080 4a3d 6a28 cdbe 6023 36bc
000000a0: 7a8f d5be cb0b 11bf d13d 7f3e 824b 14bc
000000b0: 7e5c d83e 363b 253f f0c6 513f e0d8 a4be
000000c0: 38c9 063c 8442 db3e f6a8 243e 51e7 d1be
000000d0: 873a 293d 3750 96be 45ec 493e 5042 72bf
000000e0: 7fa6 f8be 3fef 423f 735d 113e bd50 60be
000000f0: 6a1f 8abf d987 67bf e746 823f 5d80 6f3d
00000100: 0320 9dbd bd38 73be 46c6 da3e 5a2c 833e
00000110: a02e babd 5e9c 2fbe a2ce 80bf 6853 5dbe
00000120: 77fa 3a3f adea a9bc ecb7 6abe b8e7 8f3e
00000130: ef5a bcbe 281f d0bd f50c d6be 0d09 83be
00000140: e862 9bbe 78f7 513e b07d 563e e886 31bd
00000150: 609b 2abd 8443 52be 1f12 bebe 1310 343f
00000160: 308c aabb 25d3 e93d ff71 553f b485 2a3f
00000170: 0662 d23e e8da 19bd ba3c b2bc d33f cabe
00000180: b6d6 da3e 5735 dbbe 08dd 4bbe 7470 52be
00000190: 9b68 a93e b556 dabd f584 6c3d 3f6b 59bc
000001a0: da9f 81be 23cc 6a3f 2392 563e 2fa6 ff3d
000001b0: d068 63bc 0c50 843e 55a3 103f 27ac 323f
000001c0: e8e7 8ebe 5894 f33d 4514 473e 0ab9 773f
000001d0: b18b 683f 04fa a0be 3527 ac3d 9b18 033f
000001e0: 1d4e f2bd c1a7 eabd fa74 b8bd cb0b b1bd
000001f0: e1f3 903e 5221 f9be deef 863e 8612 0c3f
00000200: 159b e4bb 93f6 b03e 9564 b9be 72b6 c83e
00000210: f5dd 9c3e 01d1 edbe f326 8e3e 2c78 1c3e
00000220: 58a0 ecbe 57b8 143d f9c6 173f f9b1 abbe
00000230: d214 01be e2ff 8e3e d07a efbd 4058 5fbc
00000240: 6cc5 68be 30cb 9bbe 7f52 bd3d 98c0 8d3e
00000250: 079a 07be 5d5d 47bd bc88 6abf 7e73 29bf
00000260: 61e5 d33d 1020 9a3e a7cd 59be 4e0c a43e
00000270: ac8f 3d3e 802e 4e3f 3252 64bc f25c 053d
00000280: ba22 b4be 6f13 74bd 2e93 833e ee3f bfbe
00000290: ff33 8c3e a0f4 bcbd de57 0e3f eee6 f03e
000002a0: 82a2 3fbe c27d 9f3e bf63 0d3f fcd7 bd3e
000002b0: e39c 10bf b1fb 69bd 69c6 e0bd fce1 c3be
000002c0: 667d 953e 9857 933d de0c e0be 80e3 d9bd
000002d0: a7a9 14be 28d2 55be 7cbb ccbe a7f8 81be
000002e0: 0523 393e 673f d9be dbed c0be 58df cebe
000002f0: 23d1 8abe a1e1 ae3e 9e6d d53e 71d7 273f
00000300: 3805 e6be f41f 5a3c b1fe 3e3d 98fe cf3e
00000310: e070 043d 5453 5d3e 8c3f 28be d704 c5be
00000320: e602 353d 3391 92be 4264 c73e 02f3 52bb
00000330: 0fd0 ebbe 71aa ed3d 442c e6be 940a 64be
00000340: 1ca3 0fbd 3f4f d3be a40e 31be 796f 3d3e
00000350: 5619 513f d102 bdbb 1489 163f e1fa ab3e
00000360: 6dd1 94be dd33 14bf 05b8 273f 0cf9 0e3e
00000370: d2cf 0d3f d110 cd3d 76a2 3abe bc4b 27bb
00000380: 450f e7be 7ae4 95bd fc81 923e bce2 643f
00000390: 1a3f 1abc 2b64 d1bc 786c f2bc c952 a83e
000003a0: dd3a ab3e d4d4 04bc 8750 823d bab5 a1bf
000003b0: f1e8 59bf ea34 e93e 46f5 ca3e 405a f23b
000003c0: 7539 77be 80d6 4cbc fa69 a63e c628 26be
000003d0: f865 a8bd 106b 433e d412 403e 9d96 5dbe
000003e0: 4ef9 9fbe 541b a7bd 8225 ed3e 5b29 3b3f
000003f0: ed32 1b3f 5c34 013e b685 bb3e 9f8a cc3d

net.0.bias f4 [64]
0.33503485 0.6453457 0.3036194 -0.068020165 0.0053506196 -0.114244215 0.22566573 -0.17507142
0.10186086 0.24092205 -0.047987074 -0.021524513 0.15636311 -0.384324 0.24575579 0.40600806
-0.37219617 0.048122935 0.6270638 0.41545433 0.06500849 0.39605123 -0.4916428 -0.17246062
-0.14891338 -0.017175632 0.34181538 -0.21955149 -0.29819453 0.39300227 0.11446065 0.10116426
0.26250377 -0.19086209 0.04124154 0.35805273 -0.40665203 -0.019748546 -0.02753613 -0.2357832
0.08963993 0.25286677 0.2962762 -0.43546835 -0.27567136 0.48323503 0.42257714 -0.16588548
0.25163126 0.0051065385 -0.058635727 -0.3440628 -0.3912204 0.12464149 0.14161897 -0.29997978
0.58539706 -0.05566101 -0.22307867 -0.42211235 0.02373762 0.07974696 -0.30231908 -0.22211999
00000000: b089 ab3e 6035 253f 0174 9b3e 284e 8bbd
00000010: 4054 af3b dff8 e9bd eb14 673e ec45 33be
00000020: 6d9c d03d 45b4 763e 188e 44bd 2d54 b0bc
00000030: a71d 203e 1ec6 c4be 68a7 7b3e 4ae0 cf3e
00000040: 7f90 bebe 8e1c 453d 4187 203f 6eb6 d43e
00000050: 2c23 853d 3ac7 ca3e 9bb8 fbbe 8499 30be
00000060: c07c 18be e9b3 8cbc 6d02 af3e 1bd2 60be
00000070: f4ac 98be 9837 c93e 586a ea3d 352f cf3d
00000080: e566 863e 5a71 43be e4ec 283d b052 b73e
00000090: b234 d0be b4c7 a1bc 7393 e1bc 2771 71be
000000a0: 2495 b73d c177 813e 84b1 973e b5f5 debe
000000b0: cc24 8dbe 956a f73e 085c d83e e2dd 29be
000000c0: d0d5 803e c054 a73b 042c 70bd 0029 b0be
000000d0: 0a4e c8be 0a44 ff3d 9004 113e f396 99be
000000e0: 95dc 153f cdfc 63bd bc6e 64be 1c1f d8be
000000f0: 6675 c23c 6052 a33d 91c9 9abe 6c73 63be

net.2.weight f4 [64, 64]
0.03927719 -0.024845943 0.07658064 0.027165368 -0.117908835 0.11057092 -0.056564048 -0.078185245
-0.06406298 -0.12128343 -0.08698015 -0.093767695 -0.018652275 -0.10494466 0.09159276 -0.11904693
-0.056341603 0.088806584 0.051083993 -0.09340085 0.067067325 -0.011989269 -0.062332932 0.05124288
-0.08575721 -0.03485031 0.08273691 -0.079393946 -0.11956902 -0.09398346 0.096059166 0.04164778
-0.12251566 -0.11213724 -0.07659581 0.055909425 0.011615142 0.10009876 -0.06582887 -0.06710526
-0.07466142 0.08829595 -0.04824572 0.03505659 0.03463398 0.08176223 -0.049564954 -0.12002043
-0.04143913 -0.09456514 -0.08134888 0.031612143 0.026930736 0.055543855 0.041376323 -0.105180934
-0.033544324 0.117527425 0.055951938 -0.07690191 -0.075629786 -0.020066693 0.07235591 -0.047898203
-0.014718063 0.08153232 0.063126594 0.011804521 -0.102990955 0.105281696 0.117869176 0.11728765
0.095331594 -0.10129859 -0.015703315 -0.0911835 0.016256262 0.0025553554 -0.089559086 -0.06731172
0.033526883 -0.009870142 0.07542331 -0.09437564 0.04121282 0.07739819 -0.12064599 -0.041265637
0.05331328 -0.10740491 0.18195803 0.02041574 -0.022719517 -0.086499006 -0.024014642 -0.0649846
0.0030637323 0.16269033 0.13654993 0.079861656 0.113693565 0.17782028 0.10871747 0.06777485
0.010198753 -0.10763505 0.092661746 -0.043919582 -2.3601868e-05 0.15089124 -0.028531045 0.028827203
-0.11289887 0.015805215 0.009638762 0.056185972 0.04686802 -0.06662027 0.12246838 -0.08655052
-0.080734156 -0.07444271 -0.021644035 0.032801904 -0.085135445 -0.08850469 -0.022915578 0.1655873
-0.044734735 0.02135986 -0.041464854 -0.11389507 0.026200622 0.08858008 -0.070503905 -0.015162244
0.07460459 -0.10523933 -0.016983202 0.070209384 -0.06467748 -0.086000025 0.06861983 -0.11376743
-0.078077346 0.05774872 0.025904927 0.023508206 0.038425267 -0.11270523 0.064770915 0.09880501
0.10339932 0.06113156 -0.039544094 -0.08819521 0.029735446 0.08159205 -0.071867205 0.004145247
-0.117108904 -0.0022431293 -0.00356853 -0.08706291 -0.08246355 0.0996815 -0.1040725 0.1054375
-0.061610714 -0.031353444 -0.045832213 -0.0848343 0.10124299 0.08216255 -0.07621256 0.052500617
-0.03013894 0.072856545 0.11287065 -0.017519966 0.02803688 -0.09381337 0.05458519 -0.013629645
0.04513023 -0.049641125 -0.060426325 -0.07799512 -0.0032648826 0.10180555 -0.055141453 0.060008373
0.22672053 -0.16680942 0.0984018 0.07874468 -0.11260639 -0.0017405073 -0.1216445 0.060107574
-0.00080345967 0.097124234 -0.14353307 -0.14462835 0.05816929 0.043955132 0.010978718 0.11173324
-0.059088796 -0.06798974 -0.27896833 0.07848059 -0.101101734 -0.19667548 -0.034191348 0.19623491
-0.14224364 -0.034223355 0.04735536 0.09672033 -0.04196523 -0.015368678 -0.08972725 -0.07821816
0.07742638 -0.12063622 0.008174792 0.020840183 -0.069477655 -0.12488609 0.049420018 0.0778061
-0.03460954 0.060581747 0.024704155 0.053912975 -0.049790774 -0.10935908 0.072354235 -0.0935632
-0.11112812 -0.09902367 0.08391644 -0.119473904 0.094753444 0.15454434 0.036764532 0.07479352
0.1582697 0.08364274 0.060336363 -0.045751046 0.21561779 0.096122384 0.09654502 -0.082881406
00000000: 1ee1 203d b889 cbbc 50d6 9c3d e889 de3c
00000010: 307a f1bd 0273 e23d b4af 67bd 961f a0bd
00000020: 7433 83bd 7263 f8bd a622 b2bd 4709 c0bd
00000030: a8cc 98bc 3aed d6bd fc94 bb3d e0ce f3bd
00000040: 74c6 66bd 3ae0 b53d 733d 513d f248 bfbd
00000050: 985a 893d a46e 44bc d150 7fbd 0ee4 513d
00000060: 7aa1 afbd 33bf 0ebd f871 a93d 4b99 a2bd
00000070: 9ae0 f4bd 667a c0bd abba c43d dd96 2a3d
00000080: 7ee9 fabd 36a8 e5bd 44de 9cbd 4801 653d
00000090: 704d 3e3c 9400 cd3d 49d1 86bd 7c6e 89bd
000000a0: 16e8 98bd 82d4 b43d 4e9d 45bd 8097 0f3d
000000b0: 5cdc 0d3d f572 a73d 9f04 4bbd 45cd f5bd
000000c0: 14bc 29bd 5eab c1bd 3e9a a6bd bc7b 013d
000000d0: d99d dc3c f481 633d 387a 293d 1a69 d7bd
000000e0: c665 09bd 38b2 f03d dc2d 653d c07e 9dbd
000000f0: cae3 9abd e862 a4bc 562f 943d e830 44bd
00000100: 0824 71bc 6bfa a63d 8448 813d c067 413c
00000110: ecec d2bd ee9d d73d 6565 f13d 8234 f03d
00000120: 363d c33d a375 cfbd 3da4 80bc 6abe babd
00000130: da2b 853c c077 273b c16a b7bd bada 89bd
00000140: 7c53 093d 60b6 21bc 8977 9a3d 0448 c1bd
00000150: c6ce 283d f182 9e3d 3f15 f7bd 2806 29bd
00000160: 075f 5a3d 1bf7 dbbd 3553 3a3e e93e a73c
00000170: 481e babc 6426 b1bd 5bba c4bc a516 85bd
00000180: e6c8 483b 4b98 263e bfd3 0b3e 828e a33d
00000190: 2cd8 e83d 8516 363e 44a7 de3d 8acd 8a3d
000001a0: ac18 273c c46f dcbd 71c5 bd3d 05e5 33bd
000001b0: a0fc c5b7 3c83 1a3e f0b9 e9bc 0727 ec3c
000001c0: 8637 e7bd f079 813c e6eb 1d3c 4323 663d
000001d0: aef8 3f3d 3570 88bd b4d0 fa3d 6641 b1bd
000001e0: f357 a5bd 6b75 98bd d54e b1bc 4a5b 063d
000001f0: 7e5b aebd f241 b5bd 73b9 bbbc b88f 293e
00000200: c53b 37bd e0fa ae3c 0dd7 29bd d241 e9bd
00000210: b0a2 d63c 7969 b53d 5a64 90bd 106b 78bc
00000220: 4bca 983d b887 d7bd 5b20 8bbc f0c9 8f3d
00000230: a075 84bd c820 b0bd 8e88 8c3d e6fe e8bd
00000240: 04e7 9fbd ec89 6c3d 9236 d43c 4894 c03c
00000250: d063 1d3d 00d2 e6bd 9da6 843d 485a ca3d
00000260: 06c3 d33d 1665 7a3d fdf8 21bd b19f b4bd
00000270: c097 f33c bc19 a73d 1d2f 93bd dad4 873b
00000280: cbd6 efbd 7701 13bb 00de 69bb 0a4e b2bd
00000290: a6e2 a8bd d025 cc3d f623 d5bd 9eef d73d
000002a0: 845b 7cbd 786c 00bd 8fba 3bbd 9bbd adbd
000002b0: 7c58 cf3d d744 a83d 5515 9cbd e30a 573d
000002c0: f0e5 f6bc d035 953d ba28 e73d 0886 8fbc
000002d0: 99ad e53c 3921 c0bd b894 5f3d e04e 5fbc
000002e0: 7ada 383d 7e54 4bbd 9881 77bd e8bb 9fbd
000002f0: a4f7 55bb 6e7f d03d 01dc 61bd 57cb 753d
00000300: 6d29 683e 17d0 2abe e286 c93d e444 a13d
00000310: 2e9e e6bd bc21 e4ba c020 f9bd 5c33 763d
00000320: 449f 52ba 12e9 c63d 55fa 12be 7419 14be
00000330: ec42 6e3d 4c0a 343d 15e0 333c 66d4 e43d
00000340: 1807 72bd 343e 8bbd f0d4 8ebe 6eba a03d
00000350: 6d0e cfbd 4c65 49be 3a0c 0cbd cef1 483e
00000360: 51a8 11be ca2d 0cbd b2f7 413d 4f15 c63d
00000370: bce3 2bbd e8cc 7bbc ecc2 b7bd d830 a0bd
00000380: b991 9e3d 1f10 f7bd 90ef 053c 08b9 aa3c
00000390: 4d4a 8ebd 47c4 ffbd a56c 4a3d ce58 9f3d
000003a0: bcc2 0dbd 9124 783d 5e60 ca3c dad3 5c3d
000003b0: 69f1 4bbd a7f7 dfbd 752e 943d 109e bfbd
000003c0: 2497 e3bd eccc cabd 62dc ab3d bcae f4bd
000003d0: 180e c23d df40 1e3e 6896 163d 582d 993d
000003e0: 7411 223e e34c ab3d 4323 773d 7365 3bbd
000003f0: e9ca 5c3e d0db c43d 65b9 c53d babd a9bd

net.2.bias f4 [64]
-0.059931073 0.010108679 -0.04610425 -0.12792084 0.07472195 0.0788617 -0.018911561 -0.055958062
-0.09740197 0.14266339 0.089216635 0.002652286 0.092772454 0.24620752 -0.07734094 -0.022047846
0.01503776 0.02113245 -0.068389684 0.10305737 -0.1583673 0.10446391 0.03395397 0.011414794
-0.04120805 0.079998486 0.081831515 0.13021818 -0.10888809 -0.16469805 0.13792181 0.011679393
0.08733983 -0.09309202 -0.012460369 0.020505639 0.14030726 0.06738269 -0.098633856 0.04594068
0.016419498 -0.07766267 -0.04347402 -0.11816427 -0.08078933 0.036795024 0.11698836 0.045658868
-0.16204418 -0.01863924 -0.0647874 0.09274817 -0.036188122 -0.05444073 -0.057406384 0.036065716
-0.13044186 0.41494668 -0.27387068 0.32723767 -0.025562689 0.17308791 -0.022618962 0.19184613
00000000: 497a 75bd df9e 253c cfd7 3cbd aefd 02be
00000010: d207 993d 3e82 a13d 6bec 9abc 4834 65bd
00000020: af7a c7bd 5a16 123e 36b7 b63d fad1 2d3b
00000030: 7cff bd3d d31d 7c3e ed64 9ebd af9d b4bc
00000040: f060 763c f61d ad3c e40f 8cbd be0f d33d
00000050: 0a2b 22be 2df1 d53d 5113 0b3d 1e05 3b3c
00000060: c6c9 28bd 3fd6 a33d 4897 a73d ea57 053e
00000070: b800 dfbd 9ba6 28be 603b 0d3e ed5a 3f3c
00000080: 3adf b23d 07a7 bebd 9326 4cbc 71fb a73c
00000090: b5ac 0f3e f0ff 893d 8c00 cabd 4b2c 3c3d
000000a0: 2f82 863c 9b0d 9fbd d011 32bd 1c00 f2bd
000000b0: e074 a5bd 61b6 163d 9897 ef3d cb04 3b3d
000000c0: e9ee 25be 52b1 98bc 42af 84bd c1f2 bd3d
000000d0: ff39 14bd 3efd 5ebd f522 6bbd a5b9 133d
000000e0: 8d92 05be e473 d43e c738 8cbe b28b a73e
000000f0: d868 d1bc f53d 313e 674b b9bc 5073 443e

net.4.weight f4 [1, 64]
-0.100268 0.022517454 -0.113553785 -0.09411749 -0.28860575 -0.060419057 0.0023978532 0.0014860637
-0.032490306 -0.10188013 -0.0009373359 0.0015757314 -0.029679112 0.008993067 -0.0905934 -0.09482424
0.112484425 -0.11042797 -0.05858761 -0.070584156 0.11873371 -0.08492995 -0.011955837 -0.048269577
-0.113856636 0.009119895 -0.07211484 0.009876756 0.039776087 0.04679356 0.0043540485 -0.066667795
-0.12030115 -0.041006166 -0.0025762692 -0.039731078 -0.107634485 -0.039155442 -0.10594327 -0.053233724
-0.0421657 0.055267654 -0.088321775 -0.0030684646 0.0012878209 -0.07898323 0.0048464388 0.026319848
0.3013399 -0.085864104 -0.014722021 -0.20411693 -0.060516354 -0.038499646 -0.0032100438 -0.027698375
0.36711758 0.7425382 0.04208257 0.19747241 -0.06725398 -0.13720493 0.028952422 0.005369865
00000000: 4f59 cdbd 8676 b83c e38e e8bd acc0 c0bd
00000010: 22c4 93be f979 77bd 4d25 1d3b 06c8 c23a
00000020: 8e14 05bd 88a6 d0bd 8cb7 75ba c688 ce3a
00000030: 9c21 f3bc a857 133c 0889 b9bd 3633 c2bd
00000040: 3c5e e63d 0f28 e2bd 90f9 6fbd 6d8e 90bd
00000050: a92a f33d c1ef adbd 6ae2 43bc 52b6 45bd
00000060: ab2d e9bd 9d6b 153c f2b0 93bd 1ed2 213c
00000070: 40ec 223d 9baa 3f3d 68ac 8e3b 2089 88bd
00000080: 7360 f6bd 15f6 27bd a0d6 28bb 0ebd 22bd
00000090: 786f dcbd 7561 20bd c9f8 d8bd 9b0b 5abd
000000a0: f1b5 2cbd 5660 623d 0ce2 b4bd 4b18 49bb
000000b0: 19cc a83a f6c1 a1bd e0ce 9e3b b99c d73c
000000c0: 3949 9a3e 85d9 afbd a234 71bc 0704 51be
000000d0: ffdf 77bd ceb1 1dbd 995f 52bb b4e7 e2bc
000000e0: d6f6 bb3e fc16 3e3f c65e 2c3d 3536 4a3e
000000f0: 74bc 89bd 737f 0cbe a12d ed3c b1f5 af3b
