ppo_model.pt (torch, 42467 bytes, 11 tensors)

body.0.weight f4 [64, 5]
0	0x3da6c6a9	0.0814336
1	0xbe345be0	-0.17613173
2	0xbfba42a0	-1.4551582
3	0xbe0ef106	-0.1395913
4	0x3e93c5cd	0.28861848
5	0x3ec3ddb4	0.38255084
6	0x3e897383	0.2684594
7	0x40805092	4.0098352
8	0x3ed4b90d	0.41547433
9	0x3ee3ca2d	0.44490185
10	0x3ea49cf0	0.32150984
11	0x3e8e2062	0.2775908
12	0xbe335e24	-0.1751638
13	0xbe3f6588	-0.18691075
14	0xbde66318	-0.112493694
15	0x3eb555b4	0.3541695
16	0x3ec6a21c	0.38795555
17	0xbed6d7d8	-0.4196155
18	0xbe9a2282	-0.30104452
19	0xbdba77f8	-0.091049135
20	0x3efe9b8c	0.49728048
21	0x3f35505d	0.7082575
22	0xc03ed90c	-2.9819975
23	0xbe114b06	-0.14188775
24	0x3efb58f6	0.4909131
25	0xbe8e9805	-0.27850357
26	0xbf6a0b7e	-0.91423786
27	0x406586c4	3.5863504
28	0x3dd35778	0.10319418
29	0xbea773f1	-0.32705644
30	0xbe3300eb	-0.17480819
31	0x3e2156f6	0.15755829
32	0xbd687aff	-0.056757923
33	0xbed4f18e	-0.41590542
34	0x3e951cd8	0.2912357
35	0xbc217322	-0.00985411
36	0xbcf80333	-0.030274963
37	0x40095099	2.1455443
38	0x3e7b7e19	0.24559821
39	0xbee31b57	-0.44356796
40	0x3ec96abc	0.39339244
41	0x3f02b7f3	0.51061934
42	0x40761e2c	3.8455915
43	0x3e5302c7	0.20606528
44	0xbef724d0	-0.48270273
45	0x3e47051c	0.19435543
46	0xbda21de0	-0.079158545
47	0x3b008300	0.0019609332
48	0xbecbb1b3	-0.3978401
49	0xbdfddd78	-0.123957574
50	0xbea194e7	-0.31558916
51	0x3e2c79b0	0.16843295
52	0xbd7e0040	-0.062011957
53	0xbda93db0	-0.08263719
54	0xbe04a552	-0.1295369
55	0x3eb87840	0.36029243
56	0x3e8c57d9	0.27410772
57	0x4084c537	4.149074
58	0xbbc1ac61	-0.0059104417
59	0xbdc73a78	-0.09727949
60	0xbedf0e35	-0.43565527
61	0xbe934b21	-0.28768256
62	0x3f222cdd	0.63349706
63	0xba25c63c	-0.000632379
64	0xbdbf81e2	-0.09350945
65	0xbe68a9a2	-0.2272096
66	0x3f019e73	0.506324
67	0x405fd3eb	3.4973094
68	0xbcc56bba	-0.02409922
69	0x3e208e9e	0.15679404
70	0xbe41c1f3	-0.18921642
71	0xbe882565	-0.2659103
72	0x407ec985	3.9810498
73	0x3e0eaebb	0.13933842
74	0xbd8f5243	-0.06998112
75	0xbe4f7c2e	-0.20262215
76	0x3ea6f4e6	0.32608718
77	0x3e085e1d	0.13317151
78	0xbea37c53	-0.3193079
79	0x3e7a4cc4	0.24443346
80	0xbdddd539	-0.108316846
81	0xbec42b09	-0.38314083
82	0xbebe9f02	-0.37230688
83	0xbebe2086	-0.37134188
84	0x3d3312f3	0.043719243
85	0x3ecec4ca	0.40384513
86	0x3db96d6a	0.09054072
87	0xbf246851	-0.64221674
88	0xbde41c4c	-0.1113821
89	0x3e86e25a	0.26344568
90	0xbec3a44f	-0.38211295
91	0xbf1855b6	-0.59505785
92	0x4076e6e2	3.857842
93	0x3e22f742	0.15914634
94	0xbf13654c	-0.5757644
95	0xbe3af2a3	-0.18256621
96	0x3ddb6e8d	0.10714445
97	0x3f654a09	0.89566094
98	0x3e216851	0.1576245
99	0x3e0fdf5b	0.14050047
100	0x3bcb7cac	0.0062099304
101	0xbea1f265	-0.31630245
102	0x40816a9b	4.0442634
103	0x3e58b8ba	0.21164218
104	0xbecd2e3c	-0.40074337
105	0x3f04e33e	0.51909244
106	0xbdcf5b97	-0.10124891
107	0xbd91a1ee	-0.07110964
108	0xbea64df4	-0.3248135
109	0x3e627b9f	0.2211747
110	0xbe5fa5dd	-0.21840616
111	0x3eb5eede	0.35533804
112	0x3daeaae0	0.085286856
113	0xbdbeef04	-0.09322932
114	0xbe682c64	-0.22673184
115	0xbf426397	-0.7593321
116	0xbe65f99c	-0.224585
117	0x406db463	3.714135
118	0x3e29cb61	0.16581489
119	0xbf24da02	-0.64395154
120	0xbe1fe50e	-0.15614721
121	0x3ecb82a0	0.39748096
122	0x3ec022ce	0.37526554
123	0xbe473258	-0.19452798
124	0xbed7f951	-0.421824
125	0x3ed482f6	0.41506165
126	0x3cdc9b5c	0.02692955
127	0xbdb4d879	-0.088303514
128	0xbdd238b5	-0.10264722
129	0x3effd984	0.4997064
130	0xbf594c68	-0.8488221
131	0xbf08ace3	-0.53388804
132	0x40306127	2.7559297
133	0x3e6ffa44	0.23435313
134	0xbe2b1910	-0.1670878
135	0xbe9ab986	-0.30219668
136	0xbe70f6b9	-0.23531617
137	0x408241cb	4.0705314
138	0x3d8a9047	0.067658
139	0x3e5f9c0c	0.21836871
140	0x3db49e60	0.0881927
141	0x3eabbfae	0.33544677
142	0x3e887714	0.2665335
143	0xbe40adcc	-0.18816298
144	0xbee4db59	-0.446986
145	0xbed18d55	-0.4092814
146	0xbe855d53	-0.26047763
147	0x4082f320	4.0921783
148	0x3e9dd370	0.30825377
149	0x3e2a2035	0.16613849
150	0xbe92a9d1	-0.28645185
151	0x3e7dc3d1	0.2478173
152	0x3e41496a	0.18875661
153	0xbed66b6f	-0.4187884
154	0x3ece22dd	0.40260974
155	0xbec7385b	-0.38910183
156	0x3ecfb302	0.4056626
157	0xbec6e0c9	-0.38843372
158	0xbe99072f	-0.29888293
159	0xbe4cb4bd	-0.19990821
160	0xbec918b1	-0.3927665
161	0xbdabb5ff	-0.083843224
162	0x3fb096fd	1.3796078
163	0x3e07c27f	0.13257788
164	0xbe01b447	-0.12666427
165	0x3eb984fb	0.3623427
166	0xbe3bb5bb	-0.18331043
167	0xbeb1ea6d	-0.34749165
168	0xbe9c42c8	-0.305197
169	0x3e8f4eb8	0.27989745
170	0x3d79089e	0.060799234
171	0x3e71d453	0.23616152
172	0xc05ad597	-3.4192865
173	0x3e25954a	0.1617023
174	0xbe86abab	-0.26302847
175	0x3e50316e	0.20331356
176	0x3bf24b8e	0.0073942607
177	0xbeaef63a	-0.3417223
178	0xba9754fc	-0.0011545713
179	0xbe9b5153	-0.30335483
180	0x3ea4d2c5	0.32192054
181	0x3e2c144c	0.16804618
182	0x3f2c7236	0.6736177
183	0xbe217b63	-0.15769725
184	0x3ef307ae	0.47466797
185	0x3ec56f3a	0.38561422
186	0xbd8e448b	-0.06946667
187	0x40706b59	3.756552
188	0x3eadd038	0.3394792
189	0xbf27e2c3	-0.65580386
190	0x3ea67770	0.32513
191	0x3d57d9d1	0.05269796
192	0x4084ce6e	4.150199
193	0xbc1aaf2e	-0.00944118
194	0xbd40425c	-0.046938285
195	0xbed6335a	-0.41836053
196	0x3ece278f	0.40264556
197	0x3e8afef3	0.27147636
198	0xbaf0b29b	-0.0018363775
199	0xbecd0bf2	-0.40048176
200	0xbdd19ac8	-0.102346
201	0xbf191dba	-0.59810984
202	0x3f507748	0.8143201
203	0x3de36df4	0.11104956
204	0xbe175362	-0.14777902
205	0x3f750ae9	0.9571977
206	0x3f30786f	0.6893377
207	0xbfc1611d	-1.5107762
208	0x3c9a14bc	0.018808715
209	0x3f501b67	0.8129181
210	0xbf4b73a7	-0.79473346
211	0xbebf9a23	-0.37422284
212	0x407dcab2	3.9654965
213	0x3e574b61	0.21024849
214	0xbe36dad3	-0.17856912
215	0xbe28a7b4	-0.16470224
216	0x3ed9c9cc	0.4253677
217	0x3bfe7a80	0.007766068
218	0xbec91d5a	-0.39280206
219	0xbe1a8a86	-0.15091905
220	0xbea752a3	-0.32680234
221	0xbed15daf	-0.40891787
222	0x3f4824df	0.7818126
223	0xba792972	-0.0009504772
224	0xbd0eda7e	-0.03487634
225	0xbeebafd7	-0.46032593
226	0xbd79b2a1	-0.06096137
227	0xc006b6e3	-2.1049125
228	0xbd3d00b0	-0.046143234
229	0x3de34d04	0.11098674
230	0xbed296be	-0.41130632
231	0x3e44d540	0.19221973
232	0x408064c9	4.012303
233	0x3e8a14bf	0.26968953
234	0x3e88aec3	0.26695833
235	0x3e0b22fd	0.13587566
236	0x3ec39477	0.38199207
237	0xbfc92747	-1.5715111
238	0xbe2b2847	-0.16714583
239	0x3ed5e957	0.41779587
240	0xbf3ebc6b	-0.74506253
241	0xbeb046bf	-0.34428975
242	0x406996e0	3.6498337
243	0x3e6bf92f	0.23044275
244	0xbeaff390	-0.3436551
245	0x3e0ab72c	0.13546437
246	0x3dc683b8	0.09693092
247	0x404fce86	3.2469802
248	0x3e0f202f	0.13977121
249	0xbeeb941d	-0.4601144
250	0x3ede4f74	0.43419993
251	0xbc679aa0	-0.014135987
252	0xbe7d742a	-0.24751344
253	0xbe5cd38b	-0.21565072
254	0xbd153280	-0.036425114
255	0x3e158814	0.14602691

body.0.bias f4 [64]
0	0x3d41d7e3	0.047325026
1	0x3f0ec59f	0.55770296
2	0xbe39dde8	-0.18151057
3	0xbe443dba	-0.19164172
4	0x3eb4fbce	0.35348362
5	0xbdef8da8	-0.11696941
6	0x3ecbb37b	0.3978537
7	0xbec0c35e	-0.37649053
8	0x3eefd717	0.46843788
9	0x3d39ea28	0.045389324
10	0xbe4f18bd	-0.2022428
11	0xbd8f9312	-0.07010473
12	0xbda91562	-0.082560316
13	0xbdbd8f11	-0.092558034
14	0x3e88c9cb	0.26716456
15	0x3edcd43b	0.4313067
16	0xbc8fb669	-0.017543035
17	0xbba5b24f	-0.0050566564
18	0xbbb25b36	-0.005443002
19	0xbf03f6b8	-0.5154834
20	0xbed02fff	-0.40661618
21	0xbe90df7d	-0.28295508
22	0x3d59c650	0.05316764
23	0xbedb0d14	-0.42783415
24	0xbd935820	-0.07194543
25	0xbe716ba8	-0.23576224
26	0xbece4259	-0.40284994
27	0x3bc8e378	0.006130632
28	0x3e947d74	0.29001963
29	0x3efd05cb	0.49418482
30	0x3e22ac9a	0.15886155
31	0xbda206b4	-0.07911435
32	0xbecbd25e	-0.39808935
33	0xbdeab4a4	-0.11460236
34	0xbcb4183a	-0.021984208
35	0xbd91f017	-0.07125872
36	0xbe01c417	-0.12672459
37	0xbe4f1ddb	-0.20226233
38	0x3e2453c3	0.16047578
39	0xbee21f67	-0.44164583
40	0xbe663adc	-0.2248339
41	0x3f553347	0.8328137
42	0xbef75563	-0.48307332
43	0x3ebf0c06	0.3731386
44	0xbf247c81	-0.6425248
45	0x3e729db2	0.23692968
46	0x3e3bbde8	0.18334162
47	0x3f2e0f03	0.67991656
48	0xbebbc9f8	-0.36677527
49	0xbe8e1675	-0.27751508
50	0xbe1245d0	-0.14284444
51	0xbebaeb56	-0.36507672
52	0x3d36ddf5	0.04464527
53	0xbf334f6a	-0.7004305
54	0xbc593a15	-0.013258477
55	0xbcfdb6cd	-0.030970955
56	0xbec234c2	-0.37930876
57	0x3e5b4979	0.21414746
58	0x3d2c5f13	0.042082857
59	0xbe62fd21	-0.22166874
60	0xbed316b9	-0.41228274
61	0x3e170d28	0.14751112
62	0x3e1b1153	0.15143327
63	0x3dff5b23	0.12468555

body.2.weight f4 [64, 64]
0	0xbd7997b0	-0.060935676
1	0x3d9c89fb	0.07643505
2	0xbdaccac2	-0.084371105
3	0xbc72b4b0	-0.014813587
4	0xbd6f8c29	-0.058483277
5	0xbe1e0885	-0.15432937
6	0xbdc542d0	-0.09631884
7	0xbd14b1b9	-0.036302302
8	0x3db3892a	0.08766396
9	0xbdfe4ef8	-0.12417406
10	0xbdec9a32	-0.11552848
11	0xbda6479d	-0.08119128
12	0x3d310907	0.0432215
13	0xbd2192ae	-0.039446525
14	0xbe41f186	-0.1893979
15	0x3cfb25b0	0.03065762
16	0x3d71ce9f	0.05903494
17	0xbd487c38	-0.04894659
18	0x3d162a8b	0.036661666
19	0xbe1093fa	-0.14118949
20	0x3d616be0	0.05503452
21	0xbdeee8bd	-0.11665485
22	0xbcabe748	-0.020984307
23	0xbd2fe418	-0.042942137
24	0xbdabfcf4	-0.08397856
25	0x3d8cc6be	0.068738446
26	0x3d8f0250	0.06982863
27	0xbd806174	-0.06268588
28	0xbd2a2d28	-0.04154697
29	0xbe2d1c16	-0.16905245
30	0x3c8f33c9	0.017480748
31	0x3d617e88	0.05505231
32	0x3c42357f	0.011853575
33	0xbd0f57c1	-0.034995798
34	0xbd263d60	-0.040585876
35	0xbd268f73	-0.040664148
36	0xbc3fb836	-0.011701634
37	0xbddef7a8	-0.108870804
38	0xbdcce5f4	-0.100047976
39	0xbd06542a	-0.03279511
40	0xbde7d8a3	-0.11320617
41	0xbd16f850	-0.036857903
42	0x3b09dfad	0.0021037862
43	0x3cc5edc0	0.02416122
44	0xbd29d7a4	-0.041465417
45	0xbdcf77ff	-0.10130309
46	0xbd823b68	-0.06358987
47	0x3d87b547	0.06626373
48	0x3cbbd09a	0.022926617
49	0xbd82c010	-0.06384289
50	0xbd24c06c	-0.04022257
51	0x3d65e404	0.056125656
52	0xbdc8ee82	-0.09811117
53	0xbe136bc3	-0.14396577
54	0x3dc65bb1	0.096854575
55	0x3d19d876	0.03755995
56	0x3da56a03	0.08076861
57	0xbdf04dd2	-0.11733593
58	0x3d9d2b88	0.076743186
59	0x3b13986d	0.0022521273
60	0xbb2aa834	-0.0026040198
61	0xbdedbca1	-0.11608244
62	0x3d290547	0.0412648
63	0xbda21eca	-0.07916029
64	0x3de61357	0.112341575
65	0xbd2ab79d	-0.041679014
66	0x3d789dfc	0.06069754
67	0x3dbdff5a	0.0927722
68	0xbdc23dd6	-0.094844505
69	0xbc815e53	-0.015792048
70	0xbd61c994	-0.05512388
71	0xbdd7ec39	-0.10543103
72	0xbdd2d2c9	-0.1029411
73	0x3d9f1840	0.07768297
74	0xbd8f8370	-0.070074916
75	0xbd5b42a1	-0.05353034
76	0x3d86166a	0.06547244
77	0xbe0f16d3	-0.1397355
78	0xbd9870fc	-0.07443425
79	0x3e28087e	0.1640949
80	0x3d9b97dc	0.07597324
81	0x3c9e0a05	0.019291887
82	0xbd41c18f	-0.047303732
83	0xbd16a1e5	-0.03677549
84	0xbc87e3bf	-0.01658809
85	0x3cc9c23b	0.02462875
86	0xbc0cef50	-0.008601978
87	0xbe017ea4	-0.12645966
88	0x3dd36276	0.10321514
89	0x3d18c665	0.03729858
90	0xbd7a2bc6	-0.0610769
91	0x3ca7314a	0.020409245
92	0x3c17b370	0.00925909
93	0xbe13478c	-0.14382762
94	0x3bfff6b2	0.007811391
95	0x3d7902b8	0.06079361
96	0xbcfe750a	-0.031061668
97	0xbd89c51f	-0.06727051
98	0xbdc750e8	-0.097322285
99	0xbd865eee	-0.06561075
100	0x3d38b512	0.045094557
101	0xbe0bdc6a	-0.136583
102	0xbe204562	-0.15651467
103	0xbdd2db44	-0.10295728
104	0x3c14df0a	0.00908638
105	0xbdc1b48a	-0.09458263
106	0xbdcbb1e4	-0.09946039
107	0x3d9d6600	0.076854706
108	0x3dd1443f	0.10218095
109	0x3cb4a01f	0.022049008
110	0x3d87e8b1	0.06636179
111	0xbe04f1ba	-0.12982836
112	0x3dd06a52	0.10176529
113	0xbaa50b8b	-0.0012591941
114	0xbdce26e8	-0.100660145
115	0x3d215328	0.039385945
116	0xbde0efe8	-0.109832585
117	0xbd62cf2a	-0.05537335
118	0x3df8ac1d	0.12142203
119	0xbe18bef6	-0.14916596
120	0x3d9f41c8	0.07776219
121	0xbd9173f6	-0.07102196
122	0xbdf057ce	-0.117354974
123	0xbd2e2c71	-0.04252285
124	0x3de499c0	0.11162138
125	0x3d4d29c7	0.05008867
126	0x3c47334f	0.012158229
127	0x3d270a00	0.04078102
128	0xbc086664	-0.008325193
129	0xbda1278b	-0.0786887
130	0x3cb74b88	0.022374883
131	0x3ded687a	0.11592193
132	0xbcf6d63c	-0.030131452
133	0x3d9f0d9d	0.077662684
134	0x3da51001	0.08059693
135	0x3d8f33ca	0.069923
136	0xbdc122ab	-0.094304405
137	0x3da36ff0	0.07980335
138	0x3b058600	0.002037406
139	0xbe35c9c7	-0.17752753
140	0x3dca3929	0.09874184
141	0xbe082582	-0.13295558
142	0xbe017367	-0.12641679
143	0x39d6ea7c	0.00040991965
144	0x3dc32b54	0.095297486
145	0xbd4514e4	-0.048115626
146	0xbdd60eda	-0.104520515
147	0x3d00b412	0.03142173
148	0x3d2defd3	0.042465042
149	0xbc7548fd	-0.014971015
150	0xbdf82c6e	-0.12117849
151	0xbe3cd1fd	-0.18439479
152	0x3c731e50	0.01483877
153	0x3d4df97e	0.050286762
154	0xbdf72d87	-0.120692305
155	0x3d9cfa44	0.07664922
156	0xbce7f800	-0.028316498
157	0xbdddc71a	-0.10828991
158	0x3de73ed7	0.112912826
159	0xbddb4f74	-0.10708514
160	0x3b8d23be	0.0043072393
161	0xbd23a3e4	-0.03995122
162	0xbd25413b	-0.04034541
163	0x3df0b342	0.11752941
164	0xbda8e97b	-0.08247658
165	0xbc790418	-0.01519873
166	0xbc70815c	-0.014679279
167	0x3d57c3fc	0.05267714
168	0x3d8774df	0.06614088
169	0xbdb554d0	-0.08854067
170	0x3c28ed39	0.010310465
171	0xbde5cbb0	-0.11220491
172	0x3dba7b80	0.09105587
173	0xbd265fed	-0.040618826
174	0xbdedb8b9	-0.11607499
175	0x3bddceef	0.006769053
176	0xbdca02bb	-0.09863802
177	0xbdce09db	-0.100604735
178	0x3de70e36	0.112820074
179	0x3c712590	0.014718428
180	0xbe107bcd	-0.14109726
181	0xbdd08a4c	-0.10182628
182	0x3d263a0c	0.0405827
183	0xbdc2dec6	-0.09515147
184	0xbd44b0ac	-0.04802005
185	0x3a9bb3d8	0.0011879159
186	0xbe1ff300	-0.15620041
187	0x3de0fb5a	0.109854415
188	0x3d6a9f59	0.057280872
189	0xbc544e7a	-0.012958163
190	0xbde5fe3d	-0.11230133
191	0x3df6b1e8	0.12045652
192	0xbdeb02f6	-0.11475174
193	0xbdca2256	-0.0986983
194	0x3dde0c4e	0.10842191
195	0x3d0bb598	0.03410873
196	0xbc3ef430	-0.0116548985
197	0xbcab20bc	-0.020889632
198	0xbcce9710	-0.025218517
199	0x3db94f6c	0.09048352
200	0xbdb5860e	-0.088634595
201	0x3da182f2	0.07886304
202	0x3d3dc408	0.046329528
203	0x3d891f06	0.066953704
204	0x3d50e9d4	0.051004246
205	0x3cd8656a	0.026415545
206	0xbca271be	-0.019829627
207	0xbc7d0a20	-0.0154443085
208	0xbc3a8940	-0.011385262
209	0x3d58eaf8	0.05295846
210	0x3d9f5748	0.077803195
211	0x3b72ea6c	0.0037065996
212	0xbd990c56	-0.07473056
213	0xbd032438	-0.032016963
214	0x3dc43960	0.09581256
215	0x3ae8fbaa	0.0017775197
216	0xbd8a1f4e	-0.06744252
217	0xbd6e5af0	-0.058192194
218	0xbcf76577	-0.03019975
219	0xbdbf685b	-0.09346076
220	0xbca81af0	-0.020520657
221	0xbd4d33fb	-0.0500984
222	0x3ce04c58	0.027380154
223	0xbdaaf7be	-0.08348034
224	0xbcfb44da	-0.03067248
225	0x3db32ac4	0.08748391
226	0xbdd7ff7a	-0.10546775
227	0xbd468760	-0.048468947
228	0x3db2bb10	0.087270856
229	0xbca2d5d1	-0.019877346
230	0xbbfc665c	-0.007702632
231	0xbdde60a0	-0.108582735
232	0xbd911817	-0.07084673
233	0xbda1ca47	-0.078999095
234	0xbda05652	-0.07828964
235	0xbd0352c8	-0.03206137
236	0xbdbcd184	-0.092196494
237	0xbdc5a32a	-0.09650262
238	0xbdeac255	-0.11462847
239	0xbdde8ee9	-0.10867102
240	0xbd5982c6	-0.05310323
241	0x3db00f9e	0.08596729
242	0xbd169eac	-0.036772415
243	0xbda5df5a	-0.080992416
244	0xbdf160f6	-0.11786072
245	0x3dc46a48	0.09590584
246	0x3c9f64a0	0.019457161
247	0x3d119c76	0.035549603
248	0xbcb77410	-0.02239421
249	0x3d960093	0.07324328
250	0x3d9e5210	0.07730496
251	0xbd583832	-0.052787967
252	0x3b9d1a6c	0.0047944095
253	0xbdc1d0d1	-0.09463657
254	0xb95aa15c	-0.00020850211
255	0x3be267e0	0.0069093555

body.2.bias f4 [64]
0	0x3d8020ef	0.062562816
1	0xbdfae646	-0.122509524
2	0xbd7ac219	-0.061220262
3	0xbcdc3ebb	-0.026885381
4	0xbc888564	-0.016665168
5	0x3d17b140	0.037034273
6	0x3e68e1c7	0.22742377
7	0xbe1367ce	-0.14395067
8	0xbc88391c	-0.016628794
9	0x3be19f2e	0.006885431
10	0xbd96aaae	-0.07356773
11	0x3cc44a3a	0.023961175
12	0xbd0c3bdb	-0.03423677
13	0xbecd27c1	-0.40069392
14	0xbdeb443a	-0.114876226
15	0x3df2356f	0.11826598
16	0x3e2054b8	0.15657318
17	0xbd553251	-0.05204994
18	0xbe15f2fa	-0.1464347
19	0x3e15c65e	0.14626452
20	0xbe79ac11	-0.24382044
21	0xbdd88000	-0.10571289
22	0x3e086628	0.1332022
23	0xbd399fd7	-0.04531845
24	0xbdcef29b	-0.10104867
25	0xbe80f370	-0.25185728
26	0x3dae7f86	0.08520417
27	0xbdedd86d	-0.116135456
28	0xbdd17fb0	-0.102294326
29	0x3d240b02	0.04004956
30	0xbcd797ed	-0.026317561
31	0xbe865eec	-0.26244295
32	0xbdaa9e21	-0.08330942
33	0xbcedd3c9	-0.029031651
34	0xbdc6b7d8	-0.09703034
35	0xbdaf339a	-0.08554764
36	0x3e043150	0.12909436
37	0x3da81867	0.082077794
38	0xbb85d4ce	-0.004084206
39	0xbdc9c6c6	-0.09852366
40	0xbdcc2daf	-0.09969651
41	0x3cfe5b51	0.031049402
42	0xbab95b82	-0.0014141651
43	0x3e8af5b4	0.27140582
44	0x3c8b27f3	0.016986823
45	0xbd58d3da	-0.052936412
46	0xbd9614ba	-0.07328172
47	0xbd7267b9	-0.05918095
48	0x3d4fe84d	0.05075865
49	0xbe116958	-0.14200342
50	0xbe16813b	-0.14697735
51	0xbd57c4d1	-0.052677933
52	0xbdf4d910	-0.11955464
53	0x3d9ef29c	0.07761118
54	0xbd802c56	-0.062584564
55	0xbcacee0c	-0.021109603
56	0xbcc90e1a	-0.024542857
57	0x3dc6f3f1	0.09714497
58	0x3c777c87	0.015105373
59	0xbe3e97e8	-0.18612635
60	0xbd61a50e	-0.05508905
61	0xbdd672b3	-0.10471096
62	0x3c097b61	0.008391232
63	0x3db2fa91	0.08739198

body.4.weight f4 [4, 64]
0	0xbc641714	-0.013921518
1	0xbd326692	-0.04355485
2	0x3c8c3e14	0.017119445
3	0xbb9e5ed5	-0.004833082
4	0x3cacd3c3	0.02109707
5	0x3c87b9bb	0.016568055
6	0x3ed882c9	0.4228728
7	0x3ea63896	0.32465047
8	0xbd91bcb0	-0.071160674
9	0x3a20bb84	0.00061314576
10	0xbcaa8483	-0.02081514
11	0x3f001999	0.5003906
12	0x3e8aafc9	0.27087238
13	0x3e0b7dad	0.1362216
14	0xbb137f1b	-0.002250618
15	0x3eb8a7c3	0.36065492
16	0x3c882d24	0.016623087
17	0xbca2a39e	-0.01985341
18	0xbbffb072	-0.0078030163
19	0x3e554fd2	0.2083123
20	0x3e52c6a2	0.20583585
21	0x3e883b88	0.2660792
22	0x3f0430ef	0.51637167
23	0x3d0457a6	0.03231015
24	0x3dc6a871	0.097000964
25	0x3d1b6e12	0.037946768
26	0x3af80841	0.0018923358
27	0x3b39cef8	0.0028352123
28	0x3bc3cac9	0.0059751016
29	0x3d58146d	0.052753855
30	0xbcef9eba	-0.029250491
31	0x3d0a6ec4	0.03379704
32	0x3d47e12a	0.048798718
33	0x3cc8e2d1	0.024522217
34	0x3c1c1acc	0.009527873
35	0x3cdac00c	0.026702903
36	0xbe66962e	-0.22518227
37	0x3de78407	0.11304479
38	0xbc1021c2	-0.008797111
39	0xbba65990	-0.0050765947
40	0xba933c4b	-0.0011233179
41	0xbdfbd3c6	-0.12296252
42	0xbcf1838a	-0.029481668
43	0xbd3b4bf4	-0.04572673
44	0x3ef29158	0.47376513
45	0x3d93e65b	0.07221671
46	0x3dae9508	0.08524519
47	0xbbb43120	-0.00549902
48	0xbcdb991a	-0.026806403
49	0x3bb15768	0.005412031
50	0x3e85d6c2	0.2614041
51	0xbd2daf25	-0.04240336
52	0xbda61f25	-0.08111409
53	0x3e3faa31	0.18717267
54	0xbbb9a115	-0.0056649544
55	0x3bcc3365	0.0062317126
56	0xbc003248	-0.007824488
57	0xbebf3276	-0.37343186
58	0x3e0004a6	0.12501773
59	0x3e5a14c7	0.21296988
60	0xbc59c26e	-0.013290985
61	0xbebced68	-0.36899877
62	0x3bf9029d	0.0075991885
63	0x3d1a5c9a	0.037685968
64	0x3d4d84b7	0.050175395
65	0xbdc408e7	-0.095720105
66	0xbd1c0c26	-0.038097523
67	0x3c77f28b	0.01513351
68	0x3cad211c	0.021133952
69	0x3d34d9c3	0.044152986
70	0xbdf6a72f	-0.120436065
71	0x3ef57f73	0.479488
72	0xbd72f826	-0.059318684
73	0x3b62ddd7	0.003461709
74	0xbde9d310	-0.1141721
75	0xbb466932	-0.0030275104
76	0xbef9eeb0	-0.48814917
77	0x3da18596	0.078868076
78	0xbbdd4bc4	-0.0067534167
79	0x3ea769b5	0.32697836
80	0x3f0ba46d	0.5454777
81	0x3ce6d8f8	0.02817963
82	0xbc74b7de	-0.0149364155
83	0xbd467628	-0.048452526
84	0xbe9bb441	-0.3041096
85	0xbd419ec9	-0.04727057
86	0x3ea73dbf	0.32664296
87	0x3d90980c	0.07060251
88	0x3dbcb579	0.09214301
89	0xbcd00ed5	-0.025397697
90	0x3c72a6bf	0.014810263
91	0x3b6312e1	0.0034648704
92	0x3c8aaf7a	0.016929377
93	0x3c9b9a31	0.018994423
94	0xbd4d28af	-0.050087627
95	0xbec8fb79	-0.39254358
96	0x3d763296	0.060106836
97	0x3eea2f4d	0.45739213
98	0xbb8e81ee	-0.004348985
99	0x3cffc4bd	0.031221742
100	0x3f9000bd	1.1250225
101	0xbe10f579	-0.1415614
102	0xbc8cc26e	-0.017182555
103	0x3ca71a2a	0.020398218
104	0x3c674981	0.014116646
105	0xbe0dfacc	-0.13865203
106	0xbcc25903	-0.023724085
107	0x3f1fe269	0.6245485
108	0x3ea50be3	0.3223563
109	0xbc2b913e	-0.01047164
110	0xbd168cac	-0.03675525
111	0x3b051a4b	0.0020309861
112	0xbc17a9b3	-0.009256768
113	0xbd4e1ca7	-0.050320294
114	0xbecd1912	-0.4005819
115	0xbb3dd406	-0.0028965487
116	0xbdd916a4	-0.106000215
117	0xbe1f5958	-0.15561426
118	0x3b166dbc	0.002295359
119	0x3ce91f13	0.0284572
120	0xbbea87c4	-0.007157298
121	0x3eb5f0ea	0.35535365
122	0xbe09a60c	-0.13442248
123	0xbe117d2e	-0.14207909
124	0xbc29d1fa	-0.010365004
125	0x3f86d311	1.0533162
126	0xbc1f32af	-0.009716674
127	0x3ccca37b	0.024980297
128	0x3cf3104c	0.029670857
129	0xbd231e62	-0.039823897
130	0xbca0152e	-0.01954135
131	0x3c8612f8	0.016366467
132	0xbd03a5d9	-0.032140587
133	0x3c2d8e26	0.010592973
134	0xbdc20403	-0.094734214
135	0x3ebbe3c0	0.36697197
136	0x39db9994	0.0004188536
137	0x3b9d2944	0.004796179
138	0xbdbbe410	-0.09174359
139	0xbde0fecf	-0.10986101
140	0xbeebbaae	-0.46040863
141	0x3dca8006	0.098877
142	0xb9789cc8	-0.00023709529
143	0x3ebd46af	0.3696799
144	0x3f31508e	0.6926354
145	0xbccdac20	-0.02510649
146	0xbcc71487	-0.02430178
147	0x3e7652de	0.24055049
148	0xbe03d635	-0.12874682
149	0xbc955590	-0.018229276
150	0x3e717455	0.23579533
151	0x3cb52e4a	0.022116799
152	0x3dde2261	0.10846401
153	0xbcf26491	-0.02958897
154	0x3c196c77	0.009364239
155	0xbb51c478	-0.0032007974
156	0xbcb24a45	-0.02176393
157	0x3b758f53	0.003746946
158	0xbd2c7ee2	-0.042113192
159	0xbe6c91c7	-0.23102485
160	0xbd4e7086	-0.05040028
161	0x3f0f6965	0.56020194
162	0xbb2ba228	-0.0026189182
163	0xbcc09ab6	-0.023511272
164	0x3f6a0fd2	0.9143039
165	0xbe2cd0ab	-0.16876476
166	0xbc146755	-0.009057839
167	0x3b7fffe6	0.003906244
168	0x3caa1f78	0.020766959
169	0x3cce55e4	0.02518744
170	0xbb539c6d	-0.0032289282
171	0x3ef28262	0.473651
172	0x3e88f33b	0.2674807
173	0x3c9e8217	0.019349141
174	0xbd454263	-0.048159014
175	0x3cbeda08	0.023297325
176	0xbbabd75a	-0.0052441778
177	0xbc9c78bf	-0.019100545
178	0xbef9afce	-0.4876694
179	0xb92319f0	-0.00015554554
180	0xba6f00fa	-0.0009117272
181	0xbe258c8e	-0.16166899
182	0x3c431f3a	0.0119093
183	0xbc6da757	-0.014505229
184	0x3c038122	0.008026393
185	0x3f0a861d	0.5411089
186	0xbdfeb9c9	-0.124377795
187	0xbcc25066	-0.023719978
188	0xbc6f51e0	-0.014606923
189	0x3f93ab88	1.1536722
190	0xbc646e07	-0.013942248
191	0xbd034e0e	-0.03205686
192	0xbd519e1e	-0.051176183
193	0x3b5bde7e	0.0033549364
194	0x3c55af4c	0.013042282
195	0xbbb855d9	-0.005625468
196	0x3c7b4968	0.015337326
197	0x3d565db6	0.052335463
198	0x3df080f2	0.11743344
199	0x3d55737a	0.05211208
200	0xbd1444de	-0.03619849
201	0x3b9659f0	0.004588358
202	0xbdb9e5f9	-0.09077067
203	0x3db12359	0.0864932
204	0xbebf705e	-0.37390417
205	0x3dc16a2f	0.09444081
206	0xbc01961d	-0.007909325
207	0x3e945e88	0.28978372
208	0x3f1e1428	0.61749506
209	0xbcacdba6	-0.02110083
210	0xbcb4dedd	-0.022078926
211	0xbc047d7a	-0.008086557
212	0xbe1cd302	-0.15314868
213	0x3e1dc544	0.15407282
214	0x3d1b7877	0.03795668
215	0x3db445ec	0.08802399
216	0x3bb73652	0.0055911923
217	0x3e51761c	0.20455211
218	0x3bb35095	0.0054722526
219	0xbb4846b0	-0.003055971
220	0x3bd9067f	0.006623089
221	0xbc520aa8	-0.012819923
222	0xbd0a043e	-0.033695452
223	0x3e0049e4	0.12528187
224	0x3cd247a2	0.025668923
225	0x3ee3d111	0.44495443
226	0xbb8eea59	-0.0043614325
227	0x3cc77f2b	0.02435263
228	0x3f5383e6	0.82623136
229	0x3d2524b1	0.040318195
230	0xbc9bd068	-0.019020274
231	0x3b6b51ef	0.003590699
232	0xbb615e88	-0.003438862
233	0xbd15dba2	-0.03658641
234	0xbb75ab36	-0.0037486083
235	0x3e46de71	0.19420792
236	0x3e0a7737	0.1352204
237	0xbdf329df	-0.11873221
238	0x3c7d06c6	0.015443509
239	0xbc09d33b	-0.008412178
240	0xbbc10c16	-0.0058913333
241	0xbc4164e8	-0.011803843
242	0xbdef5765	-0.11686591
243	0xbcfb0d09	-0.030645864
244	0xbd1b7185	-0.037950058
245	0x3d9644af	0.07337319
246	0x3bc29f86	0.005939427
247	0x39d54e2f	0.00040684777
248	0x3bc4fbe4	0.006011473
249	0x3f1c41cb	0.6103789
250	0x3e2a812e	0.1665084
251	0x3d8e7297	0.0695545
252	0xbc8067f8	-0.015674576
253	0x3f887432	1.066046
254	0x3c7dcfee	0.015491469
255	0x3c575880	0.013143659

body.4.bias f4 [4]
0	0x3e651c7d	0.22374149
1	0x3e342b9c	0.1759476
2	0xbb7ce28b	-0.0038587179
3	0xbe301ad2	-0.17197731

body.0.weight f4 [64, 5]
0	0x3f706026	0.9389671
1	0x3de7698d	0.11299429
2	0x3ef2c083	0.474125
3	0xbdada4f1	-0.08478726
4	0x3d8ef845	0.069809474
5	0x3e9d38a5	0.3070728
6	0x3e06c860	0.13162374
7	0x404f4106	3.2383437
8	0x3bb98f70	0.005662851
9	0x3f0801a9	0.53127533
10	0xbed02f9c	-0.40661323
11	0x3eb2c1f4	0.349136
12	0x3ec40872	0.38287693
13	0xbdb47350	-0.088110566
14	0xbd86b064	-0.065766126
15	0x3cd06f7c	0.025443785
16	0x3ecbb4c3	0.39786348
17	0x4075814b	3.8360164
18	0xbe2fcbef	-0.17167638
19	0x3e4dbf34	0.2009247
20	0x3e82a210	0.2551427
21	0xbe1d56cc	-0.15365142
22	0x3eadb1ec	0.33924806
23	0xbe7e9a39	-0.24863519
24	0xbe97fa4a	-0.29683143
25	0x3c91200e	0.01771548
26	0x3e8bc596	0.27299184
27	0xbff75e76	-1.9325702
28	0xbcb58480	-0.022157907
29	0x3d8163cd	0.063178636
30	0xbd6ce090	-0.057831347
31	0xbe7f7b0f	-0.24949287
32	0x4053f98a	3.3121057
33	0xbe29cbb3	-0.16581611
34	0xbc09626f	-0.008385285
35	0x3cfe2610	0.031024009
36	0xbf257853	-0.64636725
37	0x408ca278	4.3948326
38	0xbe6c1eab	-0.23058574
39	0xbead0c59	-0.33798483
40	0x3e9b71d6	0.30360287
41	0xbeba52d5	-0.3639132
42	0x4052d9f4	3.2945528
43	0xbe73e0c5	-0.23816212
44	0xbe744eff	-0.2385826
45	0x3eaa0f2a	0.33214694
46	0xbe961762	-0.29314715
47	0xbe8686d0	-0.2627473
48	0xbe2b34e8	-0.16719401
49	0xbec08d76	-0.37607926
50	0x3feaf1a8	1.8354998
51	0x3ff0cbeb	1.8812231
52	0xc056aa0d	-3.354129
53	0x3d17c78a	0.03705553
54	0x3e49dd29	0.19713272
55	0xbc9b4297	-0.018952651
56	0x3e84ad8e	0.25913662
57	0x3e548acb	0.2075607
58	0xbed577af	-0.41692874
59	0x3ae3de1d	0.001738492
60	0x3e255ed7	0.1614946
61	0x3efb4e65	0.49083248
62	0x403414c4	2.8137674
63	0xbd80cba1	-0.06288839
64	0xbe42fa1f	-0.19040726
65	0x3f28dcd3	0.6596195
66	0x3e52f163	0.20599894
67	0xc0c4d27a	-6.150693
68	0x3e988244	0.29786885
69	0xbee9cf46	-0.4566595
70	0x3f1ae1d4	0.60500836
71	0x3f8b2d26	1.0873153
72	0xbfe949ab	-1.8225607
73	0xbd894e70	-0.06704414
74	0xbe943d26	-0.28952903
75	0xbed69c73	-0.41916236
76	0x3db42178	0.08795446
77	0xbe1de07c	-0.15417665
78	0xbe2ad1fc	-0.16681665
79	0xbea50922	-0.3223353
80	0x3e063464	0.13105923
81	0x3eca8b8e	0.39559597
82	0xbdc03d10	-0.09386647
83	0xbe91c902	-0.2847367
84	0xbed87fe3	-0.4228507
85	0x3f4c2673	0.7974617
86	0x3f5b7dd7	0.8573889
87	0xbe720bbf	-0.23637293
88	0xbe2b82b8	-0.16749084
89	0x3eeeca2f	0.4663863
90	0xbec51b4a	-0.38497382
91	0x3e68921b	0.22711985
92	0x409ff48d	4.9986024
93	0xbe55760a	-0.2084581
94	0xbeb83a4e	-0.35981983
95	0xbe54f6d5	-0.20797284
96	0x3edb764a	0.42863685
97	0x3eb0de44	0.34544575
98	0xbe6a759d	-0.22896428
99	0xbecb6e63	-0.39732656
100	0x403bf3ea	2.9367623
101	0x3feab22e	1.8335626
102	0xc06eba2a	-3.7301126
103	0xbd097eeb	-0.033568304
104	0x3f5bbba8	0.85833216
105	0xbe911ff9	-0.28344706
106	0x3ecd2b93	0.40072307
107	0x406cae50	3.6981392
108	0xbe486bdd	-0.19572397
109	0x3ec6e167	0.38843843
110	0x3e197094	0.14984351
111	0xbd6ca548	-0.057774812
112	0xbdbcfbb4	-0.09227696
113	0xbe0d2ca4	-0.1378656
114	0xbe525ace	-0.20542452
115	0x3d0e59d0	0.03475362
116	0xbeacacdd	-0.33725634
117	0xbd36f170	-0.044663846
118	0xbe5417b6	-0.2071217
119	0xbe02fa4a	-0.1279079
120	0xbe99ad7a	-0.30015165
121	0xbdfd40c0	-0.12365866
122	0x4090f67f	4.53009
123	0xbdce384a	-0.1006933
124	0x3e76544d	0.24055596
125	0x400da678	2.2132854
126	0x400d88da	2.2114778
127	0xc0942a77	-4.6301837
128	0xbd17c225	-0.037050385
129	0x3f6804ef	0.9063253
130	0xbed99c32	-0.4250198
131	0xbeffb30d	-0.49941292
132	0x406e8fdd	3.7275307
133	0xbe810705	-0.25200668
134	0xbdb8a570	-0.0901593
135	0x3f07767f	0.52915186
136	0x3f0f86b5	0.5606492
137	0x40328726	2.7894988
138	0xbdc3cd54	-0.095606476
139	0xbea84ac8	-0.32869554
140	0xbef5faee	-0.48043007
141	0xbdc99996	-0.09843747
142	0x3fdaff9b	1.7109255
143	0x3d82f913	0.063951634
144	0xbe55ce96	-0.20879588
145	0x3fd8b904	1.6931462
146	0x3f8930fa	1.0718071
147	0xc083dff8	-4.12109
148	0xbe3cc7f9	-0.18435659
149	0x3f528107	0.8222813
150	0x3fda698f	1.7063464
151	0x3f1af226	0.6052574
152	0xbb3007b3	-0.0026860058
153	0xbe0db751	-0.13839461
154	0x3edc55da	0.4303425
155	0xbf76cd82	-0.9640733
156	0xbef8aaca	-0.48567802
157	0x3f756ff1	0.95873934
158	0x3e44acfd	0.19206615
159	0xbdf7bdc0	-0.12096739
160	0xbd8a9ff0	-0.06768787
161	0x3ea496c4	0.32146275
162	0x3edcf980	0.43159103
163	0xbe8a5950	-0.27021265
164	0xbece3864	-0.40277398
165	0x3e413044	0.18866068
166	0x3e804e0e	0.2505955
167	0xbed43ae0	-0.41451168
168	0xbea91169	-0.33021095
169	0x3ca2c3a8	0.019868687
170	0xbecbf3ba	-0.39834386
171	0x3d174a28	0.036935955
172	0xbed5663e	-0.41679567
173	0xbe973000	-0.2952881
174	0xbeb475bd	-0.35246077
175	0xbe912a8b	-0.2835277
176	0xbec1cb91	-0.3785062
177	0x40bc46dd	5.8836503
178	0x3c56271b	0.013070847
179	0x3ec03ab4	0.37544787
180	0xbedbdcc6	-0.42941874
181	0xbe405e1a	-0.18785897
182	0xbec4c1b7	-0.38429043
183	0xbed00efe	-0.40636438
184	0xbe9bb78a	-0.30413467
185	0xbdc72284	-0.0972338
186	0x3e57ec90	0.21086335
187	0x3e7ee7a0	0.24893045
188	0xbd87e588	-0.066355765
189	0xbe7f26c6	-0.24917135
190	0x3dee546f	0.11637198
191	0xbe01a242	-0.12659553
192	0x4031481a	2.7700257
193	0xbe2bb622	-0.16768697
194	0xbe38445a	-0.17994824
195	0xbf4e62ec	-0.8061969
196	0xbf223170	-0.63356686
197	0x3fc0bcba	1.5057595
198	0x3f881bdf	1.0633506
199	0xbe249fb8	-0.16076553
200	0x3ec21ed0	0.37914133
201	0xbdf1a3df	-0.11798834
202	0x4040a724	3.0102015
203	0xbe19cdba	-0.15019885
204	0xbe86d703	-0.26335916
205	0x3e08eeb7	0.13372312
206	0x3e505e17	0.20348392
207	0x3e23d16f	0.15997861
208	0xbe9a6a7c	-0.30159366
209	0xbd8be354	-0.06830469
210	0xbf49341a	-0.78595126
211	0xbf8c8b52	-1.0980017
212	0x4011d1f0	2.2784386
213	0x3e73e96e	0.23819515
214	0xbee5fe71	-0.44920686
215	0xbdff5ec4	-0.12469247
216	0x3e4329f4	0.19058973
217	0xbe3f22c8	-0.18665612
218	0xbea64b00	-0.32479095
219	0xbdcb908c	-0.099396795
220	0x3f357a82	0.7089006
221	0x3f0ce6d3	0.5503971
222	0xbf6911f5	-0.91043025
223	0xbe650342	-0.22364524
224	0xbcc898c6	-0.02448691
225	0x3f102d4d	0.56319124
226	0x3d984116	0.07434289
227	0xbf528f64	-0.82250047
228	0xbe241d2c	-0.16026753
229	0xbec9e112	-0.39429528
230	0x3f3883b9	0.7207599
231	0xbd3ce55e	-0.04611718
232	0x3df6877e	0.12037562
233	0xbe446339	-0.19178475
234	0x3e3c5f81	0.18395807
235	0xbf0221fd	-0.5083311
236	0x3e8d8c21	0.27645972
237	0x40012819	2.0180724
238	0xbdef24d6	-0.11676948
239	0x3f01cb4c	0.5070083
240	0xbea404f6	-0.32035035
241	0x3e3ec10a	0.18628326
242	0x40c3ce5b	6.11894
243	0x3df4dac9	0.119557925
244	0x3f3bc067	0.7334046
245	0x3f95b02a	1.1694386
246	0x3fa4d555	1.2877604
247	0xbf73fcaf	-0.9530744
248	0xbe00d8f4	-0.12582761
249	0x3ee36992	0.4441648
250	0x3dfeac7a	0.12435241
251	0xbea81652	-0.3282953
252	0x4048f0e2	3.1397023
253	0xbe3fae77	-0.18718897
254	0xbe4d11a7	-0.20026265
255	0x3f429772	0.7601234

body.0.bias f4 [64]
0	0x3f0e0a53	0.55484504
1	0x3f4d3eb4	0.801738
2	0xbec04eba	-0.37560064
3	0x3f8dba65	1.1072508
4	0xbea023e0	-0.3127737
5	0xbf38ec4b	-0.72235554
6	0x3fa78c4a	1.3089688
7	0x3faabab0	1.3338223
8	0x3fa059d9	1.2527419
9	0xbe3c638a	-0.18397346
10	0x3ed1d42a	0.4098218
11	0xbe10a574	-0.14125615
12	0x3f7c5604	0.9856875
13	0xbed1371a	-0.40862352
14	0x3ee730fe	0.45154566
15	0x3ec1acca	0.3782714
16	0xbd20eac0	-0.039286375
17	0x3e8c2cdd	0.27377978
18	0x3fa82985	1.3137671
19	0xbdb13a3c	-0.086536855
20	0x3f094514	0.5362103
21	0x3f834a4e	1.0257051
22	0x3e4e4b90	0.20146012
23	0x3ddda9e0	0.10823417
24	0x3fa09a74	1.2547135
25	0x3d70411d	0.058655847
26	0x3fb6d7a3	1.4284557
27	0x3f8a9a0e	1.0828264
28	0xbe32944f	-0.17439388
29	0xbd5918d7	-0.053002205
30	0x3f5eab21	0.8697987
31	0xbe4a5179	-0.19757642
32	0xbe928097	-0.2861373
33	0xbee6cee3	-0.45079717
34	0x3d6103f0	0.054935396
35	0x3fbb75d5	1.4645334
36	0x3e1f63f4	0.15565473
37	0x3d377a20	0.0447942
38	0x3f77c61e	0.9678668
39	0x3fa67511	1.3004476
40	0x3f84206e	1.0322397
41	0x3ea1077c	0.31451023
42	0x3f9001ca	1.1250546
43	0xbd8e0998	-0.069354236
44	0x3df1714c	0.11789188
45	0x3f11a0b5	0.56885844
46	0x3f4f842e	0.81061065
47	0x3f1cce38	0.61252165
48	0x3fc98522	1.5743754
49	0x3f588c98	0.8458953
50	0x3f8db626	1.1071212
51	0x3f8fee28	1.1244555
52	0x3f4747e7	0.7784409
53	0x3eaf2508	0.3420794
54	0xbedc50e6	-0.4303047
55	0x3f3553b6	0.7083086
56	0x3f7bff1c	0.9843614
57	0x3ec8db40	0.39229774
58	0x3ebdfd9a	0.37107545
59	0x3e63aeaf	0.22234605
60	0xbe706736	-0.23476872
61	0xbec01420	-0.37515354
62	0xbe28f6c0	-0.16500378
63	0xbe7517da	-0.2393488

body.2.weight f4 [64, 64]
0	0xbc9f0f14	-0.01941637
1	0xbdbbb37c	-0.09165093
2	0x3b635940	0.0034690648
3	0x3c001343	0.007817092
4	0xbda6d126	-0.08145361
5	0xbe85c980	-0.26130295
6	0x3e5df361	0.21674873
7	0xbdb6dfd3	-0.0892941
8	0x3de6760c	0.112529844
9	0xbcbcbe30	-0.023039907
10	0xbda58709	-0.080823965
11	0x3cc43928	0.023953035
12	0x3ca29265	0.019845197
13	0xbe0b0bdd	-0.13578744
14	0xbe339dab	-0.17540614
15	0xbc8861f8	-0.016648278
16	0x3d85df7a	0.065367654
17	0x3d48abcb	0.04899196
18	0x3dbe7966	0.09300499
19	0xbcc45f90	-0.023971349
20	0x3d7a9b56	0.061183296
21	0x3e04ba4f	0.12961696
22	0xbda30da8	-0.07961589
23	0xbdcd4430	-0.10022771
24	0x3d639e5b	0.05557094
25	0xbdea66f7	-0.1144542
26	0x3e090649	0.13381304
27	0xbdebf2b2	-0.115209
28	0xbdf418bb	-0.119187795
29	0xbdf9f8ab	-0.12205633
30	0xbdadaed8	-0.084806144
31	0xbd7e1a42	-0.06203676
32	0xbd131904	-0.03591253
33	0xbdf3f068	-0.11911088
34	0x3d7c9c0c	0.061672255
35	0xbe6a30fa	-0.22870246
36	0x3ddb3d3c	0.10705039
37	0x3c477b90	0.012175456
38	0x3e267cab	0.16258495
39	0xbe478ee5	-0.19488104
40	0x3d270d08	0.040783912
41	0x3ce73ae0	0.028226316
42	0xbe0afe3c	-0.13573545
43	0xbde5e262	-0.1122482
44	0xbc1c2eb5	-0.00953262
45	0x3b59064d	0.0033115328
46	0x3cacba30	0.021084875
47	0xbd1c0b85	-0.038096923
48	0xbe59af23	-0.21258216
49	0x3c28acbf	0.010295092
50	0x3e2c0b31	0.16801144
51	0xbe238805	-0.15969856
52	0xbc864d59	-0.016394304
53	0x3df15860	0.11784434
54	0xbc5bfcad	-0.013426942
55	0xbde55fee	-0.11199938
56	0x3c12dbbf	0.008963524
57	0x3d9184ac	0.07105383
58	0xbd281603	-0.041036617
59	0x3dc4c701	0.096082695
60	0x3d4126f8	0.047156304
61	0x3dc2cc70	0.095116496
62	0xbd406340	-0.046969652
63	0xbca27ff2	-0.0198364
64	0x3e7f2a6d	0.24918528
65	0x3d2ad474	0.041706517
66	0xbc78b640	-0.015180171
67	0xbe689693	-0.2271369
68	0x3dc0e3fc	0.094184846
69	0x3cab7e1a	0.020934153
70	0xbe595667	-0.21224366
71	0xbeab3c41	-0.33444408
72	0xbef88073	-0.485355
73	0x3ce58890	0.02801922
74	0x3f3e9718	0.744493
75	0x3bfa25f6	0.00763392
76	0xbd54d935	-0.051964957
77	0x3ea72c5f	0.3265104
78	0x3f515f24	0.817858
79	0x3b4a3dc0	0.003085956
80	0xbdbfcd2e	-0.09365307
81	0x3c0d0111	0.008606211
82	0xbf10dda8	-0.5658822
83	0x3d7824a4	0.06058182
84	0x3ec6e843	0.38849077
85	0xbedf70c9	-0.43640736
86	0x3d847246	0.064671084
87	0x3ce03c88	0.027372614
88	0xbda46d23	-0.08028629
89	0x3ecb0eb0	0.39659643
90	0xbeac1797	-0.33611748
91	0xbee3d745	-0.44500175
92	0xbe5a70a2	-0.21332029
93	0x3ea69bc9	0.3254073
94	0x3e09e0dd	0.13464685
95	0xbc527221	-0.012844593
96	0x3d61a478	0.05508849
97	0xbdaf62b5	-0.08563749
98	0x3dc23dc8	0.0948444
99	0x3d03adc5	0.03214814
100	0xbd606560	-0.05478418
101	0xbde41892	-0.11137499
102	0xbed81a4f	-0.42207572
103	0xbc49822e	-0.012299104
104	0x3dba7a9b	0.091054164
105	0xbdddf0d6	-0.108369514
106	0x3e3d361f	0.18477677
107	0x3dd0c3ca	0.10193594
108	0x3df9ea17	0.12202852
109	0x3eb2513c	0.34827602
110	0xbe913d7e	-0.28367227
111	0xbee720b5	-0.4514214
112	0xbcc7e38b	-0.024400493
113	0xbc766016	-0.015037557
114	0xbef50ba7	-0.47860453
115	0xbe396347	-0.18104278
116	0xbeac2e8f	-0.3362927
117	0xbe04cd6c	-0.12968987
118	0x3dc3ac94	0.09554401
119	0xbed499bb	-0.41523537
120	0xbec99e64	-0.39378655
121	0x3ba8db82	0.0051531205
122	0x3e804bc0	0.25057793
123	0xbeab3cdf	-0.33444878
124	0x3e784801	0.24246217
125	0x3cc80fa8	0.024421528
126	0xbda0ee7c	-0.07857987
127	0x3da53249	0.08066232
128	0xbd7c72e7	-0.061633017
129	0xbd31c825	-0.043403763
130	0xbcf3c5a8	-0.029757336
131	0x3dd4097a	0.1035337
132	0x3be2e080	0.006923735
133	0xbe72b7f5	-0.23702987
134	0x3daee8ae	0.08540474
135	0xbdbe8d50	-0.09304297
136	0xbc267f24	-0.010162149
137	0xbdd1d8c8	-0.10246426
138	0xbd085b47	-0.033290174
139	0x3dd53a86	0.10411553
140	0xbd9b9760	-0.07597232
141	0xbd81be18	-0.06335086
142	0x3cdb1742	0.026744489
143	0x3dc7f9dc	0.09764454
144	0x3dcb1674	0.09916392
145	0x3e28d285	0.16486557
146	0xbd2b8e87	-0.04188397
147	0x3da23d8e	0.07921897
148	0xbb8b2642	-0.004246504
149	0x3dc636b3	0.09678402
150	0xbd2f6408	-0.042820007
151	0xbdf8e366	-0.12152748
152	0xbcffed47	-0.031241072
153	0xbd188b67	-0.03724232
154	0x3de84ba9	0.11342556
155	0x3d9af951	0.075670846
156	0x3c15af20	0.009135991
157	0x3d579916	0.05263623
158	0xbdc95156	-0.09829967
159	0xbdf8c3df	-0.121467344
160	0x3d9701f6	0.07373421
161	0xbdcd80e5	-0.1003435
162	0x3d014394	0.03155859
163	0xbe386464	-0.18007046
164	0x3da72a40	0.081623554
165	0xbcb28368	-0.021791175
166	0x3e747a3b	0.23874752
167	0xbcf90bf7	-0.030401213
168	0xbdfaf955	-0.122545876
169	0xbcb10930	-0.021610826
170	0x3d51c871	0.051216546
171	0xbcd68ae8	-0.026189283
172	0xbe1875bf	-0.14888667
173	0xbe1e58e9	-0.15463604
174	0x3e12e56a	0.14345327
175	0xbe3122c0	-0.17298412
176	0xbedf8c1f	-0.4366159
177	0x3d6e2434	0.058139995
178	0x3e3d25db	0.18471472
179	0xbd1b861a	-0.037969686
180	0x3a8f6137	0.0010939006
181	0x3da7940d	0.08182535
182	0xbd1ba765	-0.038001437
183	0xbdef4112	-0.11682333
184	0xbd6b8abb	-0.05750535
185	0xbd7dad18	-0.061932653
186	0x3e0ee4ec	0.13954514
187	0x3e0067ff	0.12539671
188	0xbd8799d4	-0.06621137
189	0x3d451850	0.04811889
190	0xbdd3d0b8	-0.10342544
191	0xbdea1da4	-0.11431435
192	0xbe57e5af	-0.21083711
193	0x3e14dc5d	0.14537187
194	0x3dd767a0	0.10517812
195	0x3b7e1bdb	0.0038773927
196	0xbd64ef68	-0.055892378
197	0xbe45c620	-0.1931386
198	0x3dd51bce	0.10405694
199	0xbecc7c78	-0.39938712
200	0xbec029bd	-0.37531844
201	0x3dfde596	0.12397306
202	0x3eca9275	0.39564863
203	0xbc9e8462	-0.019350234
204	0xbe2c15b9	-0.16805162
205	0x3e41271d	0.18862577
206	0x3e7c5a5a	0.24643841
207	0xbdf87eea	-0.12133582
208	0xbdcb0c94	-0.099145085
209	0xbe555ef4	-0.20837003
210	0xbee76f2f	-0.45202014
211	0x3da66df0	0.08126438
212	0x3e9889ba	0.29792577
213	0xbbdccdf7	-0.00673842
214	0xbdf28e7c	-0.11843583
215	0xbdb286f6	-0.08717148
216	0xbbe26cc8	-0.0069099404
217	0x3e91ccd4	0.28476584
218	0xbe70427d	-0.23462863
219	0xbeb5bfe7	-0.35497972
220	0x3cb44932	0.022007558
221	0x3e965992	0.29365212
222	0x3e124b30	0.14286494
223	0x3e32ddaa	0.1746737
224	0xbd8228b8	-0.06355423
225	0xbdf25016	-0.118316814
226	0x3ac60e00	0.0015110373
227	0xbd1d6fdf	-0.038436767
228	0x3d915a06	0.07097249
229	0x3c1cac90	0.0095626265
230	0xbd3d3a99	-0.04619846
231	0x3dc384e6	0.09546833
232	0xbe865803	-0.26239023
233	0x3daab104	0.08334544
234	0x3df959dd	0.12175343
235	0xbcdb4378	-0.02676557
236	0xbd3eba03	-0.046564113
237	0x3da7911d	0.08181975
238	0xbe4e2a71	-0.20133378
239	0xbe725111	-0.23663737
240	0xbe78841d	-0.24269147
241	0xbd7f6022	-0.06234754
242	0xbb126922	-0.0022340496
243	0xbe8f48af	-0.2798514
244	0xbe977677	-0.2958257
245	0x3cbfae02	0.023398403
246	0x3dcd6b2e	0.100302085
247	0xbebb820d	-0.36622658
248	0xbeee741f	-0.46572968
249	0xbd5e1bbc	-0.05422567
250	0x3dfafc7f	0.12255191
251	0xbeb0c640	-0.34526253
252	0x3da85f53	0.08221307
253	0x3dfe3332	0.124121085
254	0xbddb3108	-0.10702711
255	0xbe62ccec	-0.22148484

body.2.bias f4 [64]
0	0x3df27481	0.118386276
1	0x3e6c7b05	0.23093803
2	0x3dc2b261	0.09506679
3	0x3f199610	0.599946
4	0xbde3e07b	-0.111268006
5	0x3f723176	0.9460672
6	0x3f880f5b	1.0629686
7	0x3f79c276	0.9756235
8	0xbd43df38	-0.0478203
9	0x3f1580fa	0.5839993
10	0xbd962892	-0.07331957
11	0x39143cb8	0.00014137
12	0x3f69c4be	0.9131583
13	0x3deaafce	0.11459313
14	0x3f354e73	0.7082283
15	0x3f9873c2	1.1910326
16	0x3d235ed7	0.03988537
17	0x3f056725	0.5211051
18	0x3dea4be5	0.11440257
19	0xbea35def	-0.31907603
20	0x3f7ecdd4	0.9953282
21	0x3c523bbd	0.0128316255
22	0x3da8a9b3	0.082354926
23	0x3e4c49ba	0.1995
24	0xbd6a7302	-0.057238586
25	0x3f053d2d	0.5204647
26	0xbc44823f	-0.011993944
27	0xbe1d87be	-0.15383813
28	0xbd856893	-0.065140866
29	0x3f5bedf4	0.8590996
30	0x3f3002b5	0.6875413
31	0xbe4de9c9	-0.20108713
32	0xbde48b82	-0.111594215
33	0x3dd8832d	0.10571895
34	0x3f28f4f2	0.65998757
35	0x3c330aa8	0.010927834
36	0xbdfac27f	-0.122441284
37	0x3c34e619	0.011041188
38	0x3f7f8531	0.9981261
39	0x3f8b215a	1.0869553
40	0x3db466cd	0.0880867
41	0x3f256f82	0.6462327
42	0xbeabad87	-0.33530828
43	0xbd4f41bb	-0.050599795
44	0x3f64dbf2	0.8939811
45	0x3f79a064	0.9751036
46	0xbaf5c1bf	-0.0018749757
47	0x3d8def38	0.06930393
48	0xbc9175c0	-0.017756343
49	0x3d5b6828	0.053566128
50	0x3d9e154b	0.07718905
51	0x3d28ab12	0.04117877
52	0x3f83aa2c	1.0286307
53	0x3e09e1e3	0.13465075
54	0xbd7b3474	-0.06132932
55	0xbbb7362d	-0.005591175
56	0xbd4857eb	-0.04891197
57	0xbbf3ff80	-0.0074462295
58	0x3dfd7e68	0.12377626
59	0x3d8adb88	0.067801535
60	0x3e7e38f1	0.24826409
61	0x3d8b82c7	0.06812053
62	0x3e4cdae5	0.20005377
63	0xbe6c269e	-0.23061606

body.4.weight f4 [1, 64]
0	0xbe09a6ca	-0.13442531
1	0xbe9d9b88	-0.30782723
2	0xbd69f1c2	-0.057115324
3	0xbe91ab4e	-0.28451008
4	0xbd65846a	-0.056034483
5	0x3ebc7ef5	0.3681561
6	0x3ebd03db	0.36917004
7	0x3ee99b0a	0.45626098
8	0xbd23e72c	-0.040015385
9	0x3f239707	0.63902324
10	0x3c1afb00	0.009459257
11	0x3d646c0a	0.055767097
12	0x3ebf4758	0.37359118
13	0x3df3c5dc	0.11902973
14	0x3ebdf44c	0.37100446
15	0x3f5e24c0	0.86774826
16	0xbf403355	-0.75078326
17	0xbea43996	-0.32075185
18	0x3d268e37	0.04066297
19	0xbe8fcf64	-0.28087914
20	0x3ebd8835	0.3701798
21	0xbf4a6529	-0.7906061
22	0x3d8b898f	0.068133466
23	0x3f3e4a92	0.74332535
24	0x3ecee068	0.40405583
25	0xbf0764b7	-0.52888054
26	0x3e5a5ada	0.2132372
27	0xbd4e3e09	-0.05035213
28	0xbf3c93ec	-0.7366321
29	0x3eac0d8c	0.33604085
30	0x3f419d25	0.7563041
31	0xbf0fef58	-0.56224585
32	0xbca1a889	-0.019733684
33	0xbd3310ae	-0.04371708
34	0x3f10b317	0.5652327
35	0xbf2db27f	-0.6785049
36	0x3c533509	0.012891063
37	0xbd077476	-0.03307005
38	0x3ecbda80	0.3981514
39	0x3ef0df28	0.47045255
40	0x3be03a57	0.006842892
41	0x3ea16601	0.31523135
42	0xbf0108d2	-0.50404084
43	0xbf0011e7	-0.50027317
44	0x3eb9798c	0.36225545
45	0x3ea19952	0.31562287
46	0xbdb642a0	-0.088994265
47	0xbe121ccc	-0.14268798
48	0x3dbb5006	0.09146123
49	0xbb1b75d2	-0.002372135
50	0xbb87397b	-0.0041267253
51	0xbf168f76	-0.58812654
52	0x3ed4fe3d	0.41600218
53	0xbdb2998c	-0.08720693
54	0x3d066cd8	0.032818645
55	0xbcc94e7a	-0.024573553
56	0xbe490a17	-0.19632755
57	0xbd0f0ee3	-0.034926306
58	0x3eb2372a	0.34807712
59	0xbdab3fef	-0.08361804
60	0xbecf66fc	-0.40508258
61	0xbf39496c	-0.7237766
62	0xbd44621e	-0.047945134
63	0xbf16a449	-0.5884443
