ppo_model.pt (torch, 42467 bytes, 11 tensors)

body.0.weight f4 [64, 5]
00000000: 0e03 083e 87fd c9bd 496b acbf 991b d1bc
00000010: 317e d63e 2938 7f3e 66b8 cd3d e272 8a40
00000020: cd42 023f d838 b13e f09c a43e 6220 8e3e
00000030: 245e 33be 8865 3fbe 1863 e6bd b455 b53e
00000040: 1ca2 c63e d8d7 d6be 8222 9abe f877 babd
00000050: 4941 293f f507 5a3f bb44 4fc0 183c 67bd
00000060: 00c3 0e3f b4c5 99be c102 70bf dbb8 5d40
00000070: 534a 133e 0fb5 92be 9574 30be 0aa1 213e
00000080: 86e0 c5bc cfc2 d1be 8eae 9a3e ffa1 b13b
00000090: b30b 263d 417d f03f e6c5 363e 11db 94be
000000a0: b4d4 c23e 6290 1e3f b986 6540 234d 043d
000000b0: cd47 c2be 1c05 473e e01d a2bd 0083 003b
000000c0: b3b1 cbbe 78dd fdbd e794 a1be b079 2c3e
000000d0: 4000 7ebd b03d a9bd 52a5 04be 4f37 013f
000000e0: 4ff8 c03e cbd5 9140 01eb b33d 2a86 45bd
000000f0: 350e dfbe 214b 93be dd2c 223f 3cc6 25ba
00000100: e281 bfbd a887 1abe c710 163f 8334 7440
00000110: 62ab 443c 1ce5 563e d409 81be 8803 afbe
00000120: ad83 8c40 5c84 633e 6338 06be 4303 96bd
00000130: ebea e83e 39f2 903e b68d 4abe fc83 cd3e
00000140: 155f e6bd 4555 c6be 82b5 c0be 5d9c c0be
00000150: 6b88 1a3d d6c9 013f 7d8c 513e 6cd8 edbe
00000160: b837 0cbd 05c8 c63e ee31 b3be eb0f 01bf
00000170: 1332 6a40 d24a 0e3e 9c29 efbe 7300 9ebe
00000180: 3fae 0c3d 8904 4e3f 5daa f33d a17f b93d
00000190: 9776 13bd e6d2 b2be ebd2 7b40 01ab 4f3e
000001a0: f824 d3be 8855 0d3f 6dd3 8abd bdd5 e1bc
000001b0: 28eb 94be d88a 813e dda5 5fbe deee b53e
000001c0: e0aa ae3d 04ef bebd 642c 68be df64 2ebf
000001d0: ff7d dcbd c68c 5d40 e55d 7b3e 7559 f9be
000001e0: 0ee5 1fbe a082 cb3e ce22 c03e 5832 47be
000001f0: 51f9 d7be 9867 fe3e 7bcb ab3d 6423 e93d
00000200: 5dd3 3ebd 8100 123f 6fe5 72bf 79a3 1ebf
00000210: 09db 3340 4c36 503e f5c8 5dbe 86b4 e9be
00000220: aed6 b3be 8d8a 8f40 f1d2 b43d 55f3 b73d
00000230: 609e b43d aebf ab3e 1477 883e ccad 40be
00000240: 59db e4be 6cf4 3ebf d42a 1ebf fb5c 8f40
00000250: 63ee 643e f271 1cbe 6da6 82be 4064 8f3e
00000260: a994 8c3e acd4 c8be 9910 db3e 5b38 c7be
00000270: 02b3 cf3e c9e0 c6be 2f07 99be bdb4 4cbe
00000280: cc61 ecbe 3c66 cabd 4051 a13f a35f 083e
00000290: 185d 44bd 470a b33e 7411 49be 5a3a bfbe
000002a0: 2c56 a4be e5c4 8a3e cc17 ff3d d689 a83e
000002b0: d5c6 69c0 4628 953d 9517 28be 6e31 503e
000002c0: 8e4b f23b 3af6 aebe fc54 97ba 5351 9bbe
000002d0: f301 a93e 6755 3e3e 7fe1 5a3f 3c0a 14be
000002e0: 426d 003f b616 a73e 12f3 29bd 72cd 6040
000002f0: 4999 4a3e bc00 1bbf 34e7 993e 2625 adbc
00000300: ccfb 9040 0bb0 313e 00a9 c9bd 5a33 d6be
00000310: 8f27 ce3e f3fe 8a3e 9bb2 f0ba f20b cdbe
00000320: f68f f5bd 3297 06bf 872b 1d3f ceee b43d
00000330: ed8b 12bd 3341 a03f b0c8 843f a8ba cbbf
00000340: e3cb 193d 398b 8d3f e4fb 4cbf 412b c1be
00000350: e40d 7f40 bf3c 413e 83fe 37be b4a7 28be
00000360: ccc9 d93e 807a fe3b 5a1d c9be 868a 1abe
00000370: a352 a7be af5d d1be df24 483f 7229 79ba
00000380: 7eda 0ebd 3635 f0be ba36 3dbd c5c5 0bc0
00000390: b0d7 0fbd 46d9 143e e220 19bf 9ef5 80bc
000003a0: 10df 8d40 2946 573e 6b17 aa3d 6784 783e
000003b0: 6be0 f63e 009c ecbf 6e31 9abd dac1 ee3e
000003c0: 582b 3ebf acea a3be d4ee 6c40 9310 3d3e
000003d0: 1743 9abe e420 1d3e ff29 333e 92c8 4140
000003e0: 95a8 0d3e d885 b7be 744f de3e a09a 67bc
000003f0: 2a74 7dbe 8bd3 5cbe 8032 15bd 1488 153e
0.13282415 -0.0986281 -1.3470241 -0.025525855 0.4189315 0.24923767 0.10044937 4.326524
0.5088318 0.3461368 0.32150984 0.2775908 -0.1751638 -0.18691075 -0.112493694 0.3541695
0.38795555 -0.4196155 -0.30104452 -0.091049135 0.6611524 0.8516839 -3.23857 -0.056453794
0.55766296 -0.30033648 -0.937542 3.4644077 0.14383821 -0.28653762 -0.17231973 0.15784088
-0.024154913 -0.4096894 0.302113 0.005420923 0.0405385 1.8788224 0.1784893 -0.29073384
0.38052905 0.6193906 3.5863478 0.032300126 -0.37945405 0.19435543 -0.079158545 0.0019609332
-0.3978401 -0.123957574 -0.31558916 0.16843295 -0.062011957 -0.08263719 -0.1295369 0.5047502
0.37689444 4.557348 0.08785058 -0.048223652 -0.43565527 -0.28768256 0.63349706 -0.000632379
-0.09350945 -0.15090811 0.5861935 3.815705 0.0120037515 0.20985836 -0.2520281 -0.34182382
4.3910737 0.2221846 -0.13107447 -0.07324841 0.45491728 0.283098 -0.19780621 0.4013976
-0.11248604 -0.3873693 -0.3763848 -0.37619296 0.037727755 0.506986 0.20463748 -0.4645418
-0.034232825 0.38824478 -0.3499903 -0.50414914 3.6593063 0.13895729 -0.46711433 -0.30859718
0.03434586 0.8047567 0.118977286 0.090575464 -0.036001768 -0.34926528 3.9347484 0.20280077
-0.41239142 0.55208635 -0.067786075 -0.027567739 -0.2908566 0.25301242 -0.21840616 0.35533804
0.085286856 -0.09322932 -0.22673184 -0.6812267 -0.10766219 3.4617171 0.24547537 -0.48701063
-0.15614721 0.39748096 0.37526554 -0.19452798 -0.421824 0.4968841 0.0838842 0.11383703
-0.04658829 0.5703202 -0.9488134 -0.6196819 2.8102438 0.20333213 -0.2165869 -0.4564554
-0.35124725 4.485663 0.088292964 0.08981959 0.0881927 0.33544677 0.2665335 -0.18816298
-0.446986 -0.7459171 -0.617841 4.4801 0.22356562 -0.15277842 -0.25517598 0.28006172
0.2745717 -0.39224756 0.427861 -0.38910183 0.4056626 -0.38843372 -0.29888293 -0.19990821
-0.46168363 -0.09882781 1.260292 0.13317733 -0.047940344 0.34968778 -0.19635564 -0.37349206
-0.32096994 0.27103344 0.12455711 0.3291766 -3.6527607 0.07283072 -0.16415246 0.20331356
0.0073942607 -0.3417223 -0.0011545713 -0.30335483 0.330093 0.18587266 0.8550033 -0.14457029
0.50166714 0.32634515 -0.041491576 3.5125394 0.19785036 -0.60547996 0.30059206 -0.021135878
4.530737 0.17352311 -0.09846687 -0.41836053 0.40264556 0.27147636 -0.0018363775 -0.40048176
-0.11990349 -0.52574456 0.6139454 0.08834611 -0.035777975 1.2519897 1.0373745 -1.5916338
0.037547957 1.1058112 -0.80071855 -0.37728313 3.9852228 0.18870829 -0.17968182 -0.16470224
0.4253677 0.007766068 -0.39280206 -0.15091905 -0.32680234 -0.40891787 0.7818126 -0.0009504772
-0.03487634 -0.46915597 -0.04619477 -2.183946 -0.035117805 0.14536008 -0.598158 -0.01574212
4.4334793 0.21022858 0.08305248 0.24269257 0.48218092 -1.8485107 -0.07528959 0.46632272
-0.7428489 -0.32014978 3.702077 0.18463354 -0.3012931 0.15344578 0.17496489 3.0278668
0.1383384 -0.35844302 0.43419993 -0.014135987 -0.24751344 -0.21565072 -0.036425114 0.14602691

body.0.bias f4 [64]
00000000: 0945 2e3e bed4 e33e e8dd 39be ba3d 44be
00000010: 8d6d 013f 8871 0cbe b3ca d03e 2bcc bcbe
00000020: 336b eb3e 28ea 393d bd18 4fbe a47a d93b
00000030: 6215 a9bd 78be 05bd 6a1b 5b3e e769 123f
00000040: b29e b2bc 0687 033e 328b 8a3c 06e3 1ebf
00000050: 4bb4 e7be 8a80 7fbe 50c6 593d a58c b9be
00000060: 2058 93bd 0a6b 35be 5760 e8be ba41 e8bd
00000070: 747d 943e bd44 2e3e 1d55 423e b406 a2bd
00000080: a88e d5be 5305 02be 975b 473b 17f0 91bd
00000090: 95d7 cdbd cc44 8dbe c625 133e 671f e2be
000000a0: 07f8 83be bf56 8b3f 9aa3 fdbe 060c bf3e
000000b0: 817c 24bf 28f7 6b3e 58c8 0cbd ab5a 493f
000000c0: 544a bebe 3ac9 7fbe d045 12be 56eb babe
000000d0: 27f2 8ebc 25bc 3dbf 625a f53b a2e0 0fbd
000000e0: f0a3 c3be dabd 723e 3717 74bd 8285 45be
000000f0: a962 a1be f7b0 163e 331d 043e 235b ff3d
0.17018522 0.44498247 -0.18151057 -0.19164172 0.50557786 -0.13715184 0.40779647 -0.36874518
0.45980224 0.045389324 -0.2022428 0.0066369344 -0.082560316 -0.03265235 0.21397176 0.57192844
-0.021804187 0.12844476 0.016912077 -0.6206516 -0.4525474 -0.24951378 0.05316764 -0.36240116
-0.07194543 -0.17716613 -0.45386 -0.11340661 0.29001963 0.17018409 0.1897778 -0.07911435
-0.417104 -0.12697344 0.0030419582 -0.07125872 -0.10050885 -0.2759155 0.14369878 -0.44164583
-0.25775167 1.0885848 -0.4953888 0.3731386 -0.6425248 0.23043501 -0.03437075 0.78653973
-0.37166083 -0.24979106 -0.14284444 -0.36507672 -0.017449452 -0.7411521 0.007487581 -0.035126336
-0.38211012 0.23705235 -0.059592452 -0.1928921 -0.31520584 0.14715944 0.12901764 0.12468555

body.2.weight f4 [64, 64]
00000000: b097 79bd fb89 9c3d c2ca acbd b0b4 72bc
00000010: 298c 6fbd 8508 1ebe d042 c5bd b9b1 14bd
00000020: 2a89 b33d f84e febd 329a ecbd 9d47 a6bd
00000030: 0709 313d ae92 21bd 86f1 41be b025 fb3c
00000040: 9fce 713d 387c 48bd 8b2a 163d fa93 10be
00000050: e06b 613d bde8 eebd 48e7 abbc 18e4 2fbd
00000060: f4fc abbd bec6 8c3d 5002 8f3d 7461 80bd
00000070: 282d 2abd 161c 2dbe c933 8f3c 887e 613d
00000080: 7f35 423c c157 0fbd 603d 26bd 738f 26bd
00000090: 36b8 3fbc a8f7 debd f4e5 ccbd 2a54 06bd
000000a0: a3d8 e7bd 50f8 16bd addf 093b c0ed c53c
000000b0: a4d7 29bd ff77 cfbd 683b 82bd 47b5 873d
000000c0: 9ad0 bb3c 10c0 82bd 6cc0 24bd 04e4 653d
000000d0: 82ee c8bd c36b 13be b15b c63d 76d8 193d
000000e0: 036a a53d d24d f0bd 882b 9d3d 6d98 133b
000000f0: 34a8 2abb a1bc edbd 4705 293d ca1e a2bd
00000100: 5713 e63d 9db7 2abd fc9d 783d 5aff bd3d
00000110: d63d c2bd 535e 81bc 94c9 61bd 39ec d7bd
00000120: c9d2 d2bd 4018 9f3d 7083 8fbd a142 5bbd
00000130: 6a16 863d d316 0fbe fc70 98bd 7e08 283e
00000140: dc97 9b3d 050a 9e3c 8fc1 41bd e5a1 16bd
00000150: bfe3 87bc 3bc2 c93c 50ef 0cbc a47e 01be
00000160: 7662 d33d 65c6 183d c62b 7abd 4a31 a73c
00000170: 70b3 173c 8c47 13be b2f6 ff3b b802 793d
00000180: 0a75 febc 1fc5 89bd e850 c7bd ee5e 86bd
00000190: 12b5 383d 6adc 0bbe 6245 20be 44db d2bd
000001a0: 0adf 143c 8ab4 c1bd e4b1 cbbd 0066 9d3d
000001b0: 3f44 d13d 1fa0 b43c b1e8 873d baf1 04be
000001c0: 526a d03d 8b0b a5ba e826 cebd 2853 213d
000001d0: e8ef e0bd 2acf 62bd 1dac f83d f6be 18be
000001e0: c841 9f3d f673 91bd ce57 f0bd 712c 2ebd
000001f0: c099 e43d c729 4d3d 4f33 473c 000a 273d
00000200: 6466 08bc 8b27 a1bd 884b b73c 7a68 ed3d
00000210: 3cd6 f6bc 9d0d 9f3d 0110 a53d ca33 8f3d
00000220: ab22 c1bd f06f a33d 0086 053b c7c9 35be
00000230: 2939 ca3d 8225 08be 6773 01be 7cea d639
00000240: 542b c33d e414 45bd da0e d6bd 12b4 003d
00000250: d3ef 2d3d fd48 75bc 6e2c f8bd fdd1 3cbe
00000260: 501e 733c 7ef9 4d3d 872d f7bd 44fa 9c3d
00000270: 00f8 e7bc 1ac7 ddbd d73e e73d 744f dbbd
00000280: be23 8d3b e4a3 23bd 3b41 25bd 42b3 f03d
00000290: 7be9 a8bd 1804 79bc 5c81 70bc fcc3 573d
000002a0: df74 873d d054 b5bd 39ed 283c b0cb e5bd
000002b0: 807b ba3d ed5f 26bd b9b8 edbd efce dd3b
000002c0: bb02 cabd db09 cebd 360e e73d 9025 713c
000002d0: cd7b 10be 4c8a d0bd 0c3a 263d c6de c2bd
000002e0: acb0 44bd d8b3 9b3a 00f3 1fbe 5afb e03d
000002f0: 599f 6a3d 7a4e 54bc 3dfe e5bd e8b1 f63d
00000300: f602 ebbd 5622 cabd 4e0c de3d 98b5 0b3d
00000310: 30f4 3ebc bc20 abbc 1097 cebc 6c4f b93d
00000320: 0e86 b5bd f282 a13d 08c4 3d3d 061f 893d
00000330: d4e9 503d 6a65 d83c be71 a2bc 200a 7dbc
00000340: 4089 3abc f8ea 583d 4857 9f3d 6cea 723b
00000350: 560c 99bd 3824 03bd 6039 c43d aafb e83a
00000360: 4e1f 8abd f05a 6ebd 7765 f7bc 5b68 bfbd
00000370: f01a a8bc fb33 4dbd 584c e03c bef7 aabd
00000380: da44 fbbc c42a b33d 7aff d7bd 6087 46bd
00000390: 10bb b23d d1d5 a2bc 5c66 fcbb a060 debd
000003a0: 1718 91bd 47ca a1bd 5256 a0bd c852 03bd
000003b0: 84d1 bcbd 2aa3 c5bd 55c2 eabd e98e debd
000003c0: c682 59bd 9e0f b03d ac9e 16bd 5adf a5bd
000003d0: f660 f1bd 486a c43d a064 9f3c 769c 113d
000003e0: 1074 b7bc 9300 963d 1052 9e3d 3238 58bd
000003f0: 6c1a 9d3b d1d0 c1bd 5ca1 5ab9 e067 e23b
-0.060935676 0.07643505 -0.084371105 -0.014813587 -0.058483277 -0.15432937 -0.09631884 -0.036302302
0.08766396 -0.12417406 -0.11552848 -0.08119128 0.0432215 -0.039446525 -0.1893979 0.03065762
0.05903494 -0.04894659 0.036661666 -0.14118949 0.05503452 -0.11665485 -0.020984307 -0.042942137
-0.08397856 0.068738446 0.06982863 -0.06268588 -0.04154697 -0.16905245 0.017480748 0.05505231
0.011853575 -0.034995798 -0.040585876 -0.040664148 -0.011701634 -0.108870804 -0.100047976 -0.03279511
-0.11320617 -0.036857903 0.0021037862 0.02416122 -0.041465417 -0.10130309 -0.06358987 0.06626373
0.022926617 -0.06384289 -0.04022257 0.056125656 -0.09811117 -0.14396577 0.096854575 0.03755995
0.08076861 -0.11733593 0.076743186 0.0022521273 -0.0026040198 -0.11608244 0.0412648 -0.07916029
0.112341575 -0.041679014 0.06069754 0.0927722 -0.094844505 -0.015792048 -0.05512388 -0.10543103
-0.1029411 0.07768297 -0.070074916 -0.05353034 0.06547244 -0.1397355 -0.07443425 0.1640949
0.07597324 0.019291887 -0.047303732 -0.03677549 -0.01658809 0.02462875 -0.008601978 -0.12645966
0.10321514 0.03729858 -0.0610769 0.020409245 0.00925909 -0.14382762 0.007811391 0.06079361
-0.031061668 -0.06727051 -0.097322285 -0.06561075 0.045094557 -0.136583 -0.15651467 -0.10295728
0.00908638 -0.09458263 -0.09946039 0.076854706 0.10218095 0.022049008 0.06636179 -0.12982836
0.10176529 -0.0012591941 -0.100660145 0.039385945 -0.109832585 -0.05537335 0.12142203 -0.14916596
0.07776219 -0.07102196 -0.117354974 -0.04252285 0.11162138 0.05008867 0.012158229 0.04078102
-0.008325193 -0.0786887 0.022374883 0.11592193 -0.030131452 0.077662684 0.08059693 0.069923
-0.094304405 0.07980335 0.002037406 -0.17752753 0.09874184 -0.13295558 -0.12641679 0.00040991965
0.095297486 -0.048115626 -0.104520515 0.03142173 0.042465042 -0.014971015 -0.12117849 -0.18439479
0.01483877 0.050286762 -0.120692305 0.07664922 -0.028316498 -0.10828991 0.112912826 -0.10708514
0.0043072393 -0.03995122 -0.04034541 0.11752941 -0.08247658 -0.01519873 -0.014679279 0.05267714
0.06614088 -0.08854067 0.010310465 -0.11220491 0.09105587 -0.040618826 -0.11607499 0.006769053
-0.09863802 -0.100604735 0.112820074 0.014718428 -0.14109726 -0.10182628 0.0405827 -0.09515147
-0.04802005 0.0011879159 -0.15620041 0.109854415 0.057280872 -0.012958163 -0.11230133 0.12045652
-0.11475174 -0.0986983 0.10842191 0.03410873 -0.0116548985 -0.020889632 -0.025218517 0.09048352
-0.088634595 0.07886304 0.046329528 0.066953704 0.051004246 0.026415545 -0.019829627 -0.0154443085
-0.011385262 0.05295846 0.077803195 0.0037065996 -0.07473056 -0.032016963 0.09581256 0.0017775197
-0.06744252 -0.058192194 -0.03019975 -0.09346076 -0.020520657 -0.0500984 0.027380154 -0.08348034
-0.03067248 0.08748391 -0.10546775 -0.048468947 0.087270856 -0.019877346 -0.007702632 -0.108582735
-0.07084673 -0.078999095 -0.07828964 -0.03206137 -0.092196494 -0.09650262 -0.11462847 -0.10867102
-0.05310323 0.08596729 -0.036772415 -0.080992416 -0.11786072 0.09590584 0.019457161 0.035549603
-0.02239421 0.07324328 0.07730496 -0.052787967 0.0047944095 -0.09463657 -0.00020850211 0.0069093555

body.2.bias f4 [64]
00000000: ef20 803d 46e6 fabd 19c2 7abd bb3e dcbc
00000010: b606 e4bb 40b1 173d 2dc0 463d e491 03bd
00000020: 664a b0bc 2e9f e13b aeaa 96bd fabc 6fbd
00000030: 96fe 0cbe 4e86 96be 3a44 ebbd d891 c73d
00000040: 2c7c 9a3e 5132 55bd faf2 15be 9053 14bd
00000050: 2634 f3be fc16 a7be 2cfd 49bd d79f 39bd
00000060: 5d9f 46be 6bea 7ebe 867f ae3d aea7 dabd
00000070: b07f d1bd 020b 243d ed97 d7bc b561 86be
00000080: 219e aabd 7db9 bc3d d8b7 c6bd 9a33 afbd
00000090: 951c 5f3e 6642 a4bd bb9f 1a3c c6c6 c9bd
000000a0: af2d ccbd 66cb fc3c 825b b9ba 006f db3e
000000b0: aa95 17be e92b 5ebe ba14 96bd b967 72bd
000000c0: 4de8 4f3d 2416 14be cae5 b8be d1c4 57bd
000000d0: d7a7 fabd 5a54 55be eb85 85bd 0cee acbc
000000e0: 79eb 3cbc d0f9 643e 8b47 91bc 295c b7be
000000f0: 0ea5 61bd 166b bc3a 617b 093c 91fa b23d
0.062562816 -0.122509524 -0.061220262 -0.026885381 -0.006958808 0.037034273 0.048523117 -0.032121554
-0.021519851 0.006885431 -0.07356773 -0.05852983 -0.13768992 -0.2939934 -0.114876226 0.09744614
0.3017286 -0.05204994 -0.1464347 -0.036212504 -0.47500724 -0.32634723 -0.04931371 -0.04531845
-0.1939673 -0.24894111 0.08520417 -0.106765136 -0.102294326 0.04004956 -0.026317561 -0.2624642
-0.08330942 0.092150666 -0.09703034 -0.08554764 0.21788247 -0.08020477 0.009437497 -0.09852366
-0.09969651 0.030858707 -0.0014141651 0.42858124 -0.14803186 -0.21696438 -0.07328172 -0.05918095
0.05075865 -0.14461571 -0.36112815 -0.052677933 -0.12239044 -0.20832959 -0.065196835 -0.021109603
-0.01153075 0.22360921 -0.01773431 -0.358125 -0.05508905 0.0014375176 0.008391232 0.08739198

body.4.weight f4 [4, 64]
00000000: 1417 64bc 9266 32bd 143e 8c3c d55e 9ebb
00000010: ec20 fd3c bbb9 873c 4532 253f da54 dc3e
00000020: 5b38 4ebd 84bb 203a 8384 aabc 936f 153f
00000030: 76bc d93e 288a 273e 1b7f 13bb bbe6 ea3e
00000040: 5980 313d 9ea3 a2bc 72b0 ffbb a317 e43e
00000050: 74b4 a23e 44e2 933e 8b0b 123f a657 043d
00000060: 4604 fa3c 82b4 3f3c 4108 f83a 2071 523c
00000070: c9ca c33b 6d14 583d ba9e efbc de8b af3c
00000080: 2ae1 473d e1bd cb3d cc1a 1c3c 0cc0 da3c
00000090: 0eb1 c53a e13f 8b3e bad8 aabc 9059 a6bb
000000a0: 4b3c 93ba 50ed fabd 8a83 f1bc 129f 48bc
000000b0: 9856 073f fe31 523e 0895 ae3d 2031 b4bb
000000c0: 1a99 dbbc f27b 373b b47c bd3e 25af 2dbd
000000d0: 882a a0bd fbef 6c3e 2a0f 48bb 6533 cc3b
000000e0: 6625 e63a 1a65 debe eea4 153e d60e 8c3e
000000f0: 6ec2 59bc c651 89be 9d02 f93b 9a5c 1a3d
00000100: b784 4d3d e708 c4bd 260c 1cbd 8bf2 773c
00000110: d1d5 ad3c c3d9 343d 17a2 89bb 8da7 103f
00000120: 62d7 9fbd d7dd 623b 10d3 e9bd 4b99 3e3e
00000130: 1cf9 fcbe d913 ab3e c44b ddbb 9f4b 0d3f
00000140: e4b5 723f f8d8 e63c deb7 74bc cae6 45bd
00000150: 12bb 92bd 9ee2 343d 5e32 0f3f 0c98 903d
00000160: 8a4f a9bc 609c 70bd bfa6 723c 7160 683b
00000170: 7aaf 8a3c 319a 9b3c af28 4dbd a856 d6be
00000180: 9632 763d c19b 4a3f ee81 8ebb bdc4 ff3c
00000190: 5a6f b03f b21b 2fbe e08a 90bb 2a1a a73c
000001a0: 8149 673c ccfa 0dbe 0359 c2bc a5db 243f
000001b0: af26 0c3f 22b5 b83d ac8c 16bd 4b1a 053b
000001c0: b3a9 17bc 8769 43bd 0d6a 1cbe 06d4 3dbb
000001d0: a416 d9bd 68e7 9bbd bc6d 163b 131f e93c
000001e0: 4316 b4bc 33b8 ed3e e9fe 6fbd 300a b1bc
000001f0: fad1 29bc d6d8 ae3f af32 1fbc 7ba3 cc3c
00000200: 4c10 f33c 621e 23bd 2e15 a0bc f812 863c
00000210: 453b f5bc 268e 2d3c f968 21bd 5b6f 093f
00000220: d0a6 0cbb 4429 9d3b 10e4 bbbd cd25 dd3d
00000230: f499 09bf 032a dd3e c89c 78b9 1a43 233f
00000240: 931d 953f 20ac cdbc 8714 c7bc 7f0c d43d
00000250: e45a 1f3e d819 103e 3923 0f3f 4a2e b53c
00000260: 380e 353c d275 2ebd 776c 193c 0a9b 85ba
00000270: 454a b2bc 538f 753b e27e 2cbd daf3 7fbe
00000280: 8670 4ebd 6649 703f 28a2 2bbb b69a c0bc
00000290: d30a 943f 7ba0 79be 4652 c839 e6ff 7f3b
000002a0: 781f aa3c e455 ce3c 6d9c 53bb 3397 043f
000002b0: 22c7 113f b082 d73d 6342 45bd 08da be3c
000002c0: 5ad7 abbb 7412 87bc 24c3 babd f019 23b9
000002d0: fa00 6fba a4c7 fdbc 3a1f 433c 57a7 6dbc
000002e0: de3c be3c 8d86 473f b1e4 94bc 5b56 8a3d
000002f0: e051 6fbc 4201 c33f 076e 64bc 0e4e 03bd
00000300: 1e9e 51bd 7ede 5b3b 4caf 553c d955 b8bb
00000310: f95d b53b b65d 563d dd4c 493e ad22 213e
00000320: 0c04 f0bc f059 963b f9e5 b9bd 7011 c03e
00000330: d38c fdbe 29dc fb3e 1d96 01bc fb65 143f
00000340: 603c 803f a6db acbc ddde b4bc 18ff 19be
00000350: b154 463e 58f5 af3e 7674 c63e ec45 b43d
00000360: 4b5e ef3a f4f7 593e 9550 b33b 260f 56bc
00000370: 7f06 d93b a80a 52bc 3e04 0abd 909f 083e
00000380: a247 d23c d7d0 473f 59ea 8ebb 2b7f c73c
00000390: 2c32 873f 133c bbbd 459b 3d3b ef51 6b3b
000003a0: 885e 61bb 8ca8 17bd 36ab 75bb e24a 593e
000003b0: f2ba ee3e 4185 01be c606 7d3c 3bd3 09bc
000003c0: 160c c1bb 3a98 16bc 26e6 8c3e 090d fbbc
000003d0: bd5a 27bd a1a4 623e 0e0c 5a3b 2f4e d539
000003e0: c716 163d 30da 433f 14fb a23e f576 8b3e
000003f0: f867 80bc 5168 b53f eecf 7d3c 8058 573c
-0.013921518 -0.04355485 0.017119445 -0.004833082 0.030899487 0.016568055 0.6452983 0.43033487
-0.050346714 0.00061314576 -0.02081514 0.58373374 0.42526597 0.16361296 -0.002250618 0.45879158
0.043335292 -0.01985341 -0.0078030163 0.44549283 0.317783 0.28883564 0.57048863 0.03231015
0.030519616 0.011700751 0.0018923358 0.012844354 0.0059751016 0.052753855 -0.029250491 0.021428999
0.048798718 0.09948326 0.009527873 0.026702903 0.0015082674 0.27197173 -0.020855296 -0.0050765947
-0.0011233179 -0.12252295 -0.029481668 -0.012244957 0.52866507 0.20526883 0.08524519 -0.00549902
-0.026806403 0.002799746 0.37009203 -0.04240336 -0.07820612 0.2313842 -0.0030526617 0.0062317126
0.0017558753 -0.4343651 0.14613697 0.2735507 -0.013290985 -0.268202 0.0075991885 0.037685968
0.050175395 -0.095720105 -0.038097523 0.01513351 0.02122012 0.044152986 -0.004200231 0.5650566
-0.07804753 0.003461709 -0.1141721 0.18613164 -0.49408805 0.3341358 -0.0067534167 0.55193514
0.94808793 0.02817963 -0.0149364155 -0.0483158 -0.07164587 0.04416143 0.5593623 0.07060251
-0.02066781 -0.05874288 0.014810263 0.0035457874 0.016929377 0.018994423 -0.050087627 -0.41862988
0.060106836 0.7914391 -0.004348985 0.031221742 1.3783982 -0.17100409 -0.0044110864 0.020398218
0.014116646 -0.13865203 -0.023724085 0.6439765 0.54746526 0.09018923 -0.03675525 0.0020309861
-0.009256768 -0.04770806 -0.1527483 -0.0028965487 -0.106000215 -0.076124966 0.002295359 0.0284572
-0.021983271 0.46429595 -0.05859271 -0.021611303 -0.010365004 1.3659923 -0.009716674 0.024980297
0.029670857 -0.039823897 -0.01954135 0.016366467 -0.029935488 0.010592973 -0.03940675 0.5368554
-0.0021461733 0.004796179 -0.09174359 0.107982256 -0.5375054 0.43196115 -0.00023709529 0.63774264
1.164965 -0.02510649 -0.02430178 0.10353946 0.15562016 0.14072359 0.5591312 0.022116799
0.011050753 -0.04259283 0.009364239 -0.00101933 -0.02176393 0.003746946 -0.042113192 -0.24995366
-0.05040028 0.93862 -0.0026189182 -0.023511272 1.1565803 -0.24377625 0.0003820827 0.003906244
0.020766959 0.02518744 -0.0032289282 0.5179321 0.5694448 0.105229735 -0.048159014 0.023297325
-0.0052441778 -0.016488291 -0.09119251 -0.00015554554 -0.0009117272 -0.030978985 0.0119093 -0.014505229
0.023222383 0.77939683 -0.018175455 0.06754752 -0.014606923 1.5234759 -0.013942248 -0.03205686
-0.051176183 0.0033549364 0.013042282 -0.005625468 0.005534884 0.052335463 0.19658227 0.15735884
-0.029298805 0.004588358 -0.09077067 0.37513304 -0.49521503 0.49191406 -0.007909325 0.5796811
1.0018425 -0.02110083 -0.022078926 -0.15038717 0.19368245 0.3436687 0.38760728 0.08802399
0.0018262354 0.21285993 0.0054722526 -0.013065135 0.006623089 -0.012819923 -0.033695452 0.13342118
0.025668923 0.7805304 -0.0043614325 0.02435263 1.0562186 -0.091423176 0.002893166 0.003590699
-0.003438862 -0.037025973 -0.0037486083 0.21219972 0.46627003 -0.12648489 0.015443509 -0.008412178
-0.0058913333 -0.009191567 0.2751934 -0.030645864 -0.04085802 0.22133113 0.0033271345 0.00040684777
0.036642816 0.765048 0.31832182 0.27239195 -0.015674576 1.417246 0.015491469 0.013143659

body.4.bias f4 [4]
00000000: 4350 313e ba2f 4b3e bfba b13d 5033 d2bd
0.17315774 0.19842425 0.08678197 -0.10263693

body.0.weight f4 [64, 5]
00000000: f117 6a3f 43d6 453d 9ba0 fabe cc4d 92be
00000010: ae2f 91bb afcd 4e3f 0c7d 183f b338 d63f
00000020: 7031 06bd 0118 3a3f 9c2f d0be f4c1 b23e
00000030: 7208 c43e 5073 b4bd 64b0 86bd 5d60 883e
00000040: a58b 173f 2740 0a40 2911 4ebe 4cb1 823e
00000050: 10a2 823e cc56 1dbe ecb1 ad3e 399a 7ebe
00000060: 4afa 97be ed26 8f3b faee 843e 3914 f9bf
00000070: 2b68 13bd a584 4d3d d011 40be fe56 aebe
00000080: 3f26 a140 7ef9 ddbd 7d92 a0bb e91f a4bd
00000090: acb3 36bf 0a4c b640 26f0 7dbe 3e06 95be
000000a0: 9dbe 3a3e ec1f eebe 9c73 9b40 03ba 7abe
000000b0: b3e4 54be 2a0f aa3e 6217 96be d086 86be
000000c0: e834 2bbe 768d c0be d1f7 fe3f 7571 f63f
000000d0: 8977 68c0 0880 9a3d 9c53 8e3e 9742 9bbc
000000e0: 8ead 843e cb8a 543e af77 d5be 1dde e33a
000000f0: 4fa4 123f 7378 5c3f ceff 983f ff9d 30bd
00000100: 2f8f a6bd a918 483f 9cce 883e c87c 01c1
00000110: 5e1c 8b3e 670e 0fbf 4994 093f c693 853f
00000120: 1d5b 30bf 31e5 4dbd bb1e fbbd 739c d6be
00000130: 7821 b43d 7ce0 1dbe fcd1 2abe 2209 a5be
00000140: 6434 063e 8e8b ca3e 103d c0bd 02c9 91be
00000150: e37f d8be 68df 193f f737 203f 0b6d 6cbf
00000160: 7497 febe 16c9 743e ca68 a3be cc6c 993e
00000170: 229a 9d40 2dc5 1abe c9b4 c0be d5f6 54be
00000180: 4a76 db3e 44de b03e 9d75 6abe 636e cbbe
00000190: a2d3 4540 5210 f13f 34fe a9c0 ac8d 2bbe
000001a0: a614 413f 643e a0bc 9c99 1a3f 420c 0540
000001b0: c8fe 6cbe 7686 e23e 9470 193e 48a5 6cbd
000001c0: b4fb bcbd a42c 0dbe ce5a 52be d059 0e3d
000001d0: ddac acbe 70f1 36bd b617 54be 4afa 02be
000001e0: 2e09 50bd baaf b83d 78f1 3640 f160 05be
000001f0: 2419 8f3e 0575 1f40 82f3 1940 6344 c8c0
00000200: fde5 92bd 7e8e 603f b099 14bf e0e3 22bf
00000210: 7ce5 a940 35d5 57be 6f6a a3bd 7712 323f
00000220: 56c5 373f 80fc 773f bf3f a3bd 8c55 d6be
00000230: 3114 2ebf b6e4 9dbe 2295 5d40 d055 743d
00000240: 790a 79be 0ec8 c93f 4bfc 803f 1be4 22c0
00000250: 12ee 5abd 65f9 4c3f 6264 bf3f f079 d83e
00000260: 1dc6 dc3f 37a2 bfbd 71eb dc3e f42a 04bf
00000270: 1c8d 34bd ae29 4bbf 41dd 5a3e f7dd d9bd
00000280: f09f 8abd c496 a43e 80f9 dc3e 5059 8abe
00000290: 6438 cebe e572 443e 9cea 813e 5795 d2be
000002a0: ce78 a7be 19a1 bc3c baf3 cbbe 284a 173d
000002b0: 3e66 d5be 0030 97be bd75 b4be 6e88 a13e
000002c0: 61b2 113e 1e79 8a40 55ae 0ebd face 123f
000002d0: c6dc dbbe 1a5e 40be b7c1 c4be fe0e d0be
000002e0: 8ab7 9bbe 8422 c7bd 90ec 573e a0e7 7e3e
000002f0: 88e5 87bd c626 7fbe 7a52 bbbc f156 7bbe
00000300: 4499 8b40 07f2 51be 4a26 2cbe ebb5 9fbf
00000310: e798 84bf 6127 4740 a45e 783f c6b2 91be
00000320: 291f 663e c67d 82be aef4 9240 190c 4ebe
00000330: acef 73be b7ee 083e 175e 503e 6fd1 233e
00000340: 7c6a 9abe 54e3 8bbd cf04 90bf fd04 b6bf
00000350: cdf8 6a40 6c90 0a3d 1a1e d7be c45e ffbd
00000360: f429 433e c822 3fbe 004b a6be 8c90 cbbd
00000370: 58b2 333f a91e 0b3f fee0 6bbf e923 6cbe
00000380: 01cf 00bd d572 0f3f 776d 923d 648f 52bf
00000390: 0e07 27be 0356 cbbe de85 153f 31d7 11be
000003a0: d737 e63f 1f26 d5bd af45 303e da92 21bf
000003b0: af53 223e 61f4 6b40 7a25 2fbd 06af 053f
000003c0: acbb 333e ee25 293f 9f9f ab40 9dd8 93bd
000003d0: f8ca 4f3f 8775 763f c16f 8f3f ef94 443f
000003e0: f8b4 78bd e728 d33e 8654 45bc e694 e3be
000003f0: 12b6 9640 71db 63be 659a 44be dac7 283f
0.9144278 0.04830004 -0.48950657 -0.2857498 -0.0044307327 0.807826 0.59565806 1.6736053
-0.03276199 0.7269288 -0.40661323 0.349136 0.38287693 -0.088110566 -0.065766126 0.2663602
0.59197456 2.1601655 -0.20123734 0.25525892 0.2551427 -0.15365142 0.33924806 -0.24863519
-0.29683143 0.004368654 0.25963575 -1.9459296 -0.035988014 0.050175328 -0.18756795 -0.34050745
5.0359187 -0.108386025 -0.0049002753 -0.08013899 -0.7136791 5.696782 -0.2479864 -0.29106325
0.18236776 -0.4650873 4.8578625 -0.2448502 -0.20790367 0.33214694 -0.29314715 -0.2627473
-0.16719401 -0.37607926 1.9919378 1.9253374 -3.6322958 0.07543951 0.27798164 -0.018952651
0.25913662 0.2075607 -0.41692874 0.001738492 0.57281965 0.8612129 1.1953065 -0.043119427
-0.08132779 0.7816263 0.2672013 -8.092964 0.2717008 -0.5588135 0.5374189 1.0435722
-0.6888903 -0.050267402 -0.12261721 -0.41916236 0.08795446 -0.15417665 -0.16681665 -0.3223353
0.13105923 0.39559597 -0.09386647 -0.2847367 -0.4228507 0.60106516 0.62585396 -0.92353886
-0.49724925 0.23904833 -0.31915885 0.29965818 4.925065 -0.15114279 -0.37637928 -0.20797284
0.42863685 0.34544575 -0.22896428 -0.39732656 3.091042 1.8833106 -5.3122807 -0.16753262
0.7542213 -0.019561 0.6039064 2.0788732 -0.23144066 0.4424321 0.14984351 -0.057774812
-0.09227696 -0.1378656 -0.20542452 0.03475362 -0.33725634 -0.044663846 -0.2071217 -0.1279079
-0.050790004 0.09017892 2.858488 -0.13025261 0.27948868 2.4915173 2.4054875 -6.258348
-0.07172773 0.87717426 -0.5804701 -0.6362896 5.309263 -0.21077426 -0.07979285 0.69559425
0.71785486 0.9686966 -0.07971143 -0.41862142 -0.6799956 -0.30838555 3.4622273 0.05965215
-0.24320401 1.5764177 1.0076994 -2.5451725 -0.053449698 0.80068046 1.4952509 0.4228053
1.7247959 -0.09357112 0.43148378 -0.5162804 -0.044079885 -0.79360473 0.21373464 -0.106380396
-0.06768787 0.32146275 0.43159103 -0.27021265 -0.40277398 0.19184454 0.25374305 -0.41129562
-0.32709354 0.023026036 -0.39834386 0.036935955 -0.41679567 -0.2952881 -0.35246077 0.315494
0.14228202 4.327285 -0.034834225 0.5734707 -0.42941874 -0.18785897 -0.38429043 -0.40636438
-0.30413467 -0.0972338 0.21086335 0.24893045 -0.066355765 -0.24917135 -0.022866476 -0.24544884
4.362459 -0.20502482 -0.16811481 -1.2477392 -1.0359162 3.1117785 0.9701941 -0.28456706
0.22472824 -0.25486583 4.592368 -0.20121802 -0.23821896 0.13372312 0.20348392 0.15997861
-0.30159366 -0.06830469 -1.1251467 -1.4220272 3.6714356 0.033829138 -0.42015153 -0.12469247
0.19058973 -0.18665612 -0.32479095 -0.099396795 0.70194006 0.5434366 -0.92140186 -0.23060574
-0.031447414 0.56034595 0.07149785 -0.82250047 -0.16311285 -0.3971406 0.5840739 -0.14242245
1.7985791 -0.10407662 0.17214082 -0.631147 0.15852235 3.6867907 -0.04276035 0.5222019
0.1755206 0.660735 5.363235 -0.0721905 0.8116908 0.9627308 1.120598 0.76789755
-0.06071946 0.41242144 -0.012044078 -0.44449538 4.7097254 -0.22251679 -0.19199522 0.6592995

body.0.bias f4 [64]
00000000: 5758 633e a915 353f ba4e c0be 29fa 573f
00000010: e023 a0be 4456 3cbf 8462 cf3f dbf4 cf3f
00000020: b584 c43f 8a63 3cbe 66b6 343f 74a5 10be
00000030: ef0c 533f a58a f9be 8cde 253f caac c13e
00000040: c0ea 20bd 42e5 b7bd 74e5 a53f 3c3a b1bd
00000050: 2316 c73e 413e 3e3f 904b 4e3e e0a9 dd3d
00000060: 3d8f 763f 9677 3c3d a6e0 dd3f d2e9 543f
00000070: 70a4 3f3c c97c 853e 3ef5 923f 0e6f 77be
00000080: 9780 92be e632 e5be f003 613d cf50 b53f
00000090: f463 1f3e 207a 373d 938c 9f3f b811 ad3f
000000a0: 9d43 a33f 7c07 a13e 2a67 903f 9809 8ebd
000000b0: fc2f e33d 3de6 103f d6fb 8f3f 48f3 793f
000000c0: 6e26 b63f 0e79 903f 8b54 b13f 40ea b33f
000000d0: aea4 853f 41fd c23e e650 dcbe 4edd 823f
000000e0: 4e31 4f3f 40db c83e c912 bb3e bcbe 0b3f
000000f0: 20f0 ef3d 2014 c0be c0f6 28be c132 c33d
0.22201668 0.70736176 -0.37560064 0.8436609 -0.3127737 -0.7356913 1.620194 1.6246599
1.5352999 -0.18397346 0.7059082 -0.14125615 0.8244161 -0.4873859 0.64792705 0.3782714
-0.039286375 -0.08979274 1.2960649 -0.086536855 0.38884076 0.7431374 0.20146012 0.10823417
0.96312314 0.046012484 1.7334182 0.8316928 0.01169692 0.26071766 1.1481092 -0.24163458
-0.2861373 -0.44765395 0.054935396 1.4165286 0.15565473 0.0447942 1.2464775 1.3521032
1.2755009 0.31451023 1.1281483 -0.069354236 0.11093137 0.56601316 1.1248729 0.9763684
1.4230478 1.1286943 1.3853925 1.4055862 1.0440881 0.38083842 -0.4303047 1.0223787
0.8093461 0.39229774 0.3653777 0.5458791 0.11715722 -0.37515354 -0.16500378 0.09531165

body.2.weight f4 [64, 64]
00000000: 140f 9fbc 7cb3 bbbd 4059 633b 4313 003c
00000010: 26d1 a6bd 80c9 85be 61f3 5d3e d3df b6bd
00000020: 0c76 e63d 30be bcbc 0987 a5bd 2839 c43c
00000030: 6592 a23c dd0b 0bbe ab9d 33be f861 88bc
00000040: 7adf 853d cbab 483d 6679 be3d 905f c4bc
00000050: 569b 7a3d 4fba 043e a80d a3bd 3044 cdbd
00000060: 5b9e 633d f766 eabd 4906 093e b2f2 ebbd
00000070: bb18 f4bd abf8 f9bd d8ae adbd 421a 7ebd
00000080: 0419 13bd 68f0 f3bd 0c9c 7c3d fa30 6abe
00000090: 3c3d db3d 907b 473c ab7c 263e e58e 47be
000000a0: 080d 273d e03a e73c 3cfe 0abe 62e2 e5bd
000000b0: b52e 1cbc 4d06 593b 30ba ac3c 850b 1cbd
000000c0: 23af 59be bfac 283c 310b 2c3e 0588 23be
000000d0: 594d 86bc 6058 f13d adfc 5bbc ee5f e5bd
000000e0: bfdb 123c ac84 913d 0316 28bd 01c7 c43d
000000f0: f826 413d 70cc c23d 4063 40bd f27f a2bc
00000100: ca2e a23d d4e0 fd3d 40b6 78bc d36a 96be
00000110: fce3 c03d 93b4 8b3c dd20 91be f704 13bf
00000120: b334 4cbf 9088 e53c 4916 5a3f f625 fa3b
00000130: 822b abbc 1459 c83e df64 3e3f c03d 4a3b
00000140: 2ecd bfbd 1f0a 7bbe 25e6 22bf a424 783d
00000150: 75e8 eb3e 67ca f4be 4672 843d 883c e03c
00000160: b9d7 a0bd 713f 093f 38a6 c3be eebe dbbe
00000170: db9d 4b3c 699d aa3e 7eab c33d c432 913c
00000180: 78a4 613d 6ebd afbd c83d c23d 9b70 f03c
00000190: 6065 60bd 9218 e4bd 3cdf 3dbf b540 b13b
000001a0: 0119 113c d6f0 ddbd f8a9 8a3e cac3 d03d
000001b0: 71b3 f13d 3c51 b23e 68d6 8fbe 9ece 00bf
000001c0: ed5a 223d 676a 4bbd 9dc7 50bf a7af 2ebe
000001d0: 7137 12bf 96d7 33be 94ac c33d 7bae f8be
000001e0: 0814 babe 82db a83b c04b 803e 5dfd d3be
000001f0: 3dda 893e a80f c83c 7cee a0bd 7c36 a03d
00000200: e772 7cbd 25c8 31bd a8c5 f3bc 7a09 d43d
00000210: 80e0 e23b f5b7 72be aee8 ae3d 508d bebd
00000220: 247f 26bc c8d8 d1bd 475b 08bd 863a d53d
00000230: 6097 9bbd 18be 81bd 4217 db3c dcf9 c73d
00000240: 7416 cb3d 85d2 283e 878e 2bbd 8e3d a23d
00000250: 4226 8bbb b336 c63d 0864 2fbd 66e3 f8bd
00000260: 47ed ffbc 678b 18bd a94b e83d 51f9 9a3d
00000270: 20af 153c 1699 573d 5651 c9bd dfc3 f8bd
00000280: f601 973d e580 cdbd 9443 013d 6464 38be
00000290: 402a a73d 6883 b2bc 3b7a 743e f70b f9bc
000002a0: 55f9 fabd 3009 b1bc 71c8 513d e88a d6bc
000002b0: bf75 18be e958 1ebe 6ae5 123e c022 31be
000002c0: 1f8c dfbe 3424 6e3d db25 3d3e 1a86 1bbd
000002d0: 3761 8f3a 0d94 a73d 65a7 1bbd 1241 efbd
000002e0: bb8a 6bbd 18ad 7dbd ece4 0e3e ff67 003e
000002f0: d499 87bd 5018 453d b8d0 d3bd a41d eabd
00000300: 8409 c6be 2cf5 613e a067 d73d 0f13 a2bd
00000310: 68ef 64bd 964f 4abe a85e 173d 8d70 1bbf
00000320: a260 20bf 96e5 fd3d 7090 f83e 6284 9ebc
00000330: ebd0 d5bd 4478 5c3e 8b44 1a3e ea7e f8bd
00000340: 940c cbbd b00b dcbe 8d38 1fbf f06d a63d
00000350: 8c72 ab3e 634d 92bd 7c8e f2bd f686 b2bd
00000360: 46f4 65bd 88e0 cb3e e8cd 78be ab5a bfbe
00000370: 61da 113e d10a 8b3e d092 d73d a3fb 4b3e
00000380: b828 82bd fc37 f3bd 000e c63a 4384 25bd
00000390: 065a 913d 90ac 1c3c d7dd a1be f0ec 033e
000003a0: 0152 9ebe 04b1 aa3d aab1 433e 7843 dbbc
000003b0: 4f27 4fbd 1d91 a73d 5b5b 6abe dd7e 96be
000003c0: 6987 2bbe 1ddb dfbd f078 91be 95a2 9abe
000003d0: ff21 07bf bee7 97bb 2e6b cd3d 4098 dbbe
000003e0: 7603 cfbe bc1b 5ebd 7ffc fa3d ffb4 e8be
000003f0: 2139 9c3d 3233 fe3d 0831 dbbd d185 8fbe
-0.01941637 -0.09165093 0.0034690648 0.007817092 -0.08145361 -0.26130295 0.21674873 -0.0892941
0.112529844 -0.023039907 -0.080823965 0.023953035 0.019845197 -0.13578744 -0.17540614 -0.016648278
0.065367654 0.04899196 0.09300499 -0.023971349 0.061183296 0.12961696 -0.07961589 -0.10022771
0.05557094 -0.1144542 0.13381304 -0.115209 -0.119187795 -0.12205633 -0.084806144 -0.06203676
-0.03591253 -0.11911088 0.061672255 -0.22870246 0.10705039 0.012175456 0.16258495 -0.19488104
0.040783912 0.028226316 -0.13573545 -0.1122482 -0.00953262 0.0033115328 0.021084875 -0.038096923
-0.21258216 0.010295092 0.16801144 -0.15969856 -0.016394304 0.11784434 -0.013426942 -0.11199938
0.008963524 0.07105383 -0.041036617 0.096082695 0.047156304 0.095116496 -0.046969652 -0.0198364
0.079190806 0.12396398 -0.015180171 -0.29378375 0.094184846 0.017053878 -0.28345385 -0.5742945
-0.7976791 0.02801922 0.85190254 0.00763392 -0.02089477 0.3913046 0.7437267 0.003085956
-0.09365307 -0.2451558 -0.6363242 0.06058182 0.46075788 -0.4781067 0.064671084 0.027372614
-0.07853646 0.5361243 -0.38212752 -0.42919105 0.012427772 0.3332322 0.09554194 0.017724402
0.05508849 -0.08581053 0.0948444 0.02935057 -0.05478418 -0.11137499 -0.74168754 0.005409325
0.008856059 -0.108369514 0.270828 0.10193594 0.11801804 0.34827602 -0.28093266 -0.5031527
0.039637495 -0.04966202 -0.81554586 -0.17059194 -0.57115847 -0.17562708 0.09554401 -0.48570618
-0.36343408 0.0051531205 0.25057793 -0.41404238 0.26924315 0.024421528 -0.07857987 0.07822892
-0.061633017 -0.043403763 -0.029757336 0.1035337 0.006923735 -0.23702987 0.08540474 -0.09304297
-0.010162149 -0.10246426 -0.033290174 0.10411553 -0.07597232 -0.06335086 0.026744489 0.09764454
0.09916392 0.16486557 -0.04188397 0.07921897 -0.004246504 0.09678402 -0.042820007 -0.12152748
-0.031241072 -0.03724232 0.11342556 0.075670846 0.009135991 0.05263623 -0.09829967 -0.121467344
0.07373421 -0.1003435 0.03155859 -0.18007046 0.081623554 -0.021791175 0.23874752 -0.030401213
-0.122545876 -0.021610826 0.051216546 -0.026189283 -0.14888667 -0.15463604 0.14345327 -0.17298412
-0.4366159 0.058139995 0.18471472 -0.037969686 0.0010939006 0.08182535 -0.038001437 -0.11682333
-0.05750535 -0.061932653 0.13954514 0.12539671 -0.06621137 0.04811889 -0.10342544 -0.11431435
-0.38679135 0.22066182 0.10517812 -0.079137914 -0.055892378 -0.19756922 0.036955506 -0.60718614
-0.6264745 0.12397306 0.48547697 -0.019350234 -0.104402386 0.21530253 0.1506521 -0.12133582
-0.099145085 -0.42977667 -0.62195665 0.08126438 0.3348583 -0.071436666 -0.11843583 -0.08717148
-0.05614116 0.3981974 -0.24297297 -0.37373862 0.14243461 0.2715669 0.10526049 0.1992021
-0.06355423 -0.118759125 0.0015110373 -0.040409338 0.07097249 0.0095626265 -0.31614563 0.12883353
-0.3092194 0.08334544 0.19110742 -0.02676557 -0.050574597 0.08181975 -0.22886412 -0.29393664
-0.16750874 -0.109304644 -0.2841258 -0.30202165 -0.5278625 -0.00463578 0.100302085 -0.42889595
-0.40432328 -0.05422567 0.12255191 -0.4545059 0.07628084 0.124121085 -0.10702711 -0.2803178

body.2.bias f4 [64]
00000000: 8174 f23d 1260 8b3e 61b2 c23d 084f 2d3f
00000010: 7be0 e3bd 8e0c a03f 8051 ad3f 6965 a23f
00000020: 38df 43bd 4a59 593f 9228 96bd b83c 1439
00000030: 0dae 9a3f ceaf ea3d 54d6 6d3f b66a bd3f
00000040: b770 84be e6de 123f 6f7b 873e dd2c e0be
00000050: b215 a73f 10f0 78be b3a9 a83d c19e c73e
00000060: 2dce 19bd 4458 0d3f 3209 693b be87 1dbe
00000070: 9bf5 76be 2cb7 903f 3826 6b3f b50e e6be
00000080: 828b e4bd 2d83 d83d a835 6f3f 0f77 8ebe
00000090: 2aad 06be 19e6 343c 783a a43f 4e52 ac3f
000000a0: cd66 b43d 74d8 5f3f ff33 29bf 46d4 d3be
000000b0: 5fa9 993f c04c a13f bfc1 f5ba c5f6 e33d
000000c0: c075 91bc b133 f03d 4b15 9e3d bcc9 06be
000000d0: 6686 a63f ff6b 4d3e 7434 7bbd 2d36 b7bb
000000e0: fac4 61be 80ff f3bb e1ab 9f3e 791a df3d
000000f0: d765 383e 7821 36be e5da 4c3e 07b0 05bf
0.118386276 0.27221733 0.09506679 0.6769872 -0.111268006 1.2503831 1.3540497 1.2687198
-0.0478203 0.8490187 -0.07331957 0.00014137 1.2084366 0.11459313 0.92905164 1.479819
-0.25867245 0.57371366 0.2646136 -0.43784228 1.3053496 -0.24310327 0.082354926 0.38988307
-0.03755014 0.5521281 0.003555846 -0.15383813 -0.24117129 1.13059 0.9185519 -0.44933096
-0.111594215 0.10571895 0.9344125 -0.2782521 -0.13151994 0.011041188 1.2830343 1.3462617
0.0880867 0.87439656 -0.66094965 -0.4137289 1.2004813 1.2601547 -0.0018749757 0.11131052
-0.017756343 0.11728609 0.07718905 -0.13162893 1.3009765 0.20060728 -0.06132932 -0.005591175
-0.22047797 -0.0074462295 0.3118582 0.10893721 0.18007599 -0.17786205 0.20005377 -0.5222172

body.4.weight f4 [1, 64]
00000000: caa6 09be 9797 a7be c2f1 69bd d60b abbe
00000010: 6a84 65bd 7e8e c03e 04cc c63e 832a 033f
00000020: 2ce7 23bd 75f5 4d3f 00fb 1a3c 0a6c 643d
00000030: 2d62 ca3e dcc5 f33d fb77 0c3f 1197 913f
00000040: b87e 71bf 3d5b cbbe de08 e33d 07de 29be
00000050: fca0 d43e 7cf7 5ebf 8f89 8b3d 4e3b 793f
00000060: 9c1c 213f fc2f 0abf 1fc4 9d3e 093e 4ebd
00000070: ba66 90bf 2f6b af3e b8fe 8c3f a2fa 24bf
00000080: 89a8 a1bc ae10 33bd bcfe 233f 09d5 2bbf
00000090: 9ff2 a13b 7674 07bd dcab d73e 6d77 ec3e
000000a0: 573a e03b 156c f23e 52a0 c0be 0361 e8be
000000b0: 749b c03e f44b 9c3e a042 b6bd 3eb7 2ebe
000000c0: 0650 bb3d 87cb 9dbd 7b39 87bb 8181 76bf
000000d0: b767 e13e 6848 42be d86c 063d 7a4e c9bc
000000e0: 0e36 86be e30e 0fbd 147e 083f c294 10be
000000f0: 22e3 22bf ec26 62bf 1e62 44bd 9076 31bf
-0.13442531 -0.3273284 -0.057115324 -0.33407468 -0.056034483 0.37608713 0.38827527 0.5123674
-0.040015385 0.8045266 0.009459257 0.055767097 0.39528027 0.11902973 0.54870576 1.1374227
-0.9433398 -0.39718047 0.11085676 -0.16588603 0.4152907 -0.8709638 0.068133466 0.97356117
0.6293428 -0.5397947 0.3081369 -0.05035213 -1.128135 0.34261462 1.1015234 -0.64444935
-0.019733684 -0.04371708 0.6406057 -0.6712194 0.0049422528 -0.03307005 0.42123306 0.46184865
0.006842892 0.47348085 -0.37622315 -0.45386514 0.376186 0.30526698 -0.088994265 -0.17062089
0.09146123 -0.077048354 -0.0041267253 -0.9629136 0.4402444 -0.18972933 0.032818645 -0.024573553
-0.26213115 -0.034926306 0.5331738 -0.14119247 -0.6362783 -0.8834064 -0.047945134 -0.69321537
