ppo_model_best.pt (torch, 42467 bytes, 11 tensors)

net.0.weight f4 [64, 5]
0.14325613 -0.011353016 0.3439288 -0.34863585 -0.2485501 0.23044857 -0.24207273 -0.14638287
0.4010777 -0.098915145 -0.18636224 -0.25855553 -0.30472243 -0.43648115 -0.42027462 -0.07849894
0.12411147 -0.24435425 -0.19001897 0.049692944 -0.21036252 0.002508468 0.37603784 0.039449926
-0.062128678 0.057527713 0.21726467 0.2840041 0.15505064 0.117960535 -0.15372723 0.15728033
-0.2611293 -0.10613531 -0.24208319 0.11988805 -0.22245224 -0.21520106 0.39824465 0.39360473
-0.010113329 0.05073178 -0.41704047 -0.44169608 -0.16303682 -0.39161402 0.37142038 -0.20438248
-0.29952875 -0.13744092 -0.1570316 -0.059267532 0.3272224 0.27787992 -0.035119895 -0.057951678
-0.032505933 -0.3658813 0.12524745 0.2674514 -0.04916301 -0.054545 0.3449594 -0.105652355
0.419113 -0.23656003 -0.24095322 0.2309237 0.26220667 0.15720804 0.08708859 0.0356934
0.13458318 0.22112973 -0.34398693 0.27360484 0.28725597 -0.38967574 0.04240728 0.08412277
-0.34064505 -0.08036853 0.3746304 0.076383404 -0.36950332 0.021533497 0.39998376 0.12503316
0.18380022 -0.13300954 -0.009022683 -0.23657009 0.23398662 -0.2949134 -0.09749153 0.37629518
-0.39029846 -0.25724885 0.2536257 -0.13182276 -0.113424964 0.26859117 0.3037601 0.08766157
0.2526065 -0.088724725 0.26099253 0.15398179 -0.10857628 0.33924192 0.10885694 0.3779961
0.44217193 -0.05935391 0.35669062 0.4033761 -0.16855128 0.37946084 0.23130272 -0.04323797
-0.15157022 -0.48496914 0.12523477 0.33143783 -0.1469799 0.0003208816 -0.4298513 -0.39459816
-0.12665564 -0.43285742 0.13268368 -0.2267993 -0.16496997 0.057763454 -0.28361273 0.04536759
-0.30489358 -0.29752973 -0.118889004 0.12631232 0.027270257 -0.40979484 -0.3156392 -0.08017817
-0.04451421 0.08459023 -0.2477408 -0.0404647 -0.21282318 0.19143763 0.3955974 0.004157416
0.31755456 -0.19504996 0.21951753 -0.36818725 0.12716226 0.116118595 0.11540837 -0.3661818
0.42634067 0.1381693 -0.2553061 0.1651834 -0.34701058 -0.36352983 0.1979894 -0.08614155
0.37532935 -0.2837144 -0.22710885 -0.21851552 -0.34793875 -0.25751263 0.0061731767 0.15336996
0.38955477 -0.07726112 -0.35903418 0.09163067 -0.29312062 -0.092566416 0.20716399 0.35108092
-0.42045596 0.26736295 -0.14453495 -0.06294012 -0.073177725 -0.41383517 -0.132349 -0.34259605
0.17464569 -0.106914766 0.41839507 0.14097314 -0.11299712 0.23269428 0.16104925 -0.23231366
-0.03880327 0.51323605 0.030781332 0.0028903373 0.21005426 -0.210099 -0.22439332 0.26305082
-0.44209677 0.3287518 0.14161849 0.12416932 -0.20210429 -0.07262842 0.38023767 -0.045215312
0.19908507 0.43072522 -0.03198367 -0.13076738 -0.121377915 0.032349944 -0.13331196 -0.15680784
-0.10312766 -0.062038407 -0.17250156 -0.314525 -0.26019216 0.06381677 0.088250384 0.13007642
-0.3601671 0.2096617 -0.12209734 0.30320078 0.058450487 0.10575782 -0.04778264 0.4448306
0.2846872 0.3747193 0.025904493 0.21335666 -0.34975952 -0.25969404 -0.06587949 0.2595898
0.18873888 0.084710225 -0.21042432 0.47375092 -0.08345662 0.31085822 0.15246421 -0.31712547
00000000: bcb1 123e 0002 3abc 7017 b03e 6680 b2be
00000010: eb83 7ebe b6fa 6b3e eae1 77be 64e5 15be
00000020: 0e5a cd3e 0694 cabd bed5 3ebe 6461 84be
00000030: 9404 9cbe 757a dfbe 3c2e d7be 0dc4 a0bd
00000040: 282e fe3d 0038 7abe 5594 42be d48a 4b3d
00000050: 4669 57be 1c65 243b 0888 c03e 3f96 213d
00000060: a47a 7ebd 2ea2 6b3d a17a 5e3e fc68 913e
00000070: 98c5 1e3e 4b95 f13d ac6a 1dbe 180e 213e
00000080: bdb2 85be 785d d9bd a8e4 77be de87 f53d
00000090: 85ca 63be ab5d 5cbe b9e6 cb3e 8f86 c93e
000000a0: 60b2 25bc 20cc 4f3d 5486 d5be fd25 e2be
000000b0: 20f3 26be a281 c8be d02a be3e a449 51be
000000c0: d55b 99be 50bd 0cbe e4cc 20be 83c2 72bd
000000d0: b289 a73e 4746 8e3e e1d9 0fbd bd5e 6dbd
000000e0: f124 05bd cb54 bbbe de40 003e 64ef 883e
000000f0: 275f 49bd 946a 5fbd 859e b03e 4360 d8bd
00000100: fb95 d63e cb3c 72be 71bc 76be 4377 6c3e
00000110: f43f 863e 25fb 203e 815b b23d 3e33 123d
00000120: 2cd0 093e d56f 623e 0e1f b0be ef15 8c3e
00000130: 3713 933e 9483 c7be 42b3 2d3d 8f48 ac3d
00000140: 0769 aebe 4198 a4bd 8ecf bf3e e76e 9c3d
00000150: 8a2f bdbe 0467 b03c acca cc3e b108 003e
00000160: 2036 3c3e a733 08be e0d3 13bc 6e3f 72be
00000170: 309a 6f3e e4fe 96be a4a9 c7bd c3a9 c03e
00000180: 33d5 c7be 1fb6 83be 3adb 813e 8cfc 06be
00000190: 594b e8bd c884 893e 7286 9b3e e987 b33d
000001a0: a455 813e 4fb5 b5bd d0a0 853e 67ad 1d3e
000001b0: 3e5d debd 1eb1 ad3e 63f0 de3d b488 c13e
000001c0: 5c64 e23e 161d 73bd 27a0 b63e 5087 ce3e
000001d0: b598 2cbe b148 c23e 9fda 6c3e 4c1a 31bd
000001e0: 3935 1bbe e04d f8be 8b3d 003e 38b2 a93e
000001f0: e681 16be 003c a839 7815 dcbe c508 cabe
00000200: 04b2 01be 7d9f ddbe 3bde 073e 133e 68be
00000210: e3ed 28be 5f99 6c3d b035 91be 5ed3 393d
00000220: 031b 9cbe d155 98be 147c f3bd 0458 013e
00000230: e065 df3c a1d0 d1be 769b a1be 7434 a4bd
00000240: 8854 36bd a43d ad3d c4af 7dbe 50be 25bd
00000250: 52ee 59be 3a08 443e be8b ca3e ef3a 883b
00000260: 8396 a23e 2dbb 47be 34c9 603e 0a83 bcbe
00000270: d336 023e 96cf ed3d 395b ec3d 2e7c bbbe
00000280: 5349 da3e 417c 0d3e 7bb7 82be d625 293e
00000290: 5fab b1be 9520 babe bcbd 4a3e fb6a b0bd
000002a0: 2b2b c03e 0443 91be 398f 68be 88c2 5fbe
000002b0: 0725 b2be b2d8 83be 5c48 ca3b 040d 1d3e
000002c0: b973 c73e 143b 9ebd 54d3 b7be dca8 bb3d
000002d0: e813 96be 7693 bdbd cc22 543e e1c0 b33e
000002e0: 0146 d7be cce3 883e f800 14be c0e6 80bd
000002f0: 34de 95bd 34e2 d3be 7f86 07be c068 afbe
00000300: 52d6 323e 21f6 dabd e137 d63e 435b 103e
00000310: 096b e7bd 6947 6e3e 18ea 243e a2e3 6dbe
00000320: 2df0 1ebd 7063 033f 2229 fc3c d06b 3d3b
00000330: 7718 573e 3124 57be 5dc7 65be 99ae 863e
00000340: 825a e2be 2852 a83e 7004 113e 7c4c fe3d
00000350: 6df4 4ebe 36be 94bd 83ae c23e b133 39bd
00000360: f5dc 4b3e 0488 dc3e 4f01 03bd e2e7 05be
00000370: fc94 f8bd 6081 043d ee82 08be 3c92 20be
00000380: 9834 d3bd fc1b 7ebd 40a4 30be 6c09 a1be
00000390: e837 85be 5eb2 823d 9ebc b43d c132 053e
000003a0: d267 b8be 8fb1 563e 2c0e fabd 223d 9b3e
000003b0: c769 6f3d 8e97 d83d bbb7 43bd d6c0 e33e
000003c0: 85c2 913e 35db bf3e a935 d43c 2b7a 5a3e
000003d0: ae13 b3be 9ef6 84be d3eb 86bd f4e8 843e
000003e0: c444 413e 8e7c ad3d 7979 57be 7b8f f23e
000003f0: 4eeb aabd cf28 9f3e 941f 1c3e 455e a2be

net.0.bias f4 [64]
-0.075484574 -0.3388672 0.38652712 0.067998864 -0.242644 -0.19755132 -0.09762815 -0.3949922
-0.24526118 -0.0079601705 -0.18903746 0.4182479 0.45092034 -0.34167296 0.046238177 -0.39449608
-0.008769332 0.144104 0.0072658956 0.03165672 0.16451189 -0.30493078 0.45951438 -0.4760678
-0.3699304 0.278854 0.39017773 0.20716919 0.23896271 -0.07369695 -0.17921604 -0.28290442
0.12055308 -0.3380698 -0.3018587 0.34483573 -0.007911283 0.014184356 -0.22626024 0.32918972
0.084956214 0.009785706 0.47122103 0.14765276 0.22907454 0.38828138 -0.34797758 0.10289908
-0.41571817 0.35969344 -0.37374607 -0.44403756 -0.20711237 0.055165023 0.23261611 0.12589706
-0.40655568 -0.023874875 0.0076313587 -0.113820285 0.21012935 -0.124714345 0.27159876 -0.46009633
00000000: a897 9abd 0080 adbe e2e6 c53e fd42 8b3d
00000010: ab77 78be e54a 4abe 44f1 c7bd 6b3c cabe
00000020: bf25 7bbe 606b 02bc 0993 41be 9724 d63e
00000030: 08df e63e c2ef aebe 3e64 3d3d 64fb c9be
00000040: 3fad 0fbc 0090 133e c016 ee3b 7aaa 013d
00000050: ce75 283e e31f 9cbe 7845 eb3e 29bf f3be
00000060: 8467 bdbe f4c5 8e3e 60c5 c73e 2924 543e
00000070: a4b2 743e 6dee 96bd 6984 37be d9d8 90be
00000080: 89e4 f63d 7c17 adbe 398d 9abe 4f8e b03e
00000090: 539e 01bc 8065 683c c4b0 67be 8e8b a83e
000000a0: 86fd ad3d 3a54 203c e243 f13e 4932 173e
000000b0: 8492 6a3e d1cc c63e 1e2a b2be c1bc d23d
000000c0: 03d9 d4be bd29 b83e a55b bfbe e458 e3be
000000d0: 4415 54be b8f4 613d eb32 6e3e 29eb 003e
000000e0: 1128 d0be 3e95 c3bc 7a10 fa3b 9c1a e9bd
000000f0: 262c 573e 3c6a ffbd fe0e 8b3e bf91 ebbe

net.2.weight f4 [64, 64]
-0.048461303 -0.023143753 0.079449534 0.073100746 -0.031406272 0.11705307 0.08412282 0.006539869
0.02023013 -0.0561219 0.009765848 0.010846668 0.045943215 0.11865679 0.07980433 -0.05716827
0.091538824 0.007813164 0.115254015 -0.003808829 0.022533268 0.11584532 -0.056129396 -0.04825514
-0.042826418 -0.08001368 0.08554028 -0.042530257 -0.036454305 -0.012109183 -0.1258161 0.098165534
-0.10379849 0.076538555 -0.05238059 -0.057929553 0.13837704 0.10848631 -0.015868952 -0.004198333
0.12773202 -0.10975976 0.16267371 0.01068009 -0.023916721 0.0933096 -0.07128145 0.11534635
0.10519803 -0.09203605 0.13895062 0.13957465 0.06257969 -0.03563928 -0.047573507 0.118191056
-0.00079623726 0.13819773 -0.10541925 0.11609687 -0.035971157 0.00893034 0.088236794 0.09375194
-0.06464532 0.09708926 -0.05518064 -0.09551744 0.021627754 0.0054315627 0.11046982 -0.11082366
-0.07193741 0.051938966 -0.092096165 -0.05809565 -0.057098165 0.088010564 0.090050265 -0.12044977
-0.10629018 -0.10300413 0.0025879145 -0.03008838 0.011674508 -0.016098186 -0.11860052 0.06954788
-0.0027849823 0.0014351457 0.074842796 0.09423369 0.1135373 -0.06604153 0.049780637 -0.06970726
0.020633146 -0.08215526 0.10698445 -0.07422951 0.0920323 0.056866348 -0.06671649 0.020252585
-0.0037884414 0.06728187 0.097793475 -0.06672566 -0.09202139 -0.09647012 -0.10727674 0.07824944
-0.052172184 -0.0958537 -0.049753338 0.018320233 0.093031555 0.102477625 0.05533141 -0.06946041
-0.043673232 0.07675524 -0.029305577 0.040029302 -0.024505734 0.01006484 -0.122405246 0.044453412
0.0026203543 -0.047510773 0.032938704 0.051386017 0.028730934 -0.013545783 -0.12439118 0.08625098
-0.116983086 -0.07578823 0.017540313 0.0152914245 0.08366673 0.07652415 0.02409184 -0.103462696
-0.14815858 -0.1201343 0.09001714 -0.09316451 0.08218769 0.08675393 -0.019976206 -0.07982941
0.10215281 0.054102585 -0.075787485 0.09130127 -0.020862669 -0.068095416 -0.12636398 -0.072973624
-0.11244952 -0.04849 0.01501074 -0.06423375 0.0016836238 0.121433154 0.061635572 -0.12500064
0.11229715 -0.08145572 -0.06530704 0.12613903 -0.002300933 -0.013479348 -0.11415943 -0.06534186
0.079622835 0.12718816 0.120985 -0.027637048 -0.066648394 -0.119859956 0.10086093 0.096987836
0.06113814 -0.08675632 -0.05716036 -0.0048577487 0.0474364 -0.06770438 0.10029863 0.07402739
-0.10580085 -0.05571111 -0.10443044 -0.07310013 -0.11721904 0.0032056351 0.0396837 0.06894926
0.027500555 0.004262522 -0.020406086 -0.014682976 -0.026567452 -0.04147279 -0.014609163 0.06227374
0.07110701 -0.032829504 -0.0976523 0.012036134 0.120799 0.05692785 -0.033218276 -0.10641866
0.023533083 0.04187095 -0.06831309 -0.098444246 0.08675894 -0.09170742 0.012241767 -0.054776818
-0.092482276 0.03484686 0.07390536 -0.11183919 0.056167115 -0.0063350797 0.08657931 -0.041021403
0.09291935 0.008073738 0.06713498 -0.09999983 0.069985 -0.10807958 0.03197813 -0.10346904
0.081752494 0.049153145 -0.048724215 0.087994054 0.07408397 0.12032106 -0.047214735 -0.11404454
-0.07215292 0.026510535 0.051794276 0.11295472 0.0893708 0.081407085 -0.082814425 -0.03673652
00000000: 5c7f 46bd f897 bdbc 70b6 a23d d8b5 953d
00000010: dda3 00bd 85b9 ef3d 9648 ac3d 664c d63b
00000020: a8b9 a53c 14e0 65bd ef00 203c 39b6 313c
00000030: f42e 3c3d 5502 f33d 7470 a33d 4729 6abd
00000040: b578 bb3d c902 003c 4c0a ec3d 8c9d 79bb
00000050: b097 b83c 5040 ed3d f0e7 65bd 2fa7 45bd
00000060: c16a 2fbd 36de a3bd be2f af3d 3534 2ebd
00000070: 1c51 15bd 9865 46bc f0d5 00be 030b c93d
00000080: 4d94 d4bd 3fc0 9c3d 088d 56bd 8a47 6dbd
00000090: b6b2 0d3e 122e de3d 9bff 81bc 2b92 89bb
000000a0: 2fcc 023e bac9 e0bd f093 263e 8bfb 2e3c
000000b0: 00ed c3bc 1b19 bf3d 02fc 91bd b53a ec3d
000000c0: 1172 d73d 667d bcbd 1249 0e3e a8ec 0e3e
000000d0: c829 803d 7efa 11bd 70dc 42bd 270e f23d
000000e0: 94ba 50ba b583 0d3e 0ce6 d7bd 32c4 ed3d
000000f0: 7e56 13bd 9050 123c 7eb5 b43d 0401 c03d
00000100: c464 84bd bcd6 c63d 1805 62bd a69e c3bd
00000110: b02c b13c 40fb b13b 003e e23d 84f7 e2bd
00000120: ec53 93bd f4bd 543d ea9c bcbd b4f5 6dbd
00000130: c4df 69bd e23e b43d 466c b83d 5eae f6bd
00000140: aaae d9bd d4f3 d2bd 009a 293b e87b f6bc
00000150: 7046 3f3c 58e0 83bc d4e4 f2bd 1e6f 8e3d
00000160: 4084 36bb 801b bc3a 2e47 993d 98fd c03d
00000170: 3e86 e83d c840 87bd c8e6 4b3d aec2 8ebd
00000180: d806 a93c 0441 a8bd aa1a db3d a405 98bd
00000190: 6e7b bc3d b0ec 683d a8a2 88bd c0e8 a53c
000001a0: 8047 78bb 14cb 893d f247 c83d 76a7 88bd
000001b0: b675 bcbd 2092 c5bd e8b3 dbbd 3e41 a03d
000001c0: 80b2 55bd f24e c4bd 28ca 4bbd 5014 963c
000001d0: 5487 be3d cadf d13d 30a3 623d 4241 8ebd
000001e0: b4e2 32bd da31 9d3d 4012 f0bc c4f5 233d
000001f0: 40c0 c8bc 00e7 243c 9aaf fabd c814 363d
00000200: 40ba 2b3b a89a 42bd bcea 063d 257a 523d
00000210: 235d eb3c 22ef 5dbc cec0 febd 5ba4 b03d
00000220: d494 efbd dc36 9bbd b4b0 8f3c e288 7a3c
00000230: 7659 ab3d b2b8 9c3d 405c c53c 40e4 d3bd
00000240: e2b6 17be f908 f6bd e85a b83d 09cd bebd
00000250: 0552 a83d 0bac b13d 24a5 a3bc 9a7d a3bd
00000260: 7e35 d13d ac9a 5d3d 7836 9bbd 29fc ba3d
00000270: 30e8 aabc 9c75 8bbd 8f65 01be 3273 95bd
00000280: ef4b e6bd 739d 46bd 9bef 753c fc8c 83bd
00000290: 0aad dc3a f2b1 f83d 9575 7c3d 2b00 00be
000002a0: 0cfc e53d 42d2 a6bd b3bf 85bd 972a 013e
000002b0: 40cb 16bb 7cd8 5cbc 6bcc e9bd f4d1 85bd
000002c0: 4c11 a33d 9d3d 023e fcc6 f73d 1767 e2bc
000002d0: f47e 88bd 2379 f5bd 2d90 ce3d 8fa1 c63d
000002e0: fc6b 7a3d 4cad b1bd fb20 6abd c02d 9fbb
000002f0: ac4c 423d 98a8 8abd 5e69 cd3d ac9b 973d
00000300: 1eae d8bd 5531 64bd a0df d5bd 85b5 95bd
00000310: 8910 f0bd a215 523b 608b 223d 4535 8d3d
00000320: d848 e13c a0ac 8b3b aa2a a7bc dd90 70bc
00000330: fca3 d9bc 5fdf 29bd 455b 6fbc c012 7f3d
00000340: 8da0 913d 3b78 06bd eefd c7bd 3433 453c
00000350: 7765 f73d 2d2d 693d e30f 08bd 07f2 d9bd
00000360: 74c8 c03c e080 2b3d bce7 8bbd 239d c9bd
00000370: acae b13d 1ad1 bbbd b191 483c a85d 60bd
00000380: 5967 bdbd 95bb 0e3d b25b 973d f20b e5bd
00000390: 7d0f 663d 8096 cfbb 7e50 b13d 0f06 28bd
000003a0: 804c be3d b647 043c 107e 893d b6cc ccbd
000003b0: 4c54 8f3d d458 ddbd 80fb 023d 93e7 d3bd
000003c0: da6d a73d cf54 493d 0b93 47bd 3a36 b43d
000003d0: 56b9 973d e36a f63d 3d64 41bd 2f90 e9bd
000003e0: e9c4 93bd 9f2c d93c 3c26 543d ce54 e73d
000003f0: 0a08 b73d c2b8 a63d 9c9a a9bd 0879 16bd

net.2.bias f4 [64]
0.12883498 0.018773392 0.10112137 0.118521914 -0.07401676 0.10520613 0.021435913 0.08871337
-0.03468226 0.13781497 -0.058639873 0.05843048 0.054821208 -0.123629615 -0.008643872 -0.059838712
-0.013231532 -0.007905943 0.025751673 -0.07825922 -0.07180587 0.09826683 -0.04039085 0.049467172
0.12346673 0.09399579 0.012141371 -0.032466467 -0.06555728 0.010023117 0.010209549 -0.012288735
0.011040375 0.0131889535 0.087422654 -0.025808942 -0.11558791 -0.10261277 0.14917934 -0.01602097
0.022124141 0.023325935 -0.077440046 0.028191805 0.011039517 -0.050604407 -0.001666531 -0.1177171
0.007768348 0.04449911 -0.03113616 0.14091668 0.017397651 0.026576221 0.01152473 -0.041558594
0.031256232 -0.099472344 0.015713394 -0.018137364 0.106345356 -0.014810091 0.014752597 0.10375814
00000000: 51ed 033e a8ca 993c b918 cf3d 9ebb f23d
00000010: 1996 97bd 5076 d73d 5e9a af3c 5baf b53d
00000020: fc0e 0ebd 5e1f 0d3e 5d30 70bd cd54 6f3d
00000030: 348c 603d 8631 fdbd 079f 0dbc 7019 75bd
00000040: 11c9 58bc ee87 01bc 2cf5 d23c 5f46 a0bd
00000050: f50e 93bd 1f40 c93d e070 25bd 179e 4a3d
00000060: 20dc fc3d dd80 c03d 9aec 463c 8ffb 04bd
00000070: e542 86bd 0038 243c f445 273c b156 49bc
00000080: b0e2 343c 7b16 583c a60a b33d 466d d3bc
00000090: 5bb9 ecbd a526 d2bd 78c2 183e 693e 83bc
000000a0: b03d b53c 0816 bf3c e398 9ebd 80f2 e63c
000000b0: 17df 343c 9146 4fbd 806f daba aa15 f1bd
000000c0: a08d fe3b b344 363d 4311 ffbc 764c 103e
000000d0: 8585 8e3c 60b6 d93c 39d2 3c3c 5839 2abd
000000e0: 8906 003d 28b8 cbbd 60b9 803c cf94 94bc
000000f0: 98cb d93d 06a6 72bc e0b4 713c 267f d43d

net.4.weight f4 [4, 64]
0.005165497 -0.0074050557 0.010025845 0.0026699898 0.011692556 -0.010012153 0.0015613519 0.0201905
0.009413822 0.051034465 0.02263891 0.014263633 0.03846748 0.0066091362 0.0014909842 0.031487178
0.0032634647 0.0018864482 -0.0006234618 -0.00030332367 0.013051372 0.00901814 -0.0052341186 0.022771519
-0.01944321 0.009320651 0.024709553 0.0043198452 0.06295092 0.0019456372 0.019007947 0.022104597
-0.003666055 0.029628543 0.02932052 0.02237675 0.011532813 -0.009836281 0.05058535 0.026121788
0.0017776218 -0.0032641483 0.0052901083 0.009399783 0.07606715 0.0012563516 0.007909954 -0.020357063
-0.0087125525 0.022678716 0.0035473234 0.026570091 0.04285044 0.008868646 -0.0024147325 -0.0031952201
0.040619463 0.031398065 0.0014202772 0.028935589 0.020317232 0.04423131 0.00074743293 0.044649426
-0.0039574355 0.008121567 0.033686303 0.05863885 0.0055793654 -0.012487272 0.072960325 0.0058605564
0.008779021 0.012936687 -0.012953699 0.05344255 -0.017670726 -0.008612301 0.009390238 0.02776507
0.021544632 0.046795916 -0.006530074 0.004002958 0.007737609 -0.009781503 0.0086852275 0.021919237
0.00047669877 0.07018494 0.056118872 0.0233007 0.040200446 0.0063529816 0.0068132547 0.0041999724
0.009300696 0.0028568227 -0.017474266 -0.002031701 0.015301 -0.013970113 -0.0060020993 0.029882096
-0.004526933 0.0034562666 0.045869544 -0.009602664 0.06231545 -0.011811935 0.005661661 -0.021227194
0.0043336786 -0.0005982802 0.00046920372 -0.02634019 0.01997511 -0.008765978 0.00058568217 -0.009793858
0.051696353 0.04919503 0.00835124 0.045063123 0.0045307726 0.082648024 0.0014753267 0.0041993954
0.033397306 0.004092457 0.027730374 0.04253146 0.018545443 0.024115482 0.07933831 0.017491128
-0.005844263 0.031444177 0.01336458 0.08219293 0.04126419 -0.002326827 0.03346598 0.019681092
0.029828234 0.058016624 0.0044764443 -0.0005985604 -0.00026480146 0.057662763 0.0016868981 0.022349214
0.013988483 0.0731892 0.021591816 0.005680016 -0.005901293 -0.0030072522 -0.0026128932 -0.0002560409
0.005561988 0.03058566 0.025516499 0.051427566 0.006556267 0.012569329 0.037690096 -0.0095587075
0.01542188 0.007697556 0.077412486 0.0055914996 0.06283371 0.0125406785 0.008629337 0.0013167207
-0.00835165 0.012659865 0.039374482 0.030429952 0.032870114 -0.009012951 0.0130881835 -0.009236921
0.014725753 0.013077945 -0.004215008 0.014240834 -0.015845124 0.11068327 -0.005947715 0.06571763
0.02161523 0.009773968 0.03985084 -0.00515703 0.02301404 0.053932335 -0.00615788 0.02437242
-0.0079055345 0.048374817 0.017087359 -0.030594934 0.0037615462 0.0089343805 0.01596048 -0.004368125
0.0079626115 0.021534374 0.0036928395 0.000922511 0.0021281 0.07619186 0.001521063 0.030727498
-0.02033009 -0.016570495 0.0013393861 -0.007304828 0.003859857 0.0015118495 0.005445252 0.008213948
-0.0037606214 0.071875416 0.04997427 -0.0071531544 0.0070680985 -0.031838614 0.069393866 0.010989853
-0.024210766 0.009546325 0.00034198776 -0.008319342 -0.022747725 -0.00088579755 -0.0024198224 -0.009332992
-0.003271501 0.0324617 0.041145526 0.060831267 0.005945055 0.00956771 -0.0141410995 -0.0033644377
0.004486749 0.010195396 0.0011063181 0.009862637 0.008111993 -0.04198938 -0.008211025 0.05915862
00000000: 5443 a93b 1ca6 f2bb 7143 243c fffa 2e3b
00000010: 2292 3f3c 030a 24bc 47a6 cc3a 8c66 a53c
00000020: 6e3c 1a3c 8409 513d 3c75 b93c 03b2 693c
00000030: 1490 1d3d 7491 d83b 216d c33a b3f8 003d
00000040: dadf 553b b342 f73a d06f 23ba 6a07 9fb9
00000050: 6cd5 553c d2c0 133c f882 abbb 568b ba3c
00000060: 5e47 9fbc a5b5 183c b06b ca3c 7d8d 8d3b
00000070: 69ec 803d c004 ff3a 8eb6 9b3c b314 b53c
00000080: 3242 70bb 8fb7 f23c 9631 f03c 724f b73c
00000090: 20f4 3c3c 5a28 21bc 9532 4f3d 5cfd d53c
000000a0: 17ff e83a 52eb 55bb a558 ad3b 8c01 1a3c
000000b0: 18c9 9b3d 2aac a43a c098 013c dbc3 a6bc
000000c0: 18bf 0ebc b7c8 b93c 367a 683b 85a9 d93c
000000d0: f183 2f3d cc4d 113c 7d40 1ebb e666 51bb
000000e0: 9860 263d 429b 003d 9828 ba3a 540a ed3c
000000f0: 5370 a63c e42b 353d 60ef 433a 51e2 363d
00000100: 60ad 81bb 5210 053c a6fa 093d 4a2f 703d
00000110: 1cd3 b63b 6a97 4cbc 396c 953d e909 c03b
00000120: e2d5 0f3c 66f4 533c c03b 54bc 93e6 5a3d
00000130: 33c2 90bc 9c1a 0dbc 83d9 193c 9273 e33c
00000140: 5e7e b03c 13ad 3f3d 3bfa d5bb 3f2b 833b
00000150: c58b fd3b 9942 20bc 7c4c 0e3c f98f b33c
00000160: 6ded f939 1fbd 8f3d e7dc 653d 1ce1 be3c
00000170: 39a9 243d ac2c d03b b941 df3b ec9f 893b
00000180: f261 183c 8839 3b3b 3126 8fbc 4926 05bb
00000190: 0cb1 7a3c e7e2 64bc 42ad c4bb 4ccb f43c
000001a0: ab56 94bb 8882 623b b4e1 3b3d 7e54 1dbc
000001b0: 7c3e 7f3d d986 41bc 7485 b93b a7e4 adbc
000001c0: 8801 8e3b e8d5 1cba 75ff f539 62c7 d7bc
000001d0: d8a2 a33c 2d9f 0fbc 7788 193a 6b76 20bc
000001e0: 8ebf 533d ba80 493d a4d3 083c 1c94 383d
000001f0: e076 943b 5e43 a93d c05f c13a 159b 893b
00000200: 9dcb 083d 041a 863b cf2a e33c 7835 2e3d
00000210: 9dec 973c d58d c53c 207c a23d 8e49 8f3c
00000220: 3b81 bfbb 9ccb 003d 1df7 5a3c c454 a83d
00000230: a404 293d ae7d 18bb a013 093d 3e3a a13c
00000240: 575a f43c d7a2 6d3d 23af 923b b5e8 1cba
00000250: 0dd5 8ab9 ca2f 6c3d e81a dd3a b315 b73c
00000260: f32f 653c 38e4 953d 52e1 b03c 6d1f ba3b
00000270: a25f c1bb 5215 45bb 133d 2bbb 3a3d 86b9
00000280: 5641 b63b c78e fa3c fa07 d13c b6a5 523d
00000290: f4d5 d63b 96ef 4d3c ee60 1a3d 209c 1cbc
000002a0: 0eac 7c3c c83b fc3b 708a 9e3d e638 b73b
000002b0: f6ae 803d 6b77 4d3c 1062 0d3c d195 ac3a
000002c0: 5cd5 08bc 536b 4f3c 2347 213d 3c48 f93c
000002d0: d0a2 063d 0eab 13bc d26f 563c 7456 17bc
000002e0: 4944 713c e144 563c 0d1e 8abb 6352 693c
000002f0: a2cd 81bc e9ad e23d 0de5 c2bb f796 863d
00000300: 6c12 b13c fe22 203c a23a 233d 4efc a8bb
00000310: f187 bc3c 27e8 5c3d 0bc8 c9bb aba8 c73c
00000320: 3786 01bc ac24 463d cafa 8b3c 3aa2 fabc
00000330: 4684 763b 8261 123c 8dbf 823c 7d22 8fbb
00000340: 9d75 023c db68 b03c 9103 723b aad4 713a
00000350: 9877 0b3b 7a0a 9c3d 685e c73a 3cb8 fb3c
00000360: 4a8b a6bc d9be 87bc 578e af3a 575d efbb
00000370: a8f5 7c3b 4029 c63a 166e b23b cc93 063c
00000380: c274 76bb 6b33 933d d2b1 4c3d 0265 eabb
00000390: 829b e73b 3569 02bd 5f1e 8e3d c90e 343c
000003a0: a855 c6bc 3068 1c3c d24c b339 d94d 08bc
000003b0: 7059 babc de34 68ba e295 1ebb 68e9 18bc
000003c0: ae66 56bb 8ff6 043d 3688 283d 352a 793d
000003d0: bcce c23b e2c1 1c3c 12b0 67bc e67d 5cbb
000003e0: 9405 933b 970a 273c e001 913a e696 213c
000003f0: 2ae8 043c 0efd 2bbd 8987 06bc 4f50 723d

net.4.bias f4 [4]
0.06349194 -0.009876876 0.027479261 0.046151325
00000000: 1008 823d 9fd2 21bc 301c e13c 2c09 3d3d

net.0.weight f4 [64, 5]
0.627375 0.48661515 -0.42367092 0.3169532 0.19215654 0.45943043 0.09649058 -0.37370902
-0.06395769 -0.0034823928 -0.099421546 -0.4033434 -0.23168798 -0.24044701 0.31814408 -0.43232062
0.12656814 0.36913592 -0.2448464 -0.43353894 -0.2349389 0.25296724 -0.033818215 -0.24868919
-0.40357322 0.36503845 0.26739037 0.148831 -0.26971528 0.33642152 0.29622567 0.30810076
-0.14103785 -0.22564748 -0.010058224 0.04246959 0.30147249 0.049438477 -0.40069896 -0.0111168325
-0.024498245 -0.32702446 -0.18846469 -0.005454744 0.39057115 0.20183837 0.50641835 0.13616474
0.080511935 0.5247836 0.26156905 -0.29027596 0.20136613 -0.14472917 0.27835673 -0.55934346
-0.23024893 0.25804096 0.25633332 -0.45700285 -0.5889096 -0.534185 0.51357436 0.37762702
-0.14149033 -0.23752113 0.42729396 0.25619775 -0.09090924 -0.17149493 -0.68899024 -0.0051017883
0.32105717 0.1890562 -0.3369418 0.28106475 -0.36788127 -0.101621926 -0.4180676 -0.25592843
-0.30348897 0.20504558 0.20946383 -0.043341547 -0.041652083 -0.18262479 -0.39918563 0.47222087
-0.10687982 0.06692942 0.5412974 0.27028698 0.013056862 -0.016848098 -0.34248233 -0.3950182
0.42741936 -0.42814133 -0.19908535 -0.2055071 0.36481225 -0.07649501 0.052935578 0.049044035
-0.20287924 0.5963899 -0.08994666 -0.2628911 -0.058785502 0.28857535 0.15663265 0.4369838
0.17002422 0.23468775 0.34052956 0.513246 0.56528217 0.14641073 0.035910603 0.49750933
-0.102849744 -0.09773974 -0.1381417 -0.08699645 0.3381264 -0.2341255 0.3904886 0.032239348
-0.0012395086 0.26291326 -0.3084445 0.44906846 0.36125004 -0.39869592 0.33609816 0.17159669
-0.33621144 0.09636088 0.54978645 -0.20858301 -0.12605599 0.27929598 -0.116933465 -0.01363188
-0.2273156 -0.3009601 0.09875809 0.28174156 -0.13283291 -0.0488699 -0.42611873 -0.29234123
-0.39078873 0.46269664 -0.35712034 0.19216883 0.008064972 0.2668563 -0.024990743 0.013202438
-0.2754855 0.029503651 0.4091768 -0.2546464 0.3220482 -0.23968646 0.39252746 0.28360718
-0.37833467 0.19107625 0.21052377 0.16584118 -0.12306496 0.04123196 0.04431478 -0.3825835
0.29197234 0.071944416 -0.43759817 -0.10639095 -0.0726202 -0.13417341 -0.30997926 -0.15811495
0.21415208 -0.40752548 -0.3617862 -0.37472045 -0.26309663 0.37923768 -0.016695745 0.3641202
0.0022244551 0.119794354 0.1898114 0.40623927 0.03233421 0.21613818 -0.16430491 -0.38480255
0.11436786 -0.22162542 0.38700074 0.08490628 -0.37007475 0.12671275 -0.440636 -0.2226966
-0.023831837 -0.4015148 0.16532359 0.4099939 0.3363305 -0.020841813 0.58028233 0.35750386
-0.19751261 -0.13508861 0.30470866 0.16363482 0.54803467 0.2692451 0.3403703 0.29333162
0.15838815 -0.09615605 0.18027464 0.39506122 -0.024806235 -0.1480742 0.18014704 0.43488887
-0.15542991 -0.04790015 0.044896662 -0.8745879 -0.65405625 -0.035518408 0.2547145 -0.3891129
-0.24143012 -0.012502313 0.3250273 -0.16226491 -0.08222574 0.1908381 0.18757182 -0.21639486
-0.31244892 -0.08159509 0.25139937 0.43027192 -0.018808141 -0.05545878 0.08811085 0.115536034
00000000: a69b 203f 9f25 f93e 65eb d8be b147 a23e
00000010: afc4 443e 773a eb3e da9c c53d ca56 bfbe
00000020: 40fc 82bd db38 64bb 869d cbbd 0783 cebe
00000030: 9d3f 6dbe be37 76be c8e3 a23e 2159 ddbe
00000040: 149b 013e 62ff bc3e 04b9 7abe d1f8 ddbe
00000050: d393 70be ec84 813e f884 0abd 61a8 7ebe
00000060: 26a1 cebe 52e6 ba3e 64e7 883e 2767 183e
00000070: 1f18 8abe 713f ac3e e4aa 973e 62bf 9d3e
00000080: 3a6c 10be 2210 67be 40cb 24bc 98f4 2d3d
00000090: 9a5a 9a3e 0080 4a3d 6a28 cdbe 6023 36bc
000000a0: 8bb0 c8bc c06f a7be e3fc 40be b6bd b2bb
000000b0: f1f8 c73e b8ae 4e3e a2a4 013f c56e 0b3e
000000c0: 71e3 a43d 3858 063f 61ec 853e 0d9f 94be
000000d0: ec32 4e3e e233 14be c684 8e3e 2231 0fbf
000000e0: 60c6 6bbe f21d 843e 1f3e 833e 47fc e9be
000000f0: c8c2 16bf 59c0 08bf 9c79 033f 5458 c13e
00000100: d7e2 10be bd38 73be 46c6 da3e 5a2c 833e
00000110: a02e babd 5e9c 2fbe aa61 30bf e72c a7bb
00000120: 9b61 a43e f397 413e a383 acbe b8e7 8f3e
00000130: ef5a bcbe 281f d0bd f50c d6be 0d09 83be
00000140: e862 9bbe 78f7 513e b07d 563e e886 31bd
00000150: 609b 2abd fe01 3bbe 0f62 ccbe efc6 f13e
00000160: cfe3 dabd 4b12 893d 7792 0a3f 0e63 8a3e
00000170: 73ec 553c 0605 8abc d859 afbe d33f cabe
00000180: b6d6 da3e 5735 dbbe 08dd 4bbe 7470 52be
00000190: acc8 ba3e 6aa9 9cbd fad2 583d 66e2 483d
000001a0: 93bf 4fbe 02ad 183f f435 b8bd aa99 86be
000001b0: 11c9 70bd 26c0 933e 4f64 203e 57bc df3e
000001c0: d41a 2e3e fc51 703e e459 ae3e 1764 033f
000001d0: 55b6 103f b2ec 153e ff16 133d 8bb9 fe3e
000001e0: e3a2 d2bd c62b c8bd 0575 0dbe 322b b2bd
000001f0: e71e ad3e 98be 6fbe 1fee c73e 680d 043d
00000200: 0277 a2ba 919c 863e 70ec 9dbe 4dec e53e
00000210: c4f5 b83e df21 ccbe 0f15 ac3e 0bb7 2f3e
00000220: e823 acbe da58 c53d cebe 0c3f c996 55be
00000230: d214 01be e2ff 8e3e d07a efbd 4058 5fbc
00000240: 6cc5 68be 7117 9abe ae41 ca3d 6e40 903e
00000250: 5a05 08be ce2b 48bd 3c2c dabe c0ad 95be
00000260: 7615 c8be 93e6 ec3e 7ad8 b6be e8c7 443e
00000270: f222 043c 64a1 883e 63b9 ccbc 0a4f 583c
00000280: 6f0c 8dbe a4b1 f13c 9f7f d13e 0361 82be
00000290: 80e3 a43e 5e70 75be 5cf9 c83e f634 913e
000002a0: 15b5 c1be 7ea9 433e 8b93 573e 45d2 293e
000002b0: 7b09 fcbd d8e2 283d 6a83 353d fce1 c3be
000002c0: 667d 953e 9857 933d de0c e0be 80e3 d9bd
000002d0: e6b9 94bd c164 09be 9ab5 9ebe e3e8 21be
000002e0: af4a 5b3e 2ea7 d0be 0a3c b9be 5cdb bfbe
000002f0: 9ab4 86be 712b c23e 84c5 88bc f66d ba3e
00000300: 2ac8 113b be56 f53d eb5d 423e 98fe cf3e
00000310: e070 043d 5453 5d3e 8c3f 28be d704 c5be
00000320: b239 ea3d c6f1 62be f624 c63e 58e3 ad3d
00000330: 707a bdbe fdc0 013e 0b9b e1be 940a 64be
00000340: fc3a c3bc 5993 cdbe 964a 293e b8ea d13e
00000350: 8333 ac3e 73bc aabc 628d 143f bf0a b73e
00000360: bf40 4abe ab54 0abe c602 9c3e e38f 273e
00000370: 004c 0c3f 7eda 893e 0445 ae3e 902f 963e
00000380: 8130 223e 77ed c4bd ea99 383e 7745 ca3e
00000390: 7236 cbbc c3a0 17be 7778 383e c1a9 de3e
000003a0: 0529 1fbe f332 44bd 90e5 373d fee4 5fbf
000003b0: 3b70 27bf c07b 11bd f069 823e ce39 c7be
000003c0: 7539 77be 80d6 4cbc fa69 a63e c628 26be
000003d0: f865 a8bd 106b 433e d412 403e 9d96 5dbe
000003e0: 4ef9 9fbe 541b a7bd 6bb7 803e 9a4c dc3e
000003f0: 8813 9abc bf28 63bd 7673 b43d 289e ec3d

net.0.bias f4 [64]
0.3946048 0.5894827 0.37830898 -0.068020165 0.0053506196 -0.09905964 0.22827798 -0.17507142
0.09594113 0.34665325 0.08180023 -0.08678035 0.29498717 -0.384324 0.27179104 0.40600806
-0.37219617 -0.020097354 0.2878143 0.41545433 0.12041761 0.13613388 -0.30157644 -0.17903142
-0.13072923 -0.10370538 0.4060911 0.026216881 -0.29819453 0.39255098 0.16410199 -0.04809677
0.3604672 -0.35620525 0.11400184 0.35805273 -0.32018435 0.0002706282 0.13145852 -0.2357832
0.17575766 0.26409337 0.28307095 -0.28154796 0.30620855 0.36946115 0.3886803 -0.43055168
0.25163126 0.0051065385 -0.38179097 -0.32725814 -0.3010779 0.18549322 0.14161897 -0.29997978
-0.0683117 -0.27823067 -0.3052565 -0.36472926 0.15188687 0.07974696 -0.28394228 -0.31966782
00000000: a409 ca3e 57e8 163f b7b1 c13e 284e 8bbd
00000010: 4054 af3b c8df cabd b4c1 693e ec45 33be
00000020: c87c c43d 897c b13e e186 a73d e5b9 b1bd
00000030: 8f08 973e 1ec6 c4be 3228 8b3e 4ae0 cf3e
00000040: 7f90 bebe 35a3 a4bc 655c 933e 6eb6 d43e
00000050: 829d f63d ae66 0b3e 3a68 9abe 0354 37be
00000060: e2dd 05be 7c63 d4bd 2ceb cf3e c9c4 d63c
00000070: f4ac 98be 71fc c83e 5a0a 283e 1e01 45bd
00000080: 288f b83e 8960 b6be cc79 e93d b052 b73e
00000090: 34ef a3be 1ae3 8d39 109d 063e 2771 71be
000000a0: d1f9 333e 3f37 873e adee 903e 0e27 90be
000000b0: 5ec7 9c3e 032a bd3e 1b01 c73e 4571 dcbe
000000c0: d0d5 803e c054 a73b 1b7a c3be 618e a7be
000000d0: e226 9abe eff1 3d3e 9004 113e f396 99be
000000e0: 01e7 8bbd 4074 8ebe 944a 9cbe cbbd babe
000000f0: 3b88 1b3e 6052 a33d e260 91be 80ab a3be

net.2.weight f4 [64, 64]
0.041034207 -0.023150966 0.07658064 0.027165368 -0.117908835 0.11057092 -0.056564048 -0.078185245
-0.06256637 -0.119572386 -0.08698015 -0.09230699 -0.018652275 -0.10494466 0.09159276 -0.11904693
-0.056341603 0.08918287 0.052787885 -0.09340085 0.067067325 -0.010282993 -0.060690477 0.052961156
-0.08575721 -0.033445895 0.08273691 -0.077633336 -0.11956902 -0.09398346 0.09778395 0.043156087
-0.12251566 -0.11213724 -0.07659581 0.055909425 0.011615142 0.10009876 -0.06427428 -0.06710526
-0.07466142 0.08829595 -0.04655114 0.03682138 0.03463398 0.08340751 -0.047904044 -0.11828688
-0.04143913 -0.09456514 -0.07962702 0.031612143 0.028675422 0.05726567 0.041376323 -0.105180934
-0.031774297 0.119297996 0.055951938 -0.0751379 -0.073887005 -0.020066693 0.074119136 -0.04735902
-0.012310862 0.030607149 0.016279824 0.011804521 -0.102990955 0.05376918 0.120474145 0.11728765
0.107876845 -0.079658285 -0.06977562 -0.07746139 0.029075032 0.0025553554 -0.075333655 -0.06731172
0.033526883 -0.04681649 -0.00996545 -0.09437564 0.040644504 0.043216567 -0.09626337 -0.014709414
-0.010028185 -0.09607739 0.13561489 -0.007245875 -0.022719517 -0.07387375 0.011964666 -0.08169435
-0.04820292 0.0853978 0.094642274 0.079861656 0.0771628 0.12767746 0.121808 0.06777485
0.0128694475 -0.10763505 0.09581457 -0.047334567 -0.013236706 0.08660329 -0.031361625 0.0503428
-0.11289887 0.015805215 0.00080520805 0.00035751663 0.060807865 -0.07606728 0.12246838 -0.08655052
-0.074026845 -0.049610425 -0.05307754 0.032306466 -0.07003933 -0.08850469 -0.004811126 0.108732
-0.03934215 0.02793485 -0.036856532 -0.11389507 0.026200622 0.093192846 -0.070503905 -0.015162244
0.079394266 -0.100342005 -0.012447625 0.070209384 -0.0635179 -0.086000025 0.06861983 -0.11376743
-0.078077346 0.062445328 0.041423485 0.023508206 0.038425267 -0.10777873 0.069694966 0.10368939
0.10810314 0.065928936 -0.034965113 -0.07331303 0.029735446 0.08159205 -0.07076141 0.009123683
-0.11252047 0.0024134815 -0.00356853 -0.08706291 -0.07799031 0.104280755 -0.098895565 0.1054375
-0.061610714 -0.031353444 -0.040997744 -0.07941979 0.10124299 0.09890683 -0.07115856 0.0681514
-0.03013894 0.072856545 0.1177053 -0.012883931 0.033109948 -0.087543234 0.05458519 -0.013629645
0.05019991 -0.04472126 -0.061130553 -0.07274051 0.001786232 0.10180555 -0.050138235 0.06474449
0.07901066 -0.060125854 0.10652949 0.07874468 -0.11260639 0.06833112 -0.12425108 0.060107574
0.009155052 -0.117461026 -0.09813292 -0.05873852 0.0548631 0.043955132 -0.016584652 0.11173324
-0.059088796 -0.05475328 -0.024221448 0.07848059 -0.11076451 0.014671946 -0.06438614 -0.060171135
-0.0706695 0.030155381 0.07963379 0.036643602 -0.04196523 -0.031344682 -0.09653952 -0.026328353
0.092463404 -0.006263889 -0.12930676 0.020840183 -0.03223505 -0.07933724 -0.13632931 0.0778061
-0.02705699 0.049312234 0.056577027 0.024283227 -0.12692566 0.018581353 0.06058701 0.02941894
-0.11112812 -0.09902367 -0.0033910994 -0.018018631 0.06373911 -0.028075635 0.036764532 0.07479352
0.104624696 0.05820348 0.08639807 -0.07051509 0.07709083 0.096122384 0.045648005 0.04214781
00000000: 7c13 283d 18a7 bdbc 50d6 9c3d e889 de3c
00000010: 307a f1bd 0273 e23d b4af 67bd 961f a0bd
00000020: cc22 80bd 5ee2 f4bd a622 b2bd 720b bdbd
00000030: a8cc 98bc 3aed d6bd fc94 bb3d e0ce f3bd
00000040: 74c6 66bd 82a5 b63d 1c38 583d f248 bfbd
00000050: 985a 893d 007a 28bc 9496 78bd cced 583d
00000060: 7aa1 afbd 90fe 08bd f871 a93d 3afe 9ebd
00000070: 9ae0 f4bd 667a c0bd f442 c83d 70c4 303d
00000080: 7ee9 fabd 36a8 e5bd 44de 9cbd 4801 653d
00000090: 704d 3e3c 9400 cd3d 3ca2 83bd 7c6e 89bd
000000a0: 16e8 98bd 82d4 b43d 68ac 3ebd 04d2 163d
000000b0: 5cdc 0d3d 8ed1 aa3d 0837 44bd 6440 f2bd
000000c0: 14bc 29bd 5eab c1bd 7e13 a3bd bc7b 013d
000000d0: b8e8 ea3c 688f 6a3d 387a 293d 1a69 d7bd
000000e0: c425 02bd 8252 f43d dc2d 653d e6e1 99bd
000000f0: 1252 97bd e862 a4bc c6cb 973d 88fb 41bd
00000100: 7fb3 49bc d8bb fa3c 445d 853c c067 413c
00000110: ecec d2bd 123d 5c3d 26bb f63d 8234 f03d
00000120: 89ee dc3d e223 a3bd 85e6 8ebd 14a4 9ebd
00000130: c32e ee3c c077 273b 8848 9abd bada 89bd
00000140: 7c53 093d a6c2 3fbd 2046 23bc 0448 c1bd
00000150: da7a 263d db03 313d bb25 c5bd c1ff 70bc
00000160: 424d 24bc 39c4 c4bd a1de 0a3e ce6e edbb
00000170: 481e babc 1f4b 97bd 7207 443c 5e4f a7bd
00000180: 6d70 45bd 0be5 ae3d cfd3 c13d 828e a33d
00000190: 8807 9e3d e1bd 023e 7976 f93d 8acd 8a3d
000001a0: 60da 523c c46f dcbd 6e3a c43d e4e1 41bd
000001b0: c5de 58bc 115d b13d 0c75 00bd 4034 4e3d
000001c0: 8637 e7bd f079 813c 9914 533a 1271 bb39
000001d0: ab11 793d 29c9 9bbd b4d0 fa3d 6641 b1bd
000001e0: 639b 97bd 4d34 4bbd d667 59bd c953 043d
000001f0: c870 8fbd f241 b5bd a6a6 9dbb e2ae de3d
00000200: 3c25 21bd a0d7 e43c e0f6 16bd d241 e9bd
00000210: b0a2 d63c e4db be3d 5a64 90bd 106b 78bc
00000220: 7699 a23d 1c80 cdbd 20f1 4bbc f0c9 8f3d
00000230: ac15 82bd c820 b0bd 8e88 8c3d e6fe e8bd
00000240: 04e7 9fbd acc6 7f3d acab 293d 4894 c03c
00000250: d063 1d3d 18bb dcbd 3cbc 8e3d 1a5b d43d
00000260: 2e65 dd3d c005 873d 9437 0fbd 2425 96bd
00000270: c097 f33c bc19 a73d 5ceb 90bd 807b 153c
00000280: 2271 e6bd 802b 1e3b 00de 69bb 0a4e b2bd
00000290: 62b9 9fbd 2691 d53d c289 cabd 9eef d73d
000002a0: 845b 7cbd 786c 00bd 40ed 27bd d8a6 a2bd
000002b0: 7c58 cf3d aa8f ca3d 94bb 91bd f692 8b3d
000002c0: f0e5 f6bc d035 953d 7a0f f13d 2017 53bc
000002d0: 4c9e 073d de49 b3bd b894 5f3d e04e 5fbc
000002e0: 6c9e 4d3d a42d 37bd 0864 7abd faf8 94bd
000002f0: 0020 ea3a 6e7f d03d c05d 4dbd c298 843d
00000300: 57d0 a13d 8746 76bd 222c da3d e444 a13d
00000310: 2e9e e6bd 30f1 8b3d 5a77 febd 5c33 763d
00000320: 12ff 153c 688f f0bd eaf9 c8bd cd97 70bd
00000330: 21b8 603d 4c0a 343d 89dc 87bc 66d4 e43d
00000340: 1807 72bd fa44 60bd 0f6c c6bc 6eba a03d
00000350: 81d8 e2bd 9a62 703c e1dc 83bd 0276 76bd
00000360: 2cbb 90bd 6b08 f73c 0a17 a33d 9a17 163d
00000370: bce3 2bbd 4863 00bd 83b6 c5bd 8fae d7bc
00000380: 745d bd3d 4f41 cdbb fe68 04be 08b9 aa3c
00000390: e608 04bd 907b a2bd e999 0bbe ce58 9f3d
000003a0: 9fa6 ddbc a0fb 493d 50bd 673d 9eed c63c
000003b0: cdf8 01be ec37 983c 162a 783d fdff f03c
000003c0: 2497 e3bd eccc cabd 353d 5ebb cf9b 93bc
000003d0: a789 823d e0fe e5bc 6896 163d 582d 993d
000003e0: 7945 d63d c666 6e3d 79f1 b03d 376a 90bd
000003f0: cce1 9d3d d0db c43d 67f9 3a3d 2fa3 2c3d

net.2.bias f4 [64]
-0.05821024 -0.047637828 -0.037766382 -0.1068298 0.09401712 0.08848485 -0.018911561 -0.100904666
-0.09218225 0.14266339 0.090572625 0.009090707 0.09538441 0.15516825 -0.074733235 -0.0043142033
0.01503776 0.02113245 -0.068389684 0.10305737 -0.14190058 0.11392952 0.03395397 0.042343147
-0.038596023 0.027926324 0.081831515 0.011436939 -0.10888809 -0.14725234 0.033629842 0.042604256
0.111165226 -0.09309202 -0.0012707841 0.037315086 0.14030726 0.06353516 -0.0942972 0.075689405
0.016419498 -0.106431626 -0.04347402 -0.11816427 -0.07879835 0.050852373 0.11698836 0.04363756
-0.2047565 -0.01863924 -0.03620874 0.11345896 -0.033576906 -0.05444073 -0.057406384 0.036065716
-0.14442697 0.17565931 -0.24725468 0.2286236 -0.025562689 0.19598997 -0.028855948 0.22352202
00000000: dc6d 6ebd e21f 43bd ecb0 1abd 95c9 dabd
00000010: 0c8c c03d 8c37 b53d 6bec 9abc 1ba7 cebd
00000020: 0cca bcbd 5a16 123e 247e b93d 30f1 143c
00000030: e758 c33d 6de4 1e3e bd0d 99bd 295e 8dbb
00000040: f060 763c f61d ad3c e40f 8cbd be0f d33d
00000050: 634e 11be e153 e93d 5113 0b3d 0270 2d3d
00000060: dd16 1ebd bfc5 e43c 4897 a73d 0062 3b3c
00000070: b800 dfbd 51c9 16be 72bf 093d cd81 2e3d
00000080: 98aa e33d 07a7 bebd 7090 a6ba b4d7 183d
00000090: b5ac 0f3e b91e 823d e41e c1bd 0c03 9b3d
000000a0: 2f82 863c d3f8 d9bd d011 32bd 1c00 f2bd
000000b0: 0861 a1bd 944a 503d 9897 ef3d 4cbd 323d
000000c0: b0ab 51be 52b1 98bc 9e4f 14bd 2c5d e83d
000000d0: f087 09bd 3efd 5ebd f522 6bbd a5b9 133d
000000e0: aae4 13be 09e0 333e 5530 7dbe 4e1c 6a3e
000000f0: d868 d1bc 98b1 483e 4f63 ecbc f5e2 643e

net.4.weight f4 [1, 64]
-0.10029751 0.06633764 -0.117506206 -0.08614464 -0.20616849 -0.069894604 0.0023978532 0.010269977
-0.03770694 -0.10188013 -0.0023601155 0.0023044348 -0.032286935 0.17680039 -0.0932014 -0.10711679
0.112484425 -0.11042797 -0.05858761 -0.070584156 0.10684261 -0.09464613 -0.011955837 -0.06441616
-0.11646796 0.0006638203 -0.07211484 0.082597986 0.039776087 0.065108836 0.024754446 -0.102059044
-0.08534694 -0.041006166 -0.0097055305 -0.09157385 -0.107634485 -0.04909691 -0.10950321 -0.057173666
-0.0421657 0.063198805 -0.088321775 -0.0030684646 0.0028184806 -0.09169239 0.0048464388 0.010899752
0.115339905 -0.085864104 0.07153811 -0.15245615 -0.06312734 -0.038499646 -0.0032100438 -0.027698375
0.20394509 0.331977 0.12233632 0.28984964 -0.06725398 -0.10036456 0.05021292 -0.040783588
00000000: c868 cdbd 07dc 873d 18a7 f0bd 9a6c b0bd
00000010: d51d 53be e724 8fbd 4d25 1d3b 6843 283c
00000020: 9872 1abd 88a6 d0bd 2bac 1abb 0006 173b
00000030: 4e3f 04bd 290b 353e 60e0 bebd 0c60 dbbd
00000040: 3c5e e63d 0f28 e2bd 90f9 6fbd 6d8e 90bd
00000050: 4cd0 da3d d5d5 c1bd 6ae2 43bc 9fec 83bd
00000060: c186 eebd 3a04 2e3a f2b0 93bd 2229 a93d
00000070: 40ec 223d c857 853d d6c9 ca3c 5504 d1bd
00000080: 60ca aebd 15f6 27bd f203 1fbc 128b bbbd
00000090: 786f dcbd d719 49bd 3843 e0bd ef2e 6abd
000000a0: f1b5 2cbd 606e 813d 0ce2 b4bd 4b18 49bb
000000b0: 42b6 383b 38c9 bbbd e0ce 9e3b e094 323c
000000c0: 5437 ec3d 85d9 afbd 9382 923d 771d 1cbe
000000d0: e848 81bd ceb1 1dbd 995f 52bb b4e7 e2bc
000000e0: fbd6 503e e4f8 a93e 778b fa3d 2c67 943e
000000f0: 74bc 89bd ef8b cdbd 10ac 4d3d b10c 27bd
