ppo_model_final.pt (torch, 132483 bytes, 33 tensors)

net.0.weight f4 [64, 8]
00000000: 6154 1dbe 0726 a4be bf63 163e 52be 553d
00000010: caf7 873e 0a8b d3bd a37e 07be 309b 4e3e
00000020: db28 b03e 1042 cabd 20ff b1bd e702 1cbe
00000030: c8e8 92be 83c1 40be 5d66 963e 363d 39be
00000040: 9019 1a3f 3420 fb3e 39f0 d53e 1d1c e2bc
00000050: 1cd7 773c 832d 143e 6512 d23d 5143 8abe
00000060: 890d bd3e 17f0 ed3e b34a fb3c 815a 813c
00000070: f9bf f13c b980 d2be fcfd 05bf 2a6d 7cbe
00000080: d74b 96be b7d1 c8bc 5d90 adbe f063 3dbe
00000090: cf71 843e 82a3 ba3d 8a19 76be 347e 94be
000000a0: 9983 37be 4339 4a3d 0cf5 3ebf c582 953c
000000b0: af36 a93d 4954 6f3e fdbf e6bd 8d6e a53e
000000c0: 2029 c939 2a0a 963e 6958 9abe 4b3a 69bd
000000d0: bc05 9dbd 397b 7dbe 8975 a63e 7367 a33e
000000e0: 65dc 113e 7b55 783e a2bd 24be 7600 1f3e
000000f0: c480 aabe 86b4 cabe 6c53 bf3e 0e48 1a3e
00000100: c05e 1bbd fb27 68be f67f 713e e1a8 96be
00000110: a863 0fbe 20d3 4cbc 13d6 8a3e 7003 5bbd
00000120: 5199 2e3e c920 eb3d 2dc9 313f cac8 d63d
00000130: 182a 233e 6b9a a63c a981 7dbe 187c 12be
00000140: 8aef b6bc 5beb 213e f9ae d7bd 9256 22bd
00000150: 6851 c5bd 95bf 43be b5b5 a4be 9461 fc3d
00000160: c0f3 53be 3997 a3be f171 8f3e 08f1 93be
00000170: 7e21 adbe 1428 85bd c176 833e 02f7 81be
00000180: abf3 b33d 3d26 213e e6f1 f0bd 67a6 9fbe
00000190: 88d3 9fbe 8d5b 48be b583 49be 3b26 4e3e
000001a0: e390 e5be 606c 07be ab7a a13e b2c9 663e
000001b0: 085b 893e 66ec 8e3e 0042 2bbe 13fe 733d
000001c0: 2706 8abe f010 afbd 085c 2fbd a8f7 aabd
000001d0: d614 dfbd 1aff 1d3e 75eb af3e cb00 51be
000001e0: 94fc 953d 3cc6 acbd b23b 623e c81e 15bd
000001f0: 734d 0fbe 8201 203e a08f f9bc f430 99bd
00000200: 5f48 95be 8461 adbe dcdc 8fbe 7eca 4fbe
00000210: d1cc 86be d1ed 9abe de84 91be cc3d 923d
00000220: 9017 b13e 9208 663e d6fa d93e 645b 58be
00000230: b87c e6bd 44e7 d43c 3e6d f93d a361 a63e
00000240: 5112 853e b6a8 22be a284 a73d 777d 14be
00000250: 0def 1b3e 5093 84be 8e9e 5f3e 9a57 843e
00000260: e168 28be b4d5 6abe b447 01bb a42a 73be
00000270: 15c9 5d3e c141 88be 82d4 4cbe c825 803d
00000280: 51d2 513c 8c30 463c 53e0 98bd a8c8 973d
00000290: a35c 19be 20b1 45be 7cbb 193e a762 c83e
000002a0: bee7 a0be fc1f 97be 6010 4cbe 1dc2 013e
000002b0: 0aab c13c 9c2e 523d d9fe 963e a9fd 63bb
000002c0: 0a60 bdbe ec75 d1be f2e3 11bf e7cf 793e
000002d0: 01fe 51be 9a1c a53e 87ee 813e ac69 213e
000002e0: 0eee d4bc 8962 b73e 4fe1 71be a8ba 08be
000002f0: 39cd 5a3d cdee bcbe 6dec 903d 371f 953e
00000300: 919e ab3e d20b 97be 0d53 953e 968a 8fbe
00000310: cc15 8cbe 89fd 813e d8bb 1f3d 5db5 4ebe
00000320: a9dd 863d 232b 643e b2e2 0a3f 2947 ca3d
00000330: 08a7 f2bd f06b 63be 4659 bebe fd2a 94be
00000340: 81dc 633e f5f6 7bbc 128e 063f 2250 463e
00000350: 876a 6abd 7bc5 0ebd bc6e b3be a255 e1be
00000360: 9dd6 353f 38ae 1a3f 445c 4e3f 4b52 0c3d
00000370: af94 493e 8cf8 99bb f621 61bc 5d3b 38be
00000380: 26f6 6bbe cdd5 1abe 1335 1b3e 58e8 52be
00000390: 8826 db3c aee8 643b 995d 2ebe 0aaf 463d
000003a0: 755e b83c e861 01bf 60dd d6bd c6be 813e
000003b0: 3362 febd c047 34be 155a 1bbe eb4c 2c3e
000003c0: 54a3 693e 5a4e 6bbd 6fd1 983d fa4d d43d
000003d0: 6f3f 533e 3946 dcbd c402 cebe bacd 04bf
000003e0: d0d2 643b 02bf 0d3e e467 543f 08d5 8a3e
000003f0: 0578 d13c 0bb1 c63e 0ca5 c4be 9e21 d9be
-0.15364219 -0.32060263 0.14686488 0.052183457 0.26556236 -0.10329254 -0.13231902 0.20176387
0.3440617 -0.09875882 -0.08691239 -0.15235482 -0.28693223 -0.18823819 0.29374972 -0.18089756
0.60195255 0.49048007 0.41784838 -0.027601296 0.01512697 0.14470486 0.10257415 -0.27004483
0.3692439 0.46472237 0.030675268 0.015790226 0.029510485 -0.41113833 -0.52340674 -0.24651018
-0.29354736 -0.024514062 -0.33899203 -0.18495154 0.2586808 0.09113218 -0.2403318 -0.29002535
-0.17921294 0.049371015 -0.7459266 0.018250832 0.08262383 0.23371996 -0.112670876 0.32310906
0.00038368348 0.2930463 -0.30145577 -0.056940358 -0.07667109 -0.24754037 0.32511547 0.31914863
0.1424423 0.24251358 -0.16087964 0.1552752 -0.33301365 -0.39590853 0.37368333 0.15066549
-0.037932158 -0.22671501 0.2358397 -0.2942572 -0.1400286 -0.012501508 0.2711645 -0.053470075
0.17050673 0.11480863 0.69447595 0.10487516 0.15934026 0.020337304 -0.24756493 -0.1430515
-0.022331018 0.15812437 -0.1053142 -0.03963334 -0.09634668 -0.19116051 -0.3216988 0.12323299
-0.20698452 -0.3195131 0.28016618 -0.2889483 -0.33814615 -0.06501785 0.2567654 -0.25383765
0.0878671 0.15737243 -0.117648885 -0.31181642 -0.31216073 -0.19566174 -0.19679148 0.20131771
-0.44837102 -0.13224936 0.315389 0.22537878 0.26827264 0.27914733 -0.16724396 0.059568476
-0.2695782 -0.085481524 -0.042812377 -0.08348018 -0.10892646 0.15429345 0.34359327 -0.20410459
0.07323566 -0.08436248 0.22093084 -0.03640631 -0.13994388 0.15625575 -0.030463994 -0.0748004
-0.29156777 -0.3386346 -0.2809819 -0.20292088 -0.26328138 -0.30259565 -0.28421682 0.07140693
0.3458829 0.22464207 0.42574185 -0.21128613 -0.11254257 0.025989182 0.121790394 0.32496366
0.25990537 -0.1588467 0.081795946 -0.14500986 0.1522791 -0.2589364 0.21837828 0.25848085
-0.16446258 -0.22933084 -0.0019726576 -0.23746735 0.21658738 -0.26612666 -0.2000294 0.06257206
0.012806491 0.012096535 -0.074646614 0.07411319 -0.14976744 -0.19305849 0.15012926 0.39137766
-0.31426805 -0.2951659 -0.19928122 0.12671705 0.023641128 0.05131398 0.29491308 -0.0034788644
-0.36987334 -0.4091028 -0.5698844 0.24395715 -0.20507051 0.32248384 0.25377294 0.15762967
-0.02599242 0.35817364 -0.23621105 -0.13352454 0.05341837 -0.3690094 0.07076345 0.29125378
0.33519414 -0.29501206 0.29164925 -0.2803542 -0.2736038 0.25388744 0.0389975 -0.20186372
0.06585247 0.2228208 0.5425216 0.09876854 -0.11848265 -0.22209144 -0.37177485 -0.28939047
0.22252084 -0.015378703 0.5256053 0.19366506 -0.0572305 -0.0348563 -0.3504542 -0.44010645
0.710306 0.60422087 0.80609536 0.03425817 0.19685625 -0.0046988185 -0.013741007 -0.17991395
-0.23043117 -0.15120621 0.15156965 -0.20596445 0.026751772 0.0034928727 -0.17027892 0.048506774
0.022505978 -0.5054002 -0.10491443 0.2534086 -0.12421074 -0.17605495 -0.15171082 0.16826217
0.22816211 -0.05744777 0.07461821 0.10366435 0.20629667 -0.107555814 -0.40236485 -0.51876414
0.0034915693 0.13842395 0.82971025 0.27115655 0.025569925 0.38806948 -0.3840717 -0.4240846

net.0.bias f4 [64]
00000000: 3f63 bfbe 4891 1ebd a83d ccbd a060 c6bc
00000010: da05 66be c8cd 73be 1533 cb3e dce6 073e
00000020: 6fec 77be 5be4 ce3e ccdd 77bd 54c7 63be
00000030: 3c38 49be 56fd a5be 20b1 0ebd 409f fc3b
00000040: a854 8b3d 48e9 a43d a0cb 0f3e 8165 493e
00000050: aca7 b0be ad98 0fbe b34b 5b3b 71dc d73e
00000060: 909b 613d 9912 68bd e7b6 78be 431b c93e
00000070: 1032 923e d8aa 5abd 26a9 77bd 0c3b 4cbd
00000080: aff1 a63e f1d0 98bc c4b9 3f3e 96ce 68be
00000090: 17d0 8cbd 1912 1a3d 4a8e e53e 4749 96be
000000a0: 3d64 d8be be45 29be a655 3dbe 5840 1b3e
000000b0: 7356 933e eb17 5dbe 1c61 153e a972 95be
000000c0: 7199 953d 2980 b2bd 2be0 2cbe bb91 86be
000000d0: 5d2d 563e ae4e b5bd c25c aebe 9bd9 a93e
000000e0: d8f2 fcbd 5706 1cbe 65b7 85be 452d a6be
000000f0: 591e 593e d11e 913e 7939 733b 85e5 ce3d
-0.37380406 -0.03871277 -0.099726975 -0.024215996 -0.2246317 -0.23808968 0.3968741 0.1327166
-0.24211286 0.40408596 -0.060514256 -0.22244006 -0.19650358 -0.32419842 -0.03483689 0.0077094138
0.06803256 0.08052307 0.1404252 0.19667627 -0.34502923 -0.14023085 0.0033461868 0.4216037
0.055079997 -0.05665836 -0.24288522 0.39278612 0.2855382 -0.053385586 -0.060464047 -0.049861
0.32606265 -0.018654319 0.18723208 -0.22735056 -0.068756275 0.037614916 0.4483512 -0.2935278
-0.42263976 -0.16530511 -0.18489704 0.15161264 0.28776893 -0.21591155 0.14587826 -0.2918904
0.07304657 -0.08715851 -0.16882388 -0.2628306 0.20915742 -0.088528976 -0.34055144 0.33173832
-0.12351006 -0.15236793 -0.2611648 -0.32456413 0.21202983 0.28343824 0.0037113114 0.10102371

net.2.weight f4 [64, 64]
00000000: b7ee c4bd a039 7e3c 6515 e33b bcad eebd
00000010: cabc 443c 94c2 5c3d cb97 f3bb 6ed3 5abd
00000020: 7cb2 d5bd 69dc 17be f50a 2f3e d084 633c
00000030: 445b efbd d0b0 26be a4b1 183d d2a2 fa3d
00000040: c0bc b2bc 3b1c 713d b579 8dbd cf31 7bbd
00000050: 5498 983c 3d56 393d 72a6 d9bd efe5 ad3d
00000060: f8c2 b0bc 978c 4ebe 5c51 f0bb 2be9 d3bd
00000070: 7e79 623c d78a 02bc 2f66 6a3d 3454 b5bd
00000080: 0a51 b0bd f293 813c 4695 0cbe 0ba6 a9bd
00000090: fa16 c5bc 2773 913c 57c5 043d 30c0 653d
000000a0: 4c00 35be c12b 823c 1336 aabd 328f 933c
000000b0: 0c82 70bc d27f 85bd 2494 723d 519f ebbd
000000c0: dcda 433d 2218 06be 8c33 fdbd b7b7 993c
000000d0: c8af d0bc fbea 3abc 4fa3 83bd e39d 82bc
000000e0: 46b0 26be d744 f6bc 135d f9bb c584 183d
000000f0: 7312 90bd 14d7 803d c205 f23d 1030 c9bb
00000100: 6204 83bd d460 a3bd cb94 bdbd e8a6 c13c
00000110: a76f 493d 72e4 edbd 681c d1bd 36c0 e8bd
00000120: 7047 84bd d406 0cbe a2d8 2f3c aa1d d13d
00000130: dc31 c63d 64bd 4dbb d0de a83c b851 a63d
00000140: 168d aa3d 1e39 b73d 1f54 02be 0455 0f3d
00000150: d94c c8bc bf95 df3d c981 e4bd 613a dbbc
00000160: 3e35 99bd 7750 94ba 0e10 c3bc b7f7 313d
00000170: 5e7c b8bc 49a7 cfbd 3826 8bba 496c a53d
00000180: 9024 e5bd 274b a1bd bae5 d43d eac6 2abd
00000190: 3125 f1bb 4ccd 293d 1606 ecbd e21e c6bd
000001a0: 1c11 383c e167 30bd 71be debc f599 7cbd
000001b0: 6381 4abc 02c5 dd3d 8894 2dbd 30d2 773d
000001c0: d807 2abd 829d cf3d 3cdf c53d 1561 a1bd
000001d0: 4247 a63c a3d7 0bbe 7778 febb f5cc a93d
000001e0: 5603 1ebd 1371 c7bd 29e8 063d cf73 b03d
000001f0: 5748 82bd 0022 e2bd 0f3c 753d dd5c 59bd
00000200: 747d 23be 5c7a 29bd ff91 233c b196 39bd
00000210: 2b20 9abd ad3a 94bd 55ee c33d a5a1 3fbd
00000220: 98a6 28bd 337a adbc 06e8 17be 985d a83c
00000230: ee4b b8bd 4de0 ecbc 7c8b 5abd 54c8 413d
00000240: 30bd b1bc 06b2 69bd 4d23 523d 1037 383d
00000250: 3a85 adbb d7db e0bd a879 7fbd 5c46 a5bd
00000260: 7a00 d9bd 0f2f 35be b678 ef3c 2d5e 99bd
00000270: 6817 283d 735a 083d ca06 1f3c e9f0 26be
00000280: f0f3 8bbc 7043 033c ddb2 1ebd 67d3 c03d
00000290: cfab 0d3d a346 b83d 8805 d03d 9612 c03d
000002a0: 2f65 2bbd 32a4 8cbc d88f d93c a611 bf3a
000002b0: f706 a63d 720e f8bd d068 c6bc 4c7c 97bd
000002c0: ca91 67bd 59ae 57bd 800f a63b 6e3e 14bc
000002d0: 56c6 8bbd 05d2 bcbc 390d 123d 1cc1 11be
000002e0: d085 773d ce67 b2ba 2c13 e5bc 3da9 643c
000002f0: f421 c1bd c2a0 6bbd 3ffa b6bc 03c7 12bc
00000300: 2b59 38bd 0a01 dcbd 4456 f93d e85f 4c3e
00000310: d5f0 82be 7434 9fbd 7b4c e3be eed9 9cbd
00000320: 0e31 bc3d 5ef0 cd3c 4b9c 0d3e c49e 5f3d
00000330: 8af9 f13d afc0 f93c 8a5f f83d f048 d2bd
00000340: e8bd ea3d 5d80 febc 3391 993c e910 eabd
00000350: 8de9 99bd 7d8f acbd 897c 1fbd fd4e 0a3c
00000360: d479 2b3d d741 143e 076f 083e b2c1 2c3e
00000370: 1e75 c83d aee0 eebd e540 f13c 64e6 053e
00000380: c8d0 2bbd 2afd a73d 0719 a4bd 8335 6b3c
00000390: 8d16 df3e b02d 60bc ce6e 92be c094 d23c
000003a0: ecdf 3a3d db85 803e 3676 163e 6725 b0bc
000003b0: 6541 42be a893 b1bd 507b 2ebc d0e5 af3c
000003c0: b0fe 393c 5b97 0b3e 30aa acbd aed8 9bbc
000003d0: cb13 363e 40be 9dbe b4ae 7fbd d323 2f3d
000003e0: 1532 f93d e5bf 223e 2926 2dbe ffa5 cc3d
000003f0: d434 bcbd 12fc 18be d4eb 12be 4847 0f3d
-0.09615844 0.015516669 0.0069300407 -0.11654231 0.012007901 0.0538965 -0.0074338666 -0.05342429
-0.10434434 -0.14830174 0.17094024 0.013886645 -0.116873294 -0.16278386 0.037278786 0.12238087
-0.021818519 0.058864813 -0.069079794 -0.061326798 0.018627323 0.04524826 -0.1062745 0.08491122
-0.021577343 -0.20170818 -0.0073339175 -0.10347208 0.013822911 -0.007967672 0.057226356 -0.08853951
-0.08609207 0.015817616 -0.13728818 -0.08283623 -0.024058808 0.017755104 0.03241476 0.056091487
-0.17675894 0.015890004 -0.08311095 0.018012617 -0.014679443 -0.065185204 0.05922331 -0.115049966
0.047816142 -0.13095143 -0.123633474 0.01876436 -0.025474444 -0.011408563 -0.06427633 -0.015944427
-0.1627818 -0.030062122 -0.0076099723 0.037235994 -0.07034769 0.06291023 0.118175045 -0.0061397627
-0.0639732 -0.07977453 -0.09256896 0.023639157 0.049178746 -0.11615838 -0.10210496 -0.11364786
-0.06458938 -0.1367448 0.010732802 0.10210736 0.09677479 -0.0031393403 0.020614058 0.08121055
0.08327691 0.08946441 -0.12727402 0.034993187 -0.024450706 0.10917234 -0.11157567 -0.026761236
-0.07480858 -0.0011315484 -0.023811366 0.04344913 -0.02252024 -0.10139329 -0.0010616248 0.080772944
-0.11188614 -0.07875662 0.10395379 -0.041693605 -0.00735917 0.041455552 -0.11524598 -0.09673859
0.011234548 -0.043067817 -0.027190419 -0.061670262 -0.01235995 0.10828592 -0.04237798 0.060503185
-0.041511387 0.10137464 0.09661719 -0.07879845 0.02029765 -0.13656478 -0.0077658254 0.082910456
-0.0385774 -0.09738364 0.03293625 0.08615839 -0.06361454 -0.11041641 0.05987173 -0.053067077
-0.15965825 -0.041376457 0.009983539 -0.045309726 -0.07525667 -0.07237754 0.095669426 -0.046785016
-0.0411745 -0.021176433 -0.14834604 0.020552441 -0.089988574 -0.028915549 -0.05335568 0.04731019
-0.021696657 -0.057054542 0.051303197 0.044974387 -0.005295423 -0.10979431 -0.06237188 -0.080700606
-0.10595794 -0.17693733 0.029232364 -0.07488666 0.041037947 0.033289384 0.0097062085 -0.16302837
-0.017084092 0.008011684 -0.038744796 0.09415322 0.034587678 0.08997848 0.10157305 0.09378545
-0.041844543 -0.017168138 0.026557848 0.0014577403 0.08106797 -0.1211213 -0.0242199 -0.073967546
-0.05653552 -0.052656505 0.0050677657 -0.0090480875 -0.06824939 -0.023049364 0.03565714 -0.14233822
0.060430348 -0.0013611258 -0.027963243 0.013956365 -0.09430304 -0.057526357 -0.022336124 -0.008958581
-0.045006912 -0.10742386 0.12174657 0.1995846 -0.25574365 -0.077736765 -0.44394287 -0.07658754
0.09189044 0.02513903 0.13829152 0.05459477 0.11815174 0.030487387 0.12127598 -0.10267818
0.11462003 -0.031067068 0.018745994 -0.114290066 -0.075152494 -0.08425806 -0.038937125 0.008441684
0.04186423 0.14478241 0.13323604 0.16870764 0.09787963 -0.11663948 0.02944989 0.13076168
-0.041947156 0.08202584 -0.08012586 0.01435602 0.43571892 -0.013682768 -0.28600162 0.025705695
0.045623705 0.25102124 0.14693531 -0.02150221 -0.18970259 -0.08670741 -0.010649517 0.021471888
0.011352226 0.13631956 -0.08430898 -0.01902422 0.17780988 -0.30809212 -0.06242247 0.042758774
0.121677555 0.15893514 -0.16909088 0.09992599 -0.09189764 -0.14939907 -0.14347774 0.03498009

net.2.bias f4 [64]
00000000: 7ce4 43bd 2d36 15be 5707 8b3d 6903 f3bd
00000010: 0e85 e2bd 24b2 0a3e d269 97bd ef44 e1bc
00000020: 5c80 2abd 1b2c d8bd 50bf e0bd 4d84 ddbd
00000030: bb66 233d 8f45 7d3d de6e 33bd dc11 a93d
00000040: 391d b9bc 6874 bdbd b6ac 933d 332c 493e
00000050: 58c9 67bc 7a55 17be 4dff 0ebd 376a 11be
00000060: d7d2 08bd e426 80bd 3b68 783d 8a5c 9d3d
00000070: 3ac8 553e 55a9 8ebd 0b62 8d3d 073b 623e
00000080: 5fa3 e33c 123c 733d e4f0 313d 05a3 adbd
00000090: c9f0 1fbe 8193 4fbd c5d6 dabd 3f7d cd3c
000000a0: 8ca3 e2bc e010 dd3d 347b bcbd efa1 843d
000000b0: c042 b1bc a318 aabd 0b0e dbbd 8ced 9fbc
000000c0: 555b 4a3e 6cd9 993d 7f1f b43d 3ce7 3ebd
000000d0: 6f34 7a3d d637 833e 4a4b d2bd 567e be3d
000000e0: 7c56 3f3d 25be b53b 7143 9c3d 2172 3b3d
000000f0: 19a8 03bc 2042 27be 0a3d c13d 04be 9bbb
-0.04782532 -0.14571448 0.06788509 -0.11865885 -0.110605344 0.13544518 -0.073932305 -0.02749869
-0.04162632 -0.105552875 -0.1097399 -0.1081625 0.039892893 0.061833914 -0.043806903 0.082553595
-0.022596942 -0.09250718 0.07210676 0.19645767 -0.014147125 -0.147787 -0.034911443 -0.14200674
-0.033404198 -0.06257418 0.060646277 0.07683666 0.20877162 -0.06965891 0.06903466 0.2209283
0.027787862 0.05938346 0.04344262 -0.08478359 -0.15619196 -0.05067778 -0.10685495 0.025084136
-0.027665876 0.10794234 -0.09203187 0.06476199 -0.021638274 -0.0830548 -0.10696038 -0.01952245
0.19761403 0.07512173 0.0879507 -0.04660724 0.06108516 0.25628537 -0.102682665 0.093014404
0.046713337 0.0055463486 0.07630051 0.04576314 -0.008035683 -0.16333818 0.094354704 -0.0047528762

net.4.weight f4 [4, 64]
00000000: 56a7 49bd eb1b 3c3d 5433 95ba 89ae 21be
00000010: c3a0 5a3c a6d8 923d 4473 fbbd 79fb 07bd
00000020: 8215 c5ba 4d08 913c 716f 9d3c 6d8f a9bd
00000030: bac3 0fbd 789a 103d 9bcf 0dbc ec60 f83c
00000040: b893 5f3d e5ed 3f3d a447 2d3b 3205 353e
00000050: f9a4 1abe c651 3ebe 4fb0 8eba f6fe cbbd
00000060: 2af1 cd3c 9ff8 fe39 5525 93bc 0de4 6a3d
00000070: 972a 383e cf33 4f3d 75ba 4ab9 4277 c63d
00000080: 7070 5f3c e13f 8abc 94f5 9a3a 9557 3b3b
00000090: 9c8d 02bd 657c cebd 36cb 063c ec51 42be
000000a0: b943 37bd 6275 da3c 367b fd3a 8a18 3ebb
000000b0: d0c3 633a 18bf 71bc 4809 653d f3e4 dcbc
000000c0: 780a 3d3e 29bb 98bc f1df cbbb dd1b 603d
000000d0: 0b4b a03c b6dc 3e3e f4f2 b63a 383a 22be
000000e0: ebee 4e3d 0f79 fb3c fc8b 14bd d36c e83b
000000f0: 7098 7b3d 4d5e 143d 4358 893d f97d da3a
00000100: ddc2 ee3c 9db7 8e3c 90c2 88bb ee90 d7bd
00000110: 6ba7 e83c 97c0 dc3c 5336 45be 5e1b f3bb
00000120: 20e9 f63a ce51 913c b686 15bc fb5d 1b3c
00000130: 394e 7dbc afef 9f3d f661 d93b a896 733d
00000140: 6f55 a1bd 5b20 0d3d 2437 883c b53f 143e
00000150: 64a5 56be 917b 3fbe 45a2 87bb 0c9c 443d
00000160: 8bcd da3d 536f 6f3c 26eb b1bd 2b6f b3bc
00000170: d58a 303e 73c6 0f3d 611d 53bb 4b13 093e
00000180: ca27 2bbb be4a ca3c 80c4 233b a124 80bb
00000190: 89a9 8fbc 533c 2cbe 0431 b83c ed0a 30be
000001a0: ac6b a53c ccee c73c 311b eaba a205 803c
000001b0: f781 f5ba ef8d c53b 70bc 0b3c 35c7 c53b
000001c0: a35e 213e ed94 aa3c 7c04 a53b 5225 c73c
000001d0: 2790 7cbc 29b8 a43d 2684 9eba c18c dfbd
000001e0: 3bec db3d 47e2 35bd c9cc 28bd 0d4b a83d
000001f0: 6bd0 553d ea06 883c ec72 c63b 4c86 4fbb
00000200: 42b0 9a3d 340b d83c 1550 ef3a 3de9 0a3e
00000210: 6a56 c13b 1be3 47bd 8905 f73d 523a a73b
00000220: a09a d138 fd21 abba 86aa bd3b f682 a53c
00000230: 0cbb 553c 64b9 82bb 317d 6e3b 0813 a8bc
00000240: 3376 e93c 5f9e 7e39 3a87 87ba c1c0 7bbd
00000250: e841 053e 2c2a 113e e6e6 263b 1f98 8e3d
00000260: dba1 05be 5d84 263c 485b a53d 7ece 80bc
00000270: 37c3 8abe 9141 90bc c763 bb3b bd6b 13bd
00000280: 2e44 cb3c 13ab 8dbc a407 813a ebe3 b93b
00000290: fa6a 25bc c9a4 ab3d 1f46 56bc 6ad7 c63d
000002a0: 6122 033c 44ee 223d b1df 913a 7d48 303c
000002b0: 201e cc3a 4f8d 90ba 3729 d83c b05d 883d
000002c0: 14ac 10be a3e1 b53c c741 dbbc 8164 aabc
000002d0: 1892 7d3c ba84 a6bd 4c73 073c edc6 eb3c
000002e0: 9561 0cbd 8220 053c 02e5 cc3c 72db 4b3d
000002f0: 9015 10bd fe66 c63c e446 b3bc 37fd cebb
00000300: db51 463d 83cc a23c 2f06 303c bb68 fc3d
00000310: a230 fe38 c093 08bd 2498 093e 99f7 743d
00000320: 700a c7b9 d659 abba 232c ef3c fdc2 ad3c
00000330: ef2a 33bc 5342 3cbd fea6 74bc 680c 003d
00000340: f9d6 553d 0a5a 5dbd 0b0a 0ebb 5c11 79bd
00000350: 0c92 413e 9c32 f53d 9d70 01bc 30f0 043e
00000360: f165 7dbd 499f 08bc 5e80 e23d 5afa b4bc
00000370: ab4f 59be b539 84bc 13e7 0a3b 9c5b 06be
00000380: 9bd9 26bd 7982 a03b 7de2 31bb 6614 25ba
00000390: c911 c13c 288c 123e bfcc 1b3b 76db 213e
000003a0: fe70 633b 7775 de3d 710d ceb8 9538 623c
000003b0: d286 edba a758 3b3d be76 06bd c14f 343c
000003c0: eb29 3abe da84 e63c 1474 c13c 2add b4bc
000003d0: bfd3 9e3c 2e27 3fbe 9bb9 c03b 2b38 f53d
000003e0: 1625 873c 8051 843d e615 d93d fa33 cab9
000003f0: 1635 1ebd 2571 3cbc 1b7e 25bc 2104 ef3b
-0.04923185 0.045925062 -0.0011383095 -0.15789236 0.013343993 0.07170229 -0.122778445 -0.033198807
-0.0015036317 0.017704153 0.019218178 -0.082793094 -0.03509877 0.035303563 -0.008655454 0.030319653
0.054584235 0.046857733 0.0026440406 0.17677763 -0.15101995 -0.18585882 -0.0010886284 -0.09960739
0.02513941 0.00048631892 -0.017962137 0.057346392 0.17984997 0.050586518 -0.00019333682 0.096907154
0.013637647 -0.016876163 0.0011822456 0.0028586139 -0.03187333 -0.1008232 0.00822716 -0.18976563
-0.04474232 0.0266673 0.0019339088 -0.0029006326 0.0008688541 -0.014755033 0.055917054 -0.02696464
0.18461025 -0.018643932 -0.0062217643 0.054714072 0.019567033 0.18638882 0.0013957904 -0.15842521
0.05052082 0.030697374 -0.036266312 0.007093051 0.061424673 0.036222745 0.06706288 0.0016669623
0.029145652 0.017421538 -0.0041735843 -0.1052569 0.028400144 0.026947303 -0.19259004 -0.007419034
0.0018837787 0.017739203 -0.009126356 0.009482856 -0.015460544 0.07809388 0.0066339923 0.05946985
-0.07877623 0.034454685 0.016627856 0.14477427 -0.20961529 -0.1869948 -0.004139217 0.04800038
0.106837355 0.014613944 -0.08687429 -0.021903595 0.1724046 0.035101365 -0.0032213556 0.13386266
-0.0026116245 0.024693843 0.002498895 -0.0039106165 -0.017536895 -0.16819887 0.02248431 -0.17191668
0.020192944 0.02440586 -0.0017860887 0.015627686 -0.0018730749 0.0060288827 0.008528814 0.00603571
0.15758757 0.020822966 0.005035935 0.024309788 -0.015415228 0.08042938 -0.0012093827 -0.109155186
0.10738417 -0.044405248 -0.041210923 0.0821744 0.052200716 0.01660486 0.00605618 -0.003166574
0.0755315 0.02637253 0.0018258119 0.13565536 0.005900194 -0.04880057 0.120616026 0.005103388
9.994698e-05 -0.0013056394 0.0057881502 0.020204049 0.013045084 -0.0039893854 0.0036390538 -0.020516887
0.028498745 0.00024282325 -0.0010339983 -0.06146312 0.13013422 0.14176244 0.0025467216 0.069626085
-0.13050024 0.010163394 0.08074051 -0.015723463 -0.27102062 -0.01760939 0.0057186815 -0.03599142
0.024812784 -0.017293489 0.0009844196 0.005672922 -0.010096306 0.0838104 -0.013078242 0.09709056
0.008003802 0.03977801 0.0011129287 0.01075947 0.0015572943 -0.0011028441 0.02638684 0.066584945
-0.14128143 0.022202319 -0.026764764 -0.020799877 0.015476726 -0.08130784 0.008267235 0.028781379
-0.03427275 0.008125426 0.025011543 0.049769826 -0.035176814 0.024219032 -0.02188439 -0.0063168067
0.048417907 0.01987291 0.010743662 0.12324663 0.000121207224 -0.03334403 0.13436943 0.05980644
-0.00037964014 -0.0013073038 0.02919585 0.021211142 -0.010935529 -0.04596169 -0.014932392 0.03126183
0.052206967 -0.054040946 -0.0021673467 -0.06080757 0.18903369 0.119725436 -0.007900384 0.1298225
-0.061864797 -0.008338758 0.1105964 -0.022092033 -0.21221797 -0.016140798 0.002119486 -0.13120884
-0.04073487 0.004898366 -0.0027143054 -0.000629729 0.023568051 0.14311278 0.0023773161 0.15806374
0.00347048 0.108622484 -9.825349e-05 0.0138074355 -0.0018121845 0.045738842 -0.032828085 0.011005343
-0.18180053 0.02813952 0.02361492 -0.022078115 0.019388078 -0.1866729 0.005881501 0.11973604
0.016497176 0.064608574 0.1059988 -0.00038567168 -0.038624845 -0.011501585 -0.010100867 0.0072941934

net.4.bias f4 [4]
00000000: d724 773e 558d 103d a7c5 aabd c6bf 07be
0.24135147 0.035291035 -0.083384804 -0.1325675

net.0.weight f4 [64, 8]
00000000: 4f88 77bd 9918 ac3e c67d 9ebe 8374 8bbe
00000010: e305 bfbe 1cc7 31be 97fc 19be b541 9d3d
00000020: 1f8c 703f 11d6 b53f a2f8 583f 3025 d5bd
00000030: a697 5fbb e78a aa3f 7335 d8be 4b64 acbe
00000040: 966d 913e 8efd b53e c36c 573e e431 d1be
00000050: 51dc 88be 3926 eb3d 5e55 91bc ef65 5a3e
00000060: 7477 58bd f47b 813d 6c23 733e 8834 0ebe
00000070: 0ead f8bd 1e89 f8bd c0d9 3cbc cac2 93be
00000080: 5101 a73e 6c50 5d3f d600 473d 724d dcbe
00000090: b485 b6be 2c97 113e dfca 90be 3f97 63be
000000a0: 131f 32bf a006 56bf 30d3 20bf c729 1c3b
000000b0: 9b2c d3bd fc68 09bf 8d14 bc3e 6b31 763e
000000c0: b953 6cbe 57b6 5bbe 5bc3 5dbe e727 a7bd
000000d0: 533c 2a3e 1d1a 863e 3b7f 84be f5d1 e33d
000000e0: 3c45 733f ed9f 2a3f 5c0b dd3f 3535 dd3c
000000f0: 7fe9 343d 1d6a 553f 4686 d7bf ded6 f8bf
00000100: acad 833f aba3 453f 462b 293f f375 9fbe
00000110: bd9a ddbd cf20 45bf f8cf b4be 86a0 6cbc
00000120: b58f aa3f 1aca d33f bc04 983f 6e42 0dbd
00000130: 3286 69bd 9b01 923f c06d a3be a027 633b
00000140: ffc0 623f 0bb0 ce3f c15d 4f3f 97e0 823b
00000150: 4565 2d3e f863 a73f 4d7c 12bf 4f41 1bbf
00000160: 47b6 33bf d153 5abf f61f 74bf 5b45 903b
00000170: 8ba1 ccbe 0119 93bf 4b40 263f fbf1 dd3e
00000180: fa08 1d3f d81b 903f 678c 1c3f 7efc 34be
00000190: 8c76 28be 9bd9 de3e bcec 71be 52b9 0abf
000001a0: da09 2a3f d08e 083d 0d82 d63e bb1c 16be
000001b0: 29e0 88be e73f 1cc1 97de 723d 7517 373c
000001c0: 15fc 70bf 2489 7cbf fb56 4abf 6815 ae3b
000001d0: 57ea 983d 1343 03be 665b 223f b2e9 dbbd
000001e0: fcad 4dbe 6dc4 84be fed8 ffbd 16b9 72be
000001f0: f01e 29be ae86 5dbe 88ff 60be 4c5a 95bd
00000200: 5d2a d4bf 636f cdbf d2ba cfbe cc3e 1d3e
00000210: 501e 2c3e a171 6c3f 9316 3bbe d9bb b63d
00000220: 6221 383f 2a1a 873f c3a0 ef3d b657 9dbe
00000230: 5596 7abe 0af4 de3e dbc4 10bf e189 e7bd
00000240: 9338 8f3d 8873 85be 42ba 123e 366b 47bc
00000250: 068e fcbb 4281 173e 354d 79be ff48 013d
00000260: 48a7 0e3f 56c3 8f3f 04ab 1dbf dbf5 5bbe
00000270: fa6e 90be 8e8a 6c3f 1b0d 5cbd 8b8f e83b
00000280: 47a2 9d3e 1f34 243e f6fc de3d 7d9a e1be
00000290: 0bfc 51be 9ee1 f6be 2347 34be 95ee 313d
000002a0: 8d9f 953f edbd 743f b5ba cf3f 98b3 8f3a
000002b0: 0df7 8cbc 5c53 6a3f a32e 7fbf 15b9 b4bf
000002c0: 3b75 ae3e 6298 3a3f 1f1b 543f 2c67 afbe
000002d0: 294f bfbd 7df7 98be 8d40 263d 958f a4be
000002e0: 9145 2a3f a18d 2a3f e8c3 853f c804 85be
000002f0: cec7 9fbe 8417 f83d 4920 f2be 849d 1bbf
00000300: d67b 443f 1fab 8e3f 456f 443f e654 64be
00000310: bf3d a0be 021d 713e 0aa8 85bc e68a 70be
00000320: e71d b2be 8e05 04bf 2563 b5be 5734 57be
00000330: 8abb 083e 789b aabe dec3 4dbe d2b4 81be
00000340: 7736 a43e 8ef9 e53e d2e7 343d f4ec debd
00000350: efcf dabe d69e b33d 6d42 853d f864 5bbe
00000360: 215d 82be 968e ffbd 4ace 27be e015 70be
00000370: 00a8 bb39 8059 e73b f003 203e e9db 03be
00000380: 467c cdbe b3a5 21bf 8bbd 90bf 00fd 27be
00000390: 340f 0dbf 151f 0fbf 5946 e23e 1fa3 8b3d
000003a0: 8ccc 963f 1dcf a93f eabc 543f 02cb 4dbd
000003b0: 6d19 003d 6221 583f ff7b 97be a923 60be
000003c0: b98e 90bf 836b 90bf d6b2 78bf be3d 7ebe
000003d0: 8828 503e 4575 48bf 5806 99be ba5a 94be
000003e0: 3b66 013f bf44 b63e 6651 f63e 2c4e 0ebe
000003f0: bb3a e2bd c4a8 143f 1c01 7ebd 8cb0 4bbf
-0.06043273 0.33612517 -0.30955333 -0.2723733 -0.3730918 -0.1736111 -0.15037762 0.07678548
0.9396381 1.4205953 0.84754384 -0.104074836 -0.003411749 1.332364 -0.4222828 -0.33670267
0.2840392 0.3554501 0.21037583 -0.40858376 -0.26730588 0.114819 -0.017740902 0.21327947
-0.052848294 0.0632247 0.23743981 -0.13887227 -0.121423826 -0.12135528 -0.011526525 -0.2885955
0.32618192 0.8645084 0.04858478 -0.43027836 -0.35648882 0.14217824 -0.28279778 -0.22225665
-0.69578665 -0.8360386 -0.62822247 0.0023828612 -0.10311242 -0.5367582 0.3673443 0.24042289
-0.23078813 -0.21456276 -0.21656553 -0.08161908 0.16624574 0.26191798 -0.2587832 0.111240305
0.9502752 0.6665028 1.7269092 0.02700291 0.04416799 0.8336504 -1.6837852 -1.9440572
1.0287375 0.7720286 0.66081655 -0.31144676 -0.108205296 -0.77003187 -0.35314918 -0.014442569
1.3325106 1.6546052 1.1876445 -0.03448718 -0.057012744 1.140674 -0.3191967 0.003466107
0.8857574 1.6147474 0.8100243 0.0039940584 0.16933163 1.3077383 -0.5722092 -0.6064653
-0.7020001 -0.85284144 -0.9536127 0.004402799 -0.39966998 -1.1492006 0.64941853 0.4334868
0.6134182 1.1258497 0.61151737 -0.17674443 -0.16451472 0.43525395 -0.23625463 -0.54189026
0.6642128 0.03333932 0.41896096 -0.14659397 -0.2673352 -9.765601 0.05929431 0.011175026
-0.94134647 -0.9864676 -0.7903897 0.0053126104 0.07466572 -0.12818556 0.6342071 -0.10737933
-0.20085901 -0.2593111 -0.1249256 -0.23703417 -0.16515708 -0.21633407 -0.21972477 -0.072926134
-1.6575428 -1.6049618 -0.4057222 0.15355986 0.16808438 0.92360884 -0.1827033 0.08922548
0.7192594 1.055486 0.11700585 -0.3073098 -0.2447141 0.43545562 -0.5655038 -0.11305595
0.069932126 -0.26064706 0.14328864 -0.012171557 -0.00770736 0.14795402 -0.24345858 0.031563755
0.55724 1.1231487 -0.61589074 -0.21480505 -0.28209668 0.9239892 -0.053723436 0.00709719
0.3078787 0.16035508 0.10888092 -0.44063178 -0.20506303 -0.48219007 -0.17605262 0.04344042
1.1689316 0.95602304 1.6228853 0.0010963557 -0.017207647 0.91533446 -0.99680537 -1.4118983
0.34073815 0.7288877 0.82853884 -0.342584 -0.093412705 -0.2987632 0.040588904 -0.32140794
0.665124 0.6662236 1.0450411 -0.2598021 -0.31207126 0.1211386 -0.47290257 -0.60787225
0.7675146 1.1145972 0.76732284 -0.22298011 -0.3129711 0.23546222 -0.016315479 -0.23490486
-0.3478844 -0.51570976 -0.35427204 -0.2101606 0.1335279 -0.33321738 -0.20094249 -0.25333267
0.32072803 0.44916958 0.044166394 -0.10885039 -0.42736766 0.0877053 0.0650681 -0.21425235
-0.25461677 -0.12478368 -0.16387287 -0.23445845 0.0003579259 0.00706023 0.15626502 -0.12876858
-0.40133876 -0.6314346 -1.1307844 -0.16405106 -0.55101323 -0.559068 0.44194296 0.06818222
1.1781173 1.3266331 0.8310076 -0.05024243 0.031274248 0.8442594 -0.2958679 -0.21888603
-1.1293555 -1.128281 -0.9714788 -0.2482824 0.20327961 -0.7830394 -0.29887652 -0.2897547
0.50546616 0.35599324 0.48108977 -0.13897008 -0.11046358 0.58070016 -0.062012777 -0.79566264

net.0.bias f4 [64]
00000000: f7ac 1d3e 5bd8 1fbe 8c11 7a3d b4f8 3bbe
00000010: b3d0 7e3c 4a85 5a3f c541 f5bd 68b6 1cbf
00000020: ee19 75be 63aa 713e ec30 28bf d5b1 5c3f
00000030: 1bdf c4bc 2bbb e03e 9e50 833f 569f 7ebe
00000040: e1f6 5ebf 3a31 8ebe d815 cabd d112 e9bc
00000050: 9d4e 8e3e 3b80 25bf 02f1 443e 60cc e2bc
00000060: 093a efbe 3b8b ea3e a98d 8f3d 8e38 64be
00000070: 26d3 f63e 2364 69bf 669e dfbe e8e6 f83e
00000080: 09f9 863f ad77 babe 993c 4dbe f40d 41bf
00000090: ed2c 503f 6c86 81bf b334 e1be 5e07 053e
000000a0: b727 273d a36b 88be 4935 12bf 111f bfbd
000000b0: 7ef4 183f c10c 3c3f c526 fabe 4f06 6e3f
000000c0: e9df f2be 703d 0c3f 2973 cc3e 5d7a 993d
000000d0: de2f 4fbe a0a2 8dbe 0729 573d 1aae dd3d
000000e0: da42 903e 449f 403f 9c2e 7d3d 5513 043e
000000f0: be54 b13e 77e8 dd3e 9e84 cfbd 8794 983e
0.15398012 -0.15609877 0.06105189 -0.18356591 0.015552687 0.8535963 -0.11975435 -0.6121583
-0.23935673 0.23600154 -0.6569965 0.8620885 -0.024032166 0.43892798 1.0258977 -0.2486547
-0.8709546 -0.27771932 -0.098674476 -0.028451355 0.27794352 -0.6464879 0.19232562 -0.027685344
-0.46723965 0.4580935 0.070094414 -0.22287199 0.48207968 -0.9116842 -0.43675536 0.48613667
1.054475 -0.3641943 -0.20042647 -0.75411916 0.8131855 -1.0119147 -0.4398552 0.12991092
0.04080936 -0.2664462 -0.57112557 -0.09332097 0.59748065 0.7345696 -0.48857704 0.92978376
-0.47436455 0.54781246 0.3993161 0.07494042 -0.20233104 -0.27663136 0.05252936 0.10824223
0.28176004 0.7524302 0.06181203 0.12898 0.34634966 0.4334142 -0.101327166 0.29800817

net.2.weight f4 [64, 64]
00000000: 7a66 aa3c b46c 333e 02ef 693d f01b 4cbd
00000010: 8d3c d7be 3f75 6b3d 524b 1d3e 20c9 73bf
00000020: 1b26 9abe 5c44 cb3e 4373 95bf 81c1 a63c
00000030: 4661 ecbe d6be dfbf a462 583e 8e1f b0bd
00000040: 4fa0 2c3e 5e37 a1bf 324f ee3c 846d 3c3e
00000050: 0bb2 3d3e 4af5 7bbf 0859 8bbe bfa0 14bf
00000060: 48a0 d5be b22a c33d ff15 493c e2ac 9f3d
00000070: 33e2 803d cc14 20c0 d33f f33d 629d 3e3e
00000080: a9f1 c73d bd1b b33d b587 493e 757f f9bf
00000090: 9b69 10be 135a 17c0 1c9a 01bf c068 433b
000000a0: c450 783e b4ab e6bd 3352 4ebe b8b6 3bbf
000000b0: fa96 34bd 12a1 8abe 8068 b9bc f3bb 0e3e
000000c0: 69b3 d1bd 8e8b 083f 0d2e 22bf 0009 d7be
000000d0: 34f4 33be 535a dbbd e941 85bd 000c 11be
000000e0: 4968 1cbe 2870 583e d37b 97bf 03ca 01be
000000f0: cf59 3dbc cfc0 6b3e 6f96 bfbd 7174 0d3e
00000100: 016e 83be c1c2 14be 567c 4fbe d1bd 1a3e
00000110: df57 893c f21b cbbd 546a 1bbe 0260 d83d
00000120: 950e c0bc bc66 013e a6ff dbbc 10c4 97bd
00000130: eccb 273e b55e 72be 9260 283d e141 e5bd
00000140: 779d 82be 4366 dbbc a201 2fbe c650 36bd
00000150: 90c0 6a3c e3a1 f03b 14c9 743e 926e a3bd
00000160: b720 93bd 4ad6 993d c366 95bd 8213 b5bd
00000170: 2755 8bbc 19cd f2bd 144d 12be 28f3 233e
00000180: 7a4d 39be deb6 df3d 8e85 ca3d e5f4 dbbd
00000190: 21b1 d53d d394 98bd 03b5 a93d a79b 24be
000001a0: 69d6 81bd 9e8e e43d 454f a0bd a573 8ebd
000001b0: 1d0e 7dbe ea30 0abe f012 29be 8180 b6bb
000001c0: b2dd 283e 7e78 aabc 7734 a53d 013c 823e
000001d0: 8e87 54bd ded8 1abe 8431 3cbe 3395 103e
000001e0: ca6c f8bd a46c 5bbe 65f3 98bd 3510 40be
000001f0: 98a3 65be 006e afbd 8948 a1bd 1fcf e33d
00000200: 9c09 8d3d d3b9 c73e 9888 23be f6a2 cabd
00000210: 7632 e7bc f157 57bf 9071 89bd 81aa ebbd
00000220: 8fc4 d9bc 2aad e33e 1e0e d73e 9c81 b8bf
00000230: 677e 55be 10e1 5b3c 649a a6bf 0d3b 003e
00000240: a86d 40be a4de bf3c 25b2 d33d b80c 1e3e
00000250: 4731 6c3e ddb4 943e 5aa1 a13d 1aea aebe
00000260: c71d 81bd b11e e2bd 069f cb3d c176 573e
00000270: 034e 4bbf e25d f83e 75af 64be d356 23bd
00000280: d601 e1bf 92df 6fbd 4877 09be 3850 043f
00000290: d827 9dbf 6ed3 a33e 7d3a b13c d812 85bd
000002a0: 8365 b13e bb97 873d d635 29bc 00e0 313c
000002b0: adb7 7bbb 0c02 2abe 85df 17be 0ef4 adbf
000002c0: 30cc 78bd 2ce5 2c3f bf58 e9be 9f27 9abe
000002d0: 80c2 cdbe a092 0d3f 90bc 6dbc 4183 2c3d
000002e0: b483 ecbc 73f3 ffbe 1d72 183e 004b 7c3d
000002f0: 57e9 b0bc c9b0 11bd 22ed 353e aff4 883e
00000300: 9ea3 083e 4b58 8cbe 66ed 54be 435f 2f3e
00000310: 3742 c1bc 44f2 42be 1e49 febb 59f4 f0bd
00000320: d7c7 6bbc 01b1 d5bd 9d23 a3bd f4eb 3cbe
00000330: 3b9b 9f3c 8ea0 473e 024d 533d 285c d23c
00000340: ded1 82be c3bc 633d 6ef0 b63c be2a 0fbe
00000350: a427 21bd 4089 7fbe 43fc 31be 60df ff3c
00000360: 91b1 9c3b 2c23 86bd 6968 c23d a734 3f3e
00000370: 7118 70be fa32 d13b b6b3 d23d ab85 9fbc
00000380: 7700 f03d c78f 4dbe 9eff 31be 3c26 7cbd
00000390: 823c 49be 6418 9cbd 8cd5 c6bd 3498 4f3d
000003a0: b603 1ebe af8a 55be a3b0 1bbd 4d99 673e
000003b0: 25ce ecbd 60cc 84be 297f bc3d 53b1 403d
000003c0: 17e2 abbd c3cc ae3d bafb a1bd 5d6e 703d
000003d0: 0028 4e3e cd3e a5bd 781f 1ebd dc17 283d
000003e0: e673 49be 057b b9bd c144 323e 0d00 edbc
000003f0: 5c15 e7bd ae0b 123e 88f1 2bbd 2a01 0fbe
0.020800818 0.17521936 0.0571127 -0.04983133 -0.42038384 0.05748486 0.15360764 -0.9522877
-0.30107197 0.39700592 -1.16758 0.020355942 -0.46167964 -1.7480114 0.21131378 -0.085997686
0.16858028 -1.2595022 0.029090498 0.18401152 0.18524949 -0.98421156 -0.27216363 -0.5805778
-0.41723847 0.09529628 0.012273311 0.07796647 0.06293144 -2.5012693 0.11877408 0.18614724
0.0976289 0.08745525 0.19680674 -1.9492022 -0.14102785 -2.3648727 -0.5062578 0.0029817075
0.2424956 -0.112632185 -0.20148544 -0.7332568 -0.044089295 -0.27076012 -0.022632837 0.13938884
-0.10239298 0.53337944 -0.6335152 -0.41999054 -0.17573625 -0.10710587 -0.06506712 -0.14164734
-0.15274157 0.21136534 -1.1834663 -0.12674718 -0.011557057 0.2302277 -0.09354865 0.1381395
-0.25669864 -0.14527418 -0.20262274 0.15111472 0.016765533 -0.099174395 -0.1517728 0.10565187
-0.023444453 0.12636846 -0.026855301 -0.07410443 0.16386384 -0.2366894 0.04110772 -0.11194206
-0.2551076 -0.02678216 -0.17090467 -0.044510625 0.014328137 0.007343517 0.2390483 -0.07980074
-0.07183974 0.075115755 -0.07294991 -0.088416114 -0.017008377 -0.118555255 -0.14287215 0.16010725
-0.18095961 0.10923551 0.09888755 -0.10740069 0.10434175 -0.07450261 0.08286478 -0.16075002
-0.063397236 0.111600146 -0.078276195 -0.06955651 -0.24712415 -0.13495222 -0.1651113 -0.005569518
0.1649082 -0.020809408 0.080666475 0.25436404 -0.051887088 -0.15121791 -0.18378264 0.14119415
-0.12130125 -0.21428162 -0.07468299 -0.18756182 -0.22425687 -0.08565903 -0.07875163 0.111234896
0.068865985 0.3900896 -0.15970075 -0.098943636 -0.028222304 -0.8411856 -0.067111135 -0.115071304
-0.026582984 0.4446805 0.42002958 -1.4414554 -0.20849 0.013420358 -1.3015866 0.12522526
-0.1879183 0.023421593 0.10336713 0.1543454 0.23065673 0.29044238 0.078921035 -0.3416298
-0.06304508 -0.1104101 0.09942441 0.21041395 -0.7941591 0.48509127 -0.22332557 -0.039877724
-1.7578685 -0.058562823 -0.13424408 0.51684904 -1.2277784 0.31997246 0.021634335 -0.06497735
0.3464776 0.06620737 -0.010327777 0.010856628 -0.003840904 -0.16602343 -0.1483136 -1.3590105
-0.060741603 0.6753719 -0.4557552 -0.30108353 -0.40187454 0.55301857 -0.014510289 0.04211736
-0.028871395 -0.49990425 0.14887281 0.061594963 -0.02159564 -0.035568986 0.1776624 0.2674918
0.13343665 -0.27411112 -0.20793685 0.17126183 -0.023591144 -0.1903773 -0.007760181 -0.117653556
-0.014390907 -0.104341514 -0.07965777 -0.18449384 0.0194832 0.1949484 0.051587112 0.02567871
-0.2555074 0.05559994 0.022331443 -0.13981149 -0.039344445 -0.249547 -0.17381386 0.031234443
0.0047819098 -0.06549677 0.09492571 0.18672429 -0.23446824 0.0063842507 0.102881834 -0.019472918
0.11718839 -0.20074378 -0.17382666 -0.0615599 -0.19651988 -0.0762184 -0.097086996 0.05068226
-0.15431103 -0.20853685 -0.03801025 0.22617073 -0.115627564 -0.25937176 0.092039414 0.04704411
-0.083927326 0.08535149 -0.07909341 0.058699 0.20132446 -0.08068619 -0.03860423 0.04103838
-0.19673118 -0.09056667 0.1740904 -0.028930688 -0.11283371 0.14262268 -0.04197839 -0.13965288

net.2.bias f4 [64]
00000000: a277 3d3f 38b6 4fbe 4bdc 88be c104 c3bd
00000010: 777f 1cbe ac2f f7bd 4064 10be ecce 37be
00000020: db02 523e 89b8 873d 449a ad3d a9c2 03be
00000030: 8568 513f bda5 89bd a836 86bd cb96 17bd
00000040: a1e9 9bbe 8388 353f eb4f 9c3d 80e4 8ebe
00000050: 01df 253f 73d1 dcbe 3fd2 0ebe 16e9 f43d
00000060: ad62 29bd f703 a0bd 3d73 00be 17e7 40bd
00000070: ba4b 343f fb8e 29be bc4c cbbd 8f94 003d
00000080: 3396 9bbd ed45 4e3f 6ba1 13be 13d7 2e3f
00000090: 742c 2fbe 4694 8bbf e4ee 4b3f 8558 813d
000000a0: ee27 e9bd 3454 053e 1fdd 09be 2112 37bf
000000b0: 417a 3b3f fa5e 15be a7d7 09bd d10c efbd
000000c0: 939a 4f3f c4c8 24be b5a2 51bd 71b3 123f
000000d0: 3648 c9bb 3390 24be a69b 1f3f a94f 0b3d
000000e0: 1746 0f3f 550d 1b3f 068a 14bd 0059 8f3d
000000f0: 225f 71be b77d b53c b140 12be d5a4 2d3f
0.7401067 -0.20284355 -0.2673057 -0.09522391 -0.15282999 -0.120696396 -0.14100742 -0.17950028
0.20508902 0.06626994 0.084766895 -0.12867226 0.8180011 -0.06721065 -0.065533936 -0.03700904
-0.30451682 0.70911425 0.07632431 -0.27908707 0.647934 -0.43128547 -0.1394739 0.1195852
-0.04135387 -0.07813256 -0.1254396 -0.047095384 0.7042805 -0.16558449 -0.09926745 0.031391677
-0.075970076 0.8057545 -0.14417045 0.6829693 -0.17106801 -1.0904624 0.79661393 0.06315712
-0.11384569 0.13020402 -0.13463257 -0.7151204 0.7323342 -0.14587012 -0.033652928 -0.116723664
0.81095237 -0.16092211 -0.05118056 0.57305056 -0.0061426414 -0.16070633 0.62346876 0.034011517
0.55966324 0.6056722 -0.036264442 0.06999397 -0.23571447 0.022154672 -0.1428249 0.6782964

net.4.weight f4 [1, 64]
00000000: 0f1a 05bf 6cd8 0dbe 3f24 3e3f ab1b 16bb
00000010: b790 ca3e 7894 0b3f 9286 26bd d499 1e3f
00000020: 6b42 593f d1bf 193f fd32 273e 86d3 cc3f
00000030: 1661 12bf 07bc 4d3f 610b 88bd ac4e a4bd
00000040: f1f8 bbbd 7e26 05bf 1f84 143f ee00 f83e
00000050: 81ba 14bf 4646 84bf bd25 ddbc 1bce 073f
00000060: ed3f 7fbd b6fa 283e 61d6 773e 7930 713f
00000070: 07fd cbbe 1ef0 2fbe de34 563e 9ae7 573c
00000080: 35f3 413f 4e28 e5be de6a 323f c5db dabe
00000090: 2dcf 023f 6d2c f9be bb7c 1dbf b88a 143f
000000a0: 1bef 493f 4bd1 d23e 76bf 773f 8370 c5be
000000b0: 7ed5 d1be cb40 bc3f 3564 0e3c ca20 a23f
000000c0: 1d5e 26bf 7e2d 713c e2d6 ab3f 3aff 04bf
000000d0: 6a09 db3c 0abf 273f 9593 f0be 4c30 c43e
000000e0: e50c a0bf 2b6f cdbe 22fb 9d3f 7c6b 8ebc
000000f0: 0eed 7dbe 72bf 143e 50f0 233f 7f57 00bf
-0.5199289 -0.1385209 0.7427406 -0.0022904675 0.39563534 0.5452342 -0.04065568 0.61953473
0.8486697 0.60058314 0.16328044 1.6002052 -0.5717939 0.8036503 -0.06642795 -0.08022818
-0.09178341 -0.5201186 0.580141 0.4843821 -0.5809708 -1.0333946 -0.026995534 0.53048867
-0.062316824 0.16501889 0.24202873 0.9421459 -0.39841482 -0.17181441 0.20918605 0.013177777
0.7576173 -0.44757313 0.69694316 -0.42745796 0.51097375 -0.48666707 -0.6151845 0.5802417
0.7888047 0.41175303 0.9677652 -0.38562402 -0.40983194 1.4707273 0.008690883 1.2666256
-0.64987355 0.014720319 1.3424952 -0.51951945 0.026737887 0.6552588 -0.46987596 0.38318098
-1.2503935 -0.40123877 1.2342265 -0.017385237 -0.2479746 0.14526156 0.6403856 -0.5013351

exp_avg f4 [64, 8]
00000000: 553b 013b f121 e13a e2ca 353a 43e9 2e3d
00000010: 30ef 9c3b 1c38 263a 43e1 b93b 7d07 333c
00000020: 0000 0000 0000 0000 0000 0000 0000 0000
00000030: 0000 0000 0000 0000 0000 0000 0000 0000
00000040: 76f8 4cbb a11d 3bbb 22ac daba 695e 6cbd
00000050: bd2c babb 4eca 3fba ece3 f7ba e390 1dbb
00000060: d636 a2ba 4785 8eba 7a03 32ba 2c62 b4bc
00000070: 7c4b 29bb abba d9b9 345f d9b9 f9cd 2ab9
00000080: c0d4 8837 18bd c637 c12f 07b5 5c35 2eb8
00000090: fa24 323a 693a a035 5ce5 4c37 fed3 9437
000000a0: 52df 2e39 8377 4939 058a 0cb8 856a 163c
000000b0: 07da 3a3b f1a2 c839 3060 a33a ae53 353b
000000c0: 2f89 5bbb 30bf 4abb bbbf 84ba cf96 25bd
000000d0: 1273 dfbb 8b0b 14ba 844d efbb 1957 5abc
000000e0: 23a1 34ba 5727 16ba fba5 1839 99a9 d2bb
000000f0: 5190 dcba 1bc2 c7b8 e271 83bb 6ee7 02bc
00000100: 0000 0000 0000 0000 0000 0000 0000 0000
00000110: 0000 0000 0000 0000 0000 0000 0000 0000
00000120: 8987 4fbb 84f9 37bb 3d26 81ba df5a 51bd
00000130: 589b d1bb 933d 3fba 7354 f3bb 8070 65bc
00000140: 0400 0000 0400 0000 0400 0000 0400 0000
00000150: 0400 0000 0400 0000 0400 0000 0400 0000
00000160: 0000 0000 0000 0000 0000 0000 0000 0000
00000170: 0000 0000 0000 0000 0000 0000 0000 0000
00000180: 0400 0000 0400 0000 0000 0000 0400 0000
00000190: 0400 0000 0400 0000 0400 0000 0400 0000
000001a0: dfab 463b d97c 313b 2750 2c3a 9314 f93c
000001b0: 8a01 c73b 357b e239 b432 f13b 74a3 5e3c
000001c0: 0000 0000 0000 0000 0000 0000 0000 0000
000001d0: 0000 0000 0000 0000 0000 0000 0000 0000
000001e0: 0000 0000 0000 0000 0000 0000 0000 0000
000001f0: 0000 0000 0000 0000 0000 0000 0000 0000
00000200: 0000 0000 0000 0000 0000 0000 0000 0000
00000210: 0000 0000 0000 0000 0000 0000 0000 0000
00000220: 0780 05bb 203e f6ba d7d3 23ba 22d1 febb
00000230: 193d 5cbb e9c4 49b8 e6b4 2dbb e681 8bbb
00000240: f55d 0dbb d157 fbba 6604 feb9 5fe6 a9bc
00000250: 2a76 85bb a76b 99b9 2487 abbb a7ab 1bbc
00000260: 20f2 d236 1865 1337 23bc 2335 9b70 fab6
00000270: ec04 7139 9756 2435 7e9c 9436 8b80 de36
00000280: ff79 523a 90f9 403a 6c32 063a 7319 7a3c
00000290: e61f b53a 2502 8139 89e0 6239 546f 03b5
000002a0: 1737 103b a679 013b e26e 673a 8510 053d
000002b0: 01f6 863b 09b1 f639 aa49 593b 6cfe b33b
000002c0: b35a 473b 9ce1 313b 41d0 8e3a 82af 343d
000002d0: dcf6 b93b 1969 2d3a ae0d b03b abae 1b3c
000002e0: 181e 2cbb 944a 19bb cfc7 17ba edf3 e8bc
000002f0: bb13 b2bb d674 e0b9 8e3b dfbb e030 4ebc
00000300: 0000 0000 0000 0000 0000 0000 0000 0000
00000310: 0000 0000 0000 0000 0000 0000 0000 0000
00000320: 9a48 01ba 99cd e8b9 316e 8db9 c906 05bc
00000330: 8905 62ba e17b 19b9 cacb 64b9 2aa1 5ab9
00000340: 6acd 58ba d777 44ba 8b75 ebb9 9476 6cbc
00000350: ee09 adba 6762 75b9 3ee5 d9b9 2735 dab9
00000360: ecd3 acbb 5b8b 99bb aec2 caba bf2e a2bd
00000370: 5912 32bc e438 96ba 1e4d 50bc 5e4d c3bc
00000380: 354c 65b6 3abc 89b6 e933 c3b5 e6bc c7b6
00000390: 9f8d 94b8 6739 12b5 9b34 d3b5 cd79 1eb6
000003a0: 8f7c 303b 65b6 1d3b 2f7a 4f3a 09a3 093d
000003b0: d98a aa3b f846 fa39 5e8e be3b 2339 2b3c
000003c0: 92b0 3dba c50f 28ba 9933 ddb9 9100 58bc
000003d0: c01a 92ba 39e9 50b9 f689 90b9 1697 67b9
000003e0: 6b81 653a 2c0a 4b3a d109 06b9 d29b b63b
000003f0: d14f ef3a b5c7 a338 725e 2d3b d044 9b3b
0.0019719203 0.0017176253 0.0006934834 0.042702924 0.0047892556 0.00063407584 0.0056726052 0.010927078
0.0 0.0 0.0 0.0 0.0 0.0 0.0 0.0
-0.0031276024 -0.0028551596 -0.001668338 -0.057707224 -0.0056816027 -0.00073162175 -0.001891253 -0.0024042658
-0.0012375962 -0.001087346 -0.0006790679 -0.022019468 -0.0025832346 -0.00041528544 -0.00041460397 -0.00016289194
1.6311533e-05 2.3691493e-05 -5.036091e-07 -4.1534528e-05 0.0006795671 1.1937929e-06 1.2212749e-05 1.7741691e-05
0.00016677126 0.00019213375 -3.350714e-05 0.00918067 0.0028511302 0.00038268373 0.0012464579 0.0027668285
-0.0033498516 -0.003093671 -0.0010127941 -0.040427025 -0.0068191374 -0.0005647472 -0.0073029418 -0.01332643
-0.00068904663 -0.0005727908 0.00014557682 -0.006428909 -0.0016827678 -9.5252144e-05 -0.0040113786 -0.007989747
0.0 0.0 0.0 0.0 0.0 0.0 0.0 0.0
-0.0031666479 -0.0028072307 -0.0009853315 -0.051112052 -0.0063966922 -0.0007295247 -0.0074258386 -0.014003873
6e-45 6e-45 6e-45 6e-45 6e-45 6e-45 6e-45 6e-45
0.0 0.0 0.0 0.0 0.0 0.0 0.0 0.0
6e-45 6e-45 0.0 6e-45 6e-45 6e-45 6e-45 6e-45
0.0030314845 0.0027082472 0.0006573223 0.030405318 0.0060731815 0.00043197875 0.0073607806 0.013588775
0.0 0.0 0.0 0.0 0.0 0.0 0.0 0.0
0.0 0.0 0.0 0.0 0.0 0.0 0.0 0.0
0.0 0.0 0.0 0.0 0.0 0.0 0.0 0.0
-0.00203705 -0.0018786825 -0.0006249523 -0.0077763954 -0.0033605753 -4.810552e-05 -0.002650553 -0.0042574285
-0.0021570895 -0.0019175952 -0.00048449932 -0.020739732 -0.004072924 -0.0002926264 -0.005234616 -0.009501374
6.2866748e-06 8.7854205e-06 6.0996007e-07 -7.4636896e-06 0.00022985385 6.1220766e-07 4.428962e-06 6.63108e-06
0.0008029043 0.00073614065 0.0005119208 0.015264857 0.001381871 0.00024606395 0.00021636685 -4.8963307e-07
0.0022005492 0.0019756346 0.00088284735 0.032486457 0.0041186814 0.00047052678 0.003315548 0.005492976
0.0030419051 0.002714253 0.0010895805 0.04411269 0.00567518 0.0006615087 0.0053727245 0.009502093
-0.0026263054 -0.00233904 -0.00057899667 -0.028436625 -0.005434481 -0.0004281166 -0.0068125194 -0.012584895
0.0 0.0 0.0 0.0 0.0 0.0 0.0 0.0
-0.0004931778 -0.0004440367 -0.00026975715 -0.0081192935 -0.00086220406 -0.00014637366 -0.00021819692 -0.00020850138
-0.0008270355 -0.0007494664 -0.0004491027 -0.014432568 -0.0013201812 -0.00023401678 -0.00041560264 -0.00041619802
-0.0052742865 -0.004685802 -0.0015469396 -0.07919072 -0.010868632 -0.0011461047 -0.012713699 -0.023840602
-3.4168017e-06 -4.1048306e-06 -1.454374e-06 -5.952653e-06 -7.083569e-05 -5.447277e-07 -1.5736035e-06 -2.3614732e-06
0.0026929711 0.0024065014 0.000791463 0.033602748 0.00520454 0.00047736592 0.0058153113 0.010450634
-0.0007236089 -0.0006411041 -0.00042190848 -0.013183729 -0.0011146888 -0.00019923308 -0.0002756861 -0.0002208616
0.00087549415 0.0007745351 -0.00012782893 0.0055727744 0.001825804 7.809644e-05 0.0026454 0.0047384277
